models/50_window_model.pt (torch, 20791 bytes, 5 tensors)

weight_ih_l0 f4 [400, 6]
000000 5b 4a a2 3e 49 d4 56 3e c9 2d 13 3f bf 2f e9 bf
       0.31697354 0.20979418 0.5749174 -1.8217696
000010 45 38 4f 3f 5a 0d 75 3e 73 80 4c be 2d c8 33 be
       0.80945235 0.23930874 -0.19970874 -0.1755683
000020 08 ee 89 be 7c ba 14 bd c1 cc 8d bc 7a c9 6a be
       -0.26939416 -0.036310658 -0.017309548 -0.2292842
000030 8c 57 3b bf c1 cc 2a bf 6c 3b b2 be 64 ca 06 bf
       -0.7318046 -0.6671868 -0.3481096 -0.52652574
000040 5f fd f8 be 1f 16 bd be 06 cd 21 bf 66 93 cf bf
       -0.48630807 -0.3693094 -0.63203466 -1.6216857
000050 10 57 16 3d 53 7d c8 be 41 d5 01 3f 17 a9 09 bf
       0.036704123 -0.39158115 0.50716025 -0.53773636
000060 73 dd 00 bf 8d d4 06 be 77 21 b4 be ea 2a 7b bd
       -0.50337905 -0.13167019 -0.35181782 -0.061320223
000070 f2 d1 ef bd 1a d7 a4 be 78 a4 11 3f ea 1a 7a bf
       -0.11709966 -0.3219536 0.56891584 -0.9769732
000080 f1 81 4d 3f 44 cc 8a bf 05 48 8e 40 01 2c d1 bf
       0.802764 -1.0843587 4.4462914 -1.6341554
000090 92 20 cf 3f 1e 09 26 c0 87 35 18 c1 57 3d 12 40
       1.6181815 -2.5943065 -9.513068 2.284994
0000a0 4e 23 ca 40 82 94 16 40 3b 21 36 bf 53 80 f0 be
       6.3168097 2.3528142 -0.71144456 -0.46972904
0000b0 6a 58 25 bf 3a 95 b3 bd 61 c6 ef be e0 ea f7 be
       -0.64588034 -0.08768697 -0.4683104 -0.48421383
0000c0 42 a7 ee be 6c 7a a2 bd 96 83 36 bd f5 95 12 bf
       -0.46611983 -0.07933506 -0.044559084 -0.57260066
0000d0 ce 60 72 be e9 ce a9 be d3 3e 3b c0 c2 27 8c 3f
       -0.2366974 -0.33165672 -2.9257095 1.0949633
0000e0 d2 1e 13 c0 87 4b 4a 40 7c dd 49 3f d2 d2 94 c0
       -2.2987561 3.1608598 0.78853583 -4.650735
0000f0 e2 2b 27 3f 11 9f 7e be fb 43 88 bf 14 1a d6 be
       0.65301335 -0.24865367 -1.0645746 -0.4181677
000100 cb f1 48 3c cf 8b 00 c1 f5 69 6a bf 40 d9 1d 40
       0.012264679 -8.034133 -0.9156793 2.466385
000110 54 c9 a3 bf f3 17 ba be 4f 3a 14 3f 3e 9b 0f bf
       -1.2795815 -0.36346397 0.5790147 -0.56096256
000120 c9 a8 20 bf 96 ec 52 3e 03 b1 b1 be 18 61 68 be
       -0.62757546 0.20598063 -0.34705362 -0.22693288
000130 cb f4 a6 be a8 2a dc be 0f 21 52 bf 41 ce 35 be
       -0.32608637 -0.43001294 -0.82081693 -0.17754461
000140 cc d9 85 be ae b3 d3 bd 95 15 83 be e7 b6 5e be
       -0.26142728 -0.103370056 -0.25602403 -0.21749459
000150 58 81 ee be bc 26 3e be af c9 3e be 58 fe 49 be
       -0.46583056 -0.18569463 -0.18631624 -0.1972593
000160 d9 83 a4 be e1 7d ad be d1 64 31 3f bf 5f 57 be
       -0.32131842 -0.338851 0.6929446 -0.21032618
000170 33 43 02 be 9a ef a3 bf e0 5a 28 bf fd 66 b6 bd
       -0.12720947 -1.2807496 -0.65763664 -0.08906362
000180 7e ed ab bf fa 56 5d bc bd 70 b6 be e2 13 f4 be
       -1.3431852 -0.013509506 -0.35632887 -0.4767142
000190 de 0e 66 be ef fd 5c bd f9 c8 a6 bf e9 d6 bf be
       -0.22466609 -0.053953107 -1.3030082 -0.3746865
0001a0 e6 f2 83 bf 8d b8 07 bf 2b a9 ff be 86 99 5d bf
       -1.0308502 -0.5301598 -0.49933752 -0.86562383
0001b0 a9 e9 a0 bf 11 01 46 40 c4 c5 84 3f 6e b5 76 c0
       -1.2571307 3.093815 1.0372853 -3.8548236
0001c0 02 8c f6 bf 79 77 97 be 76 de 73 3e 72 60 41 3e
       -1.9261477 -0.29583338 0.23815331 0.18884447
0001d0 95 70 1a 3f 0d ed d8 be 38 b9 8a 3e 90 b9 52 be
       0.60328037 -0.42368355 0.27094436 -0.20578599
0001e0 1c 25 0c c0 03 7c be bf 7e 2a 13 c0 ca cf 47 3f
       -2.189765 -1.4881595 -2.2994685 0.78051436
0001f0 63 78 94 3f 8c 29 dd 3d 86 5f 6e be 65 71 72 bd
       1.1599239 0.1079894 -0.23278627 -0.059190173
000200 02 4f 9e bf 3f 5e ae bf 04 85 ff 3e 12 23 eb 3f
       -1.2367861 -1.3622512 0.4990617 1.8370078
000210 9d 91 00 bf 37 8a c0 be b5 f5 54 be 99 c4 b4 3d
       -0.5022219 -0.3760545 -0.20796855 0.088265605
000220 fe c7 95 3d a0 ad 74 bf 15 f5 ea be fc 0b 97 be
       0.07313536 -0.9557743 -0.45890108 -0.2950133
000230 3b 7c 46 be 48 5d 1e bd 26 b7 cf 3c 47 2a 04 bf
       -0.19383328 -0.03866318 0.025355887 -0.5162701
000240 2e 8f 8c bf 28 95 ad be 48 d2 78 be 7f 96 90 bd
       -1.0981195 -0.3390286 -0.24298966 -0.07059955
000250 4c d1 f2 bd 63 50 9b bf cc f1 80 bf eb 54 cb 3d
       -0.118563265 -1.2133907 -1.007379 0.09928306
000260 e4 03 77 be 21 0e 0a bf 56 45 30 bf 0f 88 22 bf
       -0.24122578 -0.5392781 -0.688558 -0.6348886
000270 53 cd eb be 5c c2 f8 bd 37 fa 8f be 1f 78 a2 be
       -0.46055087 -0.12146446 -0.28120586 -0.3173227
000280 0b b3 6c be 03 51 a0 be f5 0f dd be 69 66 e7 be
       -0.23115174 -0.31311807 -0.43176237 -0.4519532
000290 45 06 5b be d9 ba 56 be 7c 74 f9 be 20 de 04 bf
       -0.2138911 -0.20969714 -0.48721683 -0.51901436
0002a0 19 af 82 3e 68 0e b4 be 74 ec 43 bf 7a 4d 88 bf
       0.25524214 -0.3516724 -0.76532674 -1.0648644
0002b0 ab 27 02 bf 42 a3 98 3f 6f 95 97 be fb 20 2b 3f
       -0.5084178 1.1924822 -0.29606196 0.668472
0002c0 91 2b e9 be c6 d8 80 3f cf 44 dd 3e 07 e8 26 bf
       -0.4554105 1.0066154 0.4321656 -0.65197796
0002d0 11 0b 2c 3e ec ea a9 3e 60 2a a0 3e 69 11 51 bf
       0.16801096 0.33187044 0.3128233 -0.8166719
0002e0 e1 a5 4c bd 98 0c 78 bd 19 f4 c8 be f9 0e 73 be
       -0.049962882 -0.060558885 -0.39248732 -0.2373618
0002f0 e6 1c 6e be bd e0 81 be 1a c2 52 be 29 43 e5 be
       -0.23253211 -0.25366774 -0.20581856 -0.44777802
000300 3c 7f a3 c0 a6 6f da be f7 1b 0a 3e e2 f2 21 3f
       -5.1092815 -0.42663306 0.1348723 0.63261235
000310 2b a9 80 3f fc 97 79 bf 6e df 1b 3f c3 d7 87 3e
       1.0051626 -0.97497535 0.608878 0.265318
000320 58 5d ca bf 6c ac 04 40 c2 31 07 40 c6 63 d0 be
       -1.5809736 2.0730238 2.112412 -0.4070112
000330 9c 30 cd be 5c 45 06 3f bc 2a 16 c0 18 67 e7 bf
       -0.4007615 0.52449584 -2.3463583 -1.8078337
000340 b0 0d 41 c0 24 62 21 40 82 f0 77 be a7 8d 9d 40
       -3.0164604 2.521615 -0.2421284 4.9235415
000350 db 6e 97 3e ca 96 bc be e6 c5 6a be d3 1a 9e 3f
       0.29576764 -0.36833793 -0.22927055 1.2351936
000360 9c fe 91 bf 3d c6 c2 bf 6e c6 c3 bf 5b 41 34 3e
       -1.1405826 -1.5216748 -1.5294931 0.17603056
000370 c6 60 ef bf b6 69 7b bf 34 c5 52 bf f8 19 3c bf
       -1.8701408 -0.9820818 -0.8233216 -0.73477125
000380 b2 d3 17 be c0 67 8f be 86 20 8a be e2 d4 4f bd
       -0.14826849 -0.28008842 -0.26977938 -0.05074013
000390 85 99 f2 3e 48 df 14 40 e8 0e ef bf e9 11 2d 40
       0.4738275 2.326128 -1.8676424 2.7042181
0003a0 c9 7b a0 40 86 a2 f9 bf b3 15 f7 be 69 8e 4d bf
       5.0151105 -1.9502723 -0.48258743 -0.80295426
0003b0 e8 cf c9 be ca 96 cf bc 2c 93 ff bd b1 70 89 3b
       -0.39416432 -0.025340457 -0.12479243 0.004194342
0003c0 b4 97 a4 bc 5c 8a cf c0 7d bd 96 3e f8 96 0e c0
       -0.020091869 -6.4856396 0.29441443 -2.2279644
0003d0 e6 5b b5 3f d2 e3 d4 bf 4e 3d 6f bf e7 81 3e bf
       1.416867 -1.6632025 -0.9345292 -0.74416965
0003e0 32 ab 39 3e 5e e1 c4 bd 13 7a 9f be 30 76 71 3f
       0.18131712 -0.09613298 -0.31147823 0.94320965
0003f0 29 bf f4 3f 73 bc 15 c0 ce 26 44 bd 49 bd 74 3f
       1.9120837 -2.339627 -0.04788857 0.95601326

weight_hh_l0 f4 [400, 3]
000000 0c 9e 5b 3e 7e b2 a2 bd 7e b1 c7 bd d2 42 df be
       0.21447009 -0.07944201 -0.09750651 -0.43605667
000010 55 f1 c4 be 69 0b 1c bf 86 d5 f7 be 9a b6 b2 be
       -0.38465372 -0.6095491 -0.48405093 -0.3490494
000020 b3 57 bc be 20 ec cb bc d8 a1 fc 3d 7e 25 2c bf
       -0.3678566 -0.024892867 0.12335557 -0.6724471
000030 b2 75 bd be 4f cf 87 be d0 78 04 bf 80 86 e5 3e
       -0.37003857 -0.2652535 -0.51746845 0.44829178
000040 e5 c9 31 be 21 f2 88 3f 40 98 05 3f 8f 30 3c bf
       -0.17362173 1.0698892 0.5218544 -0.73511595
000050 59 7c 0f be c4 50 28 bf 97 bb 84 3c 93 e1 20 be
       -0.14012279 -0.6574824 0.016202731 -0.1571105
000060 1f 09 d5 be eb 13 3f be c4 61 cf be 63 dc 11 c1
       -0.4160852 -0.18659942 -0.40504277 -9.116305
000070 ed 27 e8 bd 2b f9 0c bf d4 eb 48 bf ba 2a ff bd
       -0.1133574 -0.550677 -0.78484845 -0.12459321
000080 31 4b 0c 3e 28 ea b4 bf c8 c1 89 bf 93 d4 f4 bb
       0.13700558 -1.4133959 -1.0762262 -0.00747163
000090 78 cc cb be 94 29 2c bb c5 89 db be 23 c6 87 bd
       -0.39804435 -0.00262699 -0.42878547 -0.066295885
0000a0 c8 eb af be 0c 87 06 bf 41 dc 26 bf 13 24 22 be
       -0.34359574 -0.52549815 -0.6517983 -0.15834074
0000b0 3f e7 d8 be e4 22 00 bf 5d ca 7d bf 2b c3 51 be
       -0.42363927 -0.5005324 -0.99136907 -0.20484607
0000c0 8c 7f dc 3d b8 b6 48 3e 14 a2 18 bf d9 58 9a bf
       0.10766515 0.19600952 -0.5962231 -1.2058364
0000d0 69 30 10 bf 39 3f 05 bf f2 1a 40 c0 d1 5e 39 3f
       -0.5632387 -0.52049595 -3.0016446 0.72410303
0000e0 5f 73 bd 3f 66 32 d5 be 98 2a f1 be 26 db 0c be
       1.4800833 -0.41640013 -0.4710281 -0.13755473
0000f0 3b 83 66 be cd 4c a9 3f 8e 98 3c c0 df 97 48 bf
       -0.22510998 1.3226563 -2.9468112 -0.78356737
000100 c3 c4 6f 3f 44 7f a5 bf 4b 7e 9e be 01 6b 17 be
       0.9365961 -1.2929463 -0.3095573 -0.14786913
000110 cf e1 cc be ff d3 ab be ab 6a 91 be a9 45 90 be
       -0.40016028 -0.33560178 -0.28401694 -0.28178146
000120 f6 55 c9 be cc ee 6b be aa aa fa be 54 da 45 bf
       -0.39323395 -0.23040313 -0.4895833 -0.7728627
000130 31 78 42 be 03 af f2 be f8 f3 18 bf 4e 52 9c be
       -0.18991162 -0.47399148 -0.59747267 -0.30531543
000140 e5 32 e9 be e5 2f d3 be e1 28 29 3f 7b bb 6f 3d
       -0.45546642 -0.41247478 0.66078 0.058528405
000150 e5 4b c6 3f 5c 4b 55 3f 59 56 47 bf fb 98 e0 bf
       1.5491911 0.83318114 -0.7786613 -1.7546686
000160 84 71 5b 3f 0a 7f e1 be bc 5d ed be f8 5d b7 bc
       0.85720086 -0.44042236 -0.46360576 -0.022383675
000170 c8 a6 16 bf 04 9e b9 be 1d 23 70 be a6 81 0e bf
       -0.5884824 -0.3625337 -0.23450895 -0.5566658
000180 59 71 90 c0 8d 35 50 3d 76 42 93 be 3f 56 b7 3e
       -4.5138364 0.05083232 -0.28761643 0.35807988
000190 c5 29 32 3c 37 83 9d bf 7d 13 f2 be 59 e7 95 bf
       0.010874216 -1.2305669 -0.47280493 -1.1711227
0001a0 eb 77 0b c0 d0 ec 89 bd b7 a3 f4 40 96 6c 72 bd
       -2.1791942 -0.067346215 7.6449847 -0.059185587
0001b0 b5 7d 18 bf b8 60 6c bf 33 0b 9b bf 9a c3 85 bf
       -0.59566814 -0.9233508 -1.2112793 -1.0450318
0001c0 f2 a8 b6 be 99 78 ee be 3a 80 cf be 05 f8 88 3f
       -0.3567577 -0.46576384 -0.40527517 1.070069
0001d0 00 0a cc be ef c9 a4 be 54 24 b2 bc fe e8 2d bf
       -0.3985138 -0.32185313 -0.021745838 -0.6793364
0001e0 52 74 8f 40 88 19 56 be 26 07 ff bf 9b c5 b0 3e
       4.4829493 -0.20908177 -1.9924057 0.3452576
0001f0 1b db e9 3f 46 62 87 be 9a 62 85 3f 1e 2e 48 bf
       1.8269991 -0.26442164 1.0420716 -0.7819537
000200 d1 72 68 3f be 94 aa 3f 8f 51 9d 3e 83 b2 94 bf
       0.90800196 1.3326643 0.30726287 -1.1616977
000210 e2 c2 64 bf 3c 82 18 c0 be f4 f9 bd 7f eb 1d 3f
       -0.8935987 -2.3829489 -0.12204884 0.61687464
000220 f1 cd b1 3f 92 77 54 3e fe ca cb be 86 2d 90 3e
       1.3890973 0.20748737 -0.39803308 0.28159732
000230 7f 2e af be 06 95 8a 3e 2f 66 a0 bc 20 af 2c bf
       -0.3421516 0.2706682 -0.019579975 -0.6745472
000240 62 86 d3 bf 54 7c 5c bf af ed 86 3f a8 96 7a be
       -1.6525385 -0.8612721 1.0541285 -0.24471533
000250 75 4c 19 bf 49 a5 ba be 0a 35 53 bf 55 e0 9d 3f
       -0.5988229 -0.36454228 -0.82502806 1.2334086
000260 46 3f 65 c0 09 8f dd be a8 45 b1 3f a1 7c f3 be
       -3.581987 -0.4327319 1.3849382 -0.47556022
000270 e8 54 37 bf 4a 5c 42 3f 79 20 f4 bd 6b 1c 11 bf
       -0.7161393 0.7592207 -0.11920256 -0.5668399
000280 f4 ea d4 be b9 b6 c6 be 23 c9 1a bf f8 6a 2d 3f
       -0.41585505 -0.3881128 -0.6046316 0.67741346
000290 45 ec 17 3f c5 e5 cd be 1b 8f af 3b 3d 73 a4 be
       0.59344894 -0.40214363 0.0053576357 -0.3211917
0002a0 78 62 a1 be fe 65 6c be 6a c8 0b bf fb 66 86 bf
       -0.31520438 -0.23085782 -0.5460268 -1.0500177
0002b0 02 88 09 bd 31 26 29 bf da 38 90 3f 13 0f 88 bf
       -0.033576973 -0.660739 1.126735 -1.06296
0002c0 b9 87 e8 bf d6 4a 64 bf f8 fc 86 3f 41 a5 5a bf
       -1.8166419 -0.8917669 1.054595 -0.8540841
0002d0 7d 72 d8 3e 6e 00 9f bf 3a e0 45 be 2f 47 09 40
       0.42274848 -1.2422006 -0.19323817 2.1449697
0002e0 32 ba f2 3c f1 76 db be 58 a8 a2 bf b8 c0 d5 3e
       0.0296298 -0.42864183 -1.2707624 0.41748595
0002f0 26 f7 9c be b6 39 81 40 73 9e f1 be 75 fd d3 be
       -0.3065731 4.038295 -0.471912 -0.4140431
000300 b4 6a 22 bf 06 ee 8c 3f 3d 55 12 bf e6 c0 10 3f
       -0.63444066 1.1010139 -0.57161313 0.5654434
000310 87 a8 23 be f2 94 8a bd 2c 38 5e be 2d 00 0f 3f
       -0.15982257 -0.0676669 -0.21701115 0.55859643
000320 7e f6 20 3f 5c 76 e2 be b1 62 20 be 58 b3 95 be
       0.6287612 -0.44230926 -0.15662648 -0.2923839
000330 df ae ce be 66 a2 85 be f9 f6 0a bd bd 01 ab bf
       -0.4036779 -0.26100463 -0.033926938 -1.3359905
000340 16 a4 d7 bf ba 7e 80 bf e2 02 df bf 36 08 4a be
       -1.684695 -1.0038674 -1.7422755 -0.19729695
000350 2f d1 bb be 46 db 65 40 44 14 a8 bf c5 e0 1c 40
       -0.36683032 3.5915084 -1.3131185 2.4512188
000360 18 c0 07 3f dc cc 54 3f 69 6d 28 be ad 04 80 be
       0.53027487 0.8312509 -0.16447987 -0.25003567
000370 e3 15 c2 be 3e 6f c1 be 63 0d 5f 3d 37 66 67 bf
       -0.37907323 -0.37780184 0.054456126 -0.9039034
000380 79 63 bb bf 1d d0 2e bf 53 00 97 40 39 b7 86 be
       -1.4639732 -0.68286306 4.7187896 -0.26311663
000390 5e e0 0b bf 6f fc c2 be af 8d 06 bf 21 4d ee be
       -0.5463923 -0.38083217 -0.5255994 -0.4654322
0003a0 30 24 7f bf 31 33 71 bf 9f 79 7a be 2d 10 65 40
       -0.9966459 -0.94218737 -0.24460457 3.5791123
0003b0 dc ab 8d be 46 eb cc be 04 f2 9d be 66 43 04 bf
       -0.2767018 -0.4002325 -0.30848706 -0.5166534
0003c0 7a bf 85 be 56 43 aa be 2f 6b 90 be b3 fd dc bf
       -0.26122648 -0.33254498 -0.28206775 -1.7264923
0003d0 65 39 2a 3e 48 85 82 3f 61 d6 00 bf 2c 1a a3 be
       0.16623457 1.0196924 -0.50327116 -0.31855905
0003e0 f3 13 f5 be fa 32 ce be 70 05 32 bd 0c 65 0e bf
       -0.47866783 -0.40273267 -0.043462217 -0.55622935
0003f0 a7 b9 40 bf e7 ac 04 bf d8 01 ea be 4c d7 c3 be
       -0.75283283 -0.5182633 -0.45704532 -0.38250196

bias_ih_l0 f4 [400]
000000 6d 4b 6f 3e 9c 85 60 bf f5 e0 5f bf 49 b0 11 bf
       0.23368616 -0.8770387 -0.8745263 -0.56909615
000010 1f 33 71 bf d6 56 07 bf fb 3e 0b bf 41 2f 55 bf
       -0.9421863 -0.52866876 -0.54392976 -0.8327523
000020 48 20 83 bf 2d af 47 bf 3b 73 02 bf 1b 63 b0 be
       -1.0244226 -0.7800167 -0.5095708 -0.3445061
000030 ed 51 68 bf 8e 4d 65 bf 6a fc 51 bf 9f 38 8f be
       -0.9075001 -0.89571464 -0.8202578 -0.27972886
000040 99 42 35 bf 11 18 29 bf 22 37 b2 3e bf fb 89 3d
       -0.70804745 -0.6605235 0.34807688 0.0673747
000050 9c 5e ca be 74 a3 08 bf 00 0f 6e bf 4d 2f 59 bf
       -0.39525306 -0.5337441 -0.9299164 -0.848378
000060 97 e8 48 bf 9f 7b 53 bf c6 b2 5d bf c6 ef 8a bf
       -0.78479904 -0.82610506 -0.8660091 -1.0854423
000070 5d 20 dd be 89 4e e1 be e9 7b b9 3d 25 6b 4e bf
       -0.43188754 -0.4400523 0.09056837 -0.8063224
000080 e6 63 14 bf 23 2f 26 bf 16 8b 4f bf e2 ad 5b 3c
       -0.5796493 -0.64915675 -0.81071603 0.013408156
000090 d3 38 c9 3e b3 fb 2b bf 1d cd 81 be ce 9f 68 bf
       0.39301166 -0.6718094 -0.25351802 -0.9086884
0000a0 70 10 20 3e d7 67 c6 3b b2 e7 9c 3e 1a 90 4d be
       0.1563127 0.006054859 0.3064552 -0.20074502
0000b0 e9 3a 1e be 2a 08 0f bf 1b 1b 5d bf ad f5 1b bf
       -0.1545216 -0.5587183 -0.86369485 -0.60921746
0000c0 96 4a 00 bf b7 58 85 bf e9 a7 46 be ad 42 3d bf
       -0.5011381 -1.0417699 -0.1939999 -0.73929864
0000d0 ac ed e6 bc f6 43 43 bf 77 3e 92 be 98 b5 5d bf
       -0.028189503 -0.76275575 -0.28563282 -0.86605215
0000e0 ff 2b 6f bf 5d b1 4c bf c9 6e d7 3e f1 ce 66 be
       -0.9342651 -0.79958135 0.4207671 -0.2253988
0000f0 68 cc 15 bf c9 67 05 3e 68 c7 41 bf 7b 4b 00 bf
       -0.58515024 0.13027872 -0.75694895 -0.50115174
000100 92 9b 85 bf 2e e5 0d bf fb 5b 1d bf cf 3b 55 bf
       -1.0438101 -0.55427825 -0.61468476 -0.83294386
000110 62 b7 87 bf e1 63 ef be 12 00 5e bf a4 e7 bd bf
       -1.0602839 -0.4675589 -0.8671886 -1.4836316
000120 2a f2 27 be 22 4b 5d bf 0b f5 ad be 76 f0 f4 bd
       -0.16400972 -0.8644277 -0.33976015 -0.11959927
000130 34 23 53 bf 4d f5 0f be d5 00 4c bf bf 26 6c bf
       -0.8247559 -0.14058419 -0.7968877 -0.9224662
000140 1f c5 4d bf dc 04 58 bf d9 53 6c bf 18 68 53 bf
       -0.8037891 -0.84382415 -0.9231544 -0.8258071
000150 4a 42 83 bf 97 dc 30 3d e5 08 2f bf 76 31 4e bf
       -1.0254605 0.04317912 -0.68372947 -0.8054422
000160 74 3f 97 be e5 e7 92 bf 3d cf 1a be df b3 4f bf
       -0.29540598 -1.1477019 -0.15118118 -0.81133837
000170 a7 a3 9e 3c 5a 75 d6 bd fc b6 61 bf 04 3f 46 bf
       0.019365145 -0.10471602 -0.88169837 -0.77439904
000180 7f e4 81 bf de f5 77 bf 20 70 fd be 72 39 5a bf
       -1.0147856 -0.9685954 -0.49499607 -0.85243905
000190 68 a8 96 3e c5 da b3 be 9f c5 a0 be b2 28 11 bf
       0.2942536 -0.35127845 -0.31400773 -0.5670272
0001a0 6e bc f9 be ee 6d ee 3d d4 85 3a bd 63 4e 68 be
       -0.48776573 0.11642061 -0.045537785 -0.22686152
0001b0 c6 aa 54 be 11 20 ba be 4d 59 75 3d 0a 4b 10 3e
       -0.2076827 -0.3635259 0.059899617 0.14091125
0001c0 ae fc e9 be c7 3c d5 be bd fe 6b be 88 b2 ea 3d
       -0.45700592 -0.41647932 -0.23046394 0.114598334
0001d0 a7 06 93 be d1 71 99 bf 8b a2 34 3f cc 41 cf 3e
       -0.28716013 -1.1987859 0.7056052 0.40479887
0001e0 f4 30 df bd 45 9e 45 3e 48 83 03 bf 22 77 2b bf
       -0.10898009 0.19298656 -0.51372194 -0.6697866
0001f0 95 a2 85 be d5 2a 83 be 6a b5 c5 be 9b fd 0d bf
       -0.26100603 -0.25618616 -0.3861497 -0.55465096
000200 3a a7 97 3e ec 7e bb 3e c7 47 5f 3e 53 c7 f3 be
       0.2961977 0.3662027 0.21804725 -0.4761301
000210 69 aa 5e 3d 52 2b 4b be 73 9c 68 be c8 85 d5 bc
       0.054361735 -0.19840744 -0.2271593 -0.026064768
000220 23 7d c1 3e c1 07 f2 be 06 67 3f be 25 ee 4a be
       0.37790784 -0.4727154 -0.18691644 -0.19817407
000230 82 0d de be be 9d 84 3e 4c 55 ce 3e 6e 1d c3 be
       -0.4336968 0.25901598 0.4029945 -0.3810839
000240 14 1e 0f 3f 68 d7 c8 3e 92 61 8a be 0c fb 08 ba
       0.5590527 0.39226842 -0.27027565 -0.0005225397
000250 47 aa 7b 3e bd 0f 6e be 97 85 c9 be 5e 12 31 bf
       0.24576674 -0.23248191 -0.39359733 -0.6916865
000260 d3 57 61 3e 80 d3 9b be 8a 7b c3 3e 9d 69 ea be
       0.22006159 -0.304348 0.3818019 -0.45783702
000270 82 19 dc be ac dd c7 be 57 11 d4 3e 4e d2 61 be
       -0.4298821 -0.3903631 0.4141948 -0.22052881
000280 04 21 1a 3f 3b a2 21 bf 16 e0 1b 3f 8a 25 87 3d
       0.6020663 -0.6313817 0.60888803 0.06598957
000290 8f 36 d2 be 2e f7 03 3f 21 1c 30 bf d4 c1 a6 be
       -0.4105725 0.5154904 -0.6879292 -0.32569754
0002a0 d6 a1 55 be f5 eb a6 3d d5 9b 64 3f aa e4 3f 3f
       -0.20862517 0.08150474 0.8930028 0.7495829
0002b0 94 c4 16 3e 9c 48 04 bf a9 03 62 3d de f2 c1 be
       0.14723426 -0.51673293 0.05517927 -0.37880605
0002c0 09 f4 d4 be eb 8c 4a be ee 46 26 bf 06 bc b7 be
       -0.41592434 -0.19780318 -0.6495198 -0.35885638
0002d0 f8 ea 0e bf a5 f9 66 3f e1 77 e3 be 20 79 9e be
       -0.55827284 0.9022468 -0.44427398 -0.30951786
0002e0 93 92 84 be ca 5a 82 bd 4a 00 76 be da 0b ed be
       -0.25893077 -0.06364973 -0.24023548 -0.46298105
0002f0 6d bf 9e 3e fe 98 18 bf 0f 3a 33 3f 8b f6 0e bd
       0.3100542 -0.5960845 0.70010465 -0.03490309
000300 5c d3 0b 3f fe c3 c5 3d 65 2e ed be 0a a6 17 3f
       0.54619384 0.09656523 -0.4632446 0.5923773
000310 66 a3 e6 be 2f 42 99 be 6b 3d 2e bf 77 5e 98 be
       -0.45046538 -0.29933307 -0.68062466 -0.2975957
000320 a5 6f 96 3c 44 f3 ca bc 8a 86 ed 3c 9b 89 85 3d
       0.018363783 -0.024774201 0.028994817 0.06520387
000330 11 58 65 3d 4a 78 6e 3e c3 5e 35 3f 3a 71 d8 3a
       0.05599219 0.23288074 0.7084772 0.0016513236
000340 9b f3 8f bc 86 f8 63 3e de 00 31 39 93 3d 05 be
       -0.017572215 0.22262773 0.00016880358 -0.1301177
000350 c1 8f c7 3c 64 fd 87 bb 82 52 2a 3d 78 a2 14 bd
       0.02436054 -0.0041500796 0.04158259 -0.036287755
000360 2b a0 4f 3d e5 0e 1c be 97 6f 07 3d eb 3b 38 3d
       0.050689857 -0.15240057 0.033065405 0.044979017
000370 c3 d0 22 3e 95 e4 d2 bd 09 45 cb 3c 5f e9 8e bd
       0.15899949 -0.10297505 0.024813192 -0.06978106
000380 96 78 fd 3c f0 23 04 3d 55 10 76 3c ba c4 e3 3b
       0.030941289 0.032260835 0.015018542 0.006950942
000390 2d 24 c4 3b f9 63 21 3e 07 f1 02 bd 2c 07 7e bd
       0.005985758 0.15760793 -0.031968143 -0.06201856
0003a0 e0 4f b5 3d f6 a4 20 bd d7 90 20 3e 8b 90 96 3d
       0.088531256 -0.03921982 0.15680252 0.07351788
0003b0 4e 66 32 be 67 3f 1c 3c 1d e6 3f 3c da df 1c 3d
       -0.17421839 0.009536601 0.011712578 0.03829942
0003c0 db 12 2e 3e 08 60 76 bd d4 41 d4 3d a8 c2 4d 3e
       0.1699938 -0.060150176 0.10364118 0.20093787
0003d0 b3 04 78 3b c6 99 ec bc 68 64 60 3d d8 22 9a bc
       0.0037844598 -0.028881919 0.054783255 -0.018815443
0003e0 d3 f1 05 3e 04 3b 7f 3c 20 80 31 3e 71 d5 49 3d
       0.1308053 0.015578035 0.17334032 0.04927582
0003f0 06 20 3e bd 9b 3d 6b bb e6 9d e5 bd 35 b4 52 bc
       -0.04641726 -0.0035894874 -0.11211757 -0.0128603475

bias_hh_l0 f4 [400]
000000 21 5f 04 3e 61 d0 69 bf 11 1e 80 bf d6 71 2c bf
       0.12926914 -0.91333586 -1.0009176 -0.673612
000010 29 fb 56 bf 4e 89 d7 be ff 3a f7 be 75 17 51 bf
       -0.8397699 -0.42096943 -0.48287198 -0.8167642
000020 54 18 68 bf 75 06 62 bf f3 be ce be eb d6 c4 be
       -0.9066212 -0.882911 -0.40380058 -0.3844522
000030 61 36 4f bf bc 01 56 bf c1 49 6a bf 3b 02 b2 be
       -0.8094235 -0.83596396 -0.9151879 -0.34767327
000040 c2 97 58 bf e1 f2 1e bf 8e cd ae 3e 98 04 f1 3d
       -0.84606564 -0.62089354 0.341412 0.11768454
000050 14 80 b8 be 0a 46 f0 be 96 38 64 bf ef 71 68 bf
       -0.36035216 -0.46928436 -0.89148843 -0.9079885
000060 02 d8 5b bf d6 e7 5d bf b9 14 48 bf f3 b1 8b bf
       -0.85876477 -0.8668188 -0.7815662 -1.0913681
000070 77 4c da be 2a e0 f5 be f5 7c c4 3c bc ac 4b bf
       -0.42636463 -0.48022586 0.023985365 -0.79560447
000080 46 43 24 bf 30 d5 23 bf c8 f8 2f bf a7 92 74 3d
       -0.6416515 -0.63997173 -0.68738985 0.05971017
000090 7a f3 aa 3e 91 37 3b bf 65 c9 86 be 23 18 4b bf
       0.33388883 -0.7313166 -0.26325527 -0.79333705
0000a0 d1 37 64 3e 18 a9 b5 bd b0 4e 3b 3e bc 20 74 be
       0.22286917 -0.08870143 0.18291736 -0.23840612
0000b0 53 55 3c be 76 aa 1d bf ca 22 6b bf 21 b5 0e bf
       -0.18391924 -0.6158823 -0.9184996 -0.5574513
0000c0 2f e3 1b bf 8d 74 82 bf f9 dc bd bd 57 f6 47 bf
       -0.6089353 -1.0191818 -0.09270663 -0.7811026
0000d0 6f b1 37 be fd a6 54 bf 97 8f d8 be b2 82 7a bf
       -0.1793878 -0.83067304 -0.4229705 -0.97855675
0000e0 85 70 68 bf 9b 96 6d bf 34 e9 de 3e 08 2e 89 be
       -0.9079669 -0.9280793 0.43537295 -0.26792932
0000f0 1a 9b 22 bf d6 9d e1 3d bb 2a 44 bf c6 08 0c bf
       -0.63517916 0.11016433 -0.766277 -0.5470089
000100 3b 4e 88 bf 31 68 0d bf 50 80 10 bf ed 37 64 bf
       -1.0648874 -0.5523711 -0.5644579 -0.89147836
000110 61 5c 85 bf 9f fb 09 bf 84 4d 50 bf 7f f4 ab bf
       -1.0418817 -0.5389957 -0.8136828 -1.3433989
000120 7b 22 43 be 38 bd 5e bf 6f 4b 6c be 6b 5d 1c be
       -0.19056122 -0.87007475 -0.2307565 -0.15270011
000130 bc 9c 66 bf 3f bc 8a be f9 6b 30 bf 23 f0 8c bf
       -0.9008291 -0.27096745 -0.68914753 -1.1010784
000140 15 c9 69 bf dd 48 45 bf cb 13 5d bf c0 74 50 bf
       -0.9132245 -0.77064306 -0.86358327 -0.81428146
000150 85 f3 76 bf 93 2f 2f bd 94 cc 4e bf 62 9a 49 bf
       -0.9646533 -0.04276998 -0.8078091 -0.78751194
000160 ad af 8e be 33 f8 80 bf 29 f9 96 be 0c fb 51 bf
       -0.27868405 -1.0075744 -0.2948697 -0.8202369
000170 a6 25 9c 3c 96 51 6d be 90 3e 64 bf e0 58 40 bf
       0.01906092 -0.23175654 -0.8915796 -0.7513561
000180 a7 27 74 bf 29 24 4d bf 7f e5 f0 be f9 a8 64 bf
       -0.95373005 -0.801333 -0.47050092 -0.8932033
000190 b2 82 d1 3e 29 6a e1 be 84 fb 36 be 1c a5 eb be
       0.40920025 -0.44026306 -0.17869383 -0.46024406
0001a0 51 28 03 bf 88 99 99 3e b0 59 2c 3d 7a 1c c8 be
       -0.5123339 0.29999948 0.04207772 -0.39084226
0001b0 45 41 86 be 8e 85 d5 be a5 05 15 3e 02 85 84 3e
       -0.26221672 -0.41703457 0.14552934 0.25882727
0001c0 9a 12 0d bf 1e 4f f7 be 8f fa 64 be ae ef 21 bd
       -0.5510651 -0.4830255 -0.22361206 -0.039535217
0001d0 3a 73 b6 be 37 c5 a0 bf a5 b7 3e 3f 95 f8 d6 3e
       -0.35634786 -1.2560185 0.7449897 0.41986528
0001e0 5a 67 85 bd 35 73 c6 3d da 06 fb be ad f6 19 bf
       -0.06513853 0.09689943 -0.49028665 -0.6014202
0001f0 80 77 9b be 00 2d 44 be df be d4 be b5 54 10 bf
       -0.3036461 -0.19157791 -0.41551873 -0.5637925
000200 61 b6 a9 3e af fe cf 3e 54 3e bd 3d 86 36 a9 be
       0.33146957 0.40623996 0.09240404 -0.3304941
000210 99 dc e0 3d 04 65 96 bd 6d 27 bf be 59 cb 94 3d
       0.10979576 -0.07343486 -0.37334767 0.07265348
000220 35 4c 02 3f 72 89 ab be 3a d7 3c be 33 4f 88 be
       0.5089753 -0.335033 -0.18441477 -0.26622924
000230 19 5f c2 be 99 47 80 3e 9e ba d6 3e d0 0c c4 be
       -0.3796318 0.25054625 0.41939253 -0.38291025
000240 bc c0 0c 3f dc bb f4 3e d2 2f 85 be 05 0a ea 3d
       0.5498159 0.47799575 -0.26013047 0.11427692
000250 50 84 43 3e 19 eb 70 be e1 1a 8f be 2f 51 15 bf
       0.19093442 -0.23527183 -0.27950194 -0.58327
000260 78 b2 5b 3e ec 8a 69 be b6 75 f0 3e 11 d6 fb be
       0.21454799 -0.228069 0.46964806 -0.49186757
000270 3f 97 af be 5b 94 78 be 35 2c e5 3e a1 ad 7a be
       -0.3429508 -0.24275343 0.4476029 -0.24480297
000280 b3 79 19 3f bb 9e 1b bf b1 94 e7 3e 15 19 8c 3d
       0.59951323 -0.6078908 0.4523063 0.068407215
000290 9c 62 0c bf d0 e6 0e 3f 9f 06 09 bf de df 8f be
       -0.54837966 0.5582094 -0.5352573 -0.28100485
0002a0 e2 f1 b5 be 33 e6 da 3c 13 28 66 3f 18 d6 26 3f
       -0.35536104 0.026721096 0.899049 0.6517043
0002b0 63 52 3f 3e 73 5b e0 be b7 ca 91 ba c3 dc e6 be
       0.18683772 -0.4381977 -0.0011123036 -0.45090303
0002c0 0b 85 bc be 15 86 36 be ea a8 0c bf 23 47 97 be
       -0.36820254 -0.17824586 -0.5494524 -0.2954646
0002d0 9c 26 ec be 4b f0 66 3f 48 c9 b6 be 3c 60 86 be
       -0.46123207 0.9021041 -0.3570044 -0.26245296
0002e0 55 8d b9 be 9c ae 34 bd 6a 87 98 be 36 60 c2 be
       -0.3624064 -0.044111833 -0.29790813 -0.37964028
0002f0 3e 28 87 3e 96 2f 0d bf 98 c0 2b 3f 7e 76 9e bd
       0.2639789 -0.55150735 0.6709075 -0.07737444
000300 9e a7 00 3f 0d af e4 3d b6 a1 ff be f4 29 19 3f
       0.50255764 0.11166201 -0.49928063 0.5982964
000310 6f 78 dc be be ca c7 be e4 4b 1c bf b6 ec f4 be
       -0.43060634 -0.39021868 -0.610533 -0.47836846
000320 88 00 89 bd 90 9e ca 3c 4d d4 ec bc b3 39 39 3d
       -0.066895545 0.024733812 -0.028909827 0.045221042
000330 ed 69 65 bd 9e 93 84 3e e7 a3 17 3f b6 0d 8b ba
       -0.05600922 0.25893873 0.5923447 -0.0010608945
000340 74 04 8d 3c f3 1c 90 3d 4f d7 d2 3d 81 75 2b bd
       0.017214037 0.070367716 0.10294973 -0.041860107
000350 18 ca c7 bc 55 5b 78 3b ed 7a 27 bd ed e6 7a 3c
       -0.024388358 0.0037896235 -0.040888716 0.015313846
000360 ec 19 4f bd f3 cc 8e bd 3e 05 97 3d c3 1a fc 3d
       -0.05056183 -0.06972685 0.07374047 0.12309792
000370 64 f4 40 3e 7d ff 86 b9 ed 68 cd bc 4c 53 8e 3d
       0.18843228 -0.00025748825 -0.025074447 0.06949481
000380 41 c1 01 bd 6e 4d 02 bd 11 df 7c bc 82 67 38 bc
       -0.031678442 -0.031812124 -0.015434043 -0.011255147
000390 0a 63 17 3d b0 52 20 3d 18 0f 34 be 51 d7 7a 3d
       0.036959685 0.039141357 -0.17583883 0.061240498
0003a0 ea 08 7f 3d e0 c5 ed 3d 9c 1f d4 3d ad 0f 91 bd
       0.06226436 0.11610007 0.103575915 -0.07083068
0003b0 a0 e2 39 be fb 20 18 bc 58 94 ca bd 86 cf 1c bd
       -0.18152857 -0.009285207 -0.098915756 -0.038283847
0003c0 b0 60 06 3e a1 c7 b6 3d 1e 65 51 3e 19 35 5f 3e
       0.13122821 0.08924795 0.2044873 0.21797599
0003d0 50 3d b5 bd 04 d3 ca bc d4 68 60 bd 06 c3 71 bd
       -0.08849585 -0.024758823 -0.054787472 -0.05902388
0003e0 ac 79 a9 3d d0 cb 8c bc df f2 b1 3d 02 5e 48 bd
       0.0827516 -0.01718703 0.08688902 -0.048917778
0003f0 62 b0 76 3c dd 69 4b 3b 36 7c 60 3d 7d 98 e7 3c
       0.015056701 0.0031038441 0.054805957 0.028270954

weight_hr_l0 f4 [3, 100]
000000 9d 7b d5 be 35 b1 c0 b9 4e 45 01 3a 68 90 fe 3e
       -0.41695872 -0.00036753123 0.00049312867 0.49719548
000010 a4 15 6e b8 66 4c 97 3e be 63 0f 3f 0d 44 c3 ba
       -5.6763776e-05 0.29550475 0.5601157 -0.00148976
000020 45 4a 84 bb 72 c7 8b be d0 47 28 bf c4 be e9 bb
       -0.004037174 -0.27300602 -0.6573458 -0.0071333367
000030 8a c2 c7 3a b0 58 b5 b9 aa ea 0a bb f9 cc 16 3e
       0.0015240472 -0.00034589088 -0.0021197 0.14726628
000040 8a b2 79 bb 14 6c ce bd 57 a0 3b 3f f6 0c c6 3e
       -0.0038100802 -0.10079208 0.73291534 0.38681763
000050 e6 42 ac bd d9 ed 22 3f b5 25 17 3b 5b 2d f0 ba
       -0.08411197 0.63644177 0.0023063247 -0.0018324064
000060 b8 57 60 bc ab bb 57 bc 99 0a a9 3a 2a 02 24 bd
       -0.013692789 -0.013167302 0.0012896835 -0.040041126
000070 65 e5 e2 3e a0 4d b4 3e 86 b7 9b be 70 1a 9e 38
       0.4431564 0.35215473 -0.30413455 7.5389515e-05
000080 60 e9 f2 3e 41 3a b7 3e 25 7d 2d bf c2 b9 d3 bc
       0.47443676 0.35786632 -0.6776908 -0.025845412
000090 46 f8 9d 3f c3 b8 8d bb 83 3e 2a bf fe c6 c4 b9
       1.2341392 -0.004325004 -0.66501635 -0.00037532294
0000a0 14 ac b1 bf ef f0 4b 3c bd 1f ab bd 81 ed c0 3e
       -1.3880639 0.01244758 -0.08355663 0.376812
0000b0 59 c5 ea be 95 65 4a bf a9 ed 50 bb ac 94 e9 be
       -0.4585369 -0.7906125 -0.0031879938 -0.4562124
0000c0 7b b9 f4 3e 29 9e 28 3b e0 ac 10 bf 31 b5 ab 3b
       0.4779776 0.0025729036 -0.56513786 0.0052401056
0000d0 13 3f b5 3e 93 1f 40 3b 2f c3 b0 be e4 d1 0c 3d
       0.35399684 0.0029315695 -0.34523913 0.034379855
0000e0 e1 a6 01 b8 dc 52 2c bb ae d4 b6 3e b0 03 49 bf
       -3.0911415e-05 -0.0026294505 0.35709137 -0.7852125
0000f0 f3 39 31 bf cc a7 31 3e df 02 14 be 84 6c 07 3f
       -0.6922905 0.17349166 -0.1445422 0.52899957
000100 9e b8 0e bb 4e 00 2f bf 7d 20 b6 bc b7 73 50 3a
       -0.002177752 -0.6835984 -0.022232288 0.0007951813
000110 d5 b8 ff ba f1 67 6a bf 1c 20 0c bd b3 f7 86 3f
       -0.001951004 -0.9156485 -0.03421031 1.0544342
000120 bb a2 7e be 3a 12 14 3a 3a 36 12 bf 63 09 7a 3e
       -0.24866764 0.0005648468 -0.57113993 0.24417643
000130 a5 cf f2 ba a0 5b 5d 3e 55 83 2d 3d ab 28 80 3b
       -0.0018525018 0.21616983 0.042361576 0.003911098
000140 77 6d c5 b6 d8 bc 4b 3f 9f c2 80 ba 0e 7d fa 39
       -5.883801e-06 0.7958503 -0.0009823627 0.0004777689
000150 12 f7 4a 3b 0e e9 6e bf 83 01 b1 ba 38 a7 3e 3a
       0.003097002 -0.93324363 -0.0013504479 0.00072728423
000160 db 2a 8c 3f df 5c ba bd bd 80 16 bf 61 46 c7 3b
       1.0950578 -0.09099745 -0.5879019 0.006081388
000170 8d 73 ab be 61 e6 1b 3e be 4d a4 ba 2a 2e f2 3e
       -0.33486596 0.15224601 -0.0012535376 0.47300845
000180 9e 17 5d 3a e0 45 53 ba 82 cd 02 bf 86 1f 96 bb
       0.0008434 -0.00080594234 -0.5109483 -0.0045813946
000190 70 31 10 bf 85 e8 3d 39 f9 2f 11 3a dd b9 ef be
       -0.56325436 0.00018111065 0.00055384595 -0.4682149
0001a0 e7 5f c5 38 75 e4 13 bf 29 8d 09 bf 80 05 60 3a
       9.411555e-05 -0.5777047 -0.5373102 0.00085457414
0001b0 c6 5b 0f 3b ac cd 8f 3f dd 4b 94 bf b3 0a 6b be
       0.002187477 1.1234641 -1.1585652 -0.229533
0001c0 83 ea 93 3a 4b 73 e2 b9 f4 38 b5 3a 28 53 f9 be
       0.00112851 -0.0004319198 0.0013826177 -0.48696256
0001d0 87 f4 59 3b b5 ec 0f 3f 10 f2 4b bf 07 97 8a 3e
       0.0033257322 0.5622056 -0.79666233 0.2706835
0001e0 f7 df 60 3f 60 61 65 be f4 ae 02 bb e6 90 d9 3a
       0.87841743 -0.22400427 -0.0019940706 0.0016598969
0001f0 4f f5 3a 3c c6 e6 54 ba bd d6 b2 b9 ae a3 c7 bc
       0.011411025 -0.0008121546 -0.00034110798 -0.02437004
000200 60 30 ad 3e ac c5 d4 3d db 39 f2 be 16 c3 04 38
       0.3382597 0.103892654 -0.47309765 3.165294e-05
000210 c9 1b 85 3f 0e 2f f2 be 78 82 a7 bd db b5 d5 be
       1.0399104 -0.47301525 -0.08179182 -0.41740307
000220 fb 6d 40 bf 86 f3 0b 3b 65 80 28 3f 29 b2 b1 3a
       -0.75167817 0.0021354868 0.65820915 0.0013557124
000230 a1 57 b9 3f 83 ce 3a be 8b f1 1f be ad 6b d3 be
       1.4479867 -0.1824284 -0.15619485 -0.41293088
000240 a2 5f b4 be c7 df 16 3f 18 a1 21 3b 0d 0f e4 be
       -0.35229212 0.5893521 0.002466267 -0.44542733
000250 29 79 89 bf 4f 78 99 3a 18 91 3c 3f 15 cd 72 3b
       -1.07401 0.0011708828 0.73658895 0.0037048508
000260 6f 50 8e 3e 14 51 bb ba b1 8d d9 bd 1e c0 c4 bc
       0.2779574 -0.0014291131 -0.106227286 -0.02401739
000270 10 01 5d b9 16 2b 5b 38 50 4d 7b be b6 35 db 3d
       -0.00021076598 5.2253796e-05 -0.24541211 0.10703604
000280 55 59 b8 3e a6 1e fe 3e 36 cf 25 bf 64 a8 15 bf
       0.36005655 0.49632758 -0.64769304 -0.5846007
000290 5a a1 5b 3b 92 26 f3 3e 5f e4 90 be 30 ca a5 ba
       0.003351292 0.47490364 -0.28299233 -0.0012648758
0002a0 09 8d f6 3a 2b 0f 7e 3f 8d ed 60 bf 14 0c 90 bf
       0.0018810342 0.99241894 -0.87862474 -1.1253686
0002b0 6f 41 da 3e 7d eb e8 b7 f4 c9 46 3f 07 4f 0e 3e
       0.42628047 -2.7766213e-05 0.77651906 0.13897334
0002c0 4b 74 17 3b 73 a2 a2 3f a2 ef 44 bf b1 01 69 39
       0.0023110087 1.2705826 -0.7692815 0.00022221242
0002d0 4a e9 ff b9 e4 37 6b bf 3e b9 a3 3a 47 e6 21 38
       -0.00048811204 -0.9188216 0.001249112 3.8599854e-05
0002e0 0e a9 92 bb b8 75 6b 3f e4 ad 95 39 ee c3 9b ba
       -0.0044757193 0.919765 0.00028549053 -0.0011883953
0002f0 31 9e 37 bf ca e2 08 be 3d f7 22 3f 91 20 9b bb
       -0.71725756 -0.13367763 0.63658506 -0.004734107
000300 de 80 f6 be cb 3d f7 be 37 5e b0 38 31 ac 86 bf
       -0.48145193 -0.48289332 8.409883e-05 -1.0521299
000310 de 46 23 3a ab 93 ce 38 43 42 e8 3e 33 eb 97 3b
       0.00062285166 9.850351e-05 0.45363054 0.004636192
000320 41 d4 d2 be 15 c1 3f ba e4 6d f9 3a d7 da 00 bf
       -0.41177562 -0.0007314843 0.0019029942 -0.50333923
000330 fc fe 05 3a ed e0 8a 3e 77 99 af bc b3 1a 4f bb
       0.0005111543 0.2712473 -0.021435482 -0.0031601607
000340 4c 6d 9c bb dd f8 4c bf 1a 73 f0 3f 5c 0d 6f 3e
       -0.0047737714 -0.80067235 1.8785126 0.2334494
000350 af c5 1e 3b b8 c7 52 ba aa 7a 67 bb 41 e0 a9 be
       0.0024226715 -0.00080406247 -0.0035320916 -0.33178905
000360 39 41 68 bb 14 3a 3a 3e 93 98 00 3e 1c f3 b4 3e
       -0.0035439266 0.18186218 0.12558202 0.35341728
000370 f4 f9 46 bf 0d 90 63 be d5 49 0a 3b b1 7b 63 ba
       -0.7772515 -0.2222292 0.0021101136 -0.0008677794
000380 9a cc 7c bc 13 c9 51 bc fc 8a 14 3b 49 9a fa bc
       -0.01542964 -0.0128042875 0.002266585 -0.030591147
000390 0b ee 09 bf 87 e3 9c be c4 19 2c be 6e 50 9c 3a
       -0.5387885 -0.3064234 -0.16806704 0.0011925825
0003a0 07 2b be bf 1d 78 af 3d 21 16 4e 3f 7f 55 db 3e
       -1.4856881 0.08567832 0.80502516 0.42838666
0003b0 bb 67 d3 3e c1 6b 3d bb cd a9 4c 3a da 42 bb ba
       0.41290078 -0.0028903338 0.0007807285 -0.0014286891
0003c0 21 d1 b5 bd 4c 30 8f be 18 31 8a 3e eb 35 a5 3c
       -0.08877779 -0.27966535 0.2699058 0.020167312
0003d0 48 24 12 3f 6d 71 77 3d eb 83 98 ba 33 2e bd be
       0.5708661 0.060410906 -0.0011635994 -0.3694931
0003e0 e4 79 0a 3f 4e 9e 86 3b 02 f7 8c bd 38 f1 b3 3b
       0.5409224 0.004108227 -0.068830505 0.005491402
0003f0 47 8f de be 8e 9e 6d 3b 9c c9 98 3e 7d e1 51 3d
       -0.43468687 0.0036257836 0.29841316 0.051240433
