models/autoregressive_opt_params.pt (torch, 24980 bytes, 5 tensors)

weight_ih f4 [400, 6]
00000000: dd83 d5be 44de 76c0 8253 0dbf 3c7b bc3f
00000010: 2708 733e 3619 293e 0b40 2bbe 7d9c 31bf
00000020: 7bdc f4bd e4d1 04be 3933 c1bd b214 3ebe
00000030: 7f31 babe fe0a 48bf b758 a5be 56cd a8bf
00000040: fa48 16be 05bc 67be 0347 80be 7eb9 fa3e
00000050: 5388 51be 0869 77bf 65f1 553e 7695 67be
00000060: f013 13be 2a2c 21bf e2d6 e1bd ce91 67be
00000070: 58c4 8ebd 018f 32be 4f46 76be 5af9 ab3b
00000080: 8ca3 1ebe f501 353f 1832 a83d 4f4c 94be
00000090: 56ac 1bbe 55e6 d8be d3f7 083e c84d 74bf
000000a0: f7d6 82be f38a 8ebd e477 babd 07c4 2ebe
000000b0: f7e6 dcbc 1a1a a33e fb46 d3be d1d1 07be
000000c0: 0f75 05bf c685 10be 990e f1bd 8779 063e
000000d0: 84b0 28be f70f 31bf 2fc8 8dbe f6fb c8be
000000e0: b9aa e9be 5436 c5bf ee4d a9be 42c1 bcbe
000000f0: 74ec 90be f21f 37bf 0fd5 723d ba12 6ec0
00000100: 9c2b 19be 3d51 efbd 8ede 66bd d9ff 89be
00000110: 0778 08bf 35ff 31c0 5a14 6cb9 f042 04bf
00000120: fe20 bfbe 7aa2 483e 7322 aebe 5f01 063f
00000130: 17a8 88be 23e2 a0be 63a3 93be c699 063d
00000140: 600e 47be 0bb0 6abf 150b 48be 4c59 043d
00000150: bf5a dabd 41be 71bd 9d16 38be f673 aa3e
00000160: 0904 37be 141a c1be fb05 0dbf f5fe a83f
00000170: 72ad 37bf 61f3 f5bf 059d 3cbf 2551 cabe
00000180: 717c 3ebf c588 d33e 6703 b9be e01a c1bf
00000190: bd12 c13d 34ce 0cbf e234 99be e96a d3be
000001a0: 14e6 2fbe 532f 83bf fb47 0cbf 8c2b 47be
000001b0: 2cd0 23be fa75 86bf 64ba 60bd 1e2f 493f
000001c0: b954 df3d 568e 90bd 2d47 e1bc 1ede 34be
000001d0: 5ae7 06be ec75 813c 97ea 48be 3bb9 18bf
000001e0: 9b1f 5bbe 9452 26bf c330 e4be ab86 f1bd
000001f0: b55b 7cbe 1029 f4be dbb0 26be 3cf6 ffbe
00000200: 317c c7be 7aec aebf b100 a7be 2176 dfbd
00000210: d75d f1be 12e1 b3bf effd 25bf cf46 883f
00000220: 456e 39bd 325a a2be 890b 173f 79a6 2a40
00000230: 4f92 6dbf 1922 bd3f 448e 8c3f c138 1d3f
00000240: 1fae 4abe 77d6 7fc0 ad8f 50bf 1469 2340
00000250: b014 9cbc 8d65 40be d863 6fbe 0886 9dbf
00000260: 929f 92be ec7a 933d ae43 2b3e e067 cabd
00000270: 0064 0fbe 9ac8 83bf 713e a5be c3aa d73f
00000280: 8143 eb3e 757e d5bc 2bea e1bd 74f2 8f3f
00000290: 0568 3cbf ce3b 14bf 538b e73d c2d6 39be
000002a0: 56ae 93bd e9c7 32be 37ce 60be 71bf 793f
000002b0: 65f8 3c3e d015 83be 36f6 86be 3ef7 bcbe
000002c0: 34db f13b c19d 523f 4887 373e dd61 7abe
000002d0: d1b9 39be aaaf 9ebd 88f4 0a3f 62c9 003f
000002e0: c2ea 1f3f 308e f43c 480e bdbd b078 b0bf
000002f0: 87d4 89be 4b6b 863f af47 aebd dd5f 9f3e
00000300: 1c84 b2be c743 50be 0909 29be 1713 453e
00000310: 0700 d63d da2f cebe 0315 aabe 8bd6 b9be
00000320: 6bbe 4ebe 169e 4f3f db22 27be 2c49 a1be
00000330: 7d7a 2abc f2d3 9bbf cbd6 20bf 2358 9a3f
00000340: 7d95 53bf fd2b cc3d afa0 9dbe 650e 68bf
00000350: c09f 0abf 260a 11bf b988 d33e 0410 5c3d
00000360: 9a34 4f3e 0ab2 82c0 37e5 88bf 46a7 a93f
00000370: 7cc2 d2be fc40 da3c b71a 29bf fa76 cdbe
00000380: c1fe f3be 9763 2d3f f942 79bc c59f dabe
00000390: d91f aebe b02d 5fbf 61e0 d6be 5506 bd3f
000003a0: 18b2 7f3e abc6 13be 0699 76be a04b 22c0
000003b0: 7413 17bf d01c 3c40 7efc 3ebe 120c 83be
000003c0: e0c2 6a3e f613 a3c0 2da4 f0bf 6001 363f
000003d0: a08f 0bbe eeaf debd f405 0dbf dc37 843f
000003e0: 9a16 54bf 0bd7 4140 d1cc 7f3f ed27 bfbd
000003f0: b43b 69be 83c9 46bd 4d6f 14bf 363f 4abf
-0.41702166 -3.857316 -0.5520555 1.4725108 0.23733579 0.16513523 -0.16723649 -0.6937941
-0.11956116 -0.12970692 -0.09433598 -0.18562582 -0.36365888 -0.7814177 -0.32294247 -1.3187664
-0.14676276 -0.22630318 -0.25054178 0.48969644 -0.2046216 -0.9664464 0.20892866 -0.22615609
-0.14363074 -0.62958014 -0.11027314 -0.22614214 -0.06971043 -0.17437364 -0.24050258 0.005248231
-0.15492076 0.7070611 0.082126796 -0.2896447 -0.1520246 -0.4236323 0.13375787 -0.95431185
-0.2555463 -0.06960096 -0.091048986 -0.17066966 -0.026965601 0.3185585 -0.4126509 -0.13263632
-0.5213174 -0.1411353 -0.117703624 0.13132297 -0.16473585 -0.69164985 -0.2769179 -0.3925473
-0.45638064 -1.5407205 -0.33067268 -0.36866194 -0.283054 -0.7153312 0.05928522 -3.719893
-0.14958042 -0.11685417 -0.05636459 -0.2695301 -0.5330815 -2.7812016 -0.00022514295 -0.5166464
-0.3732986 0.1959323 -0.34010658 0.5234584 -0.26690742 -0.3142253 -0.28835592 0.032861494
-0.19439077 -0.9167487 -0.19535477 0.032311723 -0.1066184 -0.05901933 -0.17977376 0.33291596
-0.17872633 -0.3771521 -0.5508725 1.3202807 -0.7174903 -1.9214898 -0.7367709 -0.39515033
-0.7440863 0.41315284 -0.36135408 -1.5086327 0.09427402 -0.5500214 -0.2992316 -0.41292503
-0.17177612 -1.0248817 -0.54797333 -0.19450206 -0.1599738 -1.0504754 -0.054865256 0.7858752
0.109048314 -0.070583984 -0.02749976 -0.17662856 -0.13174191 0.0158033 -0.19620739 -0.5965764
-0.21398775 -0.64969754 -0.44568452 -0.11793264 -0.24644358 -0.47687578 -0.16278403 -0.4999255
-0.38961938 -1.3665917 -0.32617715 -0.10911203 -0.47141907 -1.4053061 -0.64840597 1.0646609
-0.045271177 -0.3170944 0.59001976 2.6664107 -0.92801374 1.4776031 1.0980916 0.61414725
-0.19792984 -3.997465 -0.8146923 2.5532885 -0.019052833 -0.18788739 -0.23377931 -1.2306528
-0.28637367 0.0720118 0.16725037 -0.09883094 -0.1400299 -1.0295594 -0.32274202 1.6848987
0.4594994 -0.026061276 -0.11030992 1.1245866 -0.7359622 -0.57903755 0.11305871 -0.1814833
-0.07210986 -0.17459072 -0.21953665 0.9755774 0.1845413 -0.2560258 -0.2635972 -0.3690738
0.0073808674 0.82271963 0.179227 -0.24451394 -0.1813729 -0.07748349 0.54279375 0.50307286
0.62467587 0.029852957 -0.092312396 -1.3786831 -0.26919958 1.0501493 -0.08509766 0.31127825
-0.34866416 -0.20338355 -0.16507353 0.19245563 0.10449224 -0.40270883 -0.33219156 -0.36296496
-0.20189826 0.81100595 -0.1632189 -0.31501138 -0.01040518 -1.2174056 -0.6282775 1.2058147
-0.82649976 0.099693276 -0.30786654 -0.90646964 -0.5415001 -0.5665611 0.4131525 0.05372621
0.2023491 -4.0842333 -1.0694951 1.3254173 -0.41164005 0.026642315 -0.6605639 -0.40129834
-0.476553 0.6773009 -0.015213721 -0.4270002 -0.34008673 -0.8717909 -0.41968063 1.4767557
0.24970281 -0.14431255 -0.24081811 -2.5358658 -0.5901406 2.9392586 -0.18651006 -0.25595146
0.22925901 -5.0961866 -1.8800102 0.7109585 -0.13629007 -0.108734 -0.5508721 1.0329547
-0.8284699 3.0287502 0.999219 -0.09333787 -0.22776681 -0.04853202 -0.5798233 -0.790027

weight_hh f4 [400, 3]
00000000: 3e7b 3cbe d515 cfbf 0455 5dbc daeb 66bd
00000010: a341 e53e 1f3a 963d 20fa 4dbe 10f9 dd3e
00000020: 2a51 49bd 4720 923b 00e8 1539 e9e2 163e
00000030: 721f 763d 4cac 7b3e 4fc5 843d 1d85 a63d
00000040: deb7 34bd 850f 0a3e 03bf 8f3d ad17 e83e
00000050: af73 2c3e 1a3e 95bc 3316 e5bd 6c2c 2d3d
00000060: 4599 9abe 102e ee3c 8a08 afbc d447 31be
00000070: d75c 4bbd 03a5 a6be 5a3c be3e 7537 cebe
00000080: 08d0 023e 1990 84be 3147 533e f535 42be
00000090: 2e3d 09be 9f61 073e bc57 263d daad c03d
000000a0: de65 5c3f 7407 20be 798c 043f 93f2 bebd
000000b0: cd2f a23e 5e45 78bf ed81 bf3f 909b 13bf
000000c0: 8edb 40bf 453c 413e d5f1 28be 46a0 2abe
000000d0: b099 abbd 709c a7bd 6721 f9bc 7ef6 f03d
000000e0: 14c3 2b3b eae4 9f3e e063 0cbe 482e 003e
000000f0: 58ec c9be 0771 4ebe 999d a1be 4ea4 0cbe
00000100: c683 fe3e 1e5a b6bc 642f 0fbe 3243 4dbf
00000110: f006 94bc 17f5 2e3e 0d2e 233f 9958 bcbd
00000120: b1b2 6abf 0833 d9bf c08c 14bf 84f1 e7bd
00000130: c140 d73d 65ca f53c 8eee 133e 67a0 30bf
00000140: d028 2d3e f6ec e1be a0d3 d43f 5865 e9be
00000150: 8bf2 a33e e4e8 bdbd 98d6 863c 2b6c 353e
00000160: afe6 96be 424e 083e 2d5a 56be a628 c5be
00000170: e3d8 03be 5dc6 2f3e d6fe debe 2d68 6ebd
00000180: 57d0 8d3e dc98 b0bd 4b20 883e f75f 04be
00000190: 80c4 c7be a642 393d 83fd 613e 0dea 35bf
000001a0: dd58 6ebe 0699 2abf 49da 54bf 4af5 09bf
000001b0: 6697 9d3e e336 02c0 19d6 e1be 9842 00be
000001c0: 2985 93be 39ed d5bd e674 1cbc dbe7 75be
000001d0: cb37 0dbb ff27 6fbf 0b6a b6bf d804 25bf
000001e0: 7f50 8b3e c2c4 d2bf 3387 b6be 8e89 41bf
000001f0: 7a36 523f f2cc d8be 83ba 13be d06f 373f
00000200: b466 3dbf e0f1 86be 9d34 b53e 5403 0d3e
00000210: 476f 21be 6283 063f 645e e4be dce5 103f
00000220: 7aaa debf b3de 71be c094 4d3f 6254 a8be
00000230: 464c 0f3e d900 bd3d c84c 13bf c566 f93d
00000240: ab50 afbd bcc9 d7be 7901 f5bc 9895 a2be
00000250: 8de0 b8be 581d aa3d a4bc 1e3e b4ab d93f
00000260: 5959 39bf 1408 883c 2b55 8d3f db59 c0be
00000270: 943c 4ebc 4277 963d 590d 43be 985a 5bbe
00000280: cb71 a8be 446f 41bd 63d9 133f 3ca4 aabf
00000290: 8f4a 623d 28d5 fcbd 7312 963d 02e4 973e
000002a0: 6129 6f3d d520 713e 2044 1b3f 1f98 b8be
000002b0: c9ea 7dbe 149b 67bd 8e1e b1be a328 24be
000002c0: d607 2f3e b561 5abf 5a87 a1bd cc73 93be
000002d0: 5683 c7be 86eb d83e a42d b5be 806f d93d
000002e0: c015 9a3f cc29 953e 79c2 0e3d cdb4 c23e
000002f0: 6b7c 14bf 12f7 15bf f652 473f 382a b4bf
00000300: 50fb 1fbe 189b 323d 28f1 63be 1436 42be
00000310: 68f2 35bf e519 d0be 79ae ac3e b2c9 a6be
00000320: b390 823d 1890 0c3d 3f8e a63e 759f 8b3e
00000330: 66bd edbd b7de 053f 67a5 f13d 98a2 01bf
00000340: 2250 063f 18ab 843e a3fb 15be ed0f 703d
00000350: 2b9c 8dbd cbdb 82be edd3 75be b429 91be
00000360: b76c 36be e52d 26bd 6f84 00ba fc0a b03d
00000370: 913a e1be 6d3e 78bc f992 a2be c9c5 fd3f
00000380: dd42 3a3e ae3e 913e 2a4a c2be f585 f33c
00000390: 0e35 45bf c71b 683f 2913 60bc 2044 4bbf
000003a0: 74a9 ffbe b395 94bf 87e0 8cbe e074 0f40
000003b0: 3fe9 04be 7ae6 79be d4f8 be3e a0ff cabe
000003c0: 3a0b ccbd b99a 82be 227f 073e e2f3 23bf
000003d0: 4628 c3be 2760 c5be d983 0abf 6f4a 983e
000003e0: f3ce ac3c 30e2 0dbe 3991 37bf f9ae 98be
000003f0: 72af 12be 82bf 2e3f 07cc 8bbd 3a67 61bf
-0.18406388 -1.6178538 -0.013509039 -0.05637727 0.4477664 0.073353045 -0.20114946 0.43354082
-0.04914967 0.004459414 0.00014296174 0.14734997 0.060088582 0.24577445 0.06482946 0.08130858
-0.044120662 0.13482483 0.070188545 0.45330563 0.16841005 -0.018218089 -0.11185875 0.042278692
-0.3019506 0.029074699 -0.021366376 -0.17312557 -0.049649086 -0.3254777 0.3715542 -0.40276685
0.1277467 -0.25891188 0.20632626 -0.18965895 -0.13402244 0.13220833 0.040611014 0.094081596
0.86092937 -0.15627843 0.51776844 -0.09323611 0.31677094 -0.96980846 1.4961525 -0.57659245
-0.75335014 0.18870647 -0.16498502 -0.16662702 -0.08378923 -0.08184135 -0.030411435 0.11765765
0.0026208805 0.31229335 -0.13709974 0.12517655 -0.39438128 -0.20160304 -0.3156555 -0.13734552
0.4970991 -0.022259768 -0.13982922 -0.80180657 -0.018069714 0.17085682 0.6374214 -0.09196586
-0.9167891 -1.6968699 -0.5802727 -0.11325362 0.10510398 0.030003736 0.1444647 -0.68994755
0.169101 -0.441261 1.6627083 -0.45585132 0.32020983 -0.09272936 0.016459748 0.17717044
-0.29472873 0.13311103 -0.20932837 -0.38507575 -0.12875704 0.17165513 -0.435538 -0.05820482
0.27698013 -0.086229056 0.26587138 -0.12927233 -0.39017105 0.045229577 0.22069363 -0.7106026
-0.23276086 -0.66639745 -0.83145577 -0.53889906 0.3077957 -2.0346 -0.44108656 -0.12525403
-0.2881253 -0.10445637 -0.009549355 -0.24014227 -0.0021548148 -0.93420404 -1.4251112 -0.64460516
0.2720985 -1.6466296 -0.35650024 -0.75600517 0.82114375 -0.4234386 -0.14426617 0.7165499
-0.7398484 -0.2635641 0.35391703 0.13770801 -0.15765105 0.52544224 -0.44603264 0.5660074
-1.7395775 -0.2362011 0.803051 -0.3287688 0.1399394 0.09228677 -0.57539034 0.12177805
-0.08560308 -0.421461 -0.029907929 -0.31754756 -0.3610882 0.08306378 0.15501648 1.7005525
-0.7240196 0.016605414 1.1041616 -0.37568554 -0.012587685 0.073469654 -0.1904806 -0.21421278
-0.32899317 -0.04722525 0.5775358 -1.333137 0.055246886 -0.12345344 0.07327738 0.29666144
0.05838907 0.2354768 0.60650826 -0.3605356 -0.24796595 -0.05654438 -0.34593624 -0.16031127
0.17092833 -0.8530534 -0.078871444 -0.28799284 -0.3896739 0.4236719 -0.35386384 0.1061697
1.2037888 0.2913345 0.034853432 0.38028565 -0.58002347 -0.58580124 0.77860963 -1.4075384
-0.15623212 0.04360494 -0.22259963 -0.18965942 -0.7107301 -0.40644756 0.33726862 -0.32575756
0.063752554 0.034317106 0.325304 0.27270094 -0.116083905 0.5229296 0.11799126 -0.50638723
0.5246602 0.25911784 -0.14646773 0.058608938 -0.06914552 -0.25558314 -0.24006625 -0.2835213
-0.17814909 -0.040571112 -0.00049025466 0.08595845 -0.43989995 -0.015151602 -0.31752756 1.9825984
0.18189569 0.28368133 -0.37947208 0.029726962 -0.7703408 0.90667385 -0.013676443 -0.79400826
-0.4993397 -1.1608185 -0.2751505 2.2415085 -0.12979601 -0.24404326 0.37299216 -0.3964815
-0.09963079 -0.2550867 0.13232091 -0.6404401 -0.38116664 -0.3854992 -0.54107434 0.29744288
0.021094775 -0.13855815 -0.7170597 -0.29820994 -0.1432474 0.6826097 -0.068260245 -0.88048136

proj f4 [3, 100]
00000000: f646 b9be a9b0 18be 426c 69be 626f a53e
00000010: 81cb c23b 745d 523a 8898 0a3e c534 87bb
00000020: fa63 2f39 46a2 89bd 20f2 99be e855 e1bd
00000030: f427 a73a 5093 4bbe 7a5f 623d 8755 7a3e
00000040: d4db e13d ecda 113d f7f4 33be 58f6 43bb
00000050: 76b4 8fbd 9ec1 133e 4a9d eabd 43eb 853e
00000060: 2b31 393d b15b 82be c963 6abe 6278 f1bd
00000070: 6c87 87bd 0723 393b f254 943d 5087 b23e
00000080: 75ba 9fbd b8c8 aebb f106 cc3e 6af0 c43e
00000090: faa3 d7be a7ca 27be 5a7f 9dbe 2e87 7abc
000000a0: e65d 7abe 5daa 6cbe 7063 a8bd 5d1a 173e
000000b0: fb7f 3ebe bf67 2dbf b0fe f7be 597f 9a3e
000000c0: 20ef 9c3e 31a1 513b 9744 bdbe 2eb4 9c3e
000000d0: 29dc 9e3d 7842 6b3e ab73 d93e c3a1 a5bd
000000e0: 50da f93d 1920 d83c 5efd c2bc a0c2 4b3d
000000f0: 5832 6f3e 47ad ca3d c6a8 c63e 9aa8 fc3c
00000100: 5ee3 a93c 27e9 b43e b28d a43e 2fa3 1cbe
00000110: 8bae 963e fd2a c6be c179 85be c001 823e
00000120: 1e6a 083c d6f6 9bbe 9c90 433f 6821 e0be
00000130: 45bd 453e 7e93 8a3e f781 a73e 2e79 22be
00000140: ab16 8fbc ea39 373d 3649 8fbe 2aa9 b3be
00000150: 5323 39be 3ef2 593f b13b 243e 9797 9fbc
00000160: 88cf 4bbd f356 593e 95cc 663e bf0b 56bc
00000170: 7f62 a23c 3a77 c83b 5f3a 56bd 312f 3fbe
00000180: 25fe 1abe bd08 cb3b 896d 423e 0d03 0fbe
00000190: 1e3a dabd 3179 41bc 55ed e2bc 44ae af3d
000001a0: b3dd aabb 1046 fe3b c3de 843b 36b0 75ba
000001b0: afeb 2abc 46d0 a53d 0c28 15bc 1b81 92bc
000001c0: 8d47 f43d 018c 1cbd de03 483c e8c3 51be
000001d0: 32f5 3b3d 8c08 5cbd d9d2 bbbc 94c4 0fba
000001e0: 0f30 e53d 7439 a7bc cb62 99bc 32e4 403e
000001f0: 7cc2 923e 5661 02bd 9c2d 73bd 1f8f be3c
00000200: 0f11 6ebc de96 f13b b558 37be adbe 493d
00000210: f331 a0bc af52 b33c d6cc d03c 3af9 e03d
00000220: 4bd4 57be b387 02bc ffcd 39bd d211 8b3e
00000230: 65f5 86be 932d 253e e06b f53c d7d7 043c
00000240: 0bdf eb3c afef 8cbd f96a 1abd 23a7 483d
00000250: bfa9 343d 0ce5 df3b f865 c73d 68b5 1cbc
00000260: c2dc 68bd fec9 a83c 47b8 123e 6f1d e5bc
00000270: 66ef 873c 461e afbd 46d9 c23b 940d ecbd
00000280: 01b0 0e3b 8e81 263e 63f3 d8bd d263 a33e
00000290: 6d87 aebd 43c4 2e3c 54db 093d 0378 61bc
000002a0: ee2f f63c 9712 d1bc 82ed 96bd e98c 903c
000002b0: 379c cb3b 6c21 f8bc 5d4c 02bf 4e3e 62bd
000002c0: a76e fabd 569d 8c3e a9dc d7be afea 973c
000002d0: 5d36 643c 6cc2 0bbe 7ebf 64bd 1df4 a8bc
000002e0: 088d f33c b850 4cbf 9676 40bc 5112 a03a
000002f0: 1bc9 663d 159b c33c 4588 433c 8a8f 283d
00000300: be9c 49be ce08 413a e37a b8be b2f4 fb3d
00000310: 4d5b 05bd 8cf0 23bc 0208 803c 8ae2 46bd
00000320: 6f31 5d3c dedc 7cbd 4cb4 c3bd 9db7 d63d
00000330: 833b 65bb 6330 373b 16d2 003d 4db7 2c3c
00000340: 2305 b23b 92e6 9fbc 013a 27be 515b 8d3c
00000350: 7468 853c ff81 31be 34b4 133d d845 dbbd
00000360: f254 6fbe 3052 073c 170a 8ebd 4081 59bb
00000370: 90fa 8abd 6f3a 3a3d 0917 883d de03 6ebe
00000380: 8669 e5bd e984 ecbd 0fee fcbd 6011 2a3e
00000390: 2184 36bd 6f70 a5bb 12d7 80bd c0c2 3d3e
000003a0: 101c 37bd 43af 7e39 ec0e 123e d2e7 c53d
000003b0: 95bd 68be fc83 9abd 9c37 22be b2f6 0fbd
000003c0: cdea 6ebe 8b70 43be 49e3 e4bc d106 963d
000003d0: 6736 1a3d 0622 a6be 53a5 54be d547 473e
000003e0: e5a8 4e3e 2ae2 8b3b 8e40 ed3d ce6b 15bd
000003f0: 1554 1dbc 1181 a13d 6505 2e3e bda8 0cbe
-0.3618695 -0.1491114 -0.22795203 0.3231154 0.0059446697 0.000802479 0.13534749 -0.0041261637
0.00016726545 -0.06720404 -0.3006754 -0.110027134 0.0012752996 -0.19880414 0.055266835 0.24446689
0.11028257 0.03560917 -0.17573915 -0.002990147 -0.07016842 0.14429328 -0.11455782 0.26156053
0.045212906 -0.2546058 -0.22889628 -0.11790539 -0.066176265 0.0028249638 0.072427645 0.3486886
-0.07799236 -0.005333986 0.39849046 0.3846467 -0.42117292 -0.163859 -0.30761224 -0.015291018
-0.24449882 -0.23111863 -0.08222091 0.1475615 -0.18603508 -0.6773643 -0.484365 0.30175284
0.30651188 0.0031986947 -0.36966392 0.30606216 0.07756836 0.22974575 0.4247106 -0.08087494
0.12199843 0.026382493 -0.023802456 0.049746156 0.23359048 0.09896331 0.3880064 0.030842114
0.0207383 0.3533413 0.32139355 -0.15296625 0.2943004 -0.38704672 -0.26069453 0.2539196
0.008326082 -0.30461758 0.7639253 -0.43775487 0.19310482 0.27065653 0.32716343 -0.15866539
-0.017466864 0.044732966 -0.27985543 -0.3509 -0.18079881 0.8513526 0.16038395 -0.019481463
-0.049758464 0.21224575 0.2253898 -0.013064324 0.019822357 0.0061177285 -0.05230176 -0.18670346
-0.15136011 0.00619611 0.18987097 -0.13966008 -0.10655616 -0.011808679 -0.02770106 0.085781604
-0.005214417 0.007759817 0.0040548756 -0.0009372266 -0.010432168 0.08096366 -0.009103786 -0.017883828
0.1192771 -0.038219456 0.012207953 -0.20484889 0.045888133 -0.05371909 -0.022927688 -0.00054843095
0.11190807 -0.020413138 -0.018723866 0.1883705 0.28664005 -0.031831108 -0.05936967 0.023261605
-0.014530434 0.007372721 -0.17904933 0.04925411 -0.019555068 0.021890013 0.025488298 0.10985036
-0.21077077 -0.0079669235 -0.04536247 0.27162033 -0.26359096 0.16130666 0.029958665 0.008108101
0.028792879 -0.068816535 -0.037699673 0.04898752 0.044107195 0.0068327244 0.09736246 -0.009564735
-0.056851156 0.02060413 0.14328109 -0.027968137 0.016593646 -0.08550696 0.005946311 -0.11526027
0.0021772387 0.16260359 -0.10593297 0.31912094 -0.08521924 0.01066691 0.033656433 -0.013761523
0.030052152 -0.02552156 -0.0736952 0.017645316 0.0062136906 -0.030289374 -0.5089777 -0.0552352
-0.122281365 0.27463788 -0.42160538 0.018544523 0.013928977 -0.13648385 -0.055846684 -0.020624215
0.029730335 -0.7981067 -0.011747023 0.001221249 0.056344133 0.02387766 0.011934345 0.041152515
-0.19688699 0.0007363678 -0.36031255 0.12302531 -0.032557774 -0.010006081 0.015628818 -0.04855589
0.013500555 -0.061734073 -0.09555873 0.1048424 -0.0034978099 0.0027952425 0.031450354 0.010541749
0.0054327413 -0.019519124 -0.1633072 0.017255457 0.016285159 -0.17334746 0.036060527 -0.10706681
-0.23372248 0.008259341 -0.06935518 -0.0033188611 -0.06786072 0.045465883 0.066450186 -0.23243663
-0.112017676 -0.11548788 -0.123500936 0.1660819 -0.0445596 -0.0050488035 -0.062910214 0.18531322
-0.044704497 0.00024288618 0.14263505 0.09663357 -0.2272857 -0.07544705 -0.15841526 -0.035147376
-0.23331757 -0.190859 -0.02794041 0.07325519 0.03764954 -0.32447833 -0.20766191 0.19460995
0.20181616 0.004268904 0.115845785 -0.036479764 -0.009602566 0.078859456 0.16994245 -0.13736244

bias_ih f4 [400]
00000000: 2190 4abe dad6 35be 3c63 43be a2ca a0bd
00000010: 3e79 68be 5c59 7abe 3466 03be f493 6dbe
00000020: b006 06bf 8c63 a8be 3eae acbe 5538 73be
00000030: 580c 45be 3a5b 3fbe 59d7 35be c008 24bf
00000040: dc9a dfbe 7c01 83be 488d 5cbc 9944 e3be
00000050: 9682 9dbe 9aeb 52be c0fd c2be 010b 283f
00000060: 96b8 57be ec37 fabd 379e bc3c 055d 81be
00000070: fdf7 33be 51b8 04be 1e19 d33c 4633 263e
00000080: e055 c6be 4628 84be fc0a 60bb 0fac 14be
00000090: 1f47 08bc 9efc eabe 1917 1abc 29c0 aebe
000000a0: 0508 92be 3130 05bf 78bc b5be 19f0 fabd
000000b0: 5641 2abd 3471 4739 b622 b6bd 2925 b7bc
000000c0: 27ef 78bc 9b32 21bf c393 da3d 03c4 643c
000000d0: f719 79be 3673 b9be 8069 233d 59d1 5cbe
000000e0: 76cc 7bbe 0540 b8be d762 59be 2295 95be
000000f0: 4437 88be f1ca 0a3e 16fe 0e3e 0ba0 a0bd
00000100: d292 68be 7d0e 0cbf 326b 45bb f382 56be
00000110: 5e4e 683d 0fa0 cdbe 5e38 a3bd 61c9 12be
00000120: b52a 1fbf fba6 4fbd 6a33 afbe 38aa 593e
00000130: e553 d3bd 91e9 a0be a667 a73e 060a 8ebe
00000140: 7353 d0be a197 8ebd e20b aabe d154 20be
00000150: ba91 89bd 9322 dbbb 7f69 4abe 6381 3ebe
00000160: e7a8 82be 0151 3bbe 5473 03be 3f56 8cbe
00000170: 7ad1 49be 90fe 3ebf c94c ab3e be39 d8be
00000180: 30ef 2ebe 4868 07bf 63af d8be 202e efbe
00000190: f11c 48be b269 78bd 3e8c b03b ac70 cb3d
000001a0: 7a1f a2bd ed46 30be df96 383d ee2b 6bbe
000001b0: c4f0 97be 2c4f a9be 6f76 613e fcdb 9e3d
000001c0: 697a 8abe f108 2f3e bb0e 91b8 4a41 edbc
000001d0: c71b 82be 7f67 87be f23d 14bd 92c4 93be
000001e0: d714 84be 6eb6 b6bc 179d 7bbe e762 d23e
000001f0: 7a5a cebd 11c1 0f3c 950b 94bd 60dc ed3e
00000200: 385a 40be 4ad1 c0bd f714 7c3e c9ad 6a3d
00000210: cf9d 83be c4bc c8be 3460 b1bd 78f9 ea3d
00000220: 66ae 5dbe 12ed 80be e485 c9bc 326a debd
00000230: a802 3c3d 7c43 81be f0e5 43bd 6cb3 d6bb
00000240: 7627 723d 76aa 31bc 3341 963d 294c 553d
00000250: e673 9e3e 2d81 debe eb25 c63e 8d67 093e
00000260: 625b 80be 8151 21be 15f0 cb3d 90d0 9fbd
00000270: 73aa 95bb 36f9 e0be 1132 c6bd 4ec9 ed3c
00000280: 5f2e a23d 60f6 c13e fc39 0d3f 7145 cd3d
00000290: 3846 d3be 0914 6ebe 2191 1c3e 274b e53b
000002a0: ad5d 163e b253 323e 82c3 c83d ecb3 df3d
000002b0: dca6 ebbe 07be b1bd 86fb 74be 56ce 873e
000002c0: fd71 873e 9d8a ff3e 15b8 4e3e 281d 063f
000002d0: e569 9fbe 8440 81be 54c6 a53e b609 2f3e
000002e0: 5dd4 3b3d 4e24 f53e be79 aabd f15d 8abd
000002f0: d2f1 94be 7d0a 8e3d f08c 7ebb e7b0 02be
00000300: 6337 033d 2bee f7be b75d da3e f445 bcbd
00000310: a8cb cfbd 46ac 00bf 427f 58bd 9b44 c2be
00000320: 9aae bcbd 4cd2 fcbd 6086 30be 6ce5 8d3e
00000330: 906c 92bc 57d2 ae3a a6bf 703d 394d b33d
00000340: 4bec 3f3d 7563 e53c 8055 73bd 17ed 413d
00000350: 104e c63d 268c 7dbb a3d7 d83d aecb 023e
00000360: 5f6b 093d 6bd2 3a3d b0c2 12be 0899 593c
00000370: 3a04 d03a 5e08 d73d 5f10 8cbd 1264 8cbd
00000380: f472 a13c a9a4 0cbe 11a4 1cbe 024d e33c
00000390: 9ab9 a1bd 736e ae3d ed4f 7d3b 5eb1 393e
000003a0: 6258 1ebe 1fbc 24bc 0b4e df3d 6127 253e
000003b0: f55f 30be 0874 19be c53d 0ebe 0498 a63d
000003c0: 28ed f7bc 63d4 613c 3893 ae3c e07c 063d
000003d0: 5da4 d7bd 6f9b 5cbe f58d 63be 777a 133e
000003e0: b230 5d3e 64a6 85bc c53c 87bd ff26 103d
000003f0: bbe9 b2bc 77a5 3e3e 481b f63d 084f ffbd
-0.19781543 -0.1775774 -0.19080824 -0.07851149 -0.227025 -0.2444815 -0.12831956 -0.23200971
-0.52353954 -0.32888448 -0.33726686 -0.23751958 -0.1924299 -0.18687144 -0.1775793 -0.6407585
-0.43672836 -0.2558707 -0.013461418 -0.44388273 -0.30763692 -0.20597687 -0.3808422 0.6564179
-0.21066508 -0.122176975 0.023024661 -0.2526628 -0.17575069 -0.12960936 0.025768813 0.16230497
-0.38737392 -0.25811976 -0.0034186235 -0.1451876 -0.008317738 -0.45895857 -0.009404921 -0.34130982
-0.28521743 -0.5202666 -0.35495353 -0.12252826 -0.041566215 0.0001902029 -0.08893339 -0.022356587
-0.015193737 -0.6296784 0.106727146 0.013962748 -0.24326311 -0.3622071 0.039895535 -0.21564235
-0.24589714 -0.35986343 -0.2122911 -0.29215342 -0.26604664 0.13553979 0.13964114 -0.07843026
-0.22712258 -0.5470961 -0.0030123708 -0.2094839 0.05671536 -0.40161178 -0.079697356 -0.14334632
-0.6217454 -0.050696354 -0.34218913 0.2125634 -0.10318736 -0.31428197 0.32696265 -0.27742022
-0.40688667 -0.06962515 -0.3321219 -0.15657355 -0.06717248 -0.006687471 -0.19766806 -0.18604045
-0.25519487 -0.1829262 -0.12836963 -0.2740955 -0.19708815 -0.7460718 0.3345702 -0.42231554
-0.1708343 -0.52893496 -0.4232131 -0.46714878 -0.1954229 -0.060647674 0.005387812 0.099336
-0.0791616 -0.17214556 0.045065757 -0.22965977 -0.29675877 -0.33068216 0.22017835 0.077568024
-0.27046517 0.17093255 -6.9168826e-05 -0.028961796 -0.25411817 -0.2644615 -0.03619189 -0.2886091
-0.2579715 -0.022303786 -0.24571644 0.41091082 -0.10075851 0.008774058 -0.072287716 0.46457195
-0.18784416 -0.09414919 0.24617372 0.05729464 -0.25706336 -0.39206517 -0.086609274 0.11473364
-0.21648559 -0.2518087 -0.024599977 -0.10860099 0.04590097 -0.252468 -0.047826707 -0.0065521505
0.059119664 -0.010843864 0.073366545 0.052074585 0.30947798 -0.43457928 0.38700804 0.13418408
-0.2506972 -0.15753748 0.099579014 -0.07803452 -0.0045674383 -0.43940133 -0.09677518 0.029026654
0.07919001 0.37883282 0.551666 0.100230105 -0.4126451 -0.2324983 0.15289737 0.0069974842
0.14684172 0.1741474 0.09802915 0.10922989 -0.4602574 -0.08678823 -0.23924074 0.2652461
0.26454154 0.4991044 0.20187409 0.5238824 -0.3113548 -0.25244534 0.32377875 0.17093548
0.045856822 0.4787926 -0.08324002 -0.06756199 -0.29090744 0.06935594 -0.003884133 -0.12762795
0.032035243 -0.48423895 0.42649624 -0.0919303 -0.10146266 -0.5026287 -0.052855738 -0.37942967
-0.0921299 -0.123447984 -0.1723876 0.27714097 -0.017874032 0.0013337833 0.05877652 0.087549634
0.046856206 0.028001526 -0.05940771 0.047345247 0.09682858 -0.0038688271 0.105880044 0.1277301
0.033549663 0.045610826 -0.1433208 0.013281114 0.00158704 0.10499643 -0.0683906 -0.068550244
0.019708134 -0.13734688 -0.15296961 0.027746681 -0.07896729 0.0851716 0.0038652376 0.18134066
-0.15463403 -0.010054617 0.109035574 0.16128303 -0.17224105 -0.14985669 -0.1389075 0.081344634
-0.030264452 0.013783547 0.021310434 0.032833934 -0.10529397 -0.21543668 -0.22222121 0.14402185
0.21600607 -0.016314693 -0.06603388 0.03519344 -0.021839967 0.18617807 0.12016922 -0.12466246

bias_hh f4 [400]
00000000: c1aa 59bd a552 64be f165 5cbe 1ec0 453c
00000010: 42e5 01be c9de 9bbe 320e 1cbe 55ff 7ebe
00000020: 372b 2abf ecbc 46be fffd 9dbe 3130 92be
00000030: 5456 a1be eda1 03be 5b6a 93be 8b95 1ebf
00000040: 7e41 a6be 7e55 a9be 6090 34be bf86 09bf
00000050: a014 70be 50e3 61be ce89 94be 0566 0a3f
00000060: dd6b bbbe 0d57 85bd 0ba8 c1bc 7984 83be
00000070: 7894 3fbe 2600 58be 9d04 4e3d edc2 213e
00000080: 7b99 c0be abf6 93be 5669 cebd 16be 04be
00000090: 7d49 b3bd ebe8 e9be 4256 b33b 9b51 e2be
000000a0: cb3b 25be f13f c7be 5e29 b6be 83fb 95be
000000b0: ab99 d0bd 8c15 073e 6604 16be b68f d03d
000000c0: 45ec 423d 94de 16bf b338 d23d 415d 233e
000000d0: 00f5 5cbe 7c6b 81be 7ca5 893d 5adf b5be
000000e0: 4520 74be c6d0 c2be cd37 7dbe d80a a4be
000000f0: 03af 8bbe 22b5 9d3d 29e7 1f3e afef 7bbd
00000100: c48e fbbd 2563 e6be 163d 6abd f3d3 7abe
00000110: a418 b0bd 7345 c2be bae8 34be e203 25be
00000120: 85ea 45bf 7b61 a3bd 571b b5be 1d13 4d3e
00000130: 57af 88bd f8c3 d0be 3a48 973e c71e 81be
00000140: 5f4d e4be 9e4c d4bd f183 54be b345 06be
00000150: 58c9 eebd 25b7 41be 6469 38be bd71 6fbe
00000160: 15cd 7abe 7ee1 08be ad83 83bb c51a 7bbe
00000170: bbba 29be 2c1f 33bf 2a66 5b3e f9a2 e7be
00000180: c91f 4fbd 6912 fdbe b368 84be 56b0 09bf
00000190: 8dcd 20bd ec53 37bc ca13 9dbd ad7a b93d
000001a0: bd0c 52be 65e8 22be 2ee7 bfbd d599 9abd
000001b0: 68bb 91be 0c45 83be c181 1a3e 8372 06bd
000001c0: 63b3 b0be 9b98 763e b2fd cfbd fe9a 183e
000001d0: 291e 6fbe 0692 d7be a1f1 6abd 95eb 98be
000001e0: dc1c 57be 0fc5 a2bd 5c8a 8bbe 892c c63e
000001f0: 64d1 02be 3af5 0d3d 57c9 163d 2db6 f73e
00000200: f4d7 27be a32e 11bd d9d1 763e b052 3e3e
00000210: dfbd 73be 8f3f cfbe bc68 fdbd e8bc 293e
00000220: 5bd4 03be 6dbd 23be a915 8b3d ed46 edbd
00000230: 3c93 8abd 4e07 57be b2b0 07be ac93 92bc
00000240: 8a14 f73d 80f6 063d 886e 6c3e b36f 253e
00000250: 9b68 943e 3409 02bf a6c4 af3e 121b 443e
00000260: 6e65 6abe 9503 9cbd aaeb 6ebd 6f2a 96bd
00000270: 54ed f2ba ce39 b9be bd4f cfbd 2ad9 c23c
00000280: 5203 9e3d 810b b03e e311 083f 4632 063e
00000290: 8c36 bcbe d116 49be 0c80 483e da35 83bd
000002a0: 896d 463e cc17 723e 2d4e bdbb 3a4c 203e
000002b0: d3d7 05bf d317 17bd 76bf c8be a1f8 243e
000002c0: c539 903e 7709 283f 9be3 783e 65d1 ee3e
000002d0: 086b d1be 6fe3 a3be 5c1b eb3e 6a7f 5c3e
000002e0: cbe5 81bd 3b75 053f 176a d53c aeca fdbd
000002f0: 2071 b3be 7fa9 84bd efe2 de3d 9f16 06be
00000300: fd91 1a3e 8d9e 06bf aef7 e23e a4ec 39be
00000310: a662 18be ea27 e3be 5f97 17be 57af d1be
00000320: e599 5cbe 70d0 0ebc d920 edbc d417 483e
00000330: 9fa4 b63d 45ec 453d c244 fd3d d271 5e3d
00000340: c5bf 08bd b476 cdbd dd2b 37be 8358 a3bd
00000350: a831 bf3c f078 2cbe b817 363d cad6 b63d
00000360: 7ee5 393d 8cd4 57bd ca91 81bd 029f e3bd
00000370: 4e86 f6bc 193a 313c 1755 3abe 1d2b 013d
00000380: 596e dd3d 2b0d e0bd 7a88 a4bd 6642 11bc
00000390: a915 d8bd 4d98 6a3c f5ea 52bd f099 ae3d
000003a0: d97a e0bd 2694 1abc 4712 693e 04eb 843d
000003b0: 4ec7 d4bd 0d87 0ebe e1f6 58be b67c e63c
000003c0: 6695 c6bd 2ffc 96bd 9e4c 91bd a453 ef3d
000003d0: cfb8 00bd eefe 2fbe 2a1a e6bd c816 393e
000003e0: 22a7 0d3e 388a ff3b bbef 76bd 1ce6 ba3d
000003f0: 4437 cd3d 12ad a13d a8a8 513d 2df9 aebd
-0.05314136 -0.22297151 -0.21523263 0.01206973 -0.12685111 -0.3044341 -0.1523979 -0.24902089
-0.6647219 -0.19408005 -0.30857846 -0.28552392 -0.31511176 -0.12854739 -0.2879208 -0.61946934
-0.32471842 -0.33073038 -0.176332 -0.5372123 -0.23445368 -0.22059369 -0.29011387 0.5406192
-0.3660573 -0.06510744 -0.0236397 -0.25687006 -0.1870898 -0.21093807 0.05029737 0.15797015
-0.37617096 -0.2889913 -0.10078685 -0.12963137 -0.08754251 -0.45685515 0.005472929 -0.44202885
-0.1613609 -0.3891597 -0.35578436 -0.2929345 -0.1018556 0.13191813 -0.14650115 0.10183661
0.047588605 -0.5893338 0.10264721 0.15953542 -0.21577835 -0.25277317 0.06721017 -0.35521966
-0.23840435 -0.38049906 -0.24728318 -0.32039523 -0.2728196 0.07700564 0.15615524 -0.061507877
-0.1228309 -0.44997516 -0.057187162 -0.24494915 -0.0859845 -0.3794361 -0.17666903 -0.16114762
-0.77310973 -0.07977577 -0.3537242 0.20026822 -0.066740684 -0.40774512 0.29547292 -0.25218794
-0.4459028 -0.10366176 -0.20753457 -0.13112526 -0.11659497 -0.1891752 -0.18008953 -0.23383231
-0.24492295 -0.13367268 -0.0040134997 -0.2452193 -0.16575138 -0.6996944 0.21425691 -0.45241526
-0.050567422 -0.49428108 -0.2586113 -0.5378469 -0.03925853 -0.011189442 -0.0766979 0.09056602
-0.20512672 -0.15908964 -0.09370266 -0.075488724 -0.28463292 -0.25638616 0.1508856 -0.03282405
-0.3451186 0.24081652 -0.101558104 0.14902875 -0.23351349 -0.42103595 -0.05735934 -0.29867235
-0.21007103 -0.07947742 -0.27253997 0.38705853 -0.12775189 0.034657694 0.036813106 0.48381177
-0.16390973 -0.035444867 0.24103488 0.1858623 -0.23802899 -0.4047818 -0.12373492 0.16575968
-0.12873976 -0.15990229 0.06791241 -0.11585794 -0.06766364 -0.2099888 -0.13250998 -0.017892681
0.120644644 0.032949924 0.2308904 0.16155891 0.28986058 -0.5079529 0.34329718 0.19150952
-0.22890255 -0.07617871 -0.058330216 -0.07332312 -0.0018533864 -0.36176914 -0.10122631 0.023785193
0.07715477 0.34383777 0.5315229 0.13105115 -0.36760366 -0.1963761 0.19580096 -0.06406756
0.19377722 0.2364189 -0.0057771415 0.15654078 -0.52282447 -0.036887955 -0.39208573 0.1611047
0.28169075 0.6563944 0.24305575 0.4664413 -0.4090197 -0.32009456 0.4591931 0.2153298
-0.06342658 0.52132004 0.026051564 -0.12392174 -0.35047245 -0.06477641 0.10883128 -0.13094567
0.15094753 -0.5258568 0.4432959 -0.18156677 -0.14881381 -0.4436639 -0.14803837 -0.40954086
-0.21543081 -0.008716688 -0.028946327 0.1954034 0.08918118 0.048321027 0.1236663 0.054307766
-0.03338601 -0.100324064 -0.17887826 -0.07975867 0.023339108 -0.16843009 0.044456214 0.089276865
0.045384876 -0.052692935 -0.06326635 -0.11114313 -0.030093338 0.010817074 -0.18196522 0.031535257
0.10812063 -0.109400116 -0.08033843 -0.008865928 -0.10551006 0.014318538 -0.051493604 0.08525455
-0.10960931 -0.009434735 0.22760879 0.06490138 -0.10389577 -0.13918705 -0.21187927 0.028135639
-0.09696464 -0.07372319 -0.07094692 0.11685875 -0.031426247 -0.17187092 -0.11235459 0.18075097
0.13833287 0.0077984594 -0.06028722 0.09125921 0.10020307 0.07894339 0.051186234 -0.0854362
