models/autoregressive_long_ignorewarmup.pt (torch, 25128 bytes, 5 tensors)

weight_ih f4 [400, 6]
00000000: 6c94 893d b213 be3e 8785 1cbe 9c3b 81bd
00000010: 5095 2d3e e004 c0bc 62fd 823c 01d8 8fbe
00000020: 3de5 073e 490b a23c 849d be3d 3887 b2bd
00000030: 5d78 993d 253b e0bd 4d1e 843d 8634 afbd
00000040: d9b9 183d 7316 d9bb 6527 773d b7f1 213e
00000050: 4c55 0f3e dfa9 2d3e 5ed0 7d3d b424 b83c
00000060: 92df 7f3d f5e4 5bbe 0b41 0f3d 0bec 2bbe
00000070: 9cfe 46bd acc9 5abd 3583 703d a2ab 213d
00000080: 54ea 8fbd 0454 babd 76db 513e 71f7 543d
00000090: 03d7 24bd 1c4c 1e3e 2adf 013e 6d25 593e
000000a0: f1fa 333e 19bf bd3d fd90 423e b5da 9fbd
000000b0: cd25 2f3e 4b23 ef3d e916 803e 63c3 423d
000000c0: ca5c 593d 509d 7bbe f3c4 013e b563 b7bd
000000d0: 49d1 d6bc ac66 08bd 8b49 1c3d d8ad 253e
000000e0: ac95 923d 2bd6 5b3e 2282 403e 00eb 353d
000000f0: 7c45 323e 299f 913e 66c9 4f3d 97f0 e4bd
00000100: a2a0 983d b200 3cbc 5cc4 b1bd 50cd 893e
00000110: 1548 0e3e c136 953e 2caa 163e 5d2a 82bc
00000120: 672c 0b3e f913 44be a08a ad3d d3ec 77bd
00000130: 6193 b43d a7e7 813c f738 473e a055 2bbd
00000140: e680 61bd 16cc 05be 7c39 9ebd ae1e 7e3a
00000150: c12f 373e 93a4 65be b273 db3d 0e34 b2bd
00000160: d1a3 a9bd 3903 c83d 35ea 8b3d 1e51 a8be
00000170: d8de ef3a 5874 91bd 91ff bfbc aa46 9d3d
00000180: f5a4 a2bd f79a eabd 51ba b03d 0cd2 673e
00000190: 923c 763d 669d adbd 2def e5bc 244c 18be
000001a0: 3630 893d 5bf0 f33d 513e 4a3c fabc d6bd
000001b0: 5834 693e 4100 f0be 4131 c03e c51b 8ebd
000001c0: e55b 813e 26f4 5a3d 92bb 1f3d 6f77 d93b
000001d0: 2476 823d bcd9 6fbd 5284 d03b a7c9 bf3a
000001e0: 1963 263e 63f2 64be 3020 c03d dc90 3ebe
000001f0: fffa 0fbe 46cc 69ba ae17 18bd 7223 4cbe
00000200: 62c9 483c fb8f 4abe 1b21 d7bd 8c01 13bd
00000210: 9a0d 02bd 5c6b 87be 5e35 153e fea8 1fbe
00000220: 87fe da3d f850 a2bd 0b94 883d 7e1a 183f
00000230: 2005 d4bc 3aa5 543e de47 d63e bf74 cb3d
00000240: 882d f83d 4822 0cbe 73d9 8a3d 8c89 0fbd
00000250: ddb4 e5bc f56b a0bc 9a5b 003e 9988 a1be
00000260: fa1e 783d 21ae 5ebd c2d0 dbba cf68 a3bd
00000270: a757 713c 4219 4fbe 92a3 3dbd 55dc 7cbe
00000280: 3c61 2bbe 0548 9abc a567 083e 3d7e 443d
00000290: e4c1 a53c a750 ea3d 96c4 e93d 4fa6 d9bd
000002a0: cea6 c53d 624e 293e 376a 833d cbab 58bd
000002b0: bd19 c23b 6e17 b53c 0895 b43d 645b 6cbe
000002c0: 68c1 1f3e 7d71 55be 893a 6cbd 1afe fabd
000002d0: e9c7 bebd 385c 293e b1db c2bc da89 ed3d
000002e0: 5b14 003e 3d0d e2bc d712 37bd ba53 99bd
000002f0: 726e 6e3d 66e1 d3bd cbfa d43c a20f b33c
00000300: 3c65 52bd 1252 83bd 14fe 8b3e 36a3 623e
00000310: cf1f 2f3d 409d c43c 6ceb 113e 7329 99bd
00000320: 8462 593e e0e8 1abd f849 713d 7921 0f3e
00000330: d580 e53d b7e1 eabd a2b2 243d 49e7 2a3e
00000340: a2b4 0bbe 5993 f9bc d83e e93d 504b f8bc
00000350: adff e03d c4a5 623e 5c58 13be 2285 1b3d
00000360: 094a 2c3e e900 48bd 9159 5c3d 8241 073e
00000370: 56c5 6e3e f1e1 fdbc 3866 913d 33d8 35be
00000380: d8f4 fcbc 3d40 53be 1404 e9bd ef32 363e
00000390: b128 d33c a812 763d 896c a53d ccea 1fbc
000003a0: 2cfa 04be a1eb dcbd d767 2a3e ad16 b8bd
000003b0: 971f c53d 6c36 acbd 38bb f03d 9a1b 483d
000003c0: b44e 9abd 46c3 e53e 3225 93be 66c1 06be
000003d0: c410 4d3e d7e5 a2bd 540c f2bd 4239 d43c
000003e0: dfb6 263e 5681 5a3e 7dfb efbd e029 4fbb
000003f0: 0489 ac3d 39cd abbe 6446 363c 4bdb 70be
0.06717762 0.371244 -0.15285312 -0.06310198 0.1695149 -0.023439825 0.015989963 -0.28094485
0.13271041 0.019780772 0.093073875 -0.08717197 0.074936606 -0.10948781 0.06451092 -0.0855494
0.037286613 -0.0066249906 0.060340304 0.15814863 0.13997382 0.16959332 0.061966293 0.022478439
0.062469073 -0.21474059 0.03497414 -0.16789262 -0.04858266 -0.053414986 0.05871888 0.039470322
-0.070271164 -0.09098056 0.20493874 0.05199379 -0.040244114 0.15458721 0.12682787 0.21205683
0.17576195 0.092649646 0.19000621 -0.07805387 0.17104264 0.116766535 0.2501748 0.047549617
0.053067006 -0.24571729 0.12672786 -0.089545645 -0.026222842 -0.03330104 0.038156074 0.16179597
0.07157454 0.21468417 0.18799642 0.044413567 0.17409319 0.28441742 0.050729178 -0.11178701
0.07452513 -0.011474775 -0.08680031 0.26914454 0.13894685 0.29143336 0.14713353 -0.015889341
0.13591157 -0.19148244 0.08473706 -0.060528588 0.08817173 0.01585753 0.19455324 -0.041829705
-0.055054568 -0.13066134 -0.07725808 0.00096939027 0.1788931 -0.22426061 0.107154265 -0.08701335
-0.082831986 0.0976624 0.06831781 -0.32874388 0.0018300666 -0.07102269 -0.023437293 0.07679494
-0.07941619 -0.114553384 0.08629287 0.2263872 0.060116358 -0.08477287 -0.02806815 -0.14872795
0.06698649 0.119110785 0.012343959 -0.10485263 0.22773874 -0.46875194 0.37537578 -0.0693889
0.25265422 0.053455494 0.03899724 0.006636552 0.0637019 -0.058557257 0.00636343 0.0014632241
0.1624874 -0.22358088 0.09381139 -0.18609947 -0.14060591 -0.0008918684 -0.037131958 -0.19935396
0.012255045 -0.19781487 -0.10504361 -0.035890147 -0.031751253 -0.26449096 0.14571139 -0.15591809
0.106930785 -0.079256 0.06668862 0.59415424 -0.02588135 0.20766154 0.41851705 0.09934377
0.121180594 -0.13684952 0.067797564 -0.035043284 -0.028040344 -0.019582728 0.12534943 -0.31549528
0.060576417 -0.05436528 -0.0016770589 -0.07978975 0.014730371 -0.20224479 -0.04629857 -0.24693425
-0.1673631 -0.01883317 0.13320787 0.047971953 0.020234056 0.114411645 0.11414449 -0.10627424
0.09650956 0.16533807 0.06416743 -0.05289821 0.0059234784 0.022105899 0.08817488 -0.23081738
0.15601122 -0.20844074 -0.05767301 -0.12255497 -0.093154736 0.16539085 -0.023786398 0.11598559
0.12507765 -0.027594203 -0.0446957 -0.07486673 0.058210798 -0.10345726 0.025998494 0.02185804
-0.051366076 -0.06412138 0.27342284 0.22132573 0.042754944 0.024000764 0.14249963 -0.07478609
0.21228987 -0.037819743 0.058908433 0.13977613 0.112062134 -0.11468833 0.04020942 0.16689791
-0.13643125 -0.030465769 0.113889396 -0.03030935 0.10986266 0.22133547 -0.14389175 0.037968762
0.16825117 -0.048828993 0.053796355 0.13208583 0.23317465 -0.030991526 0.07099575 -0.17758255
-0.03087847 -0.20629974 -0.11377731 0.17792867 0.02577624 0.060076386 0.08077342 -0.00976057
-0.12986058 -0.1078713 0.16641174 -0.089887 0.09625166 -0.08408818 0.11754459 0.048854448
-0.07534543 0.44875544 -0.28739315 -0.13159713 0.20025927 -0.07953995 -0.11818758 0.025906209
0.16280697 0.213384 -0.117178895 -0.0031610653 0.08424571 -0.3355501 0.011125181 -0.23521154

weight_hh f4 [400, 3]
00000000: d39e 243b 9df2 6c3d d173 f7ba f4fe e93d
00000010: b668 c53d ff6c 773d b099 123e befb d83d
00000020: 9050 32bc 498a 31bd e63e a9bb d2e3 f03d
00000030: cd96 3a3c b3c8 bdbd d4fe f6bc 7c7f 283c
00000040: 8331 d13c a00a c63d e7c5 053e 7793 593d
00000050: bf2f 233e 5bf2 293e d995 543d 3760 133e
00000060: c66a 223d e90c 1a3d 85fe 083d 0035 ad3d
00000070: cdfb 4f3e c571 393e bfb2 5a3e c32f 923d
00000080: 5298 243e b758 2fbd e930 023c 6e85 e23c
00000090: 1337 b73d edc0 713d 14ba 933d f8c9 113e
000000a0: 4577 a8bd ade7 b93d bc31 9c3c 3ff3 393d
000000b0: 8b76 da3d e709 053e a49e e1bc ab46 693d
000000c0: 4b81 8e3d 4840 183e 24e2 1dbd 83c9 993d
000000d0: d7c1 be3d 0ac2 813c 5a24 b53e f252 9bbe
000000e0: dd78 ed3e 3d00 22bc f11f 013e 96c3 a6bd
000000f0: d1f4 af3c fe7f 9bbc 1ee2 b4bd 8b1e eb3d
00000100: 2e90 8e3b 3b4c 90bd ddeb 723d da8c 18be
00000110: 995d 55bb 6466 df3d 983c b73e e923 d23d
00000120: ad63 71bd 560d 4ebc 6333 e53c 4e11 163d
00000130: b098 8c3c ffab d93d 00a5 dbbb 2f37 e6bd
00000140: b561 403d 9a9b 733d f747 683c b9d0 8b3c
00000150: 1a0e f63b 8be7 413c decc c7bd 1c87 2a3d
00000160: 09fc 8c3d 1a75 043e 15b7 18bd a626 223e
00000170: f7fc 4bbc 67ad df3d 24b8 e33d 3c4f bf3d
00000180: 9c4b 2dbd 6e3a fdbc 20e2 663e d12a 313e
00000190: 3cd1 8dbd dc17 893d bb2b 84bc 74a0 763d
000001a0: 3c7c 913d 6c05 293c f409 c43d 90d0 5bbd
000001b0: 130d 463e 0b5e faba 5a6e e53d 6f2b cb3d
000001c0: 790b a0bb 7cfc ce3d 6224 e23d f037 da3d
000001d0: 4452 6cbc 3b54 c33d 9368 543d a649 68bc
000001e0: 50ef 5dbd 3e20 033e 09c5 85be 91cd fb3c
000001f0: 7b7c 8a3d 536c 50bd 28cb 5fbd c3b4 20be
00000200: 3fdf ef3c 26fd 8a3d a36e 39bc 7636 083d
00000210: e377 c53d 8ff8 083e 56ff fb3d 221d e43c
00000220: 0b28 82bd 2a05 ab3d cf95 fb3d 325b 07be
00000230: 98aa b4bc 5b05 30bd 5a43 273e 204c 263e
00000240: 45f6 323d efd5 e33d d71b 6c3d c55f 2c3e
00000250: 3a82 15be 4f37 6b3e 65d3 e73d d328 af3d
00000260: a0c2 93bd 4c79 633e 524f ed3d 4be4 c4bb
00000270: a182 cc3d 2dc0 41bd 500a d03c bdec 76bb
00000280: 580d f83d f05f b7bc 6002 6f3b b058 4d3d
00000290: eedc 81bd 8141 903d 951c 96be 2977 933e
000002a0: c65c 263e a0ec 00be f74f ac3d 74f9 c83d
000002b0: 1c34 1f3a b93b 7cbc e30b c33d 6af7 04bd
000002c0: a141 343e 156e 0b3e 4573 0a3d 5ae2 f13c
000002d0: c2d2 333c 14e8 79bc 707d f43a 0aee 50bd
000002e0: 55ea 633c 1b49 0a3e ab5e 863d 68d5 bfbc
000002f0: 2c63 153e cace 4c3d 2679 bf3e 3ce7 563e
00000300: 05d4 5d3d 38b9 853d 4b31 193e 1b99 3f3e
00000310: 935d 1b3b 0a2e 39bd 2d91 23bd df97 153e
00000320: ea4c e2bd 2e60 563d 071c f73c 0b04 3b3e
00000330: f091 a33d 5145 083d 4b9d 993d ba5b 8bbc
00000340: 3f70 7fbd 4fb1 0abd 7762 413d 38e0 033e
00000350: 12b4 163e 6cb7 c23d 054f b93d 16f6 f3bd
00000360: 244b df3d a170 213c 2094 69bc 1529 bfbd
00000370: e503 c43e 26f2 d23c b1c0 6dbe a8bb 2a3f
00000380: d2c5 dd3e b747 8ebc 9ab3 473d 72e6 02be
00000390: 81ab 31bd 3c39 90bb 188c e13c 4656 993d
000003a0: 0207 0ebd 1996 a03d aea1 b13c 000f 7abd
000003b0: a0c0 fe3b c9e5 2a3e 12eb c2be bb08 3d3d
000003c0: 28c6 dd3d cd31 b83c 6f59 58bc 0d65 bf3d
000003d0: 9560 d7bd 87b9 823c 2f36 53bb e560 b73e
000003e0: db42 f9bd 70ba aabd 9d1d df3d aa8e c53b
000003f0: 18a9 2abd d0a7 713d 38c0 103e b56c e23d
0.002511908 0.05784856 -0.001887912 0.114255816 0.09639113 0.06040668 0.1431644 0.10594891
-0.010883465 -0.04334477 -0.005164969 0.11762203 0.011388493 -0.09266796 -0.030150808 0.010284301
0.025536304 0.09669995 0.13063775 0.05311915 0.15936182 0.16596358 0.05190072 0.14392172
0.03965261 0.03760997 0.033445854 0.084573746 0.20310898 0.18109806 0.21357249 0.07138016
0.1607373 -0.042809214 0.007946231 0.027651515 0.089460514 0.05902188 0.07213226 0.14237201
-0.08225874 0.09077392 0.019066684 0.045397993 0.106671415 0.12992059 -0.027541466 0.05695216
0.069582544 0.14868271 -0.038545743 0.075091384 0.09314316 0.015839595 0.35379297 -0.3033672
0.46381274 -0.009887752 0.12609841 -0.08142774 0.021479042 -0.01898193 -0.08832191 0.11480435
0.0043506837 -0.0704579 0.059306968 -0.1489748 -0.003255701 0.10908201 0.35788417 0.102607556
-0.05893295 -0.012576422 0.027978605 0.036637597 0.01716265 0.10628509 -0.006703019 -0.11240994
0.04696818 0.059474565 0.014177314 0.0170673 0.0075090053 0.011834989 -0.09755872 0.041632757
0.068840094 0.12935296 -0.037283976 0.15835056 -0.012450448 0.10921746 0.111191064 0.09341285
-0.042308435 -0.03091165 0.22547197 0.1730149 -0.06924674 0.06694004 -0.016134134 0.060211614
0.07103774 0.010316234 0.09572211 -0.053665698 0.19340925 -0.0019101513 0.112026885 0.09920394
-0.00488418 0.10106751 0.11042096 0.106552005 -0.0144239105 0.0953755 0.051857542 -0.014177715
-0.054183304 0.12805268 -0.26126888 0.03073767 0.06762024 -0.050884556 -0.054637104 -0.15693955
0.029281257 0.067865655 -0.011317882 0.033255063 0.09642007 0.13376068 0.12304561 0.027845923
-0.06355294 0.08350594 0.12284433 -0.13218382 -0.022054002 -0.042973857 0.16334286 0.16239977
0.043691892 0.11124789 0.057643738 0.16833408 -0.14600459 0.22970317 0.11319617 0.085527085
-0.07214856 0.2221424 0.11587395 -0.00600866 0.09985853 -0.047302414 0.025395542 -0.0037677728
0.1211192 -0.022384614 0.0036469921 0.050133407 -0.06340967 0.07043744 -0.2931868 0.2880185
0.16246328 -0.12590265 0.084136896 0.098132044 0.00060731336 -0.015395098 0.095237516 -0.032462515
0.1760316 0.13616212 0.033801336 0.029526878 0.010975542 -0.015253086 0.0018653106 -0.05100826
0.01391085 0.1350445 0.06561025 -0.02341719 0.14588612 0.050001897 0.37397116 0.20986646
0.054157276 0.06529468 0.1496021 0.18710749 0.0023706898 -0.045209922 -0.039933372 0.14608715
-0.110498264 0.052337818 0.030164732 0.18263261 0.0798682 0.03326923 0.075007044 -0.017011512
-0.062362906 -0.0338605 0.047213044 0.12878501 0.14717129 0.09507641 0.09048275 -0.119121715
0.10903004 0.009853513 -0.014256507 -0.09334008 0.3828422 0.025750231 -0.23218037 0.6669259
0.43314987 -0.01736818 0.048755266 -0.1278322 -0.04337645 -0.004401354 0.027532622 0.074871585
-0.034674652 0.07841129 0.02168354 -0.06104946 0.0077744275 0.16689219 -0.3806997 0.046150904
0.10828811 0.022484684 -0.013204916 0.09345446 -0.105164684 0.015957607 -0.003222834 0.35816112
-0.12170955 -0.083363414 0.1089432 0.00602897 -0.041665167 0.05899793 0.14135826 0.110558905

proj f4 [3, 100]
00000000: ee79 6c3d a6e4 c03d 2bf5 073e 1171 28bd
00000010: 3920 4b3d 7c1e 6fbd 7f04 7ebd 6a4b 8bbd
00000020: 68e5 6cbd 8700 923d ba0c 3e3d f89e 6e3c
00000030: 7fea 8dbd d05a cb3d 0afe 0c3e d2e6 04bd
00000040: ca31 d23c 7517 e43d fba2 48be 11d3 b3bd
00000050: e48f bcbd 1f0c ab3d 1208 34bd 4b14 9b3d
00000060: 6973 993d 3777 e3bd 3375 a93d d977 4c3d
00000070: c99f 8cbd 0118 b6bd 40ee e3bb 666e f03d
00000080: cc89 443d 0ca1 1b3d 8f1f 473d e43b c6bd
00000090: b07c cf3c 9dda 273e 7152 9dbd a04e 033e
000000a0: b18f 39bd 8681 4abb c9b5 863d 25a8 973d
000000b0: b92f 4fbc fd98 1a3e 6ae9 c8bd 44e8 5f3d
000000c0: e8fe 5c3d fc1b aabd 82a6 d53c 68e9 2a3d
000000d0: 8d6c 36be bbc3 9f3b ffb4 3f3d 201c 05be
000000e0: 0105 81bd a42d b13c 2e26 febc 0b07 d9bd
000000f0: 4f18 c5bd 805c e3bc dc2c 38be 7a1c fcbd
00000100: a17a a9bd 78d6 293e ded1 b7bc 8354 8e3d
00000110: 878e 8ebd 661c 42bd 9d3b eb3c 15e7 54bd
00000120: c43f 60bc dbdb 063d ffba 3bbe b9a4 d2bc
00000130: dea4 cb3d 5b78 8abd 439d b43d fdf8 403d
00000140: c034 c43c cbe3 9bbd a286 033e 98b2 613b
00000150: e7dc 9c3d 0ca7 90bd 5650 10be 5f8e f43c
00000160: 472a 0e3e 6ab3 aabd b773 38bc 63d1 073d
00000170: ccbf 713c d227 dc3d b5dc 9d3d 649b 2f3d
00000180: c156 623d bffa b83d f679 c5ba 67d2 e3bd
00000190: 2542 81bd 778e f63b a96a 7b3c 1b6e d5bd
000001a0: 1c0f 703c 2640 a43c 2b92 e43d b04c 043e
000001b0: 6f6e 143d d8e3 f3bd 7c77 583d 6441 babd
000001c0: e7f3 4d3d e181 1b3d 61de 5abc 0c78 bc3d
000001d0: 338d 233b ea07 0dbc 8f54 453c 2fa3 49bd
000001e0: 39c4 c33c 7476 abbc 5afd a63d 650c 0d3e
000001f0: f338 f6ba 5a3e a93d e1cf d2bc 0f18 cc3d
00000200: f9a4 4fbd 4434 d0bb 6a42 cc3d 3c35 9fbc
00000210: adf3 343c c8f5 973c b9ab 2c3d e02f 5bbc
00000220: 02f7 e9bd 2510 3cbe 62a0 89bd 2a36 dc3c
00000230: bec0 c63d 77cd 0f3d eb0e 38bd 28c1 20bc
00000240: 1a84 ae3d b7d5 68bd 1a51 1dbc 40ef 323d
00000250: 83dd e6bd a4e9 383d 1dcf a83d 9116 f33d
00000260: 543c 2d3d 7487 5cbc 7d13 81bc d6d4 a63c
00000270: be4f a83d 4e2f f3bd 33f0 163b 961f d13c
00000280: b2a2 613d c513 a0bc 2b86 043e 4cc5 013e
00000290: 009a 8e3d 809e 15bd f8db ebbd 5974 833d
000002a0: 3478 513d d052 a1bd 2f9e a83c 16cb 3fbd
000002b0: 8eb1 fb3d 5f45 6f3c bfff 153e 30c9 3d3d
000002c0: 2c4a 2dbd 2c75 b03d 0202 1ebd 538b 573d
000002d0: b0db c33d b130 82bd 9cf6 8d3d f2a5 863d
000002e0: 76a3 8fbd c029 fb3d e9f8 143e b270 7cbc
000002f0: fa32 323d b143 21bd 1e37 b9bc 46e0 c8bd
00000300: a2ac 9bbd d5e3 213d 7242 ef3d 08cd 78bb
00000310: 4419 ef3d ae39 57bd b926 acbd 69bd d63d
00000320: 3104 913d 150c 633d d151 90ba e646 debd
00000330: d847 e2bc 2d10 7cbd 18ae a33d ef8b e53d
00000340: 4bce 0cbd 35a6 bcbd c1bc a0bd 4662 11bd
00000350: b493 2ebd bed2 78bc b834 20bd 8194 d1bc
00000360: 8ec5 913d 62ba fb3d 2b61 0a3e 7819 8dbc
00000370: 52bc d93b 2c27 f13c 6f62 973c d603 16be
00000380: 3c47 153d 6cec e9bd 1d2f 44bb 69f3 f33d
00000390: 2521 2b3b f083 31bd 4fbc 873d dd89 803d
000003a0: 6adf a5bd 0370 eebd 2bf8 dd3d 3dfe 17be
000003b0: 45c2 f8bd 91f9 18be 1a3d 1fbd 2070 96bc
000003c0: fe77 d2bd 8451 ca3d 1484 a0bd 2433 653c
000003d0: 6765 cf3d 7049 a4bd 5acd 8b3c 4b2b e4bd
000003e0: 908d d23d 9a1b 1b3d 1538 1e3d 86bc 08be
000003f0: 88e1 5c3d 3745 56bd a5e0 de3c 9a1b ec3d
0.05773347 0.09418611 0.13277118 -0.041123454 0.049591277 -0.05837868 -0.062016007 -0.068014935
-0.057835966 0.07129007 0.046398856 0.014564268 -0.06929492 0.099294305 0.13768783 -0.03244669
0.025658507 0.111372866 -0.19593422 -0.08780492 -0.092071325 0.08351921 -0.04395301 0.0757223
0.07492716 -0.11106723 0.08274307 0.049918983 -0.06866414 -0.08891297 -0.006955892 0.11739807
0.047982976 0.037995383 0.04861408 -0.09679392 0.02532801 0.16391988 -0.0768174 0.12822962
-0.04530305 -0.0030899956 0.065776415 0.07405118 -0.012645655 0.15097423 -0.09810145 0.054664865
0.053954035 -0.08306119 0.026080374 0.0417265 -0.17814846 0.004875628 0.04680347 -0.1299901
-0.062997825 0.021628208 -0.031024065 -0.105970465 -0.09623777 -0.027754068 -0.17985862 -0.12310119
-0.08275343 0.1658572 -0.02243894 0.06949713 -0.06960779 -0.047390364 0.02871495 -0.05197819
-0.013687078 0.032924514 -0.18333052 -0.025713312 0.09943555 -0.06761237 0.08819058 0.047112454
0.023950934 -0.076118074 0.12844327 0.0034438726 0.07659321 -0.07063112 -0.14093146 0.029853044
0.13883315 -0.08335002 -0.011258057 0.03315867 0.014755201 0.107497826 0.07708112 0.0428728
0.055258516 0.09032201 -0.0015066254 -0.111241154 -0.06311444 0.0075243074 0.015345254 -0.104213916
0.01465204 0.02005012 0.11160692 0.12919879 0.03623813 -0.11908692 0.052848324 -0.090945035
0.05028143 0.03796566 -0.013358683 0.092025846 0.0024955987 -0.008607844 0.012044086 -0.04922789
0.023897277 -0.020930506 0.08153792 0.1377426 -0.0018785283 0.08263846 -0.02573389 0.09965526
-0.05069444 -0.006353887 0.09973605 -0.019434564 0.011044425 0.018549815 0.042155955 -0.0133781135
-0.11424066 -0.18365534 -0.06720044 0.026881296 0.097047314 0.035108056 -0.044936102 -0.009811677
0.0852129 -0.05684444 -0.009601856 0.043685198 -0.11272719 0.045144692 0.08242629 0.118695386
0.04229386 -0.013460029 -0.015756363 0.02036516 0.082183346 -0.11874257 0.0023031353 0.025527757
0.0550868 -0.019540677 0.12941806 0.12672919 0.06962967 -0.03652811 -0.11516565 0.06418676
0.051140025 -0.07877123 0.02058324 -0.046824537 0.12289725 0.014603942 0.1464834 0.046334445
-0.042307064 0.08616099 -0.038576134 0.052623104 0.095633864 -0.063569434 0.06931803 0.0657462
-0.070135996 0.122638226 0.14548077 -0.015407728 0.043505646 -0.039371196 -0.02260929 -0.09808402
-0.076012865 0.03952392 0.11682595 -0.0037964005 0.11674741 -0.052545242 -0.08405823 0.10485346
0.070808776 0.055431444 -0.0011010711 -0.108533666 -0.027622148 -0.061538864 0.0799219 0.11208331
-0.034376424 -0.09211389 -0.07848502 -0.03549411 -0.04262133 -0.015186964 -0.039112777 -0.025583507
0.07117759 0.12291409 0.13513629 -0.017224059 0.006644764 0.029437624 0.018479554 -0.14649901
0.036444888 -0.11422047 -0.0029935308 0.11911661 0.0026112285 -0.043338716 0.06627714 0.06276295
-0.080992535 -0.11642458 0.1083835 -0.14843078 -0.12146429 -0.14938952 -0.03887663 -0.018364012
-0.10276793 0.09878829 -0.07837692 0.013989244 0.10126763 -0.080218196 0.017065693 -0.1114107
0.10280907 0.03786812 0.038627703 -0.13353166 0.05392602 -0.052312102 0.027206728 0.11528702

bias_ih f4 [400]
00000000: 604d 1ebc 5d17 d63d f7cb 373d f4d0 8fbd
00000010: 8e78 30bd 0000 d63d fece d03d 0097 453e
00000020: 5dff c03d b14e e33d 1c73 373d 9b89 5cbd
00000030: b893 8bbd be85 1d3c 3fb4 da3d 120b 8b3c
00000040: 541d b2bc 310d 5e3d 5de8 033e ce25 fd3d
00000050: 50f7 013e 12df 13bd ffc3 063d 8f30 113d
00000060: e03f e33c 4708 2cbd 0999 57bd 3329 37bd
00000070: 7340 a2bc ca8c da3d 064b 173d ee3f 813d
00000080: fdac dc3d dd77 f63d 6b88 c03d 927d d63d
00000090: 2235 db3d 57dc 4c3e 0467 5a3d 6e09 28bd
000000a0: fce3 b9bd 2fcc 1fbd 64db b53d 3c94 fc3c
000000b0: 2127 84ba 3394 353d 82f3 e53d 4ebb ff3d
000000c0: 4106 563d f992 243e e191 82bd 2b42 803d
000000d0: b347 ae3d 37f8 bbbc e1c1 963d 9d5d 703e
000000e0: 9ee5 813d 6c01 a73d 6663 0dbc 3b75 d23c
000000f0: 8152 b33b 5eb2 263d cca9 083e 1fc2 0c3e
00000100: 5ccb b03d a422 2f3e 5e91 643d 599e 003e
00000110: 48b9 953c c321 283d e05a 453c 3fae a53d
00000120: 179d 0a3e 36f0 70bd c56c febd a7e6 bcbc
00000130: 05fb 743d 8268 203d eb36 15bb b98e 3e3d
00000140: bafb bd3c df0e 57ba e772 043d 1df2 2bbc
00000150: 1762 b0bc fa7a be3d 453c dd3c fb53 a9bd
00000160: 994d 85bb 5ad2 043e 0c9d 9a3d ddc9 fd3d
00000170: f51a abbb 9bf4 2f3d 7f73 033e 9ebc 703d
00000180: 9919 133e 5ed2 babd fd57 483c a4e9 0a3e
00000190: dbe8 2bbc 9730 753d 755f a83d ab40 bf3d
000001a0: a4fc c23c a62e 37bd 4825 f83d edc0 1f3e
000001b0: 8682 013e adac babc 4eec c03d 6990 c9bb
000001c0: c872 a3bc c571 583d 18e8 853c d16f 52bd
000001d0: 8f6b b23d ba9a a73d 47c5 1f3e 2a6d 3b3c
000001e0: 5502 a83d 43e0 673d fa80 e43c 8f60 573e
000001f0: 18e1 5fbd a2e9 d93b 2bbf c33d 132b 03bd
00000200: bb22 d93d be01 8c3d e997 ec3c e9ff b1bc
00000210: 22a2 263d e23d 213d 48a9 633b 3060 d3bc
00000220: a1b5 29bb 99ee 103e 8f53 d2bc 5eba cb3d
00000230: 798c 5e3d b798 e43c a417 3c3d d4b4 853d
00000240: 7860 9bbb 6bd5 0e3e 5d8b cf3d 6c0e 003e
00000250: 5204 683d 6d19 44bb 9a34 d83d b59f 323e
00000260: 7a60 cd3d 658d 323d 54aa 28bd e803 3b3e
00000270: 23b2 993c a79d 763c b269 103e 3bca abbc
00000280: 56fa f03d d695 c23c c916 233e 4a07 b33d
00000290: ab7c 033d 6b1a c83b f8fc 443d 633d 3b3e
000002a0: 5df8 96bb db0a 87bd d4b2 0b3e 915d b13b
000002b0: e13b 593e d27e 82bc 97a8 593e 477b 7bbc
000002c0: d122 493d b70c cebd 450d 503d 3b2b 093e
000002d0: 5956 b03c 7e6d 463c 7b91 623d cae2 3cbd
000002e0: c807 de3d d9b3 323d 5722 2f3e ecbf bcbc
000002f0: eb79 9f3c 47f4 c3bc 7d82 33bd 1d64 e03d
00000300: 9ecb a53d f04f 2f3e b2b5 b63d 7f37 1d3d
00000310: ecff 88bb 2e5d 91bd a084 503d 56e0 723c
00000320: 7353 4abd 20db 40bd d41c 9d3d 3a15 97bd
00000330: 30fd aa3d e72f 953d e33c 8ebc b561 273d
00000340: 1865 e7bd c3e9 a8bd baba 303c 1de9 d8bd
00000350: 0210 f3bd d791 aebb 21d8 0e3d 8573 95bd
00000360: b07e bd3d 3a50 17bc fa1e 203d c2a0 d9bd
00000370: 9d5a efbd df97 003e 6a80 2b3d 5b76 533d
00000380: f11c 46bd 934d 61bd c4cb 063e 2ffd cc3d
00000390: c3e0 eebd 2648 58bb bc8b 4f3d 6221 8b3d
000003a0: bcde c4bd c315 903c de55 883d 9ad2 c7bd
000003b0: 5d20 923d add6 adbc c934 c9bd fa0a 053e
000003c0: 50be a53d 8a30 64bb a4dd 1a3c 249c d43d
000003d0: 7315 a43c 61cf 0d3d 15a0 65bd 9f91 dcbc
000003e0: 71cc 9cbd 56b0 cabc c49b ec3d dcdf b8bd
000003f0: c3fd 05be 6ae1 b7bd 5acc 3a3d 8ecf babd
-0.009662002 0.10453675 0.04487225 -0.070222765 -0.04308372 0.10449219 0.101957306 0.19295883
0.09423707 0.110989936 0.04478751 -0.05384217 -0.068152845 0.009614406 0.106789105 0.016973052
-0.0217425 0.0542118 0.12881608 0.12360726 0.12691998 -0.03610141 0.03290176 0.0354467
0.027740419 -0.04200008 -0.05263618 -0.044717025 -0.019806122 0.10671385 0.036936782 0.06311022
0.107751824 0.12034581 0.0940102 0.104731694 0.10703494 0.20005928 0.0533209 -0.041024618
-0.09076688 -0.039013084 0.08879736 0.030832402 -0.0010082462 0.044330787 0.11228086 0.124868974
0.052252058 0.1607169 -0.063754804 0.062626205 0.08509769 -0.022945506 0.07361198 0.2347321
0.06342624 0.08154568 -0.008629655 0.025690665 0.0054724817 0.040697448 0.13346022 0.13745926
0.08632538 0.17103058 0.055802695 0.12560405 0.018276826 0.041047823 0.012045592 0.080898754
0.13536488 -0.058822833 -0.1242309 -0.023059202 0.059809703 0.039162166 -0.002276833 0.04652283
0.023191322 -0.0008203815 0.032336142 -0.010494736 -0.021531148 0.093008 0.027006278 -0.08267971
-0.0040680883 0.12970868 0.075494856 0.12392018 -0.0052217194 0.042957883 0.12837027 0.05877363
0.14365233 -0.091221556 0.012228009 0.1356569 -0.010492529 0.059860792 0.08221332 0.09338506
0.023802109 -0.04472222 0.12116486 0.15600939 0.12647447 -0.022787416 0.094200715 -0.0061512482
-0.019952193 0.052842874 0.016346022 -0.051376168 0.087119214 0.081838086 0.15602599 0.011439601
0.0820357 0.056610357 0.027893532 0.21032928 -0.054658026 0.0066501657 0.09557947 -0.0320235
0.106023274 0.0683627 0.02888103 -0.021728473 0.040681966 0.039365657 0.003473835 -0.025802702
-0.0025895613 0.14153518 -0.02567461 0.09947656 0.054333184 0.027904851 0.045920983 0.06528631
-0.0047417246 0.139486 0.10134003 0.12505502 0.056644745 -0.0029922382 0.10556908 0.17443736
0.10028167 0.043591876 -0.041178063 0.18263209 0.0187617 0.015052236 0.1410282 -0.020970454
0.11766498 0.023753088 0.1592666 0.08741625 0.032101315 0.006106665 0.048092812 0.18285136
-0.004607244 -0.065938674 0.13642436 0.0054127653 0.21214248 -0.015929613 0.21255718 -0.015349216
0.04910547 -0.10061019 0.050793905 0.13395397 0.021525549 0.012111066 0.055314522 -0.04611472
0.10841328 0.043628547 0.17102943 -0.023040734 0.019467315 -0.023920191 -0.043825615 0.10956595
0.080954775 0.17120337 0.089213744 0.038383003 -0.004180899 -0.07097851 0.05090773 0.014823994
-0.04939599 -0.047083974 0.07671514 -0.073770955 0.08349073 0.07284527 -0.017363017 0.040864665
-0.11298579 -0.082477115 0.010786707 -0.10591338 -0.118682876 -0.005327444 0.034874085 -0.07297424
0.09252679 -0.009235436 0.03909204 -0.10626365 -0.11687205 0.12557934 0.041870512 0.051626544
-0.048367444 -0.05500562 0.13163668 0.100092284 -0.11663964 -0.0033001988 0.05067037 0.06793477
-0.09612796 0.017588502 0.06657003 -0.09756966 0.07135079 -0.02122053 -0.09824521 0.12992468
0.0809294 -0.003481897 0.009452257 0.10381344 0.020029759 0.0346216 -0.05606087 -0.026924906
-0.076561816 -0.024742287 0.115531474 -0.09027073 -0.13085084 -0.08978541 0.04560504 -0.09121619

bias_hh f4 [400]
00000000: 401e b33d 75e1 3b3d 8068 043e 5212 d23a
00000010: 0a36 c03c 69b8 ea3c 6506 d93d 257c 423e
00000020: 7b5c 91bb 784f 73bd e739 ec3c 00ac 4fbd
00000030: fbd0 d43d b34b 173e e5dd ee38 3c59 80bc
00000040: 338c 36bd 935e 6dbd 38e9 7a3e ebd4 8c3d
00000050: cdda d33b c135 cd3d 6df7 d4bc a245 513d
00000060: d2a0 febc 0374 8e3d 910b 553d ef09 b3bb
00000070: cf57 bd3d 992e 373d 3d6b 773d 1bb5 96bc
00000080: 19de ed3d a295 183e 5d28 d73d 5f68 203d
00000090: f0ac 1f3d 2fdd 9e3d 3ee0 ad3b 73ee 2cbc
000000a0: 7822 a23c c44f b8bd fbff f23d d694 1e3d
000000b0: 2cdc e53c b906 ae3c 3fb8 c9bc 24f2 b63d
000000c0: 25d1 01bd 37c9 ff3d dec5 b43b e990 b23d
000000d0: ec50 223e d834 553d cf07 58bd 0128 9d3d
000000e0: 484b 9c3d 6a10 823d c5a5 f63d f418 c83d
000000f0: 97ff 9dbc a253 0e3d 26f4 fa3d c13b 513e
00000100: 8bf2 6abc 83a6 8ebc b0f2 d8bd 7238 913c
00000110: cc89 ac3d 3390 dc3d da8e e8bc 4aac 5a3d
00000120: 2bbd a63d 1e99 09bd 7b12 bdbd 4af6 103d
00000130: eff6 c9bc d6ee 82bd bc8d e03d 42d1 68bd
00000140: 75d9 c23d 2bc8 853d ba61 d9ba a83a f5bc
00000150: 83e7 8a3c 350a 00bc b558 dd3d 355f a8bc
00000160: 10d9 b43d cdc5 393d 3d8f 87bc 7f5e 163e
00000170: a6eb c13d a507 073e 28dd ea3d 4b3a b53d
00000180: 6167 ad3d dcd3 49bd 2061 7f3d 1dc7 243d
00000190: ff06 e63d 1c11 f33c 9ed4 3ebd 0265 0cbc
000001a0: df1e 24bd cff8 333d b741 24bc 2cb5 0e3e
000001b0: e64a 043e bc7e 8e3d 624b 8d3c b132 a73d
000001c0: 8e7f 0b3d 41a6 493e 4bc7 373d 731f 7b3c
000001d0: 12c4 5e3d a487 bdbc 2ea0 6e3e 5818 6fbd
000001e0: 1bd4 833d d0a9 dc3c 1240 a6bc a6c2 ef3d
000001f0: 5643 72bd a340 123d 489c b2bc e267 abbb
00000200: 68c3 15bd 2f89 003e b41d 8d3d 059f a7bb
00000210: 9d31 c33d ee6f 033d e9ed 983b 4b22 123e
00000220: 9a8c 313e c437 5b3e 01e5 8cbc 3168 a93d
00000230: 8a8e 9bbd 3c1c c93d 2743 013e 27d3 d43d
00000240: 79e5 d23d c4ec fb3d 1fcd f03d 83bb 113e
00000250: 23fd 0c3d 28da 103e a02e 08bc 71da ca3d
00000260: 3673 c03d 2475 9a3d c9e8 39bd 145d 873e
00000270: 8035 0c3e 9ea1 9ebc 11d1 233d 498d 5dbc
00000280: 42be f7bc 5598 9fbd dd77 a73d 85e3 f83d
00000290: d50f be3d bede 113e 4a11 1e3d 2d02 d43d
000002a0: 7934 973c 9594 b93d effa a93d e14a 923d
000002b0: a447 ec3d dacf a6bd 45a3 a43d bac3 4cbd
000002c0: 986e 883d f8b9 11bd 7460 ad3d 4d86 1d3e
000002d0: a305 983d 072f 35bd 290b 073e c173 703b
000002e0: 860a 093e 32a4 5c3c 0401 c03d 42b8 9ebb
000002f0: 847d 6c3c 3697 e13d a07e 5abd d722 b33c
00000300: 827d ef3d 329f 153e b6f3 123e 449d f13d
00000310: 73d6 773c 03f3 81bd c2a1 883d df14 d63c
00000320: 1f74 46bd de03 d13d f3a7 ee3c 5b2e ccbd
00000330: b95a 383d 3720 5dbd 6488 fd3c 836b 903d
00000340: ce7e 34bd d83a c6bd b3b5 963d 426f c8bd
00000350: 70af a5bd 8aee 863d 6852 aa3d cd90 99bd
00000360: 6793 933d c734 a53d d54c 96bd e35a fdbd
00000370: cd18 95bd 24d2 3b3d f059 e7bc 94ee 87bd
00000380: 0af8 de3d e090 f13c 31f8 eb3d b160 c2bc
00000390: fecc 003b 190b 50bd 5da5 3b3d 35a6 9e3d
000003a0: 45a9 72bd c288 b0b9 f0ef d8bb f231 063d
000003b0: 5116 eebd 8664 543d bad1 1fbd f7a1 6a3d
000003c0: 5a62 1bbc 80a4 93bc d983 2ebd 3305 913d
000003d0: 58b8 3a3d ed26 0a3e 9fe9 043c 4059 98bd
000003e0: f7c1 57bc d9d7 acbd 9891 f63d 0266 1e3d
000003f0: e697 913c 9309 c1bd 5625 543d cb85 ad3d
0.08746004 0.04586931 0.12930489 0.0016027188 0.023463268 0.028652387 0.10596923 0.1899267
-0.0044360734 -0.05940196 0.028836204 -0.05070114 0.10391422 0.1477497 0.000113900554 -0.01566755
-0.0445673 -0.05795152 0.24503028 0.068765484 0.006465292 0.10020018 -0.025996888 0.051091798
-0.031082544 0.06955721 0.052012984 -0.0054638307 0.09245264 0.044722173 0.060405005 -0.018396905
0.116146274 0.1490083 0.105057456 0.039162036 0.038983285 0.07757031 0.005306273 -0.010554898
0.019791827 -0.08999589 0.11865231 0.03871616 0.028059088 0.02124344 -0.024623988 0.089329034
-0.031693596 0.124895506 0.0055167517 0.08719046 0.15851182 0.05205235 -0.05274182 0.07673646
0.07631546 0.06350787 0.12043337 0.097703844 -0.019286914 0.034747727 0.12253599 0.2043295
-0.014340053 -0.017413383 -0.10593164 0.01772711 0.0842472 0.10769691 -0.02838843 0.053386964
0.0814155 -0.03359329 -0.092320405 0.03539113 -0.02465388 -0.063932106 0.10964534 -0.05684019
0.09514133 0.0653232 -0.0016584911 -0.029935196 0.016956097 -0.007814934 0.10807935 -0.02055321
0.08830464 0.045354653 -0.016547794 0.14684485 0.094687745 0.1318651 0.114679635 0.08849009
0.084669836 -0.04927431 0.062348485 0.04022895 0.11231803 0.029671244 -0.046589486 -0.008569004
-0.040068503 0.043938454 -0.010025433 0.13936299 0.12919196 0.069577664 0.01724786 0.081639655
0.034057193 0.19692327 0.044867795 0.015327322 0.054386206 -0.023135968 0.23303291 -0.058372825
0.0643694 0.026936442 -0.020294223 0.11707048 -0.059146248 0.035706174 -0.021803036 -0.0052308897
-0.036563307 0.12552331 0.06890431 -0.005115392 0.09530947 0.032089166 0.004667033 0.14270894
0.17338791 0.21407992 -0.017199041 0.08271826 -0.075955465 0.098198384 0.12623273 0.103918366
0.10297675 0.12301019 0.11757874 0.14231686 0.034421097 0.1414572 -0.0083118975 0.09904946
0.09396975 0.07541874 -0.045388017 0.264382 0.13692284 -0.019364174 0.039994303 -0.013522455
-0.03024209 -0.07792727 0.08177159 0.12152771 0.092803635 0.14245126 0.038590707 0.103519775
0.018457638 0.09061543 0.08299815 0.07143188 0.11537102 -0.08145113 0.08038954 -0.049991347
0.06661719 -0.035577744 0.084656626 0.15383263 0.0742295 -0.044234302 0.13187851 0.0036690088
0.1338292 0.013466882 0.09375194 -0.0048437426 0.014434222 0.11015169 -0.053343415 0.021867199
0.116938606 0.1461151 0.14350781 0.11797574 0.015126812 -0.06345179 0.06671478 0.026132999
-0.048450585 0.10205816 0.029132819 -0.09969779 0.045008395 -0.0539858 0.030948825 0.07051756
-0.044066243 -0.09679192 0.07358875 -0.09786846 -0.08090103 0.065884665 0.08316499 -0.07498322
0.07205849 0.08066707 -0.07338873 -0.12370851 -0.07280121 0.045854703 -0.028241128 -0.06637302
0.108871534 0.029488027 0.11521948 -0.023727747 0.0019653435 -0.050791834 0.045812 0.07746545
-0.05924346 -0.00033671228 -0.0066203997 0.032762475 -0.1162535 0.05185368 -0.03901837 0.057283368
-0.009483898 -0.018022776 -0.04260621 0.0708107 0.04558596 0.13491412 0.00811234 -0.07438898
-0.013168803 -0.08439607 0.120394886 0.0386715 0.017772626 -0.09425654 0.05179342 0.084727846
