models/autoregressive_linear_optparams.pt (torch, 31532 bytes, 7 tensors)

weight_ih f4 [240, 6]
000000 c0 16 b0 be fa 38 1c bf 09 7a 0a be 72 6e 0b c0
       -0.34392357 -0.6102444 -0.13523115 -2.178616
000010 7c f7 96 3f 45 37 06 bf 9a ba 17 3e 60 50 82 be
       1.1794276 -0.52428085 0.14817277 -0.25451946
000020 e6 7f de be e5 a8 20 40 d4 fa ce c0 82 c9 49 be
       -0.43456954 2.5103085 -6.4681187 -0.19705775
000030 00 0b 87 3d 10 9c 15 40 b9 ca 65 be ee ea 62 c0
       0.06593895 2.3376503 -0.22440614 -3.545589
000040 f2 d6 a3 bf 8d e8 a2 3d c9 f1 c5 3e 5b 7d 9d 3e
       -1.2799971 0.07954512 0.3866103 0.307597
000050 80 55 ad 3e b2 9f 39 c1 9f 46 42 3f 3f 0a d3 3e
       0.33854294 -11.601488 0.7588901 0.41218755
000060 4a 5a 15 be f9 35 dd bd d9 f4 57 bf 55 3f 2d 40
       -0.14585224 -0.1080131 -0.8435798 2.7069905
000070 3c 56 6c bf f5 d4 94 3e 9d 96 0e 3e a6 78 03 c0
       -0.92319083 0.29068723 0.13924642 -2.0542388
000080 f3 13 ae bf 92 f7 15 c0 73 2a 0e bf bd 86 4b be
       -1.3599838 -2.3432355 -0.5553352 -0.19875617
000090 ed 7e 4f be 2a 24 82 bf 35 1a 07 c0 d7 bb dd c0
       -0.20263262 -1.0167286 -2.1109746 -6.9291797
0000a0 09 36 4c 3f 09 24 6c be ea dd 7e bd 6e 05 8d bf
       0.7976995 -0.23060621 -0.062223352 -1.1017282
0000b0 cb 5b 83 3c e1 be 26 40 8c b6 26 bf 0e 4d 7c 3b
       0.016034981 2.6054003 -0.65122294 0.0038498077
0000c0 ac c8 43 3e 66 e3 5c 3e 8a 62 8f be 02 b9 a2 bf
       0.19119519 0.2157112 -0.28004867 -1.271271
0000d0 41 ef 1c be cd c5 ff 3e 26 6f da be 65 88 d7 bd
       -0.15325643 0.49955598 -0.42662925 -0.10524062
0000e0 b4 7d eb 3e 6d 16 26 41 81 ae 09 3e 58 55 a8 be
       0.4599434 10.380475 0.13445474 -0.32877612
0000f0 e1 c3 ca be ab 0e 25 bf 40 02 55 be dc b0 f0 3f
       -0.3960257 -0.64475507 -0.2080164 1.8803973
000100 10 a8 f1 bf 87 96 5b bd 31 e4 e5 be db 65 82 be
       -1.8879414 -0.05361035 -0.4490066 -0.25468335
000110 8e ca 4d be dd 62 9c 40 ce 76 aa bf 57 d5 50 bf
       -0.200968 4.8870683 -1.3317506 -0.8157553
000120 06 14 ac 3d fb 7e a3 be 72 2b 13 c0 17 f6 97 c0
       0.08402257 -0.31932816 -2.2995267 -4.7487903
000130 2a 48 82 3e 11 c5 ee 3d b8 e9 9e be f9 3e 83 be
       0.25445682 0.11658681 -0.31037688 -0.25633982
000140 67 fa 85 bf 3f 14 8b c0 37 c5 ba bf 6e 4e 03 bf
       -1.0467042 -4.3462214 -1.4591435 -0.5129155
000150 39 ac e3 3e f2 80 e5 3f 0b 93 29 be 07 b5 d6 40
       0.44467333 1.7929976 -0.16559999 6.709598
000160 b7 63 d7 3f 4b c0 b3 3e a7 c6 95 be 93 b5 90 be
       1.6827306 0.35107645 -0.29253122 -0.2826353
000170 9f 46 3a bf 49 b8 0d c0 90 47 b9 3f c1 40 71 bc
       -0.7276401 -2.2143729 1.4474964 -0.014724911
000180 48 86 f0 3e 59 a9 0b be ec 3d 80 3e 3d 1a d2 3f
       0.46977448 -0.1363882 0.25047243 1.6414257
000190 7b 44 7e bf 46 06 07 3e 63 01 d3 bc e6 6a 8c 3f
       -0.9932324 0.13185987 -0.025757497 1.0970123
0001a0 18 5c b6 be de 67 5f bf 48 13 54 bf eb 86 1b bd
       -0.35617137 -0.87267864 -0.8284192 -0.037970465
0001b0 23 88 14 3e cf 80 8e 3f 9a 33 3d bf 04 6f 2f 3f
       0.14505057 1.1133059 -0.7390686 0.6852877
0001c0 b7 6b d3 3e d2 3c 2b be 14 57 a1 bd c7 11 36 40
       0.41293117 -0.1672242 -0.07877937 2.844835
0001d0 2d 68 37 bf 23 ad 9c c0 42 86 b3 be ba 79 eb be
       -0.71643335 -4.896135 -0.35063368 -0.45991307
0001e0 ff 0e 75 3e 90 3f 61 be a0 f6 44 3d cf 9b 41 3f
       0.23931502 -0.21996903 0.048086762 0.7562837
0001f0 b7 df 18 c0 cb 42 f2 bd b1 c7 e9 3c eb 5a 17 3f
       -2.3886545 -0.11829146 0.028537603 0.59123105
000200 b3 73 bd be f6 1d 19 be 6e 66 7a c0 80 fb 77 3d
       -0.37002334 -0.14952835 -3.9125018 0.060542583
000210 bd 8d 8c 3d 69 db 09 bf 1d dd 82 3e c4 61 47 c1
       0.06862972 -0.5385042 0.2555932 -12.461369
000220 0b e3 e2 3f c9 29 e5 be ee 02 8c 3e e5 2b 67 bf
       1.7725538 -0.44758442 0.27345985 -0.9030135
000230 24 e9 6b bf a4 40 fe bf 28 62 26 bf c7 f7 48 be
       -0.9215262 -1.9863477 -0.64993525 -0.1962577
000240 64 eb 48 3f 2b e2 55 bf 5b 47 8c be c0 0d c3 bf
       0.7848418 -0.8354823 -0.2739819 -1.5238571
000250 f7 f5 01 40 2e 83 e5 3e 64 95 2b be 09 b2 44 c0
       2.0306375 0.44826645 -0.16756207 -3.0733664
000260 6d 0b 47 bf e6 cb 70 c0 7e 9a bb 3e 45 f0 1b bf
       -0.7775181 -3.762445 0.36641306 -0.609135
000270 10 cb a4 be 15 8d a2 be c9 a4 3b bf 8b 5f 75 bf
       -0.32186174 -0.31748262 -0.7329832 -0.9584891
000280 11 3e c4 c0 57 3e f8 be 65 eb ef 3e f4 e7 0a bf
       -6.1325765 -0.48485062 0.4685928 -0.5426018
000290 9d 4c 71 bf 5f 25 0b bf a0 be bb 3f eb 01 9c 3e
       -0.9425753 -0.543539 1.4667549 0.30470213
0002a0 e8 0a 7a bf ab 24 6a be fb 70 b4 bf dd a8 50 c0
       -0.9767289 -0.2286555 -1.4096979 -3.2603066
0002b0 3b 3c e0 3f 68 6f 80 bf 7d c5 dd be 00 7a 6c bf
       1.7518381 -1.0033998 -0.43314734 -0.9237366
0002c0 49 5c 1e bf 86 55 04 c1 c9 79 6c bf 13 5f 77 be
       -0.61859566 -8.27088 -0.9237333 -0.24157362
0002d0 13 1b 33 be ec 31 35 be a1 f5 9c be 49 7f 90 bf
       -0.17490797 -0.17694825 -0.3065615 -1.1288844
0002e0 a7 af 0b c1 0c ac 15 bf 2b ac 8e be c4 ce c1 bd
       -8.730384 -0.5846565 -0.2786573 -0.094632655
0002f0 dc db 46 bf 3f 94 12 c1 3c 6c 88 be 49 21 2d 3f
       -0.7767923 -9.161193 -0.26645076 0.67628914
000300 36 08 a1 be 33 ae 8e 3e ff 40 b2 be 58 f8 88 40
       -0.31451577 0.27867278 -0.34815213 4.2803154
000310 fd dc 32 bf c2 e2 3d bf c7 ee 1a be c0 e8 92 3c
       -0.6986845 -0.7417413 -0.15130149 0.01793325
000320 e1 3c 4d bd 43 21 f1 c0 f2 27 d5 3d 97 3e 29 be
       -0.050106887 -7.5353103 0.104080096 -0.16527782
000330 35 8d a7 3e 86 41 20 c0 6b 89 4e be 42 e5 14 40
       0.3272492 -2.5039992 -0.20169608 2.3264928
000340 1a e3 a1 bf 30 c2 b3 be 18 e8 6a bf 36 91 42 3f
       -1.2647431 -0.3510909 -0.91760397 0.76002824
000350 20 c6 b5 be 4f 77 31 3f af 25 d9 3d bc d1 d7 bd
       -0.3550272 0.69322675 0.10602891 -0.105380505
000360 ab 3d 16 bd 3e c6 3b bf a9 51 0c 3f b3 8a 29 40
       -0.036679905 -0.7334937 0.54812104 2.6490905
000370 cd 3f fa be 3c 09 25 3f 44 64 1c 3f 87 21 16 c0
       -0.488768 0.64467216 0.61090493 -2.3457963
000380 06 94 00 c0 de 2c 33 bf 9b 04 59 bf b4 2e 3f 3d
       -2.0090346 -0.69990337 -0.8477265 0.0466754
000390 c9 09 ab be c3 93 79 be 1f a3 7d bd 80 b4 39 bf
       -0.33405903 -0.24372773 -0.061923143 -0.72541046
0003a0 3e 8e a3 c0 cd bc 0d be 86 9b 00 3f bf 09 e0 3f
       -5.1111135 -0.13841553 0.5023731 1.7502974
0003b0 90 e2 a2 bd 90 06 ec c0 82 94 07 3f a8 d6 0b 3f
       -0.079533696 -7.375801 0.5296098 0.54624414
0003c0 1b d6 3b be c1 0c 48 3e 8e f8 23 3f ad 17 88 c0
       -0.18343394 0.19536115 0.6405114 -4.25289
0003d0 e1 fc 80 40 dc fc 53 bd 96 64 96 be 09 44 d7 bf
       4.030869 -0.051754817 -0.29373616 -1.6817638
0003e0 9c a4 55 3e ad 75 d3 40 84 1b ac 3f 40 52 8e be
       0.20863575 6.6081147 1.3445897 -0.27797127
0003f0 6e 28 5b bf dc c4 14 bd 2e 65 00 be d4 e8 26 c0
       -0.85608566 -0.036320552 -0.12538597 -2.6079607

weight_hh f4 [240, 12]
000000 cb a2 a2 3e ff c9 6e 3d 24 24 e0 3d d3 a2 37 3e
       0.31764826 0.058298107 0.10944393 0.17933206
000010 b4 8f 6e 3e e7 2a 93 bf 17 69 d7 3e 7a 54 30 3f
       0.23297006 -1.1497468 0.42072365 0.688789
000020 9e af b1 be b2 d0 0b 3f 02 9d d8 be 47 02 c8 3e
       -0.34704298 0.5461532 -0.42307287 0.39064237
000030 76 45 29 3e 60 73 b3 3e 4a 56 5b 3e 49 74 84 3f
       0.16530403 0.35048962 0.21419635 1.0347987
000040 0e 4b 8f 3e ed e3 ae bf 59 c4 c5 bd 22 3d 96 be
       0.2798695 -1.3663307 -0.09656591 -0.29343516
000050 13 da a7 3f 17 7b 53 bf 46 a9 cf 3e 56 e0 f6 be
       1.3113426 -0.82609695 0.40558833 -0.4821803
000060 70 b4 03 3e f8 de aa 3f 17 f6 ac bf db ad be 3e
       0.128618 1.3349295 -1.3512601 0.37242016
000070 e9 c1 75 3f 58 54 49 bf f2 c3 dd bf e8 c9 86 3e
       0.9599901 -0.78644323 -1.7325423 0.26325917
000080 6f ed 60 bf 4e b1 88 bf 57 c8 47 3e d9 2a 85 bf
       -0.87862295 -1.0679109 0.19510017 -1.0403701
000090 f5 2a 68 3d 51 f8 62 be fe c2 aa bd f9 10 e6 3e
       0.056681592 -0.22165038 -0.08337973 0.44934824
0000a0 5d 04 a6 3e ed 44 5b bd 1f 72 42 bf 35 0e e4 be
       0.32425204 -0.05353253 -0.75955385 -0.4454209
0000b0 bc e2 ba 3e 45 c1 5a bf 3b 68 03 3e 0a b1 ac be
       0.3650111 -0.85451156 0.1283273 -0.3372882
0000c0 aa a8 d5 3e 77 bd a4 3e 92 cd 8b bf b5 06 40 be
       0.41730243 0.321758 -1.092211 -0.18752559
0000d0 2b a9 c7 bd fb 36 b1 bf 00 07 d4 3d b9 cf 39 3e
       -0.09749063 -1.3844904 0.10352898 0.18145646
0000e0 c0 20 3b 3e 4a fa e7 be 7b 09 e2 bf 1c 82 29 3f
       0.18274212 -0.45308143 -1.7659143 0.66214156
0000f0 15 5a bf 3e 9a 99 f3 bd b6 4f a8 bf 62 1b 03 bf
       0.37373415 -0.118945315 -1.3149326 -0.5121366
000100 f3 8b 4a 3f cb ae 43 3f dc 55 ae be 53 b5 9b 3d
       0.79119796 0.7643859 -0.3404988 0.07602944
000110 ce 5e a7 3e 84 37 0b bf e6 6b ea 3f b9 e8 d4 bf
       0.32689518 -0.54381585 1.8314178 -1.6633521
000120 48 f0 45 3f bc 3e da 3f 31 22 56 bf 5f f5 ba 3e
       0.77319765 1.7050395 -0.8364592 0.36515328
000130 79 9c 5f 3e b5 1b ca bf 25 eb 03 be 0b 78 c0 be
       0.21837033 -1.5789706 -0.1288267 -0.37591586
000140 2f 0a b9 3b 4b 38 4f bf 80 6f 75 be 32 da b9 be
       0.005646966 -0.8094527 -0.23968315 -0.36299282
000150 f8 ac c2 bb 9b 38 b1 3e e8 c3 2c 3e 0b 24 8a be
       -0.0059410296 0.346135 0.16871607 -0.26980624
000160 5e 70 3f 3c 4a bd b1 3e 48 e9 b0 3f 71 f3 b9 3e
       0.011684505 0.3471473 1.3821192 0.36318544
000170 ad e0 7a bf 17 f6 9d be b7 26 ca be 5c 79 a1 3f
       -0.9799908 -0.30851814 -0.39482662 1.2615161
000180 ef 6d df 3f 7c a7 b8 3e b8 f4 28 bf 7b 5d 17 be
       1.7455424 0.3606528 -0.6599841 -0.14781754
000190 21 46 9a 3f da 16 0f bf b5 85 6d 3f fd 25 7c 3e
       1.2052652 -0.55894244 0.92782146 0.24623866
0001a0 20 90 11 3f c5 c6 39 bf 1e 83 e6 bd 4e 40 3a 3e
       0.5686054 -0.72568923 -0.11255477 0.18188593
0001b0 76 63 ac 3e f6 b4 3f 3f ae 25 4e bf 7c a1 1a bf
       0.33669633 0.748855 -0.80526245 -0.60402656
0001c0 e6 17 fa bd 7b 2a 32 bf c8 33 f0 3e 97 10 ac be
       -0.122115895 -0.6959607 0.46914506 -0.33606407
0001d0 a4 c2 57 3e 1f bc 30 bf 29 eb 08 bf c0 85 f2 3e
       0.21070343 -0.6903705 -0.53483826 0.47367668
0001e0 33 a5 15 3f 85 07 c0 bf a5 f0 a4 3e 53 ad 10 bf
       0.584552 -1.5002295 0.32214847 -0.5651447
0001f0 6d 3b 66 3e 99 17 a1 be 11 62 98 3e a5 ce 92 be
       0.22483607 -0.31463316 0.2976232 -0.28673282
000200 64 fe c7 bd f5 28 ec 3e 75 23 6d 3c c7 c0 4a 3f
       -0.09765318 0.46124998 0.014473786 0.79200405
000210 25 46 fd 3f 21 02 fa 3f a7 06 86 bf 9a f2 a9 3f
       1.9787031 1.95319 -1.047078 1.3277161
000220 ee e5 61 3f d0 ba 8b be b5 04 5d bf b9 ec a8 bf
       0.8824147 -0.27290964 -0.8633531 -1.3197242
000230 98 5b ca 3f a4 3a 34 c0 46 f2 be bf 42 34 30 3f
       1.5809202 -2.8160791 -1.4917686 0.6882974
000240 d6 e8 67 3f 9f 73 ce 3e f9 98 5d bf c7 f2 0e bf
       0.90589654 0.40322587 -0.8656154 -0.558392
000250 64 d6 66 3f ae 02 6e 3f 12 d5 b3 3e 91 08 b4 bf
       0.90170884 0.9297284 0.35123497 -1.4065114
000260 2b 4d c5 3f 79 0e 6f bf e9 55 89 be 8e d6 80 bf
       1.5414175 -0.9338146 -0.26823357 -1.0065477
000270 23 70 3e 3e 2f cc 28 3f ae 51 03 be 30 49 d0 3d
       0.18597464 0.6593656 -0.12824127 0.101702094
000280 74 68 fc be d0 15 19 bc da e4 ae bd dd 5a 3c be
       -0.4929844 -0.009343579 -0.08539744 -0.18394037
000290 16 3d d9 3d 70 14 9a be 0f 25 16 3e 8a 00 90 be
       0.10607354 -0.30093718 0.14662574 -0.2812541
0002a0 06 18 f6 3c 7d da 55 bd 1c e9 5e bd 4c 40 04 3f
       0.030040752 -0.05221032 -0.05442153 0.5166061
0002b0 ad 6d ba bf 8b 01 75 3e 3d 66 7f be c3 c5 a6 3c
       -1.456472 0.2392637 -0.24941345 0.020357972
0002c0 ba eb 56 3e fa 7f 83 be 40 a3 27 be 58 8c b1 be
       0.2098836 -0.25683576 -0.16370869 -0.34677386
0002d0 da b4 20 3f e7 fb 34 be c1 f3 28 bf 2d 5d 36 3f
       0.6277596 -0.17674218 -0.6599694 0.71235925
0002e0 87 77 ab bf 4d fc c1 be 45 fd 3f 3e 2d bb 9d be
       -1.3395852 -0.37887803 0.18748958 -0.30806866
0002f0 df a1 8e bd 6e c3 46 bd 26 07 3b be 35 64 a3 bd
       -0.06964468 -0.04852622 -0.18264446 -0.07978097
000300 40 14 38 3e c2 7a 14 3f 0b 92 48 bf 3e e7 01 bf
       0.17976475 0.57999814 -0.78347844 -0.5074347
000310 b9 3f f5 3e 50 a3 d7 be 66 58 2b 3f 2f 43 da bd
       0.4790018 -0.42116785 0.6693176 -0.106573455
000320 8e 7a f0 3e 61 46 72 3e 12 2d 15 3f 47 f8 ac 3e
       0.46968502 0.2365966 0.58271897 0.3378317
000330 02 59 2f 3e 54 f2 32 bf f5 91 75 3f c8 49 2e bf
       0.17123798 -0.69901013 0.9592584 -0.6808133
000340 ab 56 87 be d5 73 9b bf f9 15 a5 be da 19 39 bf
       -0.2643331 -1.2144724 -0.32243326 -0.7230507
000350 7a 70 25 be a4 7e b9 3e 30 36 0f be 2d 4f 8d be
       -0.16156188 0.36229432 -0.13985515 -0.2759947
000360 bd b1 e3 3e b6 e0 3b ba 33 9a 30 3e 17 3b 28 3f
       0.4447154 -0.00071669684 0.17246322 0.65715164
000370 a6 07 8e bf 99 f0 64 3e 23 b0 69 be 85 f0 c7 be
       -1.1096084 0.22357406 -0.22821097 -0.3905069
000380 aa 26 80 bf a9 b0 13 be 54 01 2d 3e 31 dc 6c 3f
       -1.0011799 -0.14422859 0.16895038 0.92523485
000390 cd 74 e4 3e c9 41 1b 40 83 a5 2b bf 9f 58 94 be
       0.44620362 2.4258902 -0.67049426 -0.28973863
0003a0 1e 39 98 3f 28 b6 a5 bf da e1 91 bf fb 5d 01 3f
       1.1892431 -1.2946215 -1.139705 0.5053403
0003b0 90 a4 88 be 4b 90 34 c0 9f 71 ca be 58 cb 59 3a
       -0.2668805 -2.821307 -0.3953981 0.00083081936
0003c0 dd 86 08 3f 65 b9 ad bc 12 04 89 bf 77 21 bc be
       0.53330785 -0.021206567 -1.0704367 -0.36744282
0003d0 87 ca 19 3f 67 13 71 be a2 e3 13 3e 38 f6 b0 be
       0.6007466 -0.23542558 0.14442304 -0.3456285
0003e0 a1 f2 8b 3f 16 38 25 3e 58 f1 2a 3f 48 4b 4a bf
       1.093342 0.16134676 0.6677451 -0.7902112
0003f0 dc ec 3b 3f 16 39 83 be f1 12 e6 be d0 49 fc 3e
       0.73408294 -0.2562949 -0.44936326 0.49275064

proj f4 [12, 60]
000000 db e5 c4 3e d0 70 c1 3e ad e8 11 3e 90 cd 71 3d
       0.38456616 0.37781382 0.14248915 0.05903393
000010 b3 97 b6 3e e1 9d 20 be 3c eb 84 3e 2f 3f 22 3e
       0.35662612 -0.15685226 0.2596072 0.15844415
000020 2e 8f d7 3b bd 24 18 3f e1 90 d3 3e e6 f3 97 3f
       0.0065783476 0.5943106 0.4132147 1.1871307
000030 c7 6a 88 be dc 5e 3f bf 1c 57 01 bf 0e 54 08 3d
       -0.26643965 -0.7475412 -0.50523543 0.033283286
000040 7e 66 31 3e 08 7b 18 bf 6d 3b 14 3e a7 b0 9d 3e
       0.17324254 -0.5956273 0.14475794 0.30798838
000050 b0 de b1 3d 0a 82 a0 be 18 1e 48 be 26 73 a5 3e
       0.086850524 -0.31349212 -0.1954273 0.32314414
000060 8c 21 90 3e 7e 2b 0c bf 54 e0 5f be 1c 39 bf bc
       0.28150594 -0.54753864 -0.21862918 -0.023342662
000070 0b af 1a be 71 98 8c bf ff 8a 97 3e 65 5f 15 3e
       -0.15105836 -1.0984021 0.29598233 0.14587171
000080 db 5b ca 3d 95 97 9d bd fc ff 71 3d 8c 4a 4e 3c
       0.09880801 -0.076949276 0.059082016 0.012591016
000090 9a c1 ab 3e 1f ef 2f 3d fa 6a 91 3d 1b f6 44 3e
       0.33546144 0.042952653 0.07100482 0.19234507
0000a0 05 87 ce 3d 6f c0 f5 3c 91 bc 63 bf 9e cc 91 be
       0.10084347 0.029998986 -0.88959605 -0.28476423
0000b0 7d e2 a7 3d 54 6f 33 3e f5 da b5 3d 74 ad a7 bc
       0.08197496 0.17522937 0.08879653 -0.020468451
0000c0 79 da a5 3d e1 5a ae be cb d2 ec be 03 53 49 be
       0.08098311 -0.3405371 -0.46254572 -0.19660573
0000d0 b9 f3 87 3d 00 aa 13 be 1a a9 35 3b 54 fa 2c bf
       0.06638283 -0.14420319 0.00277192 -0.6756947
0000e0 16 38 82 be 80 e9 84 be 49 38 02 be 06 81 a7 bd
       -0.25433415 -0.25959396 -0.12716784 -0.08178906
0000f0 f4 91 0e 3f 97 09 7a 3f f3 6c 82 3f 98 41 02 bd
       0.55691457 0.9767088 1.0189499 -0.031800836
000100 a7 27 22 bf f9 3b ad be 76 5e c8 be 36 e9 97 bd
       -0.63341755 -0.33834818 -0.39134568 -0.07417528
000110 52 fd 49 3f c9 75 b7 be 94 48 7e be 95 e5 bc be
       0.7890216 -0.3583205 -0.24832374 -0.36893907
000120 cc 8c 4b bf 0f 16 af bf 9f 9c ba be 2b 28 37 be
       -0.79511714 -1.3678607 -0.36447617 -0.17886417
000130 ed 97 80 be 89 bf 20 bf 6a 23 24 3e 9b 4f f7 be
       -0.2511591 -0.6279226 0.16029134 -0.48302922
000140 29 f7 70 be 78 91 df bd d1 1f 8f 3e 39 51 9f be
       -0.23531784 -0.10916418 0.27953961 -0.31116655
000150 65 d5 b1 3e 6f ed e5 be 6f 31 f1 bd 17 c1 80 3c
       0.3473312 -0.4490771 -0.11777007 0.015717072
000160 14 9b 8b be d0 7e e6 be 1b 7f cf 3e d4 e0 69 bf
       -0.27266753 -0.45018625 0.4052666 -0.91358685
000170 da 59 f3 3e ae e1 91 3e 98 85 e0 3e e6 6e e1 bd
       0.4752949 0.28492492 0.43851924 -0.1100748
000180 61 99 23 3e 10 65 dd bd 65 65 b5 be df de 23 be
       0.15976478 -0.10810292 -0.3542892 -0.16002987
000190 f9 13 d1 be 2d 9a a5 3e 2a 50 e8 3e 16 e9 68 3d
       -0.4083555 0.3234419 0.4537366 0.056862913
0001a0 f8 f7 78 3f 83 75 91 be e9 dc 0f 3e cc 43 a7 3e
       0.9725337 -0.28409967 0.14049114 0.32668912
0001b0 72 07 f7 bd 4a fd 86 be af 25 56 bc ce 23 9a bf
       -0.12061967 -0.2636512 -0.013070508 -1.2042177
0001c0 ab ba cc bd 2a f1 10 bf b3 c7 31 3e 3c 9c ea bd
       -0.099965416 -0.5661799 0.17361335 -0.114555806
0001d0 25 c2 96 bf 78 da 41 be cf 20 04 bf 7f 5b 11 3e
       -1.1777998 -0.18930995 -0.5161256 0.14195059
0001e0 5a d0 8b bd c2 7c 50 bf 40 6b 9f be 11 5e 37 3f
       -0.06826849 -0.81440365 -0.31136513 0.7162791
0001f0 d2 7c ec be 2a 46 28 bf ae d7 d1 3e 7e c7 00 bd
       -0.4618898 -0.6573206 0.40984863 -0.03144025
000200 18 e7 88 be 96 70 4d bf e8 ba 95 3e e2 a6 d4 be
       -0.2673881 -0.8024992 0.2924416 -0.4153357
000210 df 9a b7 3d d4 30 81 3e 52 a2 1a 3f bb d4 80 3e
       0.08965086 0.25232565 0.6040393 0.251623
000220 0b 40 5c bf c7 86 e7 be 7b 58 1f bf 0e fd ba bd
       -0.8603522 -0.45220014 -0.62244385 -0.091302976
000230 69 c8 9f 3e a3 15 9d 3b f4 62 78 bf 83 48 07 3f
       0.31207588 0.004793839 -0.9702599 0.5284502
000240 4e 26 7f bf 8a b6 01 bd 59 62 b9 bc b8 25 02 bf
       -0.99667823 -0.031668223 -0.022629904 -0.50838804
000250 69 db f9 3e 72 84 79 3e 22 8b 1b bf 48 06 f7 bd
       0.4880021 0.2436693 -0.60759175 -0.12061745
000260 08 14 22 3e 7f d4 4e bd 99 fe 03 bf 11 1e 50 bd
       0.15827954 -0.05049562 -0.5156036 -0.050809924
000270 93 1a 2a bf 1f 44 2c bc 13 ee c9 bd bc f8 7e 3f
       -0.664468 -0.010514288 -0.09859862 0.9959829
000280 a8 c2 af 3d 99 cc de bd 5f 48 8c bd ff 36 ec bd
       0.085820496 -0.10878868 -0.06849741 -0.11533927
000290 20 56 1c bf a0 3c 05 3f 54 b0 ef 3e f1 7c 3f 3e
       -0.61068916 0.5204563 0.46814215 0.18700005
0002a0 e9 7a 23 be 20 96 b9 3d a9 dd 50 be c5 98 fd 3e
       -0.15964855 0.09061837 -0.20397057 0.49530616
0002b0 0f 05 d9 3e a3 2e 21 3f de ec 9f be ec e1 e8 be
       0.42386672 0.62961787 -0.31235403 -0.45484865
0002c0 46 4b 61 3e f0 bf b5 be 20 78 f6 3e 2c 30 5b bf
       0.22001371 -0.35498 0.48138523 -0.8562038
0002d0 c4 b3 77 be 17 7e 10 3e e8 77 c4 be 8c 2d 01 be
       -0.24189669 0.141106 -0.3837273 -0.12615031
0002e0 81 8b 72 be f4 40 ab 3e d8 44 a1 3e ad 16 9c be
       -0.23686029 0.33447993 0.31497836 -0.3048605
0002f0 69 e7 d0 3e 6f c2 04 3f e9 9d 12 bf 4e ba 70 3d
       0.40801552 0.5185918 -0.572722 0.058771424
000300 4d 75 98 be 7f 99 0d be c9 64 85 be 6f dd 78 be
       -0.29776993 -0.13828085 -0.26053455 -0.2430322
000310 32 ad 18 3f 9c cf 2a 3f 38 45 ff 3c c6 18 9e be
       0.59639275 0.66723037 0.031160936 -0.30878276
000320 20 71 c7 be ff 77 6c 3e 0c 30 8b be c0 b9 7b be
       -0.38953495 0.2309265 -0.27185094 -0.24582577
000330 6e 0f e3 3d 65 04 c9 3d 7d 97 b7 3e 58 f0 55 3e
       0.11086927 0.09815291 0.35857764 0.20892465
000340 41 37 6f 3f d8 c0 b1 3e 10 92 69 bf 57 1a c1 bd
       0.93443686 0.3471744 -0.912385 -0.09428852
000350 3f 29 d1 3e 31 bf 81 bd d6 f9 9b be 42 16 2a be
       0.4085178 -0.06335295 -0.30464047 -0.16610053
000360 21 e5 c9 be 1a 54 56 3d df 06 66 3f 8d 79 59 3f
       -0.39432624 0.0523263 0.89854234 0.84951097
000370 1d 83 bd 3f 72 3b 81 3e cb e7 59 3f 87 4f 26 3f
       1.4805638 0.25240666 0.85119313 0.649651
000380 c9 40 18 3f 1e 49 f6 3e 3e 83 35 bf f6 e1 c3 3e
       0.59473854 0.4810266 -0.70903385 0.38258332
000390 72 5c c8 3b bd f6 1a bf 9a a8 4e 3f 78 eb db 3e
       0.006114536 -0.6053274 0.80726016 0.42953086
0003a0 c2 fa ee 3d 97 e5 eb be 4b 1a da bd 35 fb de 3c
       0.11668922 -0.460736 -0.10649546 0.027219394
0003b0 09 b7 7a bf c2 6e a5 3d 95 97 3f bf 28 c9 50 3e
       -0.9793554 0.08077766 -0.7484067 0.20389235
0003c0 0c 96 5e 3e 0f e0 1e bf 48 d6 8a 3e d4 f0 f0 be
       0.21736926 -0.62060636 0.2711661 -0.47058737
0003d0 d1 89 05 3f 60 39 05 bc 21 04 98 be b1 92 52 3f
       0.52163416 -0.008131355 -0.2969065 0.82255083
0003e0 18 d7 5c 3d 9f c4 a1 be 1f 91 0e be e1 49 02 3f
       0.053916067 -0.31595322 -0.13922547 0.5089398
0003f0 f3 b3 6e bf 91 0a 32 3d 9a ce ed 3d 9a d8 15 bf
       -0.9324333 0.04346711 0.11611672 -0.5853363

bias_ih f4 [240]
000000 b8 ba 3a be 49 96 27 be 4d 0d 1a be d9 0f c0 3c
       -0.1823529 -0.16365923 -0.15044136 0.023445057
000010 c2 15 ab be cb 38 e3 be 94 c7 ff be 58 8b 54 bc
       -0.33415037 -0.44379267 -0.49956954 -0.012972675
000020 13 39 db bd a8 05 42 be 9a 78 0b bd 5d 0f 2d bf
       -0.107042454 -0.1894747 -0.03405056 -0.6760157
000030 89 61 2c bf 9f dd 0e be 34 57 97 3e 3b fd 81 be
       -0.67336327 -0.13951729 0.29558718 -0.25388512
000040 ad d3 65 3e 6a 32 2a be 93 13 06 3e fb 89 9e be
       0.22444029 -0.16620794 0.13093404 -0.30964646
000050 2c eb a3 bd f5 9d f2 be 1d 9d da be aa 97 10 bf
       -0.0800384 -0.47386137 -0.42697993 -0.5648142
000060 a6 11 f4 3e 06 bb 25 bf 81 77 cd be 2f 68 05 3e
       0.47669715 -0.647385 -0.40130237 0.13028024
000070 2a b3 69 bf 7a 96 19 bf 2c ab 9b be 72 d2 31 bf
       -0.9128901 -0.59995234 -0.3040403 -0.6946174
000080 55 40 fa be 82 1a b1 be fc 75 51 3d b0 8f 41 bf
       -0.48877206 -0.34590536 0.05113791 -0.75609875
000090 3f 74 b5 3c 89 3e 13 3e ff 1c be be ab f4 c7 3e
       0.022150157 0.14379324 -0.37131497 0.39053854
0000a0 a8 6a a9 be c9 60 93 bc 3c ea 41 be 6c 6f ed bd
       -0.33089185 -0.017990487 -0.1893701 -0.11593518
0000b0 af f0 8e 3b f1 27 ab be 01 87 5a bf 84 28 a4 be
       0.004362188 -0.3342891 -0.8536225 -0.3206216
0000c0 7d 0f 90 be 50 8d c0 be 38 d4 4b be 74 e6 4c bd
       -0.28136817 -0.37607813 -0.19905174 -0.050024465
0000d0 2d 42 0d bf fa 27 66 3e 40 61 40 3e 4d ff ff be
       -0.551791 0.22476187 0.18787098 -0.49999467
0000e0 b8 ba 91 be e8 52 ad be ad ba d8 be c6 5c f0 3c
       -0.28462768 -0.33852315 -0.42329922 0.029341113
0000f0 7d 15 4b be d9 b0 7f 3e 31 8f 55 3e e4 fb b5 3e
       -0.19832416 0.24969806 0.20855404 0.3554374
000100 e2 ea f8 3e b1 4f 96 3e 3a ce e7 3d 97 bb 12 3f
       0.486167 0.29357675 0.113186315 0.5731749
000110 21 dd d6 bd 96 45 84 3e f3 a0 1b 3c 6a ac 50 3f
       -0.10491396 0.2583434 0.0094988225 0.81513083
000120 20 46 df 3e c2 7f 69 3e e7 b3 b4 bb 37 9b 68 3f
       0.4360819 0.22802642 -0.00551461 0.9086184
000130 3a 83 b3 3e f8 8a a3 bd e6 39 f6 3e 9b 3f 36 3e
       0.35061055 -0.079854906 0.48091048 0.17797701
000140 f3 1f 4d 3e 70 f8 0a be 54 65 89 3e 79 28 4c 3f
       0.20031719 -0.13571334 0.2683512 0.79749256
000150 be c2 d4 3e 28 e1 8e 3f bc bf ac 3e 85 df 63 3f
       0.41554826 1.1162462 0.33740032 0.8901294
000160 07 a2 f2 3f 94 96 c6 3e 02 c9 fc 3d fa ba 7e 3e
       1.8955697 0.38786757 0.12343027 0.24876013
000170 55 26 ec 3e 58 84 de 3e 20 fc 55 be 65 f7 0c 3d
       0.46122995 0.43460345 -0.2089696 0.03441562
000180 19 5c 39 be 74 b7 45 3e 0a cb ab bc 90 0b 21 3e
       -0.18101539 0.19308263 -0.02097084 0.15727067
000190 8f a5 24 3e 18 79 20 be d0 8f 11 3f 1b c2 81 3e
       0.1607878 -0.15671194 0.56860065 0.25343403
0001a0 fd d9 a1 3e c7 ac 44 3e 1d 05 90 3f cd b0 3c 3d
       0.31611624 0.19206534 1.125156 0.046067048
0001b0 72 0d cd 3e ff d5 12 be b5 4d 45 3f 96 8b 1d 3e
       0.4004932 -0.14339446 0.77071697 0.15385279
0001c0 84 f8 43 3f a7 9c 73 3e fd 59 f6 bd 5e 99 1c 3f
       0.7655108 0.23790227 -0.12028883 0.6117152
0001d0 7c d5 1b 3f d8 a6 14 3f 8d 25 39 3e 36 93 09 3f
       0.60872626 0.58067083 0.1808073 0.5374025
0001e0 82 58 10 3d c6 23 bc bd d3 d5 0a be 56 b6 0a be
       0.035240658 -0.09186511 -0.1355813 -0.13546118
0001f0 0f 97 a6 3d 64 34 94 be 93 52 2e bd 6d 0f f9 3d
       0.08134281 -0.2894622 -0.042559218 0.12161145
000200 31 99 95 be b8 93 9e bd 55 94 05 be 95 17 69 3d
       -0.29218438 -0.07743019 -0.13044865 0.056907255
000210 3a db 0d 3c 91 49 b4 3e f5 55 87 3e cd 79 e7 3d
       0.008658225 0.35212377 0.26432768 0.113025285
000220 2b c6 89 bd 0f e9 4b 3f ad e1 40 be 08 b8 c0 bd
       -0.06727251 0.79652494 -0.18836088 -0.09410101
000230 8b 95 8e be 61 8e 46 3e 70 c7 07 be 0d e8 80 3e
       -0.27848467 0.1939025 -0.13259673 0.2517704
000240 72 ec dd 3d 2b 42 29 be d0 63 f9 3d 75 d6 b3 3e
       0.10836114 -0.16529147 0.12177241 0.35124555
000250 62 61 8f bd ac 1c 14 3c 6b 72 89 be ba 13 bd 3d
       -0.07000996 0.009040039 -0.26845106 0.09232278
000260 cf 51 7e be 52 9b ab be 4c f7 41 bd 4f 3f 15 bd
       -0.24835895 -0.33516937 -0.04735498 -0.03643733
000270 4e 4e 11 3c 97 34 25 be 5c 35 9d 3d dd 29 17 be
       0.008868767 -0.16133343 0.07676193 -0.14762063
000280 ac 75 ad 3e 3c e3 6d 3c d6 29 73 3e 03 90 83 3e
       0.3387884 0.014519509 0.23746428 0.2569581
000290 2b d0 cb 3c 45 a7 09 be 1c 3a 35 3e 7b 40 5c 3e
       0.024879536 -0.13442715 0.17697948 0.21508972
0002a0 24 d2 08 bb 67 c7 78 3e 9a c4 fe 3d 9b 74 14 3e
       -0.0020877207 0.24294816 0.124398425 0.14497606
0002b0 b0 fa a9 bb b4 1a 13 3d 66 76 25 be 54 7c 13 be
       -0.005187355 0.035914138 -0.16158447 -0.14402896
0002c0 f7 b5 c8 be f9 3d 46 3e 15 36 1d ba 2a 94 5f be
       -0.39201328 0.19359578 -0.00059971336 -0.21833864
0002d0 a6 53 ad be c4 eb eb 3e 30 2f c5 3d f8 5a 8b be
       -0.3385288 0.46078312 0.09628141 -0.2721784
0002e0 1d 30 73 be 7c 4d b3 be d9 eb e5 bd 63 c5 5a 3e
       -0.23748823 -0.35020053 -0.11226625 0.2136436
0002f0 42 fd 44 be db 64 51 be 8e aa 83 3e 78 f8 80 3c
       -0.19237235 -0.2044863 0.2571606 0.01574348
000300 d5 c5 20 be 91 ab 80 be 1a 11 96 3d ad d3 2c bf
       -0.15700467 -0.25130895 0.073274806 -0.6751049
000310 26 43 9d 3e e0 03 39 bf 1a 09 c7 3c 72 28 5b 3c
       0.30715293 -0.7227154 0.024296332 0.013376342
000320 01 b6 fd 3e e1 24 1b be 2a de 54 3e 7b c3 c2 be
       0.4955292 -0.15150787 0.20787874 -0.38039765
000330 b0 80 c1 3e 56 9b 8a 3e 70 22 82 be 74 6e 89 bc
       0.37793493 0.27071637 -0.254169 -0.016776301
000340 f7 b2 98 3e b3 b2 3b be d8 08 9d 3e 66 85 3c bf
       0.2982404 -0.18329887 0.3067081 -0.7364105
000350 38 57 a4 bd d7 f0 98 be 9b 97 ec 3d 08 4c ae be
       -0.08024448 -0.29871246 0.11552354 -0.34042382
000360 3d f6 19 bb 18 b8 2b 3f 7d f4 51 bd 0b d7 44 3f
       -0.0023492717 0.6707778 -0.051258553 0.7689063
000370 6d c0 08 3e 46 ee f9 bd 3f 22 76 3e 2d f8 59 be
       0.13354655 -0.1220365 0.24036501 -0.21286078
000380 c0 7a 8f 3e c8 b7 42 3d 56 ef 23 3e d2 9d 18 be
       0.28023338 0.04753855 0.16009268 -0.14903954
000390 85 72 49 3e 80 14 12 3e 50 52 be be 4f 77 d5 3d
       0.19672592 0.14265633 -0.37172174 0.10423147
0003a0 03 50 04 be 9b 41 cd 3e b4 ce b5 3e 17 78 52 be
       -0.12921147 0.40089116 0.35509264 -0.20553623
0003b0 bd 2a d8 be d0 c8 89 be 37 6c 29 bd 9f bc 1e 3f
       -0.42220107 -0.2691102 -0.041362967 0.6200656

bias_hh f4 [240]
000000 c3 e4 af be c2 8e 56 bd 9a b8 1b bd ad f3 11 3d
       -0.3435422 -0.05238224 -0.038017847 0.035632778
000010 36 7e 8d be 83 b5 dc be 0f 90 2c bf b2 87 a5 3d
       -0.27635354 -0.43107232 -0.67407316 0.080825225
000020 a2 ab 06 bd 05 80 37 be dd 13 ec bd bb 99 15 bf
       -0.032878526 -0.1791993 -0.11527226 -0.584377
000030 0d e9 2d bf ac 08 58 be dc 33 6e 3e 89 a1 d4 be
       -0.6793373 -0.21097058 0.2326197 -0.41529492
000040 92 a9 da 3d fa 57 96 bd 3d d0 98 3e bb ee cb bd
       0.10676874 -0.07340999 0.29846373 -0.099576436
000050 d6 b0 3a be 84 bc 9b be c7 59 9e be 29 93 2a bf
       -0.1823152 -0.30417264 -0.3092787 -0.666308
000060 18 7d b0 3e c6 27 12 bf d4 cd db be 11 24 f9 3d
       0.3447044 -0.5709194 -0.42930472 0.12165082
000070 73 04 52 bf c5 c9 17 bf 41 08 bb be fa 79 30 bf
       -0.8203804 -0.5929225 -0.36529735 -0.6893612
000080 ba fb 02 bf 4d 95 37 be 8b 77 48 3d 08 9b 30 bf
       -0.51165354 -0.17928047 0.04894213 -0.6898656
000090 8b 89 36 bd ee d0 a8 3d ca 72 ab be 8a 0c e5 3e
       -0.044564765 0.08242975 -0.33486015 0.4473613
0000a0 74 fb b2 be a9 83 21 bd 33 f3 28 be bb e6 c3 bd
       -0.34957469 -0.0394322 -0.16499023 -0.09565493
0000b0 88 16 33 3e 1d 68 e7 be cf 09 5c bf b9 42 af be
       0.17489064 -0.4519662 -0.85952467 -0.34230593
0000c0 a5 66 3e be f5 6b ed be ea 6e 8c be 43 78 5e 3d
       -0.18593843 -0.46371427 -0.2742837 0.05431391
0000d0 2f f9 b1 be 5b 24 9b 3e 69 ff c4 3e 94 b5 0d bf
       -0.34760424 0.30301175 0.38476112 -0.5535519
0000e0 d8 e1 cf bd c5 6f d9 be 66 96 9a be e6 57 fc 3c
       -0.10150498 -0.42468086 -0.3019287 0.030803632
0000f0 c1 5e 7c be 09 40 0b 3e bf 9f 41 3e 82 d7 e3 3e
       -0.24645521 0.13598646 0.18908595 0.44500357
000100 53 19 2a 3f 31 f9 1f 3e ec 24 8d 3e 30 e4 06 3f
       0.6644489 0.15622403 0.27567232 0.52691936
000110 83 ab d0 bd 0f 77 df 3e 86 b7 f2 3d e1 41 54 3f
       -0.10188963 0.43645522 0.118514106 0.82913023
000120 89 b5 c5 3e 08 1c 8a 3e 66 7d 65 bd 86 1a 8d 3f
       0.38615063 0.2697451 -0.056027792 1.1023719
000130 74 cd b2 3e 83 d3 92 bd 9e a6 05 3f 86 d5 12 3e
       0.34922373 -0.07169249 0.5220736 0.14339265
000140 b9 97 4a 3e c8 aa d8 bd 3b da c7 3e 68 18 3e 3f
       0.1978444 -0.10579449 0.39033684 0.7425599
000150 bf bb 83 3e 87 7c 89 3f ab e4 e3 3e 68 27 3d 3f
       0.25729176 1.0741128 0.44510397 0.73888254
000160 57 9c f3 3f 9b e1 b2 3e 25 a9 a0 3e 3b ec 81 3e
       1.9032086 0.34937748 0.31379047 0.25375542
000170 08 51 1b 3f 26 57 c8 3e e0 62 08 be ae 8d 98 3d
       0.6067052 0.3912899 -0.13318968 0.07448898
000180 02 62 1a be e8 17 7f 3e b0 6d ee 3d 9c c7 2d 3d
       -0.1507645 0.24911463 0.11642015 0.04242669
000190 10 9e 3b 3e b3 50 d8 3c 32 aa ec 3e 7d c6 b4 3e
       0.18322015 0.026405668 0.462236 0.35307685
0001a0 4f 02 a2 3e 61 b9 a6 3d ff f3 8b 3f 10 97 33 3e
       0.31642386 0.08140827 1.0933837 0.17538095
0001b0 2c e4 cc 3e 64 26 be bc b0 a8 40 3f 1a 65 0d 3e
       0.4001783 -0.023211665 0.75257397 0.13808098
0001c0 5b df 24 3f 5e f3 4b 3e 1f 70 5b be 94 c3 38 3f
       0.64403313 0.19917056 -0.2142949 0.7217343
0001d0 a6 92 01 3f 72 8d 03 3f 53 7d 2a 3e fe 01 18 3f
       0.5061439 0.51387703 0.1664937 0.5937804
0001e0 cc 8a ca bc 14 a9 98 be e4 de 21 3d 24 69 17 bc
       -0.024724387 -0.29816496 0.039519206 -0.009241376
0001f0 dd b1 17 bd 2d ae 8e be f4 56 1e 3e f6 22 b3 3d
       -0.037034858 -0.2786726 0.15462857 0.08746903
000200 aa 9f 5b be 33 73 1d be b0 e0 62 be 54 32 a4 3d
       -0.21447626 -0.15375976 -0.22156024 0.08017412
000210 3d 4f 87 bc dc d6 ec 3e 44 d9 81 3e b8 3b c8 bc
       -0.016517276 0.46257675 0.25361073 -0.024442539
000220 90 e4 93 3c 6b 43 48 3f 01 bf 3e bc 65 23 93 bd
       0.018053323 0.7822787 -0.011642219 -0.07184485
000230 d1 4a 08 be fd 3f 1d 3e 34 e2 d4 3c 74 72 04 3e
       -0.1330979 0.15356441 0.025986768 0.12934285
000240 44 10 50 bd 19 fd 2d be 4f 2c 43 bd 5e 3c 91 3e
       -0.050796762 -0.1699108 -0.047649678 0.2836637
000250 74 97 a7 bb aa be 5e bd 77 46 86 be 68 41 56 bd
       -0.00511449 -0.05438105 -0.26225635 -0.05230847
000260 fd cc 93 bd df c1 f9 be 1c 2a 20 3d 3e 87 3f 3d
       -0.07216833 -0.48780724 0.03910266 0.046759836
000270 8f ad 36 be 44 ec 96 bd e8 80 8b 3e 26 20 63 be
       -0.17839645 -0.07369283 0.27246785 -0.22180232
000280 1a 7a a3 3e 58 2e e9 3a 3c f7 b1 3e de 94 f1 3d
       0.31929094 0.0017790301 0.34758937 0.11795972
000290 29 37 2d 3d 82 99 16 be 0b 12 98 3d f9 5d 8a 3e
       0.042288933 -0.14706996 0.074253164 0.2702482
0002a0 5c fd 82 3d ca 2d dd 3d 1e 49 ba 3d b8 59 e5 3d
       0.06395981 0.10799749 0.09095977 0.11198753
0002b0 63 6c 52 3e 7f c5 12 3d 4e fd 3c be 39 70 09 be
       0.20549159 0.03583288 -0.18456003 -0.13421716
0002c0 4d d4 7d be 97 34 70 3e 27 31 3b 3d 1b e0 20 be
       -0.24788018 0.23457561 0.045701172 -0.1571049
0002d0 7d a9 a5 be f6 ea 1f 3f 82 f3 b3 bd 35 62 87 be
       -0.32355872 0.62467897 -0.0878668 -0.26442114
0002e0 00 63 96 be fd ed eb be 9f 16 15 be 86 bc 96 3e
       -0.29372406 -0.46080008 -0.1455941 0.29440707
0002f0 df d1 60 3d c8 49 b2 be 4e f1 68 3e 7c 6b fb 3b
       0.05488765 -0.34821916 0.227483 0.0076727252
000300 ad 47 6e bd 02 16 aa be 2b 6f 95 3a 99 2d 0c bf
       -0.058173824 -0.33219916 0.0011400928 -0.54757077
000310 db b0 b6 3e 95 4e 2a bf e0 59 98 3d fb 49 30 3e
       0.35681805 -0.66526157 0.07439017 0.17215721
000320 b3 48 d5 3e a2 ba ae 3c d5 c2 68 3e c1 ce b0 be
       0.41657028 0.021329228 0.22730573 -0.3453274
000330 64 08 13 3f 96 8c b3 3e ec 0e 72 be 4d c3 17 be
       0.5743468 0.35068196 -0.23638505 -0.14820595
000340 fa 48 cf 3e 2c 69 df bd b6 09 b6 3e d1 1b 42 bf
       0.40485364 -0.10908732 0.35554284 -0.75823694
000350 23 79 fd 3d e4 06 d7 be c8 8f 84 bc 2b 1f 8f be
       0.123766206 -0.41997445 -0.016181841 -0.27953467
000360 e6 c4 5e 3d 7f 28 41 3f 2e 85 a5 bc 85 49 5e 3f
       0.054386996 0.7545242 -0.020205107 0.8683093
000370 a9 e4 73 3d 41 85 87 3c 9e 78 27 3e 47 a5 4b be
       0.05954424 0.016543033 0.16354606 -0.19887267
000380 a7 45 b9 3e 58 c1 99 3d 5c f8 86 3e 96 81 98 be
       0.36185953 0.075075805 0.26361358 -0.29786366
000390 21 80 0f 3e 61 74 1c 3d 5f 6c bf be be 26 c4 3d
       0.14013721 0.038196925 -0.37387368 0.09577702
0003a0 c7 e2 68 be 7c 4a e9 3e f9 65 c5 3e ee d8 f7 bd
       -0.22742759 0.4556464 0.3855436 -0.12101923
0003b0 c3 d7 f8 be ba bc 0c be 77 79 01 be c4 ca 16 3f
       -0.48602113 -0.13743868 -0.12643991 0.58903146

weight f4 [3, 12]
000000 f3 40 99 3d 87 f5 15 be e9 94 9d bc 0d 58 40 3d
       0.07483091 -0.14644442 -0.019236045 0.04695897
000010 e9 d5 a9 3d 64 d8 80 be 98 cd 48 3e 54 61 1d be
       0.08292753 -0.25165093 0.19609678 -0.15369159
000020 92 90 b8 bd ec 0f c7 bb 6a e9 21 3d 47 76 d7 bd
       -0.090119496 -0.006074896 0.03952924 -0.105206065
000030 6a 5e cf 3d d9 69 69 3d 2b 73 d5 3c 30 19 a1 3d
       0.1012543 0.05698571 0.026055893 0.07866132
000040 01 65 f2 bd c2 1a 7d 3d b2 7f 74 3d bc eb 9e bd
       -0.11835671 0.061793096 0.059692092 -0.077598065
000050 56 ec ac 3d ff 1d 70 3c 2f 34 3f bd 07 03 d9 bd
       0.08443515 0.014655589 -0.046680626 -0.105962805
000060 ec 3b 2d 3d d4 d9 34 be 43 c3 ff bd 5d 89 de 3d
       0.042293474 -0.1766122 -0.12488415 0.10866044
000070 62 4f 94 be 3f 43 e0 3c ab 97 cc bd 59 29 13 3d
       -0.28966814 0.027375815 -0.09989866 0.035928104
000080 0c e5 18 bd 53 81 44 3e af d5 b0 bd 98 b7 dc 3d
       -0.03732781 0.19189958 -0.08634507 0.10777205

bias f4 [3]
000000 5a 42 57 3f 1c b4 1a 3e 2b 24 b1 3e
       0.8408562 0.15107769 0.34597906
