models/lstm_test.pt (torch, 20727 bytes, 5 tensors)

weight_ih_l0 f4 [400, 6]
00000000: 8379 b93d d018 a1bd 742b 87bd ecb7 9dbc
00000010: 106e 35bd 3d10 8e3d 396c bb3d f2e5 053d
00000020: 4d83 7fbd b430 803c 0cdb c2bc 123d 4c3d
00000030: 910f c83d c8cc c13c 10a7 03bc 5f1f 8f3d
00000040: e235 a0bd 28ab acbc 6a49 5f3d d0f7 cc3b
00000050: 3fee b93d 0072 bcbc 8ecb 093d bed4 523d
00000060: c0e3 5d3c 2004 f4bb 2c5e debc c05a 663c
00000070: 7aa5 1bbd 9913 863d 38a7 b5bd 61d4 b33d
00000080: a73f 58bd 7a1e b7bd 406d 9f3a 2e23 2e3d
00000090: 0845 ab3c f2c6 7a3d 7f87 b4bd a88b 12bc
000000a0: 1202 97bd 6e77 82bd c087 7cbd 0d65 b93d
000000b0: e08b c3bc 83e5 ac3d e03d 6cbd 507a abbb
000000c0: 24d9 f53c 2d65 c5bd 6c87 b4bc db53 96bd
000000d0: 261c 423d 71cb ca3d 4283 3b3d ff0b 813d
000000e0: 82a6 96bd f7cf 2fbd 95d8 9f3d 367f 283d
000000f0: 7806 a63c e3ce a4bd 9a43 6fbd 25df 973d
00000100: 0017 55bd 9fa1 a03d cf00 c8bd 9444 85bd
00000110: 621f aebd 0da4 aabd 97a5 37bd 30bb cebb
00000120: 429b bdbd 7d0e 73bd 088b d8bc 0692 693d
00000130: e063 9d3b b0df bdbd b889 833c d02e 18bd
00000140: d8c0 e0bc 2eca 013d fa27 383d 52ad 4e3d
00000150: 675e a43d 2cd5 bebc 3808 9bbc 6631 93bd
00000160: aac0 113d f028 29bd 568c 5c3d d127 a23d
00000170: 7753 ba3d 536e cbbd 708a 75bd 56dd 8cbd
00000180: f587 93bd c324 b03d 248e f53c 57de 863d
00000190: 9f87 a63d 1926 803d 5e65 a9bd 9813 1b3c
000001a0: 2833 773c bdc5 3ebd 4470 ce3c f15c a53d
000001b0: 3b9c 9a3d 60f1 25bb b433 c23c c9f7 943d
000001c0: 28c2 003c 6dac 70bd 6fd9 823d bc8c f53c
000001d0: ded6 6b3d 73a2 22bd 9154 803d d2f5 623d
000001e0: 8a8c 4bbd 0cae 9a3c 9c80 fa3c 0d5b 8cbd
000001f0: 8eba 9ebd 4043 8d3a 090f b83d 0bdc a73d
00000200: 558d bebd fd40 80bd 22c0 1f3d e382 57bd
00000210: 1014 37bd 5019 b9bd 8058 fdba 18bc fbbc
00000220: 5e71 3f3d 9eb0 93bd 72b3 163d c8f6 dabc
00000230: c301 6abd 7419 efbc ea1f 1c3d 00fa 5e3c
00000240: f38c b63d f62d 743d c7b7 903d bfcf 8c3d
00000250: 15dc 89bd de44 543d 2342 a0bd e010 f3bc
00000260: 5739 8d3d 1471 d43c a02d adbb a6fd 13bd
00000270: 8017 a0bc 68da 87bc a78c 34bd df80 9c3d
00000280: 0e08 073d 1dd1 823d e193 bb3d 0ad0 7fbd
00000290: ebd2 a7bd 9761 853d 799b a73d 10d9 05bc
000002a0: 1edb 80bd 60c4 3c3b a0c7 143b a8ca 5d3c
000002b0: f7f5 b4bd e00e c2bc 852b cabd 56da 1f3d
000002c0: eb97 b1bd f421 f63c ba58 183d 4027 5a3c
000002d0: d9c6 bd3d 8faa a43d 9f80 c13d 2a48 483d
000002e0: 304a adbb f007 21bc 3c51 11bd 2ef6 88bd
000002f0: 50ea 6ebd 00a0 043a 3072 33bd 34b2 8c3c
00000300: 39bc b43d fc24 d03c e0c3 9ebc eac5 6e3d
00000310: a735 7fbd 30da 1fbc 2ccf e7bc e475 e23c
00000320: 0182 943d 6255 7d3d 72c4 3e3d 08fe 953c
00000330: d007 eb3b b3b5 1dbd c0be b13a 6bdb 803d
00000340: aa0e 76bd 96bf 8cbd 78aa eabc 8d85 7dbd
00000350: 1d98 b9bd 90d5 043c 1de8 19bd 2e7c 753d
00000360: a0f2 b63c 6b34 ac3d 251b a83d 4097 0cbc
00000370: 61d3 843d da9f 013d cf18 b2bd 15c3 af3d
00000380: c0be 51bd a45d d03c 9f6b b1bd b920 8f3d
00000390: 1b6c a7bd 4324 2dbd 80f2 9abc 20b6 c63b
000003a0: 6e69 a1bd 9290 99bd 33df b2bd b855 c93c
000003b0: 03b5 61bd 280f 3bbc 7859 85bd 905c 07bc
000003c0: aa07 07bd 10d5 5b3c e025 f4bb 274e 38bd
000003d0: 3569 c33d 08e6 83bc abca bdbd 5a00 cabd
000003e0: 7a27 503d 118b c93d 9dc7 53bd f6c4 0fbd
000003f0: 60f3 ebbc 0b83 a03d 80c1 223c f556 99bd
0.0905638 -0.07866061 -0.06600085 -0.01925274 -0.044294417 0.06936691 0.09151501 0.032689996
-0.062381078 0.015648223 -0.02378609 0.04986293 0.09768594 0.023657218 -0.008035436 0.069884054
-0.07822777 -0.021077707 0.054513372 0.0062551275 0.09078645 -0.023003578 0.03364139 0.051472418
0.013543069 -0.007446781 -0.027144514 0.014059722 -0.037999608 0.06546707 -0.08869785 0.087807424
-0.05279508 -0.0894136 0.0012163296 0.04251402 0.02090694 0.061224885 -0.08814906 -0.008944429
-0.07373442 -0.06370436 -0.0616529 0.09052477 -0.023870409 0.084422134 -0.057676196 -0.0052330866
0.030010767 -0.096384384 -0.02203723 -0.07340213 0.047390126 0.099020846 0.045779474 0.06301116
-0.073559776 -0.04292294 0.078049816 0.041136943 0.020266756 -0.08047273 -0.05841408 0.07415608
-0.052023888 0.07843327 -0.09765779 -0.06507221 -0.085020795 -0.083320715 -0.044835653 -0.0063089356
-0.09258129 -0.05933999 -0.026433483 0.057024024 0.004803166 -0.09271181 0.01605688 -0.03715402
-0.027435705 0.031686954 0.04496 0.05045826 0.08025818 -0.023295008 -0.018924817 -0.071871564
0.03558413 -0.041298807 0.053844772 0.079177506 0.09097951 -0.09933152 -0.059946477 -0.06878154
-0.07203666 0.08600762 0.029975004 0.06585377 0.081313364 0.062572666 -0.082712874 0.009465121
0.01508788 -0.046575297 0.025200017 0.08074368 0.0754933 -0.0025320873 0.023706295 0.07273824
0.00785879 -0.058758188 0.063891284 0.029974334 0.05757796 -0.039705705 0.0626613 0.055410214
-0.049694575 0.01888182 0.030578904 -0.06853304 -0.07750426 0.0010777488 0.08987243 0.08196267
-0.09304301 -0.062623955 0.03900159 -0.052615058 -0.044696867 -0.09038031 -0.0019328743 -0.030729339
0.046738975 -0.072114214 0.036792226 -0.026729003 -0.057130586 -0.029186942 0.038116373 0.013609409
0.08913603 0.059614144 0.07066303 0.06875562 -0.067314304 0.05182349 -0.078251146 -0.029671133
0.06895702 0.025932826 -0.00528498 -0.03613057 -0.019542456 -0.016583636 -0.04407945 0.07641768
0.032966666 0.063875414 0.09159065 -0.06245426 -0.08194526 0.065127544 0.08183951 -0.0081694275
-0.06291793 0.0028803572 0.0022701994 0.013537087 -0.088359766 -0.023688734 -0.09871582 0.03902658
-0.08671554 0.030045487 0.03719399 0.013315022 0.09266443 0.08040344 0.09448361 0.048896946
-0.005288385 -0.009828553 -0.03547786 -0.0668758 -0.058328927 0.0005059242 -0.04381007 0.017174818
0.08824963 0.02540826 -0.01938051 0.058294214 -0.062307026 -0.00975661 -0.02829703 0.027644105
0.07251359 0.061849006 0.046574064 0.018309608 0.007172562 -0.03850336 0.0013560876 0.06291851
-0.06007258 -0.068724796 -0.028645739 -0.061894942 -0.090622164 0.008107558 -0.037574876 0.05993288
0.02233249 0.084084354 0.082083024 -0.008580983 0.0648563 0.031646587 -0.08696138 0.08582131
-0.051207304 0.025435276 -0.08663105 0.06988663 -0.08174916 -0.04227091 -0.018914461 0.0060641915
-0.07881437 -0.07498278 -0.08733978 0.024577007 -0.055104267 -0.011417188 -0.065112054 -0.008261815
-0.032966293 0.013417497 -0.007450804 -0.044996407 0.09541551 -0.016100898 -0.092671715 -0.09863348
0.050818898 0.09840978 -0.051704038 -0.035099946 -0.028802574 0.078374945 0.009933829 -0.07487289

weight_hh_l0 f4 [400, 3]
00000000: bd76 873d ddd0 de3d b760 f63c a49d eab9
00000010: 4f6b 3dbd 5564 afbd 2457 b43d d9a3 0c3c
00000020: 277e 1f3d 130a a53d 0d69 953d b10d b73c
00000030: 2b06 4abe 848c 4abe c093 9abc 1b1e 583d
00000040: 3fd1 9ebd 9440 8cbd 9c4b 683b d133 90bd
00000050: c697 99bd b3e9 17be 2dd2 5ebc cb39 35be
00000060: 81ed 903d 98a6 e83c b312 16bc 01c4 873d
00000070: abdd 2fbe 321e 76bc b50e 29bd 5e24 033e
00000080: 61aa 653c 9f86 7dbd 0bb5 9ebd f2bd c93d
00000090: e28f 3b3d 2196 db3c 1465 4abd 9c73 583e
000000a0: bc46 263e 681b f43c 37c7 7bbd dd27 863d
000000b0: d6fa 30bb 0bbc 1abd 8748 8ebc 8ed5 4ebd
000000c0: 9c45 523c 8799 3cbc d305 15bd 8efc da3d
000000d0: 2550 093e 7bf6 5dbd 1c65 a83d 47d4 3f3c
000000e0: 5d4b 81bd 73b9 083d c5ef 0e3d 7e9b 86bd
000000f0: ed58 d5bd 5d52 913d ded4 6abd 1fec 823d
00000100: f5ab f6bc 08c8 323c 62fe e83d 0c59 4dbc
00000110: cb7e 9cbd 3cc4 fabc 0c46 b93d 1644 0e3d
00000120: 3cfa 1ebe 7d32 33be 5780 c53c 2599 273d
00000130: 8f53 313d b6ca a9bd 876e 123d e6cd 9a3d
00000140: 08ae c4bc 4f5f 09be 368e 00be a852 e4bc
00000150: 5e4d f33d 4d1b 1f3e a9c0 62bd 9cb5 463d
00000160: 1fe4 943d 1a37 6b3c 8fd1 15bb 2135 693c
00000170: c0cb 463d d77a 58bd 385c 32bb 3299 45bd
00000180: 786a dabd b3b3 42be 6b94 0abc 5118 503b
00000190: e4f8 06be eb87 1abe c80e 1bbc 7d12 503c
000001a0: 8f3e e7bc 6658 8dbd b69a 12bc 03ee 4bbd
000001b0: c062 513d 2115 a13d 37df ad3d d249 193d
000001c0: 9b7c eabd 5d45 b1bd a827 82be 4c8e 183e
000001d0: e999 53be 07db 6dbd 5530 f3bc 15cf e93c
000001e0: 75af 06be 3a06 1abe fde2 903d 9476 3cbd
000001f0: 08e3 953c 7abc bc3c ddda a83d 8c0a 773c
00000200: 6c5a efbd 60bf ef3c d0f7 733e b807 e1bc
00000210: d844 29bd 7d76 69bd b2f7 b8bd 6e77 5f3d
00000220: 1636 443d 8891 4f3d 0bfe d63c f7dc c7bd
00000230: c1fd 75bd 521f 7bbd 1a2a e5bd 9468 be3d
00000240: ef62 7abe 7f63 c2bd 9efb c4bd 7e9c 67be
00000250: 71ad 15bd 335c e6bd f0a2 9b3d ea09 44bd
00000260: 38a4 413d bfc4 ab3d b1e9 103e 5730 2ebd
00000270: 75e2 703e d787 2e3e 2077 84bd a308 263e
00000280: dbc3 fa3d a42e ebbd b77f 263d f50b 3b3e
00000290: 9ce4 3b3e c582 25bd 3830 09bc ee27 ff3c
000002a0: bb29 01bd dc25 62bd 3857 623e 53b1 883c
000002b0: 643b 593d 771f 89bc 6d49 1b3d 7c77 9ebd
000002c0: faff 2cbd af39 143e 6fa0 853e a769 5bbc
000002d0: a950 9abe dd83 02bc 1464 9abd 0fb9 613e
000002e0: aed9 713e f129 ec3d 6177 a73d 773a 5bbc
000002f0: 9f8f 223e 06d2 2e3d c1a2 463c 585c c4bd
00000300: be0d b13d b6f3 a63d 31ba d6bc 4cda 74bb
00000310: c662 9e3d 48f4 dfbd 4011 8b3c 2aa4 7a3d
00000320: 779a 503d f87c b5bb 2181 ef3d 1e7a 44bd
00000330: 1eb8 b13d 76cd 863d 5197 9abc 44cb 163d
00000340: 159e d7bc b0be cc3c 1e81 71be b8fd e2bd
00000350: 9522 d5bd 7953 4c3d 0a53 693e 5b59 2cbe
00000360: e6bf 25bd 6489 b73c 22f1 c5bc 8ddf d53d
00000370: eb2c d83d 3a79 a43d 657f f83c 3812 0c3e
00000380: 1881 623d d036 e53d 5a1a d03d 9c26 b3bd
00000390: f8b1 e63c e817 03bd 9b59 0cbd c225 cb3d
000003a0: 2447 8ebd d3e5 763d 0ccf 093d c12a 9d3d
000003b0: b393 0dbe 60bf 3abd 0143 4fbd bac5 a6bc
000003c0: 6351 ba3d ac89 523e c555 bd3d 4f11 e23d
000003d0: c74e 053e ff5f 093e b43e 3e3d 6e6a b4bd
000003e0: 2819 ba3c ccd3 eb3d eb90 1b3d 28c1 83bd
000003f0: 7569 efbb f694 293c 14ad fdbd fd63 bfbd
0.066144444 0.10879681 0.030075414 -0.0004474941 -0.046244916 -0.08564059 0.08805683 0.008583986
0.038938668 0.08058562 0.072954275 0.022345396 -0.19728915 -0.19780165 -0.01886928 0.052763086
-0.07754754 -0.06848255 0.0035445457 -0.07041133 -0.074996516 -0.14835243 -0.0135999145 -0.17697828
0.0707655 0.02839975 -0.009159732 0.06629182 -0.17174403 -0.015021848 -0.04127379 0.12806842
0.014017672 -0.061895963 -0.07749375 0.09850682 0.045791514 0.026804985 -0.0494128 0.21137851
0.1623792 0.029798225 -0.061469283 0.06550572 -0.0027004979 -0.037776988 -0.017368568 -0.05049663
0.012833979 -0.011511213 -0.036382508 0.10692702 0.13409479 -0.05419014 0.0822241 0.011708326
-0.063132025 0.033379983 0.03489663 -0.065726265 -0.10417352 0.07095788 -0.057331912 0.06392693
-0.030111292 0.010911949 0.11376645 -0.012533437 -0.07641371 -0.03061115 0.090465635 0.0347329
-0.15525144 -0.17499729 0.024109049 0.040917534 0.04329258 -0.08290617 0.03574994 0.07558803
-0.024008766 -0.13415264 -0.12554249 -0.027871445 0.11879991 0.15537758 -0.055359516 0.04851304
0.07270073 0.014356399 -0.0022860502 0.014233858 0.048534155 -0.052851524 -0.0027215611 -0.0482418
-0.106648386 -0.19013862 -0.008458237 0.0031752775 -0.13180882 -0.15090911 -0.009463973 0.01269972
-0.028228072 -0.06901626 -0.008948019 -0.049787533 0.051119566 0.07865358 0.084898405 0.037423916
-0.11449548 -0.08655808 -0.2542088 0.14898032 -0.20664181 -0.05807021 -0.029686132 0.028541127
-0.13152869 -0.15041438 0.070745446 -0.046011522 0.018296733 0.023039091 0.0824487 0.015078198
-0.116871685 0.02926606 0.23825002 -0.0274695 -0.04132542 -0.056997765 -0.09031619 0.054557256
0.047903143 0.0506759 0.026244184 -0.097589426 -0.06005645 -0.061309166 -0.11189671 0.092972904
-0.24451803 -0.094916336 -0.09618305 -0.22618291 -0.03654236 -0.11248054 0.07599437 -0.047861017
0.04727575 0.08387136 0.14151646 -0.04252657 0.23523887 0.17044006 -0.06468034 0.16214232
0.12244388 -0.11483505 0.040649142 0.1826628 0.18348926 -0.040407915 -0.008373313 0.03114697
-0.031533938 -0.055211887 0.22103584 0.016686117 0.053035155 -0.016738636 0.03791182 -0.077376336
-0.042236306 0.1447513 0.26098964 -0.013391889 -0.30139664 -0.007966009 -0.0753862 0.2204325
0.23618194 0.11531437 0.081770666 -0.013380638 0.158751 0.042680763 0.0121237645 -0.09587926
0.08645199 0.08151953 -0.02621183 -0.003736156 0.07733683 -0.10935265 0.016975999 0.061191715
0.05092856 -0.005538579 0.11694551 -0.047968023 0.08677696 0.06582157 -0.018870981 0.036814943
-0.026320497 0.02499327 -0.2358441 -0.11083549 -0.104069866 0.049884293 0.22785583 -0.16830961
-0.04046621 0.02240438 -0.024162833 0.104430296 0.105554424 0.08030935 0.030334184 0.13678825
0.055298895 0.11192095 0.10161276 -0.087475985 0.028161034 -0.03200522 -0.034265142 0.09919311
-0.06947163 0.06027777 0.03364472 0.0767417 -0.13825874 -0.045592666 -0.05060101 -0.020357955
0.090975545 0.2056033 0.09244875 0.110384576 0.13018332 0.13415526 0.046446517 -0.08809362
0.022717074 0.115150064 0.03798 -0.06433326 -0.0073062726 0.010350456 -0.12386528 -0.09345243

bias_ih_l0 f4 [400]
00000000: 83e8 26bc cd77 b3bc 2eee a6bd 9191 a2bd
00000010: 9881 98bd f093 82bd 84e9 d0bd 3475 1fbd
00000020: 2948 bcbd 1da9 8abd 6897 a4bd e757 23be
00000030: d46b f6bd 4704 16bd 9578 f7bd 12f0 17be
00000040: 83d9 acbd 4b98 523d c12e 17be dafe 81bd
00000050: 2a8c b9bd 16eb 0fbe 8fba 76bd 73d3 39be
00000060: bec6 d13c ddbb bebd 70f6 813b 2cf4 d23c
00000070: 92d4 b1bc ebc3 a6bc 9cb5 e0bd 23c5 a13c
00000080: a8de a7bc c921 aabd f930 3abd 7e25 cfbd
00000090: 63ef aabd bb9d 803c 63f7 6bba bfe7 a2bc
000000a0: db41 863c 2fe3 80bd 9a69 acbc a5d5 46b9
000000b0: a00f 99bd ed80 8b3a dcc7 4abe b1e1 b3bd
000000c0: d2df 2abd 69e9 023d 7a0a 5fbd 3755 d3bd
000000d0: 8e83 363d 086e e53c 6721 83bc 6b83 3dbe
000000e0: dd38 8fbc 184a b6bd fd2c cdbc db5d c8bc
000000f0: fc67 b73a 2d86 b2bd 613c 54bd c831 f9bd
00000100: e09d 35bd 1c42 b6bd 28e3 84be fe4c 0fbd
00000110: 26ac 243c cb72 84bd 345a a7bd 2270 02bd
00000120: 540d 93bd 8b95 2bbe 68d7 c5bc 39b2 01bd
00000130: e9e5 2bbc d79f 98bd a371 d8bd fe58 babd
00000140: e64a cebc 7a4c 03be 728e 713d 9537 9ebd
00000150: 94c0 c2bd 8d9a 04bd cd4b 853c f67a ddbd
00000160: eb1a 34bd 8b48 cbbd bd7f 233b 2e7b 88bd
00000170: 3a0b 01be 4dfa 1cbe 42f9 0e3d c893 3bbe
00000180: a2c0 05bd 605a 49be cf2c 7f3c 402a 0abe
00000190: 1722 433d ece5 933c e49d 63bc 456d aabc
000001a0: 5214 17be 54de 14be ea01 0abe 3984 093d
000001b0: 4444 c5bd 541c 1a3c 57a0 22be ccfa 9ebd
000001c0: 1089 0ebd bbbd 07be 6788 94bd d220 b6bc
000001d0: b473 093d b0fd 4ebd cd54 23be b485 4bbd
000001e0: 43ba c0bd 5bbe e0bd 4c2b 10bd 4c37 c13c
000001f0: fccf bebd 3e06 f7bc 2e7d 44bd 0002 05bd
00000200: a794 05be aee2 27bd 5016 a8bd 5981 3e3c
00000210: f06c cabd e35e e8bd c489 b2bd d8f7 93bc
00000220: a268 dabd 3e3d 88bd fa57 803b 82b8 e8bc
00000230: e41b f4bc 6510 18be 3860 293d fba4 373c
00000240: 2d04 2dbd a687 c83b 7709 2dbe 26e1 cabd
00000250: 6d1e c7bd 2188 c9bd 4a60 aebd 6cbb a73b
00000260: 478c 82bd f371 11be f6db 31bc 7f91 02be
00000270: 75f4 ebbd fe44 abbd 0594 f3bd 5b61 563d
00000280: d9bb 96bd d3b4 2c3d fed3 58bd 6dcd e5ba
00000290: 9a18 aabd c90d 8dbd 62f1 60be 7139 8bbd
000002a0: 8a04 51bd 5b54 66bc 1857 92bd 3a6f e03c
000002b0: 570e 8fbd e450 b5bd 820e bebc 2bad 523c
000002c0: 8f96 fe3c 19f3 03be 6ad5 c9bc fcbb 083c
000002d0: e9ab 0f3c 668a 3ebd ec15 57bd f93d f9bd
000002e0: a478 abbd 924e 0f3d b5e6 94bd 2a15 2f3d
000002f0: 1069 00be 6aeb 85bd 636b 0bbd 34ec 62bc
00000300: 2efb 123c 7d00 f1bd aa14 8abd 0fe1 1dbe
00000310: eda9 893d 8259 e9bb 4d6c c4bd 810c 13be
00000320: c779 19bd ba21 b3bd f4c2 a13d 39cb 923d
00000330: 8450 b43b 5bc0 6abd e3ef 823c 5d44 833c
00000340: c024 473d 39a2 7ebc cbe4 22bd 426a bbbd
00000350: 5784 0dbd 4b38 433d dd48 97bd 5858 eabb
00000360: acfd 823c 6730 473d 4fb2 c63d d9aa 893c
00000370: a641 c6bc d030 6bbb d6b0 4bbd 6bd2 1c3d
00000380: 2877 17bb e24b 4abd 4dbb d9bc ff65 0dbd
00000390: 623d 6f3d 1170 943b c4c0 31bb 068b 7f3c
000003a0: 891e 563c 0c84 c83c 28a8 57bc f650 53bb
000003b0: 02c1 ad3c 15ff 04bc 412b 393d 7d53 003d
000003c0: e273 9abb 54af 66bd 860d f13c 58b1 76bc
000003d0: 636e 85bd 99be 11bd 9527 1c3d 7ae8 6dbd
000003e0: 54ce 10bd ce5f 5ebd 3833 353d 34b0 0dbb
000003f0: 8861 debb 1c1b 333c 0da6 423d 9f19 a33d
-0.010187271 -0.021907711 -0.08150898 -0.07937921 -0.07446593 -0.06375873 -0.102007896 -0.038930133
-0.09193451 -0.06770537 -0.08036691 -0.15951501 -0.12032285 -0.036625173 -0.12083546 -0.14837673
-0.084399246 0.05141477 -0.14763929 -0.06347437 -0.09059937 -0.14054522 -0.06023651 -0.18147068
0.025607463 -0.09313176 0.003966145 0.025751196 -0.021707807 -0.020357093 -0.10972139 0.019747322
-0.020491913 -0.08307225 -0.04545686 -0.10114573 -0.08346441 0.015700212 -0.0009001402 -0.019885896
0.016388824 -0.06293332 -0.021046448 -0.0001896234 -0.07473683 0.0010643281 -0.19802803 -0.087832816
-0.041717358 0.03196088 -0.05445335 -0.10318988 0.044559054 0.028006569 -0.016007138 -0.18507163
-0.01748317 -0.08900851 -0.025045866 -0.024458816 0.0013992782 -0.08716998 -0.051815394 -0.12167698
-0.044340014 -0.08899328 -0.25954556 -0.034985535 0.010050809 -0.064672075 -0.08171502 -0.03184522
-0.071802765 -0.16756265 -0.024150565 -0.031664107 -0.010491827 -0.07452362 -0.105685495 -0.09099005
-0.025182199 -0.12822142 0.058973737 -0.07725445 -0.095093876 -0.032373954 0.016271496 -0.108144686
-0.043970983 -0.09925946 0.0024947964 -0.0666412 -0.12601939 -0.15329857 0.03490568 -0.18318093
-0.032654412 -0.19663382 0.015574648 -0.1349268 0.047639932 0.018053971 -0.0138926245 -0.020804057
-0.14753845 -0.14537936 -0.13477293 0.033573363 -0.09632161 0.009406168 -0.15881477 -0.077626795
-0.03479868 -0.1325597 -0.07252579 -0.022232447 0.03355761 -0.050534904 -0.15950318 -0.049688056
-0.094105266 -0.109738074 -0.03519754 0.023585938 -0.093170136 -0.030154344 -0.047970943 -0.03247261
-0.13044988 -0.040987663 -0.08207381 0.011627519 -0.098840594 -0.11346223 -0.08717683 -0.018062517
-0.106644884 -0.06652306 0.0039167376 -0.028408293 -0.029798456 -0.14850004 0.041351527 0.011208768
-0.04224031 0.006119686 -0.16898142 -0.09906225 -0.097226 -0.09840418 -0.085144594 0.005118778
-0.06374412 -0.14203624 -0.010855665 -0.12750815 -0.11521236 -0.083627686 -0.11893467 0.05233894
-0.07360048 0.042164635 -0.052936547 -0.0017532535 -0.083054736 -0.06887395 -0.2196708 -0.067980655
-0.05102972 -0.014058198 -0.07145518 0.027396787 -0.06985157 -0.08853319 -0.023200277 0.012858669
0.031077651 -0.12885703 -0.024637897 0.0083456 0.008769014 -0.046518706 -0.05251114 -0.121700235
-0.0837262 0.03498704 -0.072705664 0.042744793 -0.12540078 -0.06539042 -0.03403796 -0.0138502605
0.008971019 -0.11767671 -0.067422226 -0.15417884 0.06721864 -0.007121266 -0.09590969 -0.14360239
-0.03746965 -0.08746667 0.078985125 0.07167668 0.0055027623 -0.05731235 0.015983528 0.01602381
0.048619032 -0.015541607 -0.039768975 -0.091511264 -0.034550037 0.047661107 -0.073869444 -0.0071516447
0.0159901 0.048630144 0.097019784 0.0168051 -0.024201225 -0.0035887249 -0.04972919 0.038286608
-0.0023111794 -0.049388774 -0.02657857 -0.0345211 0.05840815 0.004529961 -0.0027122954 0.015597111
0.013068804 0.024477027 -0.01316265 -0.0032244301 0.021210197 -0.008117457 0.045207266 0.03132962
-0.0047135213 -0.05631955 0.029425394 -0.0150569305 -0.06515195 -0.03558216 0.038123686 -0.058083035
-0.03535302 -0.054290585 0.0442383 -0.0021619918 -0.006786529 0.010931756 0.04752164 0.07963871

bias_hh_l0 f4 [400]
00000000: 9834 23bd ee4c 693c 7b65 c1bc 6925 2cbe
00000010: ec58 dabc db70 0dbe ffde b63c 7afd 643d
00000020: 76b6 463c 0b0e 03be e7a5 f5bd f3d1 3bbe
00000030: 6b0a e9bd 17f0 2dbd 0f2a c8bd 7db5 aebd
00000040: c913 efbd d3b1 60bd bb7b 3abe fe40 35bd
00000050: e05d 82bd 7095 043d 498a 7bbd 673f b2bc
00000060: d3a9 bbbc ac0f 1fbe bc90 14be 09b5 813b
00000070: 9b92 eebd b0e5 a3bd 0d53 90bc 48cf f2bd
00000080: 8bb9 603d 9116 3a3b 896c a2bd 5ec9 703d
00000090: 7045 39be 400a 163c 27f1 88bd a3fb b5bd
000000a0: a514 ed3c c6c4 24be 5998 66bc e8b1 673d
000000b0: af83 7abd 4ad1 ecbd bf57 1dbe 08aa 93bd
000000c0: dc2c 913d 5082 8ebd 15fe dbbd 71d8 d73c
000000d0: 4270 f3bd 91c5 43bd c887 803d 78c2 97bd
000000e0: 2d4c 03be 42fe 16be e44f 08bd e708 7bbd
000000f0: e4de debd 14c6 babc bce3 95bd 3263 3cbe
00000100: 5d42 2b3b 543c bebc 920c 32be 120c d93c
00000110: 419a a2bd de50 5cbe 2a2a 00be 240c 01be
00000120: 542d febd 0705 b7bc 087b f9bd 9f77 6cbd
00000130: 276f c2ba 0e61 acbd e60f 943c 0f7f bbbd
00000140: 22ff e5bd 8f49 01be 0b8f e1bd da27 dcbd
00000150: dc71 143d 013c 06be 6c18 32bd 0827 6ebd
00000160: 27db 5abd ce52 833c 65a1 7c3d 27ab 97bc
00000170: d228 b4bc b66c 053c deb4 12be 1e1d 6ebe
00000180: 4aba 23bd ef25 39be 33a2 c7bc 07d3 203d
00000190: f34c 87bb f0ae e8bd e4ba 00be 82f5 edbd
000001a0: 29af b73c 4963 b1bd 459c 28be 48b3 22bd
000001b0: d90c e3bc ff88 723d 38b9 43bd 384c 0fbe
000001c0: d206 44bb a51e 0f3d 4b2e 56bd a6c8 13be
000001d0: eedc 193c 4967 90bd 6979 37be 9e69 e9bd
000001e0: 8978 f8bd 7dd7 7c3c 616f f1bd fc7f a2bd
000001f0: 8bfa 7d3c d620 b0bd 9bee 16be 85e2 bdba
00000200: dcd0 a9bd 6fc8 ab3c bdf9 cabd 1de7 b8bd
00000210: 0e3e a6bd 6bf8 00be 3df2 93bd 54be bdbc
00000220: c693 a9bd 0dab 1ebe e7c8 8abd 014a 71bd
00000230: 10ac b1bb f09e 973c d711 3dbb c607 8ebd
00000240: cd48 5e3b d588 68bd 62de 0abe 5dcc 0abe
00000250: b743 cf3a 35ef b4bc 9b91 22bd ac30 12be
00000260: 51be 153d a029 fbbd 885b 9cbd 618d 64bd
00000270: 4694 65bd 42d9 053d 242a 8fbd 3fa7 41bd
00000280: 6c77 8a3d 5ba8 90bd 6b48 0fbd cb7a 11be
00000290: 5dfb 14bb 7b21 e4bd 3031 45be 33cd 22be
000002a0: 5f15 9bbc 30b2 4abe 38aa 69bc 6c98 5abc
000002b0: 5905 f4bd c2df 393c bf3f 3cbd 464b 02bd
000002c0: a9ef 2abd 7ceb 85bd 3d13 4abc 9858 b8bd
000002d0: cebd 24bd 61b3 15bd e162 86bd a6f9 c0bd
000002e0: 0552 94bd d360 ccbd 9c67 04be 2e00 dfbd
000002f0: c33f 01bd 82b4 d7bd 1c33 b3bd 06b4 0bbd
00000300: 6e6d 7bbd c95c f4bd 03e2 e7bd b028 c3bc
00000310: fa1c 30bd 9cdf 39be 3ea7 42bc 0de3 a4bd
00000320: 0c94 3c3d 60c3 113d 2d96 a2bd 4c38 93bd
00000330: 9a9f bdbb 9226 6b3d 1bdd 8abc 84fc c03c
00000340: b928 44bd d654 7b3c 8bf8 223d 6e70 bd3d
00000350: a3c1 0f3d 899b 823c 14ea 973d 8719 df3b
00000360: 3dbd 2f3d d8bc 843d ea34 c6bd 468e 7ebc
00000370: 9ac0 c83c 3c9a 543b 190d e43c f246 1dbd
00000380: 1245 483d 7e7c 4a3d 0d3c ca3c acf4 9bbd
00000390: a2e7 71bd b989 5abb 3ece 393b bde7 94bc
000003a0: 78c9 2cbd 0687 1a3d fb1e 5a3c 003a e3bc
000003b0: 673b b2bc 10b4 e63b 861b 7c3d d7b7 2fba
000003c0: 9a04 babc d110 693d 9561 e0ba 84b4 733d
000003d0: 17c6 833d 3721 113d d04b 1bbd 3025 6d3d
000003e0: fe85 92bd 0541 afbc 3dac 2fbd 688f 053c
000003f0: e344 75bd 7e11 45bd 34c5 a93c 4fbe a3bd
-0.03984508 0.014239533 -0.02360796 -0.16811146 -0.02665373 -0.13812582 0.02232313 0.055905797
0.012128463 -0.12798326 -0.11994534 -0.18341808 -0.1137894 -0.042465296 -0.09773647 -0.0853071
-0.116736956 -0.054857086 -0.18211262 -0.044251435 -0.063655615 0.032369077 -0.061411176 -0.021758748
-0.022908127 -0.15533322 -0.14508337 0.0039583487 -0.116490565 -0.08002794 -0.017617727 -0.11855942
0.054864448 0.0028394798 -0.07930858 0.05878579 -0.18092895 0.009157717 -0.06686621 -0.088858865
0.028940508 -0.16090688 -0.014074408 0.05656615 -0.06116074 -0.11563356 -0.15365504 -0.07210165
0.07088634 -0.06958449 -0.10741822 0.026348324 -0.11886646 -0.047795836 0.06275898 -0.07410139
-0.12822028 -0.14745429 -0.033279315 -0.061287787 -0.10882357 -0.02279953 -0.073188275 -0.18397215
0.0026132085 -0.023222126 -0.17387608 0.026495013 -0.07939578 -0.21515223 -0.12516084 -0.12602288
-0.124109894 -0.022341264 -0.121816695 -0.057731267 -0.0014834151 -0.08416949 0.018073987 -0.09155094
-0.11230303 -0.12625717 -0.110136114 -0.107497886 0.036241397 -0.13108827 -0.04348032 -0.05814269
-0.053431656 0.016030695 0.061677355 -0.018514229 -0.02199212 0.0081435945 -0.14326808 -0.23253295
-0.03997258 -0.18080877 -0.024369335 0.03926375 -0.004129046 -0.11361492 -0.12571293 -0.116190925
0.02242239 -0.08661515 -0.16465862 -0.039721757 -0.027716087 0.05921268 -0.04778406 -0.13993919
-0.0029911292 0.034941334 -0.052290242 -0.1443201 0.009391053 -0.0705095 -0.17917408 -0.11397098
-0.12132365 0.015432236 -0.11788822 -0.07934567 0.015501629 -0.08600013 -0.14739458 -0.0014487064
-0.0829179 0.020969598 -0.09910915 -0.09028456 -0.08117305 -0.12594764 -0.07223938 -0.023162045
-0.08280139 -0.15494938 -0.067766 -0.058908466 -0.005422123 0.018508404 -0.0028849745 -0.069350764
0.0033917904 -0.05677112 -0.13561395 -0.13554521 0.0015813027 -0.022086719 -0.03968964 -0.1427638
0.036558453 -0.12263799 -0.07634646 -0.055798892 -0.056049608 0.032677896 -0.069904596 -0.04727864
0.06761059 -0.07063361 -0.034981173 -0.14206998 -0.0022732832 -0.111391984 -0.19257045 -0.1589859
-0.018931089 -0.19794536 -0.014261775 -0.013342004 -0.119150825 0.011344852 -0.04595923 -0.031810068
-0.041732464 -0.06539056 -0.012333688 -0.09001273 -0.040220074 -0.036548022 -0.065618284 -0.09422617
-0.072422065 -0.09979405 -0.12930149 -0.10888706 -0.03155495 -0.10532476 -0.08749983 -0.03410723
-0.061383657 -0.1193176 -0.11322405 -0.023823112 -0.042996384 -0.18151706 -0.011880694 -0.08051119
0.046039626 0.035586715 -0.079388 -0.07188472 -0.0057868483 0.05740983 -0.016951134 0.023557909
-0.0478904 0.015340051 0.03978781 0.0924996 0.035096776 0.015943306 0.07417694 0.006808463
0.04290508 0.064813316 -0.09678061 -0.01553685 0.024505902 0.0032440564 0.027838277 -0.038397737
0.048893996 0.04943513 0.024686838 -0.07615027 -0.059058793 -0.003334625 0.002835169 -0.018176908
-0.042184323 0.037726425 0.01331305 -0.027737617 -0.02175684 0.007040508 0.061549686 -0.00067031145
-0.022707272 0.056900803 -0.0017118925 0.059498325 0.06434267 0.035432067 -0.037914097 0.057896793
-0.07154463 -0.021393308 -0.04288887 0.0081518665 -0.05988015 -0.048112385 0.020723917 -0.07995283

weight_hr_l0 f4 [3, 100]
00000000: 101f 93bd c9a1 8a3d 655c cbba c68b 36ba
00000010: 50b5 9dbb 3a3b 82ba cc71 bf3a 6843 b93d
00000020: ccde 423a b068 653b 0670 1fbb f539 1aba
00000030: bbb6 bf39 d70f 5dbd 595f cd3a 27dd 0ebb
00000040: cb46 8dbd d31c b0bd 128b d7b9 3f31 be3a
00000050: 3a71 be3a 3cc3 b8bb cf95 2f3d 0e62 8bba
00000060: 41ce 0f3d 5f3d 0bba 93be d63b f25c 1cbb
00000070: 30b9 23b6 7cd3 83bc 8825 5bbd fb37 0dbc
00000080: 2b7b 59bd 06e5 0bbd c371 5cba 374a 96bd
00000090: 9697 98ba 403f 01bb 74ea 863d 33b0 a33d
000000a0: 6b58 97bd 40f5 9739 4232 23bd 9274 10bd
000000b0: b610 4bba 8f0d f338 a36b 503a 0e96 5dba
000000c0: ac15 b0bd f2ac a6bd a8fa cd3a b7b3 9ebd
000000d0: 9695 b23d 4ded 993d a5ea 1e3c 32e9 6bba
000000e0: 352f 2fbd bb7d fa3a 4d98 bfbd 8ea9 023d
000000f0: 8b20 c03d 4d50 b53d 48f1 cfbc 240f c4ba
00000100: ac71 63ba 8fd6 e7bb e6c0 a239 3e7f 503a
00000110: bbf7 933a 4664 663a a24b 8ebd 47ac 003d
00000120: b6df 1f3d 046e 4e3a 9726 44bd 50a2 0a3b
00000130: 43bd a73d b971 b2ba eaf4 6dbd 4bd3 983b
00000140: 2b4c a8bb d33d 9cbd b317 aa3d d735 12bd
00000150: 0bec 05bb 23a3 41bc f10f 993d fa7b 603b
00000160: c993 d7ba 625f 843d 817d 283d 9903 adbd
00000170: e4a8 dcbc 3db5 ec39 4b09 edbc 41d2 35ba
00000180: e2da 4a3d 064a 57ba 0a17 813b bbc0 303a
00000190: 0b29 a7bd 24f7 4ebd 3d41 313b 3069 b63a
000001a0: 2a7a ddbb 98c1 643a e184 d239 bfa4 12bd
000001b0: 94f6 c7ba 1910 94bd 4b40 98bb 45a2 d1ba
000001c0: a990 3dba 8ec3 aebd 4521 0cbb 8a0c 623b
000001d0: 3fe7 973d 3df3 ca3a 1ace d8ba 5534 94b8
000001e0: 4fa7 16b9 48c9 523b cfd3 77bc 037e d13a
000001f0: 6d87 923d beec 99ba b8b2 4e3c a0f4 cabd
00000200: 0e7a 223b 6f53 b5ba 4ac9 523d d193 a3bd
00000210: 433f 8dbd a40e d13c df35 4aba 5519 1cbb
00000220: 24f6 ba39 cbf7 9f39 bd6c 29bd b483 9d3b
00000230: b92b b3bd 6b50 1ebb 9669 983d 5fa4 99bd
00000240: 93d2 b43a f888 c239 a64d 11bb b621 e13a
00000250: bce1 74bb 7bac 383d ee89 58b9 3399 f3bc
00000260: 4f1d 263d 5d31 e7ba 55c3 a1bd 66c3 413a
00000270: 6159 76bd 242f 09ba 7e36 a13d 6bd8 9a3d
00000280: 12af b33c c910 463d 0c5f 1e3d d555 0e3b
00000290: 53b6 823a 87c5 713c efc8 87ba a2e9 223a
000002a0: 655c 58bb c323 dbba ec08 06bd 11a0 823d
000002b0: a21a 003c 6a45 b4ba 443a 39bd 622f 083c
000002c0: 2d27 e1bc f3cb ff39 0cc3 443d 9619 7ebd
000002d0: 19cd 9abd 2285 84bd 99fc 9dbd c482 53bd
000002e0: 0e1a ad3b 622b bcbb 94fb a73d 0d5f 5e3c
000002f0: f7a1 11b9 c241 b0bd 5599 c23d d248 b3bd
00000300: 4a1c 8b3c ed58 9b3a 8a69 23bc 24ab 813a
00000310: 96b4 41bd fc9d 2b3b adac a7bd 71e8 983a
00000320: e6b7 a1bd bc02 6bbd 2967 82bb 568b 42bb
00000330: 06fa b63b 90aa f5ba 1dcf afb8 81a9 413d
00000340: 2daa c63a 5db6 5b3d f247 d239 8871 793b
00000350: 21f2 3fbb 44d3 d9bb 7966 283b bc30 85bb
00000360: 6ebe aebb aa8f 9d3d 092f a53b 08d5 5e3a
00000370: 5614 873a 43e0 35ba e43c a9bd 68cd 8cba
00000380: 6809 92ba 3949 39ba e260 483c 3b02 963c
00000390: a4f7 0c3b 5ac3 3f3d 1f36 4cbd e21b a8bc
000003a0: 52f9 ac3c b534 053d 0034 ecb7 c76b c9bc
000003b0: 7df2 fdba d129 82ba 2b16 a83d 8005 5bbd
000003c0: fe8b 733d a86f 8d3b f391 823d 340f aebc
000003d0: 3ed6 74bb d7d2 e1ba 9932 6b3b dede 21bb
000003e0: b3ca 38bd 8dcd 3fbc db3d 0c3b 9eff e23b
000003f0: d1b0 10bc 8a4c 57bd cd71 acbd 4508 c3ba
-0.07183659 0.06769139 -0.0015515207 -0.0006963577 -0.004812874 -0.0009935864 0.0014606058 0.0904606
0.0007433712 0.0035005026 -0.0024328246 -0.000588327 0.00036566504 -0.053970184 0.0015668675 -0.0021799298
-0.06898268 -0.08599248 -0.0004111161 0.0014510526 0.0014529594 -0.005638508 0.042867478 -0.0010634081
0.03510881 -0.0005311574 0.00655348 -0.002385911 -2.4396686e-06 -0.016092055 -0.05350259 -0.008619304
-0.053095978 -0.03415396 -0.0008409286 -0.07338374 -0.0011641856 -0.0019721538 0.06587687 0.07992592
-0.07389911 0.0002898369 -0.03984285 -0.03526742 -0.00077463256 0.000115896684 0.00079506094 -0.0008452841
-0.085978836 -0.081384555 0.001571496 -0.07749122 0.087199375 0.07515965 0.009699498 -0.00089992874
-0.04276963 0.0019110957 -0.09355221 0.03189998 0.09381207 0.08853207 -0.025383607 -0.0014958126
-0.0008676301 -0.007075138 0.00031042768 0.0007953531 0.0011289039 0.00087887456 -0.069480196 0.031414296
0.039031707 0.000787467 -0.047888365 0.0021153875 0.08190396 -0.0013614214 -0.058094896 0.00466386
-0.005136033 -0.076289795 0.083053015 -0.035695877 -0.0020434882 -0.01181868 0.07473744 0.0034253583
-0.0016447242 0.06463505 0.041135315 -0.08447952 -0.026936002 0.0004514846 -0.028935095 -0.00069359323
0.04952515 -0.00082126295 0.003939514 0.0006742586 -0.08162125 -0.05052866 0.0027046942 0.0013916846
-0.006758948 0.00087263575 0.00040153324 -0.035801645 -0.0015255981 -0.07229633 -0.004646336 -0.0015993795
-0.0007231334 -0.08533393 -0.0021382135 0.0034492337 0.074171536 0.0015483868 -0.0016540915 -7.0669375e-05
-0.00014367442 0.003216343 -0.015126183 0.0015982989 0.07154737 -0.0011743528 0.012615852 -0.0990994
0.0024791989 -0.0013834069 0.051461495 -0.07987178 -0.06896832 0.025519677 -0.0007713716 -0.002381881
0.00035660074 0.00030511463 -0.041363467 0.00480696 -0.08748574 -0.002415682 0.07442014 -0.075020544
0.0013795666 0.00037104613 -0.0022171526 0.0017176184 -0.0037365993 0.045086365 -0.00020650748 -0.029736137
0.040555295 -0.0017638613 -0.07898585 0.00073914824 -0.060143832 -0.000523316 0.07871722 0.0756081
0.021934066 0.04835585 0.038664863 0.002171864 0.000997255 0.014756567 -0.0010359565 0.00062146236
-0.0033014056 -0.0016719032 -0.032723352 0.063781865 0.00781885 -0.0013753597 -0.045221582 0.008312078
-0.0274845 0.00048789344 0.048037574 -0.06203612 -0.075586505 -0.064707056 -0.07714195 -0.05163838
0.005282647 -0.0057424763 0.082022816 0.013572467 -0.00013888614 -0.08606292 0.09501902 -0.08754124
0.016981263 0.0011852063 -0.009973893 0.0009892923 -0.04729136 0.0026186695 -0.08187232 0.0011665953
-0.07896404 -0.057375655 -0.003979583 -0.0029685101 0.0055840043 -0.0018742848 -8.383228e-05 0.047280792
0.0015156918 0.053640712 0.00040107925 0.0038062055 -0.0029288607 -0.0066474993 0.0025695844 -0.0040646475
-0.0053327596 0.07693417 0.0050410074 0.0008500372 0.0010305743 -0.00069380197 -0.08263567 -0.0010742368
-0.0011141719 -0.0007068101 0.01223013 0.01831161 0.002150991 0.04681716 -0.0498563 -0.020521108
0.021114979 0.03252097 -2.8157607e-05 -0.024587525 -0.0019374635 -0.0009930675 0.08207353 -0.053472042
0.05945968 0.004316289 0.06375494 -0.021247484 -0.0037359144 -0.0017228973 0.0035888313 -0.002469949
-0.045115184 -0.011706722 0.0021399173 0.0069274446 -0.008831219 -0.052563228 -0.08420143 -0.0014879784
