models/paramsearch_0.00013799220421833745_0.868723729347361_0.9999899999999999_100.pt (torch, 33148 bytes, 7 tensors)

weight_ih f4 [240, 6]
0	0x3e806901	0.25080112
1	0xbe09c9eb	-0.13455932
2	0xbd1a9925	-0.037743706
3	0xbe28da6b	-0.1648957
4	0xbe205591	-0.15657641
5	0x3d9a228e	0.07526122
6	0x3d457e62	0.04821623
7	0xbd654a83	-0.055979263
8	0xbdc2d8df	-0.09514021
9	0xbe1f371b	-0.15548365
10	0x3caf29fb	0.021382323
11	0x3d10c390	0.035342753
12	0x3dc83ebd	0.097775914
13	0xbde87d8a	-0.1135207
14	0xbd8241f1	-0.063602336
15	0xbd376879	-0.044777367
16	0x3d4dc631	0.05023784
17	0x3dd7b5c8	0.10532719
18	0xbb4d4910	-0.0031324066
19	0xbdc90022	-0.098144785
20	0x3d0bd960	0.03414285
21	0xbe4dad84	-0.20085722
22	0xbe0215c1	-0.12703611
23	0x3dd4c274	0.103886515
24	0x3d9ee834	0.07759133
25	0xbd87c64e	-0.066296205
26	0x3d259f3b	0.040435057
27	0xbde4bb97	-0.111685924
28	0xbdca27cc	-0.09870872
29	0xbda6c219	-0.0814249
30	0xbd22cef6	-0.039748155
31	0xbe2d5e95	-0.16930611
32	0xbdacd921	-0.084398516
33	0xbe48c449	-0.19606127
34	0x3d644bd0	0.055736363
35	0xbcfb3f77	-0.03066991
36	0x3c01ccde	0.007922379
37	0xbcfdce87	-0.030982269
38	0x3b93f790	0.0045155957
39	0xbe4aa55f	-0.19789647
40	0xbe3c32cb	-0.18378751
41	0xbd70e266	-0.05880966
42	0x3c95809f	0.018249808
43	0x3d5212fc	0.051287636
44	0x3eae9b76	0.34102982
45	0x3e2430e5	0.16034277
46	0x3e67dc76	0.22642693
47	0x3c1632f6	0.0091674235
48	0x3d7e9ae6	0.06215944
49	0xbe17eede	-0.14837214
50	0x3dab2ef5	0.08358566
51	0xbe78663e	-0.24257752
52	0xbbb2fad4	-0.00546203
53	0xbd2fe6ea	-0.042944826
54	0xbd7c3fb5	-0.061584193
55	0xbd4f133d	-0.050555456
56	0x3e1f8655	0.15578587
57	0xbd904d18	-0.070459545
58	0x3e3c26c1	0.18374158
59	0x3c9bc63c	0.019015424
60	0x3e4a6e22	0.19768575
61	0xbe272150	-0.16321301
62	0xbda48ba7	-0.08034449
63	0xbe375210	-0.17902398
64	0x3c862647	0.016375674
65	0x3c903618	0.017603919
66	0x3d7a9ee6	0.061186694
67	0x3c617871	0.013761626
68	0xbdd25a26	-0.10271101
69	0xbd2c6afe	-0.042094223
70	0xbe6b3d67	-0.22972642
71	0xbda00e87	-0.07815271
72	0x3d857b3c	0.06517646
73	0xbc2391ab	-0.00998346
74	0x3dcf0c40	0.101097584
75	0xbcb30c35	-0.021856407
76	0xbdb4ce09	-0.088283606
77	0xbd287268	-0.04112473
78	0x3ba85757	0.005137365
79	0xbc44a26e	-0.012001617
80	0x3e230030	0.1591804
81	0x3e0d9c65	0.13829191
82	0x3e3dcb9a	0.18534699
83	0x3db0330e	0.08603488
84	0x3dd81491	0.10550798
85	0x3d0237c3	0.03179146
86	0xbc3cfd23	-0.011534962
87	0xbdda9819	-0.106735416
88	0xbe495986	-0.19663057
89	0x3cffe5dd	0.031237537
90	0xbc18dfd7	-0.009330711
91	0xbdb5299f	-0.08845829
92	0xbd8c949a	-0.06864281
93	0xbe83669b	-0.2566422
94	0xbda74548	-0.08167511
95	0xbda6f4e3	-0.08152177
96	0x3ded821b	0.11597081
97	0xbd6d795d	-0.05797707
98	0x3c2a3845	0.010389392
99	0x3dc1199b	0.09428712
100	0x3e156b25	0.14591654
101	0x3d979fd6	0.07403533
102	0xbd512b9a	-0.051066972
103	0x3df2f19e	0.11862491
104	0x3e4275ea	0.18990293
105	0xbdabe053	-0.08392396
106	0xbe60b481	-0.21943857
107	0xbd2c6904	-0.04209234
108	0x3dcb1ff6	0.099182054
109	0xbd6deb07	-0.058085468
110	0xbdd32dc5	-0.10311464
111	0xbe0605e0	-0.13088179
112	0xbde12dbe	-0.10995053
113	0xbd464b5c	-0.048411712
114	0x3e1740f8	0.14770877
115	0xbd1ec274	-0.038759664
116	0x3dea8872	0.11451806
117	0xbcea2f28	-0.028586939
118	0xbe2846fa	-0.16433325
119	0xbd98367a	-0.074322656
120	0xbc713aac	-0.014723461
121	0xbe0086b8	-0.12551391
122	0xbc42325c	-0.011852827
123	0xbe52f9df	-0.20603131
124	0x3d6eff8d	0.05834918
125	0x3e44ed61	0.19231178
126	0x39ad71d6	0.00033081946
127	0xbe4bca12	-0.19901302
128	0xbd59125e	-0.052996032
129	0xbe0864ae	-0.13319656
130	0x3e623ad4	0.22092754
131	0x3e082178	0.13294017
132	0x3e1889f8	0.14896381
133	0xbd8f62d2	-0.0700127
134	0x3db73296	0.089451954
135	0xbe1ef39c	-0.15522617
136	0xbd1f637c	-0.038913235
137	0x3c350693	0.011048931
138	0x3e467882	0.19381908
139	0xbe0c9665	-0.13729246
140	0xbdbf0d3e	-0.093286976
141	0xbc487eb6	-0.0122372415
142	0xbde2d1f1	-0.110751994
143	0xbca75748	-0.020427361
144	0x3d1b63b6	0.03793689
145	0xbd036baf	-0.032085117
146	0x3e4bb369	0.19892658
147	0x3c9bbc65	0.019010732
148	0x3e0764c2	0.1322203
149	0x3db5cd20	0.08877015
150	0x3cfaee6b	0.030631265
151	0xbe0f1b95	-0.13975365
152	0x3dd67487	0.104714446
153	0x3ba96594	0.0051695798
154	0x3d7f48da	0.062325336
155	0x3cadd30e	0.021218803
156	0x3da4ba49	0.080433436
157	0xbe34ebf7	-0.17668138
158	0x3c1667e4	0.009180043
159	0xbd157cf9	-0.036496136
160	0x3e258fa8	0.16168082
161	0x3de6da47	0.11272102
162	0x3d6cc071	0.057800714
163	0x3cdc88fa	0.026920784
164	0xbde12049	-0.10992486
165	0xbd03578e	-0.03206592
166	0xbc5fbf83	-0.0136565
167	0x3dea580b	0.11442574
168	0x3dfc96b6	0.12333433
169	0x3bd29f35	0.0064276704
170	0x3df64cd0	0.120263696
171	0x3e7382b7	0.23780333
172	0x3e5806b6	0.2109631
173	0x3dd0eeb7	0.10201781
174	0x3d67dcfb	0.056607228
175	0xbd4b9898	-0.04970607
176	0x3d1783d1	0.036990944
177	0xbe6ff4f2	-0.23433283
178	0x3ce3e9ca	0.02782144
179	0x3db53636	0.088482305
180	0xbb2c4b55	-0.0026290019
181	0xbe3ef514	-0.18648177
182	0xbdafd36c	-0.085852474
183	0xbdc85797	-0.097823314
184	0xbb82897d	-0.003983675
185	0x3d275746	0.040854715
186	0xbbbc31d9	-0.005743247
187	0xbe740a7b	-0.23832123
188	0x3d00a91f	0.031411286
189	0xbd6df439	-0.058094237
190	0xbc4248b8	-0.011858158
191	0x3da560ec	0.08075127
192	0x3d734696	0.059393488
193	0xbd8ec34c	-0.06970844
194	0xbdce3f0d	-0.1007062
195	0xbd0f2e91	-0.03495652
196	0xbd8b9f91	-0.06817544
197	0xbd13834e	-0.036013894
198	0x3e85e193	0.26148662
199	0xbd663d54	-0.05621083
200	0xbd3b2801	-0.045692448
201	0xbe68ef3c	-0.2274751
202	0x3d53ec93	0.051739287
203	0x39f1aaea	0.00046094443
204	0x3d1b522e	0.03792017
205	0xbdcaf38c	-0.09909734
206	0xbd03cc6c	-0.032177374
207	0xbe3417d9	-0.17587222
208	0x3dbdb28a	0.09262569
209	0x3d221e69	0.039579783
210	0x3d6aa86a	0.05728952
211	0xbdf49b0e	-0.11943637
212	0x3e001b08	0.12510312
213	0xbc872b40	-0.016500115
214	0xbbed76f8	-0.007246848
215	0x3b4b973e	0.003106549
216	0x3e2f96cf	0.17147373
217	0xbe33249d	-0.17494436
218	0xbd138c06	-0.03602221
219	0xbd0549ec	-0.0325412
220	0xbd9e662b	-0.07734331
221	0x3d4515cf	0.0481165
222	0x3d393a71	0.04522175
223	0xbe2298f3	-0.15878658
224	0x3db08b93	0.08620372
225	0xbdfe7889	-0.12425334
226	0x3c977901	0.018490316
227	0xbab9614b	-0.0014143375
228	0x3c80eceb	0.015737971
229	0x3c111c4a	0.008856842
230	0x3e206de5	0.15666921
231	0x3d9f9f7b	0.0779409
232	0x3cd0f62f	0.025508014
233	0xbc7e5910	-0.015524164
234	0x3e314056	0.17309698
235	0xbe8d6edc	-0.27623641
236	0x3d35f952	0.044427224
237	0xbd8a2acc	-0.06746444
238	0xbde3c937	-0.11122363
239	0xbd9f4365	-0.07776526
240	0xba1360b8	-0.0005622017
241	0xbcff3b21	-0.031156125
242	0xbd44e5f2	-0.048070855
243	0xbe510c89	-0.20414938
244	0x3dd243d4	0.102668434
245	0x3db72752	0.08943047
246	0xbb151c96	-0.0022752634
247	0xbe6fd5d1	-0.23421408
248	0xbd05313c	-0.032517657
249	0xbd8419ab	-0.06450208
250	0xbcd37570	-0.025812835
251	0x3e32b60b	0.17452256
252	0x3dcf1b04	0.10112575
253	0xbe11bb75	-0.14231665
254	0xbe057f6a	-0.13036886
255	0xbd108c22	-0.03528989

weight_hh f4 [240, 12]
0	0xbe8cf5d8	-0.27531314
1	0xbd0b9a2b	-0.034082573
2	0x3d8b9a5a	0.068165496
3	0xbe9859cd	-0.29756013
4	0x3da6ef03	0.081510566
5	0xbd93b099	-0.07211418
6	0xbe1bfa97	-0.15232311
7	0xbde473ad	-0.11154876
8	0x3ddf3979	0.10899634
9	0x3db6464b	0.08900126
10	0xbe047945	-0.12936886
11	0x3e0e6317	0.13904987
12	0xbd18341c	-0.03715907
13	0x3d1084d5	0.03528293
14	0xbc37cf87	-0.011218912
15	0x3dcea944	0.100908786
16	0xbe070c15	-0.13188203
17	0x3d9fe933	0.07808151
18	0x3cbaf38f	0.022821216
19	0xbdb4a857	-0.08821171
20	0xbb299ecd	-0.0025882006
21	0x3bfe72da	0.007765156
22	0x3dd57434	0.104225546
23	0x3dc57955	0.09642283
24	0x3c0649ab	0.008196275
25	0xbdf0fdb2	-0.117671385
26	0xbdc26dc5	-0.09493593
27	0xbd402c7c	-0.046917424
28	0xbdf39035	-0.1189274
29	0xbd98379e	-0.07432483
30	0xbe04f618	-0.12984502
31	0xbdf96632	-0.12177695
32	0x3e17d8ea	0.1482884
33	0xbd90b9b5	-0.07066671
34	0xbe1224d7	-0.14271866
35	0x3e25e409	0.1620027
36	0xbdcacdc3	-0.09902527
37	0x3d9c34b7	0.07627242
38	0x3db4012a	0.087892845
39	0xbcb23f1b	-0.021758607
40	0xbe049f17	-0.12951313
41	0x3d931e3b	0.071835004
42	0xbe03aa33	-0.12857895
43	0xbe038727	-0.12844525
44	0x3e176895	0.14785989
45	0x3e0f0149	0.13965334
46	0xbdf9e016	-0.12200944
47	0xbc372d07	-0.011180169
48	0x3d276f27	0.040877488
49	0xbc736db3	-0.014857697
50	0xba27aa96	-0.0006395964
51	0xbd1baa53	-0.03800423
52	0xbe0fa4d8	-0.14027727
53	0x3c5a233a	0.013314063
54	0xbde72179	-0.11285681
55	0x3dca0db9	0.09865899
56	0x3c385875	0.011251559
57	0xbdc1f8f1	-0.0947131
58	0xbd3f5aba	-0.046717383
59	0x3c6c700a	0.014431009
60	0x3daf333f	0.08554696
61	0xbd8e5f44	-0.06951764
62	0xbd46c537	-0.048527922
63	0xbd72bbc5	-0.059261102
64	0x3dd1822b	0.10229906
65	0xbe200f70	-0.15630889
66	0x3d37a5a9	0.04483572
67	0xbbc8987b	-0.0061216927
68	0x3d68b140	0.056809664
69	0x3cc3c9cc	0.023899935
70	0xbdb76280	-0.08954334
71	0x3e0b6cba	0.13615695
72	0xbe40ec8e	-0.18840238
73	0xbcad2c5d	-0.021139318
74	0x3dd697ec	0.104781955
75	0x3c3d8fb3	0.011569905
76	0x3e0b1007	0.13580333
77	0xbe467f4c	-0.19384497
78	0xbe3059d6	-0.1722177
79	0xbda1e6c9	-0.07905347
80	0xbcb1f189	-0.021721618
81	0x3e377da3	0.1791902
82	0xbe3a1e5c	-0.18175644
83	0x3e02a991	0.12759997
84	0xbdf6fd76	-0.120600626
85	0xbd88b50f	-0.06675159
86	0x3da9f8a1	0.08299375
87	0x3cdadcc2	0.026716594
88	0xbe287482	-0.16450694
89	0xbcada7d1	-0.021198185
90	0x3e1afb51	0.15134932
91	0x3d0593d8	0.032611698
92	0x3def5c34	0.11687508
93	0x3ddfad69	0.10921747
94	0xbec1c5fa	-0.37846357
95	0x3e85b54d	0.26114884
96	0xbd03782c	-0.032097027
97	0xbac8bc80	-0.0015314966
98	0x3c98a4f0	0.018633336
99	0xbe167150	-0.14691663
100	0xbdb6f9e1	-0.08934379
101	0x3d1096d8	0.035300106
102	0xbd9f68d6	-0.07783668
103	0x3c817092	0.015800748
104	0x3e18de42	0.14928535
105	0x3e201aed	0.15635271
106	0xbe1a90d8	-0.15094316
107	0x3dbb9a83	0.0916033
108	0x3dd136d7	0.10215538
109	0xbdc4f0b0	-0.0961622
110	0xbd0ee94b	-0.034890454
111	0x3d54a6cd	0.051916886
112	0xbd95a42f	-0.07306706
113	0xbdff836e	-0.1247624
114	0x3d42cb7d	0.047557343
115	0xbd8a8e92	-0.067654744
116	0x3c8d289a	0.017231274
117	0xbe010f7c	-0.12603563
118	0x3db7d70f	0.08976566
119	0xbd991a6c	-0.07475743
120	0xbd410590	-0.047124445
121	0x3d156c3e	0.03648018
122	0x3c47f1e6	0.012203669
123	0x3c14bee4	0.009078715
124	0x3da30ba3	0.07961204
125	0xbd435145	-0.047684927
126	0x3d0b7970	0.03405136
127	0x3d9454a7	0.07242709
128	0xbd12f0f5	-0.035874326
129	0x3d1d15cf	0.038350876
130	0x3d39d18c	0.045365855
131	0xbd326525	-0.04355349
132	0xbe097699	-0.13424148
133	0x3aa99762	0.0012938792
134	0xbdaf15e4	-0.08549097
135	0xbd91dfe0	-0.07122779
136	0xbddf6669	-0.10908205
137	0xbdbf444c	-0.093391985
138	0x3d5b4070	0.05352825
139	0x3ddd907f	0.10818576
140	0xbce7653b	-0.028246513
141	0xbd54352d	-0.051808525
142	0xbe1bddd9	-0.15221347
143	0xbda7a8db	-0.081865035
144	0x3d0d07c8	0.03443125
145	0x3c9d0b83	0.019170528
146	0xbb3de328	-0.0028974507
147	0xbdfe17d5	-0.12406889
148	0xbd208bf7	-0.03919598
149	0xbe2216aa	-0.15828958
150	0xbccba1a3	-0.024857348
151	0x3bfce3ed	0.0077176006
152	0xbd8f4f01	-0.06997491
153	0xbd14166c	-0.036154196
154	0x3d6d1f35	0.05789109
155	0x3dd8e8e0	0.105912924
156	0xbdaddd24	-0.08489445
157	0xbe844ab4	-0.25838244
158	0x3d7684de	0.060185306
159	0x3d4a71fd	0.049425114
160	0xbe42168f	-0.18953918
161	0xbe23fd61	-0.16014625
162	0x3c10b53b	0.008832271
163	0xbe0bbab0	-0.13645434
164	0x3de7da6f	0.1132096
165	0xbd412d13	-0.047162127
166	0xbe0cdd00	-0.1375618
167	0x3d0a8fc7	0.033828523
168	0xbde1a99a	-0.11018677
169	0xbdf63e7f	-0.12023639
170	0x3a7a10d8	0.0009539253
171	0xbe0415f7	-0.12899004
172	0x3c08ae5b	0.008342351
173	0xbdd2634f	-0.10272848
174	0xbe2b8f36	-0.1675385
175	0xbdbcff32	-0.09228362
176	0x3da57126	0.08078222
177	0x3c950d6e	0.01819488
178	0xbd9c9718	-0.07646006
179	0xbc933dde	-0.017973837
180	0xbdd6b6c2	-0.10484077
181	0xbd66df5b	-0.056365352
182	0x3e147fca	0.14501873
183	0xbcdbabe0	-0.026815355
184	0x3db5849f	0.08863186
185	0xbe3e7bf5	-0.18601973
186	0xbc3c219a	-0.011482621
187	0x3d377145	0.044785757
188	0x3e266f67	0.16253434
189	0x3e01e36b	0.1268441
190	0xbe36abeb	-0.17839019
191	0x3e287bb4	0.16453439
192	0xbc0d6b15	-0.008631487
193	0xbd89313f	-0.06698846
194	0x3d401764	0.046897307
195	0x3dc780bb	0.0974135
196	0x3df3ae07	0.118984275
197	0xbd8a837d	-0.06763361
198	0xbd5eeba9	-0.05442396
199	0xbde3885b	-0.11109992
200	0x3df00745	0.117201366
201	0x3dd8cf2b	0.10586389
202	0xbd185d52	-0.037198372
203	0x3c4fff5f	0.012695163
204	0x3d8de0f7	0.06927674
205	0xbda24919	-0.079240985
206	0x3e34b9c9	0.17648996
207	0xbc372d4a	-0.011180231
208	0xbd5b1120	-0.05348313
209	0xbdc9a90d	-0.09846697
210	0xbd0ad318	-0.03389272
211	0xbda3e380	-0.080023766
212	0x3df9f730	0.122053504
213	0x3dfa98ef	0.12236201
214	0xbe1e6304	-0.15467459
215	0x3db711b4	0.089389235
216	0x3c5bebc4	0.01342291
217	0x3d49c6f6	0.04926201
218	0x3e309d7d	0.17247577
219	0xbe32dde7	-0.17467462
220	0x3c35e908	0.011102922
221	0xbe0a7cde	-0.13524196
222	0xbe498d53	-0.19682817
223	0xbdeae886	-0.114701316
224	0x3d744501	0.05963612
225	0x3e35738f	0.17719863
226	0xbdd1e6a3	-0.102490686
227	0xbca4b6a8	-0.020106629
228	0xbd4a4b77	-0.049388375
229	0xbd8c3178	-0.06845373
230	0xbd327e4d	-0.04357748
231	0xbdfe5e7e	-0.12420367
232	0xbde425b2	-0.11140002
233	0x3d4beb2b	0.04978482
234	0xbe3d41df	-0.18482159
235	0x3d2a45ac	0.04157035
236	0x3d741ff3	0.05960078
237	0xbd8b74fb	-0.06809422
238	0xbd56ede3	-0.05247296
239	0x3d7d07c2	0.061774977
240	0xbdcf6d71	-0.10128296
241	0xbc85d5f3	-0.01633737
242	0x3d3d6449	0.046238218
243	0xbde40255	-0.11133257
244	0x3e1cacf4	0.15300351
245	0xbccecbaf	-0.025243608
246	0xbe0cb99c	-0.1374268
247	0xbd7e697a	-0.06211231
248	0x3e1b2dad	0.15154143
249	0xbce433b4	-0.027856685
250	0xbe618129	-0.22021927
251	0x3b442ea9	0.0029935038
252	0xbda3a153	-0.079897545
253	0x3beacdbf	0.00716564
254	0x3ca528a6	0.020160984
255	0x3bd27a1c	0.006423248

proj f4 [12, 60]
0	0xbd07010e	-0.03295999
1	0x3da30f7e	0.07961939
2	0x3d81c9d8	0.06337327
3	0x3e0de25d	0.13855882
4	0xbdd3f5ce	-0.10349618
5	0xbb3b31fb	-0.0028563726
6	0xbd413e59	-0.0471786
7	0x3d61c18a	0.055116214
8	0xbd9247f2	-0.07142629
9	0xbbbbfb0d	-0.0057367147
10	0x3c299e30	0.010352656
11	0x3dc664d9	0.09687204
12	0xbe176871	-0.14785935
13	0xbd307223	-0.0430776
14	0x3da077b7	0.07835334
15	0xbde70e07	-0.112819724
16	0xbd1fe710	-0.039038718
17	0x3debbc95	0.115105785
18	0x3d60cefc	0.054884896
19	0xbdd1f183	-0.10251143
20	0x3d5ab4ca	0.05339507
21	0x3cd98a33	0.026555156
22	0xbd1ed3fe	-0.03877639
23	0x3d3b0be8	0.04566565
24	0xbda9e40c	-0.082954496
25	0xbca1d6e7	-0.019755794
26	0x3e1481bd	0.14502616
27	0xbdb8e30f	-0.09027683
28	0x3d21c4ca	0.039494313
29	0xbdd37a93	-0.103261136
30	0x3d72a4a9	0.059239063
31	0x3dafe6b2	0.085889235
32	0xbb077186	-0.002066703
33	0x3cbcabb5	0.023031095
34	0x3d7b0286	0.061281703
35	0x3ddf1194	0.10892025
36	0xbd18d1eb	-0.03730957
37	0xbe000142	-0.1250048
38	0xbc81f67f	-0.015864609
39	0x3d703530	0.058644474
40	0xbd78544f	-0.060627278
41	0x3e1a63e5	0.15077169
42	0xbc1bdb7e	-0.00951278
43	0x3d5834eb	0.05278484
44	0x3d1a3cda	0.03765569
45	0xbda21875	-0.07914821
46	0xbdb00f67	-0.08596688
47	0x3d9fda19	0.07805271
48	0xbd8ccb40	-0.06874704
49	0x3d5dacba	0.054119803
50	0xbe1457ac	-0.14486569
51	0xbe13c295	-0.14429696
52	0x3e1332f3	0.14374904
53	0x3d21a43f	0.039463278
54	0x3e03d9c1	0.12876035
55	0xbcda40bf	-0.026642201
56	0x3df5ae49	0.11996133
57	0xbdac4697	-0.084119014
58	0x3cf0c775	0.029391984
59	0x3ddee367	0.10883217
60	0x3d73950f	0.059468325
61	0x3db72179	0.08941931
62	0x3d2029a8	0.039102226
63	0xbd8546e6	-0.065076634
64	0xbda0b8f7	-0.07847779
65	0x3b0bd1c5	0.002133475
66	0xbe0d7bbe	-0.13816735
67	0x3da7014c	0.08154544
68	0x3c389c21	0.011267693
69	0xbd87cd30	-0.06630933
70	0xbc2ad487	-0.010426647
71	0xbd2a5e3d	-0.04159378
72	0xbdd13533	-0.10215225
73	0x3d9d4b83	0.07680418
74	0x3d8b15ce	0.06791268
75	0x3dd5f2ae	0.10446678
76	0x3ccf2735	0.02528725
77	0xbdea25da	-0.11433001
78	0xbdb56454	-0.08857027
79	0x3b00e89f	0.0019669903
80	0x3df20385	0.118170775
81	0x3a89716d	0.0010486074
82	0xbdffb0db	-0.124849044
83	0xbdc258c2	-0.094895855
84	0x3d4d6459	0.050144527
85	0xbe171c68	-0.1475693
86	0xbdd42050	-0.103577256
87	0x3d421af3	0.047388982
88	0xbdc40ce6	-0.09572773
89	0x3dc55865	0.096360005
90	0x3c91187a	0.017711867
91	0x3dc0fd1d	0.094232775
92	0x3ddaae77	0.10677808
93	0x3d185ba4	0.03719677
94	0x3c2f044f	0.01068218
95	0xbe03d7b4	-0.12875253
96	0x3d3495f7	0.04408833
97	0xbc8cea5c	-0.017201595
98	0x3c846116	0.016159575
99	0xbd647115	-0.055771906
100	0xbdd8fd5c	-0.105951995
101	0xbccce6a4	-0.025012322
102	0x3d18e1f9	0.03732488
103	0x3d573cbe	0.052548163
104	0x3dd4ae84	0.10384849
105	0xbd192595	-0.037389357
106	0x3d77b035	0.06047078
107	0x3d80ecda	0.06295176
108	0x3d598f57	0.053115215
109	0xbdce9079	-0.1008615
110	0x3d65412e	0.055970363
111	0xbda7509d	-0.08169673
112	0x3d94835d	0.07251618
113	0xbe1d2735	-0.15346988
114	0x3b514e87	0.0031937675
115	0xbc73dd38	-0.014884286
116	0xbdffc6e4	-0.12489107
117	0x3dcd8a0b	0.10036095
118	0x3d9afd15	0.07567803
119	0xbc14bfca	-0.009078929
120	0x3e15b359	0.14619197
121	0x3db2caad	0.087300636
122	0xbd85b8ef	-0.06529414
123	0xbdb12e6d	-0.08651433
124	0xbd478339	-0.048709128
125	0xbd1a649a	-0.037693597
126	0x3dea48c9	0.11439664
127	0xbcfd006a	-0.030883987
128	0x3de551fc	0.11197278
129	0x3c8e5c6a	0.01737805
130	0xbda0c832	-0.07850684
131	0xbdb2e5c6	-0.08735232
132	0x3ded1755	0.11576716
133	0x3da6b3a9	0.08139736
134	0x3dac1198	0.08401793
135	0x3da093c5	0.07840685
136	0x3db6ac07	0.0891953
137	0x3d1368c4	0.035988584
138	0x3d2ec1d5	0.04266532
139	0x3ddba8be	0.107255444
140	0x3db40318	0.087896526
141	0x3df58545	0.1198831
142	0x3d9d9606	0.0769463
143	0x3ddbc450	0.10730803
144	0x3da50417	0.08057421
145	0x3c3bb29e	0.01145616
146	0xbdebc1f3	-0.11511602
147	0xba066b2b	-0.00051276636
148	0xbd543388	-0.051806957
149	0x3d2f8225	0.042848725
150	0xbc52a765	-0.012857293
151	0x3dae9d6f	0.08526122
152	0xbd3093b3	-0.043109607
153	0x3d0ece4d	0.034864713
154	0x3de332ba	0.1109366
155	0x3db34772	0.087538615
156	0x3d909df4	0.07061377
157	0x3d055ad2	0.032557316
158	0xbdc4794d	-0.09593449
159	0xbd89763f	-0.06712007
160	0xbdea01c8	-0.11426121
161	0x3d9acbef	0.075584285
162	0x3d78fc46	0.06078746
163	0x3dd69ba1	0.104789026
164	0xbe13864e	-0.14406702
165	0xbccd35de	-0.0250501
166	0x3daf7c08	0.08568579
167	0xbce0b3fa	-0.02742957
168	0xbd937aef	-0.07201182
169	0x3d998781	0.074965484
170	0x3e17e2a5	0.14832552
171	0xbd570c2a	-0.052501835
172	0xbd5d3cb5	-0.054012973
173	0x3c04f3cf	0.008114769
174	0x3cb791ce	0.022408392
175	0xbd10511d	-0.035233606
176	0x3d9b8bb4	0.07595006
177	0x3daf1c0e	0.08550273
178	0x3dde47c6	0.108535334
179	0xbc393dbd	-0.011306223
180	0x3d704c6d	0.058666635
181	0x3b481f3d	0.0030536198
182	0xbe080667	-0.13283692
183	0xbbd998cf	-0.0066405307
184	0x3db7020b	0.089359365
185	0xbd6ce342	-0.057833917
186	0xbcc96e52	-0.024588738
187	0x3dc1b069	0.09457476
188	0xbdeed121	-0.11660982
189	0xbd8fb781	-0.070174225
190	0xbd78ed15	-0.060772974
191	0x3cce3e82	0.02517629
192	0xbdb4ff49	-0.08837754
193	0xbc3f73d8	-0.011685334
194	0x3e05c6e0	0.13064146
195	0x3db82bcb	0.08992728
196	0x3cd875af	0.026423303
197	0x3d31f11d	0.043442834
198	0x3d93b59f	0.07212376
199	0xbdcfb42a	-0.101417854
200	0xbd7d4031	-0.061828796
201	0xbd2af9ab	-0.04174201
202	0x3d3f45c4	0.046697393
203	0xbc4c064d	-0.012452674
204	0x3d0fdd3d	0.0351231
205	0xbd3249be	-0.043527357
206	0xbd06a5e1	-0.03287304
207	0xbd9a2d59	-0.07528181
208	0x3dc383d7	0.09546631
209	0x3d2d4de9	0.04231063
210	0x3d6538e9	0.055962477
211	0xbcc688e3	-0.024235195
212	0x3b7667aa	0.003759841
213	0x3df39aa7	0.11894732
214	0xbe02b698	-0.12764966
215	0xbc659458	-0.014012419
216	0xbe08ce8c	-0.13360041
217	0xbd01fd38	-0.03173563
218	0x37ed63a7	2.8299006e-05
219	0x3e0fe0a7	0.14050542
220	0x3ddae21d	0.10687659
221	0xbd21af18	-0.039473623
222	0xbe1175c1	-0.14205076
223	0x3c982c78	0.018575892
224	0x3e0eb5ac	0.1393649
225	0x3e01967e	0.12655064
226	0xbbf67687	-0.007521454
227	0x3d7e40e5	0.062073607
228	0xbd55f7e1	-0.05223835
229	0x3b9dd69c	0.004816843
230	0xbe43d645	-0.19124706
231	0x3d941445	0.072304286
232	0xbbb67e19	-0.005569231
233	0x3daf82db	0.085698806
234	0x3e09fc22	0.13475087
235	0x3d9b96e6	0.07597141
236	0xbd28650e	-0.041112
237	0x3dca95b7	0.09891837
238	0xbe278fa7	-0.16363393
239	0xbd40fbac	-0.047115013
240	0x3dd10712	0.10206427
241	0x3dc67ec2	0.09692146
242	0xbd8c83d1	-0.068610795
243	0xbd8bd67b	-0.06828018
244	0xbd3d5c93	-0.046230864
245	0x3db9939d	0.09061358
246	0x3dd32bfb	0.10311123
247	0x3d437a39	0.047723982
248	0x3dce3d94	0.10070339
249	0x3de93331	0.11386717
250	0x3dba973e	0.091108784
251	0xbdd17c49	-0.10228784
252	0x3dd3b7cf	0.10337793
253	0x3de65a99	0.11247749
254	0xbd93489c	-0.071915835
255	0x3de9a257	0.11407917

bias_ih f4 [240]
0	0x3de8de21	0.11370493
1	0x3d8aab58	0.067709625
2	0xbd93ae60	-0.07210994
3	0xbdb5f28d	-0.088841535
4	0x3d4a9229	0.049455795
5	0xbd88d98c	-0.06682119
6	0xbdaf0104	-0.085451156
7	0x3e2589d8	0.16165864
8	0xbd905767	-0.07047921
9	0xbd43552c	-0.047688648
10	0xbd848304	-0.06470302
11	0xbdb23151	-0.087008126
12	0x3d9b55cf	0.07584726
13	0x3d56be90	0.05242783
14	0x3ce35985	0.027752647
15	0x3de18924	0.110124856
16	0x3c6ab588	0.014325507
17	0xbc7ba7a2	-0.015359791
18	0x3e303e11	0.17211176
19	0xbda323d5	-0.07965819
20	0x3d8dcfaa	0.069243744
21	0xbd8abd19	-0.06774349
22	0x3dcc7f8d	0.09985266
23	0x3de04adc	0.10951778
24	0x3e03d060	0.12872458
25	0xbdd59567	-0.10428887
26	0xbce7de2b	-0.02830418
27	0xbd68bb63	-0.05681933
28	0xbc3ce286	-0.011528617
29	0x3ce95c22	0.028486315
30	0x3e1382f8	0.1440543
31	0x3d6d0c7f	0.057873245
32	0x3cf28818	0.02960591
33	0xbc15f220	-0.009151965
34	0x3e0d3c29	0.1379248
35	0xbd0790f9	-0.03309724
36	0x3c2fb34d	0.010723901
37	0xbd8d8d48	-0.06911713
38	0x3d3be7b4	0.045875266
39	0x3e15e787	0.14639102
40	0x3cee0174	0.029053427
41	0xbc27f870	-0.010252103
42	0x3c9c1bd7	0.019056244
43	0x3dff1686	0.12455468
44	0xbd173878	-0.036919087
45	0xbdd21fc7	-0.10259967
46	0x3d286877	0.04111525
47	0x3e09052e	0.13380882
48	0x3d050042	0.03247095
49	0x3e0f1a7b	0.13974945
50	0x3e038a41	0.12845708
51	0xbd9d38f5	-0.07676879
52	0x3e194d86	0.14970979
53	0x3ddc44c2	0.10755302
54	0x3ddde5cb	0.10834845
55	0xbde1f52a	-0.110330895
56	0x3e717acc	0.23582
57	0x3d6eeef4	0.058333352
58	0x3e06a5ef	0.13149236
59	0x3d87860e	0.06617366
60	0x3e4616b5	0.193446
61	0xbcb19097	-0.021675391
62	0xbcc0702b	-0.023490986
63	0x3e1e005a	0.15429822
64	0xbd4f755b	-0.05064903
65	0x3db02be2	0.0860212
66	0xbda53de9	-0.08068449
67	0x3e08e20c	0.1336748
68	0x3dc39057	0.09549015
69	0xbc1563ff	-0.009118079
70	0xbd13d2f2	-0.036089845
71	0x3ddccdb2	0.10781421
72	0xbda4101e	-0.080108866
73	0x3dad330c	0.08457002
74	0x3da25315	0.07926003
75	0x3de3f074	0.11129847
76	0x3ceb1d96	0.028700631
77	0xbcc95b20	-0.024579585
78	0xbc440a09	-0.011965283
79	0x3c914f09	0.017737882
80	0xbd002c91	-0.0312925
81	0x3d185fe5	0.037200827
82	0x3bf25ed4	0.0073965583
83	0xbd34990f	-0.04409128
84	0x3e17da7b	0.14829437
85	0x3c4616ba	0.012090379
86	0xbdc91625	-0.09818677
87	0xbd61d984	-0.05513908
88	0x3d8a8ccd	0.06765137
89	0xbd8549e8	-0.06508237
90	0x3dae1608	0.08500296
91	0x3a29f871	0.0006483859
92	0x3dc7b1bd	0.09750698
93	0x3cc262ab	0.02372869
94	0xbcc48cbb	-0.023992887
95	0xbba3b138	-0.0049954914
96	0x3d28f79c	0.041251764
97	0x3d8761af	0.066104285
98	0x3de6d376	0.11270802
99	0x3e1ed455	0.15510686
100	0xbdb5153f	-0.08841943
101	0x3dddb7ee	0.108260974
102	0x3caf4cbd	0.021398896
103	0xbd404a0f	-0.046945628
104	0x3db16e03	0.08663561
105	0x3cf26576	0.029589396
106	0xbd8eaeb1	-0.069669135
107	0xbcea3de7	-0.02859397
108	0xbdad821d	-0.08472083
109	0x3cd2ccc1	0.0257324
110	0x3e09665b	0.13417952
111	0x3da6d0e5	0.08145312
112	0xbd99eb3f	-0.07515573
113	0xbce7fe9f	-0.028319655
114	0x3cc61806	0.024181377
115	0xbdf1251f	-0.117746584
116	0x3cdf927b	0.027291527
117	0x3e136835	0.1439522
118	0x3d1538ce	0.036431126
119	0xbb3ec98a	-0.0029111826
120	0xbbe365f6	-0.006939645
121	0xbd85bc41	-0.06530047
122	0x3d8629a0	0.06550908
123	0x3db57d6b	0.08861812
124	0xbc4cfa50	-0.012510851
125	0x3d768f3b	0.06019519
126	0x3df3f211	0.11911405
127	0xbd7cf6aa	-0.061758675
128	0x3db8e4cd	0.09028015
129	0xbdd175c5	-0.10227541
130	0x3ddc9031	0.1076969
131	0x3d571f9c	0.05252038
132	0x3d3cb5dd	0.046071876
133	0xbd54f842	-0.05199457
134	0x3d54954d	0.051900197
135	0xb7a7a549	-1.9984918e-05
136	0xbddaa88f	-0.10676681
137	0xbda7cb9c	-0.08193132
138	0xbda62295	-0.08112065
139	0x3df4a6e1	0.11945892
140	0x3d0ffbfb	0.035152417
141	0x3d016b64	0.031596556
142	0x3dd6864c	0.10474834
143	0x3e0b90bf	0.13629435
144	0x3dee99ec	0.11650452
145	0x3d44bd2b	0.048031967
146	0xbdad25bd	-0.08454464
147	0x3d89e034	0.067322165
148	0x3d816784	0.06318572
149	0x3943ba6c	0.00018666097
150	0xbde0f0c3	-0.10983422
151	0x3d5b99ef	0.0536136
152	0xbdac67ea	-0.084182575
153	0x3d8214d3	0.06351628
154	0x3ce66e00	0.028128624
155	0xbd4a5eab	-0.04940669
156	0x3e0a897a	0.13529006
157	0xbde149af	-0.11000382
158	0xbd93c8d5	-0.0721604
159	0xbd991105	-0.07473949
160	0xbdb28891	-0.08717454
161	0x3cd48c03	0.025945669
162	0x3d5a6f05	0.053328533
163	0x3d494b5b	0.04914413
164	0xbd9848c7	-0.07435756
165	0xbde98b7b	-0.11403557
166	0x3e0fa052	0.14026001
167	0xbd51ccc5	-0.051220674
168	0x3cc79097	0.024360938
169	0x3d67422c	0.05645959
170	0x3d43c1ae	0.04779213
171	0xbda34426	-0.07971983
172	0xbd7cb954	-0.06170018
173	0x3dabb130	0.08383405
174	0x3d97e331	0.0741638
175	0x3df6fc9a	0.12059899
176	0x3e009d95	0.12560113
177	0x3de76a60	0.11299586
178	0x3d4f74d3	0.05064852
179	0x3d31e340	0.043429613
180	0x3e1bfe7d	0.15233798
181	0xbdce7d9e	-0.10082553
182	0x3e01f69e	0.12691733
183	0x3dd8798a	0.10570057
184	0x3e0e45e8	0.13893855
185	0x3ded57c4	0.115890056
186	0x3dbe7a38	0.09300655
187	0x3dd56117	0.10418909
188	0x3e071750	0.13192487
189	0xbdade217	-0.08490389
190	0x3e042c1d	0.12907453
191	0xbdd02649	-0.10163552
192	0x3d66171b	0.05617438
193	0xbdbaa179	-0.0911283
194	0xbdc25579	-0.09488959
195	0x3dbe5fe0	0.092956305
196	0x3c6e6d61	0.014552445
197	0x3dab71ef	0.083713405
198	0x3da8c8d2	0.082414284
199	0x3b3c53c0	0.0028736442
200	0xbc8bf9bc	-0.017086856
201	0x3c782adf	0.01514694
202	0x3e2715a8	0.16316855
203	0x3cd8961b	0.026438763
204	0x3e282e6d	0.1642396
205	0x3bfd39de	0.0077278456
206	0xbd89b06e	-0.067231044
207	0xbd98a0c4	-0.074525386
208	0x3d86154e	0.06547032
209	0x3d19eef0	0.037581384
210	0x3e060c31	0.13090588
211	0x3de04a98	0.10951728
212	0xbd3da2bc	-0.046297774
213	0x3d54580a	0.051841773
214	0xbda04845	-0.07826284
215	0xbdc117d0	-0.0942837
216	0xbda60eb6	-0.08108275
217	0xbbd73e4c	-0.0065687057
218	0x3e1a29dd	0.15055032
219	0xbc30188e	-0.010748042
220	0xbdb24018	-0.08703631
221	0xbc31667c	-0.010827657
222	0xbd8043aa	-0.06262906
223	0x3e145d5a	0.14488736
224	0xbda44a13	-0.08021941
225	0x3ca84a07	0.020543111
226	0x3d39737d	0.045276154
227	0xbd5a118d	-0.053239394
228	0xbb851a00	-0.0040619373
229	0x3d002cb9	0.03129265
230	0x3daed4a4	0.08536652
231	0x3cdd544f	0.02701774
232	0xbcd87d57	-0.026426954
233	0xbd15aa1a	-0.036539175
234	0xbd3e362a	-0.046438374
235	0x3dea5307	0.114416175
236	0x3e727477	0.2367724
237	0x3d72f4c9	0.059315477
238	0x3d49980a	0.04921726
239	0x3e03ace9	0.12858929

bias_hh f4 [240]
0	0x3e5d18bb	0.21591465
1	0xbdb01db4	-0.085994154
2	0x3da0cb39	0.07851262
3	0x3cbd38c9	0.023098366
4	0xbdd762a1	-0.10516859
5	0xbcdee4a7	-0.02720864
6	0xbd307bf1	-0.04308695
7	0x3d59c246	0.05316379
8	0x3e132c1c	0.14372295
9	0xbd6f7b4b	-0.05846719
10	0x3c7c2151	0.015388803
11	0xbde20cd7	-0.11037605
12	0x3d95651e	0.07294677
13	0xbdcbb746	-0.09947066
14	0xbba9b60c	-0.0051791724
15	0x3c32a548	0.010903664
16	0xbddb4793	-0.10707011
17	0xbdbfbbed	-0.09362016
18	0x3d93b61d	0.0721247
19	0x3c112f5f	0.008861392
20	0xbcd6a660	-0.02620238
21	0xbdaa93d1	-0.08328975
22	0x3d9dd007	0.07705694
23	0x3d80016d	0.06250272
24	0xbc9166f1	-0.017749282
25	0xbceac53c	-0.028658502
26	0x3dd725e7	0.10505276
27	0xbd4bf4f0	-0.049794137
28	0xbd3ea682	-0.046545513
29	0x3dbbf86d	0.09178243
30	0x3dfd664d	0.12373028
31	0xbd21e660	-0.039526343
32	0x3db8c0ed	0.09021173
33	0x3e0f7d1a	0.14012566
34	0xbdcf2b68	-0.10115701
35	0x3d3b945f	0.045795795
36	0x3bad57bd	0.0052900002
37	0xbd96a3b0	-0.0735544
38	0xbd588450	-0.052860558
39	0x3da55b40	0.08074045
40	0x3c9b6afd	0.018971914
41	0x3d2253c9	0.039630685
42	0x3d370b75	0.04468866
43	0xbdbe3682	-0.0928774
44	0xba40f33a	-0.00073604623
45	0x3dfefcb4	0.12450543
46	0x3d336b84	0.043803707
47	0x3d2cdd26	0.04220309
48	0x3d4790be	0.04872202
49	0x3d29137f	0.04127836
50	0x3e40d063	0.18829493
51	0xbd9da1dc	-0.07696888
52	0x3d8dbbac	0.06920561
53	0x3d7c96a3	0.061667096
54	0xbd02c973	-0.0319304
55	0x3da4079c	0.08009264
56	0x3d4b2b19	0.049601648
57	0x3d5cb60c	0.05388455
58	0x3d1bac8d	0.038006354
59	0x3d11668b	0.035498183
60	0x3cb65640	0.022257924
61	0x3beca5f5	0.007221932
62	0xbdea7e90	-0.11449921
63	0x3d734d7c	0.059400067
64	0x3dc296f7	0.095014505
65	0x3db406d0	0.08790362
66	0xbd9b2cc4	-0.07576898
67	0x3cbe894f	0.023258833
68	0xbda69f9a	-0.0813591
69	0x3cc1caf7	0.023656351
70	0xbda1f741	-0.07908488
71	0xbd32653f	-0.043553587
72	0xbdb02b54	-0.08602014
73	0xbd90cc69	-0.07070238
74	0x3e0661c5	0.13123234
75	0xbd7bf558	-0.061513275
76	0xbdc4fca1	-0.09618498
77	0xbadfb4ba	-0.001706741
78	0x3dfd60c5	0.12371973
79	0x3c703d0c	0.014662992
80	0x3d0ed382	0.03486968
81	0xbde9c86a	-0.11415179
82	0xbdbe4455	-0.09290377
83	0x3db21a8f	0.08696472
84	0xbd16c366	-0.03680744
85	0xbcac0bab	-0.021001657
86	0x3e0791de	0.13239238
87	0xbd9cb9d3	-0.07652631
88	0x3e4b77eb	0.19869964
89	0x3db2aff1	0.087249644
90	0x3beb0964	0.0071727503
91	0x3d970fda	0.0737607
92	0x3dd376bf	0.103253834
93	0x3e19f171	0.15033509
94	0x3d3c4f9d	0.045974363
95	0x3dfbd7b6	0.12297003
96	0x3d7624b3	0.060093593
97	0x3c79ac9c	0.015238907
98	0x3da424e8	0.08014852
99	0x3e19fba9	0.15037407
100	0x3e116af6	0.14200959
101	0x3e00b949	0.1257068
102	0xbd0f0ab6	-0.034922324
103	0xbd1eba90	-0.03875214
104	0xbd9a90db	-0.0754716
105	0xbd9db0f5	-0.076997675
106	0x3d8547c4	0.06507829
107	0xbdc1cd8f	-0.09463035
108	0xbcaf3840	-0.021389127
109	0xbdbc60bc	-0.09198138
110	0x3db5013c	0.08838126
111	0xbd72c984	-0.05927421
112	0xbd5a1eca	-0.05325202
113	0x3d96c75e	0.07362245
114	0x3da343e7	0.07971936
115	0x3c17ff09	0.009277114
116	0x3dde4572	0.108530894
117	0x3e5cb26f	0.21552442
118	0x3e43a29d	0.19105001
119	0x3d3bbf7f	0.04583692
120	0x3d64c10f	0.055848178
121	0xbd38c394	-0.045108393
122	0x3da7f160	0.082003355
123	0xbe0bde09	-0.13658918
124	0x3d8fe6c1	0.07026435
125	0x3db07a11	0.08617032
126	0x3bb14116	0.00540937
127	0xbd32d1a5	-0.043656964
128	0x3b8f4d9c	0.0043732654
129	0xbd0c42c4	-0.03424336
130	0xbd48a1c1	-0.048982386
131	0x3e045adb	0.12925284
132	0x3cfe51a2	0.031044785
133	0xbcd5be14	-0.026091613
134	0x3d3ab4d0	0.045582592
135	0x3d6af8f2	0.05736632
136	0x3c8374c7	0.016046895
137	0x3df4df00	0.119565964
138	0x3ddfab1a	0.10921307
139	0x3c2ac0e4	0.010421965
140	0x3d567943	0.052361738
141	0x3de210d3	0.11038365
142	0x3bbbcab7	0.0057309526
143	0x3d4f87b5	0.05066653
144	0x3d17715a	0.036973335
145	0x3dffba02	0.1248665
146	0x3d2bfe79	0.04199073
147	0x3ce6551e	0.028116759
148	0x3d332383	0.04373504
149	0x3d54cb6e	0.05195182
150	0xbddff906	-0.10936169
151	0xbce945dc	-0.028475694
152	0x3d6c3cee	0.057675295
153	0xbddd2b58	-0.10799283
154	0x3c7fbdb5	0.0156091945
155	0x3da9c987	0.082903914
156	0xbd1ae5ad	-0.037816692
157	0x3e0d83dd	0.13819833
158	0xbd18560b	-0.037191432
159	0x3dbc7a20	0.09202981
160	0x3cc3f24d	0.023919249
161	0xbca44937	-0.020054443
162	0x3c4fc5d9	0.012681448
163	0x3d30c249	0.043154035
164	0xbe1ebc75	-0.15501578
165	0xbdda5f72	-0.10662736
166	0x3c893182	0.01674724
167	0xbdad7fb6	-0.084716246
168	0xbd74e1f9	-0.059785817
169	0x3dcad8d2	0.099046364
170	0xbcaa989b	-0.020824721
171	0x3d93a9bf	0.07210111
172	0x3d902a71	0.07039345
173	0xbc878745	-0.016543994
174	0x3da961b1	0.08270586
175	0xbd975804	-0.073898345
176	0x3d19039b	0.037356954
177	0x3dcdb0d2	0.100434914
178	0xbd8d7027	-0.06906157
179	0xbdcae77c	-0.099074334
180	0x3d27f6a2	0.04100669
181	0xbd8e8ece	-0.069608316
182	0x3dcd9491	0.100381024
183	0x3e22b330	0.15888667
184	0xbd3c5870	-0.045982778
185	0x3e073f98	0.13207853
186	0xbd316d7c	-0.043317303
187	0x3de91875	0.11381618
188	0xbd8d98c0	-0.069139004
189	0x3dd9e001	0.106384285
190	0x3be12b18	0.0068715923
191	0xbde064a9	-0.109566994
192	0x3db17da5	0.08666543
193	0x3e081c32	0.13292006
194	0x3cd011fe	0.025399204
195	0xbc06d0ad	-0.008228463
196	0xbcdd7f95	-0.027038375
197	0x3daa1b56	0.08305995
198	0xbd74a19d	-0.05972444
199	0xbc67048d	-0.014100206
200	0xbd94b1cf	-0.07260477
201	0x3d2d5258	0.042314857
202	0xbd7ce9ac	-0.061746284
203	0x3d9221d1	0.07135356
204	0xbd08fb6c	-0.0334429
205	0xba3ccf47	-0.00072025176
206	0xbcd387a1	-0.025821509
207	0x3c16e8af	0.0092107495
208	0xbd61904d	-0.055069257
209	0xbd77ec33	-0.06052799
210	0x3d7f7186	0.062364124
211	0xbd26111d	-0.040543664
212	0x3e179c27	0.14805661
213	0x3de9a849	0.11409051
214	0xbd446dd7	-0.047956314
215	0x3dba6101	0.09100533
216	0x3d3efe26	0.046629094
217	0xbcd23b97	-0.02566318
218	0x3dbdb88c	0.09263715
219	0xbcd5c556	-0.026095074
220	0xbc89e80c	-0.016834281
221	0xbd5ce437	-0.05392858
222	0xbd67bcd5	-0.05657657
223	0xbdafdeef	-0.08587443
224	0xbd601194	-0.054704264
225	0x3dcbebaa	0.09957059
226	0x3daa0260	0.08301234
227	0xbc7663d4	-0.015038449
228	0xbd0a6e80	-0.033796787
229	0x3dbf23ca	0.09332998
230	0x3cd5c9ce	0.026097205
231	0xbd6fba6a	-0.058527388
232	0xb8dd0eba	-0.00010540844
233	0x3db9d520	0.090738535
234	0xbd23a622	-0.03995336
235	0x3e0540cd	0.13013001
236	0x3e157088	0.14593709
237	0x3e57a369	0.2105843
238	0x3e341800	0.1758728
239	0xbdaa61df	-0.08319449

weight f4 [3, 12]
0	0xbe584b1b	-0.211224
1	0xbe8809f2	-0.26570088
2	0x3e082b37	0.13297735
3	0xbe9c5c86	-0.3053934
4	0x3e26bae1	0.16282226
5	0xbe99a0f2	-0.30005604
6	0xbdcd56bb	-0.10026308
7	0xbe976765	-0.2957107
8	0x3e983df6	0.29734772
9	0x3e2f2964	0.17105633
10	0xbd11b207	-0.03557017
11	0x3e0f8bf0	0.14018226
12	0xbe58a519	-0.2115673
13	0xbda6543b	-0.081215344
14	0xbe7e20be	-0.24817178
15	0xbe2fdcf0	-0.17174125
16	0xbddc7cd0	-0.107659936
17	0xbca78cde	-0.020452913
18	0x3e56627a	0.20936003
19	0xbe74726b	-0.23871772
20	0xbe0d53f7	-0.13801561
21	0x3e532852	0.2062085
22	0x3e13291a	0.14371148
23	0xbe80bf41	-0.25145915
24	0xbe3f78e2	-0.18698457
25	0xbe80b5d7	-0.25138733
26	0x3dfb6c9d	0.12276576
27	0xbe5a46dc	-0.21316093
28	0xbeace3a2	-0.3376742
29	0xbe54bfd1	-0.20776297
30	0x3ea5b222	0.32362467
31	0xbe0c59ad	-0.13706084
32	0x3e1d96e7	0.15389596
33	0x3acfe070	0.0015859734
34	0xbe879f58	-0.26488757
35	0x3e911ce2	0.28342348

bias f4 [3]
0	0x3d7594f4	0.059956506
1	0x3dec694c	0.11543521
2	0x3e341fac	0.17590207
