models/paramsearch_0.004874701956130591_0.9140047960449849_0.9280687298981846_93.pt (torch, 33112 bytes, 7 tensors)

weight_ih f4 [240, 6]
00000000: c5d4 d13d 6cec 03bf 294a ab3d 5f0c 95be
00000010: ac0b 05bf 3f18 d4bd 571f f8bd a76c 13bf
00000020: c6aa 4ebd ba80 f2bf d747 96bf 3f35 f8be
00000030: d3e6 2a3e 9597 c73f 4faa 7bbf 3694 0e3d
00000040: cd01 8f3d e23f 613e 274b 92bd 30ae 57bf
00000050: 50be e0be 4dcc 09bf 4165 533e ef0a 29be
00000060: 59aa 96bc ce66 9cbf 0529 c13d 74c8 64bf
00000070: d3d9 1ebf 9c3f b2be 96ee e73d 3a45 c5bf
00000080: 0e3d cebc b277 52be c273 1fbf 9d79 a1be
00000090: 8b98 aa3e 45bc e33b fb50 1cbe 3a19 913e
000000a0: e570 123f 09f2 d23e e348 e5bc fad1 003f
000000b0: 6275 e3be 1b45 103f b37a a43e e690 a6bd
000000c0: b2b0 fd3d 2748 79be 4d45 2bbf 8ad3 9fbf
000000d0: 5e8f 5ebd f7e3 ffbc 04f9 83be d820 2dbe
000000e0: fab6 573e 5733 40bf 7bed 5bbf afd0 1fbd
000000f0: c53f 8abc 69f1 49bf 2241 b2bd df93 11bf
00000100: 2b27 23bf 9875 dbbe 68c3 c8be 4e2e 68bf
00000110: 0fc2 67bd 2428 6c3f 0211 c5bd df9c 91be
00000120: 2d97 e1bc 0d94 7b3e a192 9c3e f05b 59bf
00000130: bcaf 3abf c2fc ad3d eeaf 683e a413 3ebf
00000140: 5622 d33e 0f03 803e 927a 463f 07a5 e13e
00000150: bc6a 18be b783 edbe 269c 833d 40a9 38bf
00000160: f5c3 69bf 259c 97be b5e2 4a3e c67f 49bf
00000170: aa29 a63d fcac df3f 3251 c93e 56bb 6cbe
00000180: 14fa 9ebe c73c f63e cc7a ebbe fced f8be
00000190: bd13 3bbe 4af1 9cbc 12f3 29be 7225 ab3d
000001a0: 03de 093e 4e8c 903f dcfe 733f 831a 763d
000001b0: 8659 f7bd 85b1 d2bf c443 08be 9c63 c0bf
000001c0: cbdf eabe c2f0 84be c3ea 2cbd 436d 80bf
000001d0: b404 62be 7319 bebe 5ad1 3e3e f4ad 20be
000001e0: 6313 1c3d d170 63bf 19f9 86bc 2745 95bf
000001f0: bea4 49bf cf8c 9fbe b215 a53c ac55 d63e
00000200: b7ae 85be 7062 03c0 ca2e 25bf 4210 29be
00000210: bc4c 533e 100c f1bb 750b 61bf 5ade e8be
00000220: 8250 8ebd cbfd 793c d128 3bbd 11ee b63f
00000230: ba54 8fbf 0619 b93d 9d78 5a3e cab5 24bc
00000240: 96ed 0abe 5100 3f3d 8d2e 51be 103a c43e
00000250: e6f0 053e 14c1 433d 59eb 71be f890 6cbf
00000260: 78db 76be 020e 81bf 1815 24bf e972 ffbe
00000270: 842a b33d 319f a5bf a8b2 6bbe c32b 8bbf
00000280: 4204 30bf 2de6 45be 1302 67be fd98 14bf
00000290: 76eb 39be c3ae 0b3f e7bc 18bf 4e42 7bbf
000002a0: 78c9 083d c292 98bf 8da7 183e 74d5 1240
000002b0: 5ff7 513e 8974 29bf 45a3 8d3e 1c46 01be
000002c0: 7e0c 863d ccd8 bb3f 01ca 003f 01cd 283c
000002d0: f313 3e3e 7c0e 9f3f f6eb c8bd 135c 5d3e
000002e0: b8b7 4a3f a152 ae3e 4d62 1bbe 855c 4c3e
000002f0: 250c b53d e327 7ebf 9970 2cc0 bace 863e
00000300: a03c 9c3e 2171 0ebd 26d5 473e 359d 5b3e
00000310: 9cca 383f 6511 233e 2b7f 103e e34d 473d
00000320: 049c b4be c97b 21bf 1296 653e 5936 e93d
00000330: 9b34 a8be 1711 97bc 7e78 b3be c662 243f
00000340: 9d6c 02bf 4d7b 63be 324e 19be 9c3e 3a3d
00000350: ac5a 2e3f c7fc 263e ea33 44be fefc 02be
00000360: af4d b5be f952 71bd c1bb 9b3b ad25 f8be
00000370: 46ab 643f 2b04 2cbf b323 a73d eea7 413f
00000380: e3dc 1cbc 8a48 cbbf 28b2 16be 5b94 9fbd
00000390: 43d9 d83c e199 69be 2d1b 16be 5782 863f
000003a0: 1fc1 8abe 6f21 da3e ea9d 483e 28a1 12c0
000003b0: dccf a1be 8d07 66bf 0680 abbe 145e 86be
000003c0: fad7 053e 96a5 543f 9331 d3be ffaa c43d
000003d0: f61e b4be 436b 283d f972 33bb eac7 31bd
000003e0: 9322 5b3d a328 c1bf 3de2 5ebf 6eb2 e3be
000003f0: 2b52 4abc 9644 05bf 4ee5 58bf a7c7 973f
0.10245661 -0.51532626 0.08363754 -0.29111 -0.51970935 -0.10356187 -0.121153526 -0.57587665
-0.05045583 -1.8945534 -1.1740674 -0.48478124 0.16689615 1.5593134 -0.98306745 0.034809314
0.06982765 0.21997026 -0.071432404 -0.84250164 -0.43895197 -0.53827363 0.20644094 -0.16508077
-0.018391775 -1.2218874 0.09431652 -0.8936837 -0.62051123 -0.34814155 0.113248035 -1.5411751
-0.025175598 -0.20553473 -0.6228601 -0.31538096 0.33319506 0.0069499337 -0.15265267 0.2833956
0.57203513 0.41200283 -0.027988857 0.503204 -0.44425493 0.56355447 0.32124862 -0.08133106
0.123872176 -0.2434393 -0.6690262 -1.2486432 -0.054335944 -0.031236632 -0.2577592 -0.1690706
0.21065894 -0.7507834 -0.8590924 -0.039017376 -0.01687611 -0.7888399 -0.08703829 -0.5686626
-0.6373164 -0.42863154 -0.39211583 -0.90695655 -0.056581553 0.9224875 -0.096223846 -0.28439996
-0.027537907 0.24568196 0.3058062 -0.8490591 -0.729244 0.08495475 0.22723362 -0.7424872
0.41237134 0.25002334 0.7753078 0.44071218 -0.14884466 -0.46389553 0.06426267 -0.72133255
-0.9131463 -0.29611316 0.19813044 -0.7871059 0.081134155 1.7474666 0.3931976 -0.23118338
-0.3105017 0.48093244 -0.45992124 -0.48619068 -0.18269248 -0.019158024 -0.1659663 0.083567515
0.13463597 1.1292818 0.9531076 0.060083877 -0.12077622 -1.6460425 -0.133071 -1.5030398
-0.45873865 -0.25964934 -0.042216074 -1.0033344 -0.22072107 -0.3712879 0.18634549 -0.15691358
0.038104426 -0.8884402 -0.0164762 -1.1661729 -0.78767 -0.31162116 0.020151947 0.41862237
-0.2610986 -2.0528831 -0.6452452 -0.16510108 0.2063474 -0.0073561743 -0.8790811 -0.4548214
-0.069489494 0.015258263 -0.045693222 1.4291402 -1.1197731 0.09037976 0.21335073 -0.0100531075
-0.13567194 0.04663116 -0.20427914 0.38325548 0.13080177 0.047791556 -0.23624934 -0.92408705
-0.24107158 -1.00824 -0.64094687 -0.49892357 0.087483436 -1.2939206 -0.2301737 -1.087273
-0.68756497 -0.19326086 -0.22559385 -0.5804594 -0.18156227 0.5456354 -0.5966324 -0.9814805
0.03339526 -1.1919787 0.14907666 2.2942781 0.20504521 -0.66193444 0.27663627 -0.12624401
0.065453514 1.4675536 0.50308233 0.010302783 0.18562298 1.2426295 -0.09810631 0.21617155
0.7918658 0.34047416 -0.15174218 0.19957168 0.08840207 -0.9927961 -2.6943724 0.26329595
0.30515003 -0.034775857 0.19514903 0.21446688 0.7218416 0.15924604 0.1411101 0.048658263
-0.3527528 -0.63079506 0.22420529 0.11387319 -0.32852635 -0.018440766 -0.35052866 0.64213216
-0.5094698 -0.22215004 -0.14971235 0.045469865 0.68107104 0.16307364 -0.19160429 -0.12791821
-0.3541083 -0.05891702 0.0047526066 -0.48466244 0.8932384 -0.6719386 0.08161106 0.75646865
-0.009574148 -1.5881512 -0.14716399 -0.077919684 0.026470786 -0.22812606 -0.14658804 1.0508527
-0.27100465 0.42603633 0.1959149 -2.2910862 -0.31603897 -0.8985527 -0.33496112 -0.2624365
0.1307067 0.83065164 -0.4124876 0.096029274 -0.3517987 0.041117918 -0.0027381761 -0.043403544
0.05349977 -1.5090526 -0.8706396 -0.4447207 -0.012348692 -0.5205778 -0.8472489 1.1857804

weight_hh f4 [240, 12]
00000000: abad 7b3d 1da0 19bd da7d 98bd bf02 fa3d
00000010: 2d87 c6bd 6fac c73c 1946 06be 50cf 81be
00000020: 7109 97bc 34ff a0bd 6b2f 2cbe 09cd 1b3e
00000030: fd28 8e3d dac1 61be 5343 0f3e 2a6a e43d
00000040: dd1d d3bd 8bc5 963e eaaf d1bd 1272 b1be
00000050: 815c 153e f205 513d 1002 08be 4670 35be
00000060: ac24 d23d 1208 2e3e 5648 33bf 1028 783f
00000070: f41b aebe 17a4 ff3e 2bc4 4cbd 88e2 60bf
00000080: 3aa6 753d 95b9 29bf 0830 773f b0b7 ed3e
00000090: 0a2d 343e 266a 943e 413a 1dbf 971b cf3e
000000a0: fe38 3dbe 5d9f f93b be9a 92be c841 623d
000000b0: d00e 3dbe 3958 fbbe 530f 633e c4b6 1c3e
000000c0: 43bb 103d adf5 4fbd 5f0e 23be facb ef3d
000000d0: a2ad 3d3c 228d a53e 1446 b9bd 9682 95bd
000000e0: 420c 41bd ece3 8ebe 15e4 17be 18d2 5c3d
000000f0: 3b67 cc3d ec35 153e 0c39 4fbe c57d ff3d
00000100: b419 153e e78f 083e 82b5 b6bd 290d 95be
00000110: 3909 86be 1333 a5bd 0099 39be 0899 c13d
00000120: 0e91 bf3c e544 0a3b c127 92be 9455 16bf
00000130: 504e 81be 3169 48be 5f61 9f3e ec67 8e3c
00000140: 1011 6a3e 3f78 6abc 8e75 863e 11b7 163e
00000150: 46ab 9dbe 683c 70be 2e7a 8dbe a587 623f
00000160: c63d 50be f098 cb3e cf12 f1bd 69aa 86bf
00000170: 2ee7 bbbe acfc 24bf 7447 3f3d 220b 6d3e
00000180: b78b 56bd f831 c93e 9c5b a3be 664d 063f
00000190: e147 1abe cd35 0a3f c499 af3e d4bd 13bf
000001a0: 3165 f73d 6b80 14bf 2881 cd3e 5bcf 823d
000001b0: 6957 88bc 8906 ba3d 335e f5bb 4a1c 053f
000001c0: d05f 603e fdc2 c8bd 4d89 f9be aa79 813c
000001d0: 34c0 1fbf 80d4 19bf 6016 0dbe 41a5 14be
000001e0: ca21 f33d e18f 8dbe 057e 173e 8b00 aebe
000001f0: ad61 fcbd 820a 8f3e cce5 463e 1860 fbbe
00000200: 4f94 673e d1de 1f3f a351 a5be 49f1 7dbc
00000210: 6392 5b3e ee7d 5bbd 6067 abbd f3b7 e73e
00000220: 7a3b 4e3e 6b19 3c3f 6959 8cbe 4a30 25be
00000230: bd86 cd3d ddb5 b2be d93b 4abe fd16 b7be
00000240: 9555 0a3c c74b 84be 607d 913e ae1e 23bf
00000250: fe62 063b 6520 7abe db05 153d 269a 593e
00000260: 424d 743e d215 1b3f b450 37bc 0a92 8bbd
00000270: 6284 65be 1103 8f3e a355 b6be 9bc4 25bf
00000280: 373a 013e 1b07 4ebf 6c4c f0bc 236c 453f
00000290: ccd2 fbbd 45c1 aa3e a61f 93be a9e7 723e
000002a0: 3cbe 9abc e1b7 233d 8297 3abe 92a3 c63d
000002b0: 61f5 a3bd 18f3 d33c e918 5bbe d2f0 b83c
000002c0: ec6b e4be f0b4 6ebd 4c21 96be ab7a 9e3d
000002d0: e7d4 833b 4098 fdbe 61a7 9dbb 0e6f 993b
000002e0: 9c6b 25bd ddb8 743e 8944 263e ae3d aa3e
000002f0: e6e8 8ebb 590a 523f 240e 5dbe b6ca 53be
00000300: 9ac8 983e 7231 6f3e aaef 43be f20b 46be
00000310: 238f 933c fcbb 1ebe e2f9 463d 8a35 263e
00000320: 418d d23e 608a 4dbe ecb0 403e 61ff 0a3e
00000330: b406 ad3b 38d3 bc3c 3390 023e 46d7 13bd
00000340: 0122 e23e a6f6 1c3d 2236 8dbe b78c 8c3e
00000350: 471c 83be 2672 b53d be84 c4be 0700 c6be
00000360: 020f 193e 3780 c13d 6f1c 123d ce7c 85bc
00000370: 8116 0d3d 7e3d ca3c 3202 163a 3748 61be
00000380: c031 d7bd 0356 bb3d d746 81bc 8dc5 bcbd
00000390: ad6a 0ebd dc94 9d3e 46ea 703e 11ca 43bf
000003a0: 12e3 adbc 1ec2 1d3d f11b 343e dbef 083e
000003b0: cdc5 aa3e 73ac 183f a3b5 9dbe c461 63be
000003c0: 78d6 89bd 885c 3e3e c8e8 4fbd b5e3 883e
000003d0: b1ed c3ba 96ca cd3d bbbe ccbd 79a0 8bbe
000003e0: 3278 5dbe 6157 83be 7a51 d7bd 3c06 40bc
000003f0: 0616 253e 2274 053d 42ad 9ebd 3bba a93e
0.06144492 -0.03750621 -0.07445879 0.12207555 -0.096937515 0.024374215 -0.13112678 -0.2535348
-0.01843712 -0.07861176 -0.16814964 0.15214933 0.06941412 -0.22046605 0.13990526 0.11153062
-0.1030843 0.29447588 -0.10238631 -0.3465734 0.14586069 0.05103106 -0.13282037 -0.1771861
0.10260901 0.16995266 -0.7003225 0.9693613 -0.34005702 0.49929878 -0.049991768 -0.8784566
0.05997298 -0.662988 0.96557665 0.46429205 0.17595306 0.28987235 -0.61417013 0.40450737
-0.18478772 0.0076178745 -0.28633684 0.055238515 -0.18462682 -0.49090746 0.22173814 0.15304095
0.035334837 -0.050771404 -0.15923451 0.11708827 0.011577042 0.32334238 -0.090465695 -0.07300298
-0.04713083 -0.27908266 -0.148331 0.0539113 0.09980627 0.14571351 -0.20236605 0.124751605
0.14560586 0.13336144 -0.089213386 -0.29111603 -0.2617891 -0.08066382 -0.18124771 0.094530165
0.023384597 0.0021098193 -0.28545955 -0.5872433 -0.2525506 -0.19571377 0.31128976 0.017383538
0.22858071 -0.014310895 0.26261562 0.14718272 -0.30794734 -0.23460543 -0.27632278 0.8848823
-0.20336065 0.3976512 -0.117711656 -1.0520755 -0.36699814 -0.64448047 0.046699002 0.23148778
-0.052379336 0.39295936 -0.3190583 0.5246185 -0.15066482 0.53988343 0.34297 -0.5771153
0.120798476 -0.5800845 0.401376 0.06387206 -0.016643243 0.09083278 -0.007488036 0.5199629
0.2191155 -0.09802816 -0.48737565 0.015805084 -0.62402654 -0.60089874 -0.13778067 -0.14516164
0.11871679 -0.27648833 0.14794166 -0.3398479 -0.12323318 0.27937704 0.19423598 -0.4909675
0.22615169 0.62449366 -0.32288846 -0.015499421 0.21442561 -0.053586893 -0.083693266 0.4525753
0.20139876 0.73476285 -0.27411965 -0.16131702 0.10035465 -0.34904376 -0.19749393 -0.35759726
0.008443256 -0.25839064 0.28415966 -0.6371869 0.0020505781 -0.2442642 0.036382537 0.21250209
0.23857597 0.6058017 -0.011188675 -0.06814964 -0.22413781 0.27932027 -0.3561221 -0.6475312
0.12619863 -0.8047959 -0.029333316 0.7711813 -0.12296066 0.33350578 -0.28735083 0.23721184
-0.018889539 0.039970282 -0.18221858 0.09699167 -0.08005787 0.025872752 -0.21396221 0.02257577
-0.44613588 -0.058278024 -0.29322278 0.07738241 0.0040231827 -0.4953022 -0.004811213 0.004682428
-0.040385827 0.23898645 0.16237082 0.33250183 -0.0043612598 0.8204704 -0.21587425 -0.20682797
0.29840547 0.23358706 -0.19134393 -0.19340494 0.018012589 -0.15501398 0.04857815 0.16231361
0.41123393 -0.20072317 0.1881749 0.13573982 0.00528034 0.023049936 0.1275032 -0.036093973
0.44166568 0.03832116 -0.27580363 0.27451107 -0.2560751 0.08859663 -0.38382524 -0.38671896
0.14947131 0.09448283 0.035671648 -0.016294863 0.03444529 0.024687525 0.0005722373 -0.22000204
-0.10507536 0.09147265 -0.01578085 -0.09217367 -0.034769703 0.30777633 0.23526868 -0.76480204
-0.02122644 0.038515203 0.17588784 0.13372748 0.33354035 0.59638137 -0.3080264 -0.22205263
-0.0673036 0.18589985 -0.050759107 0.26736227 -0.0014948157 0.10048406 -0.099973164 -0.27270868
-0.21627882 -0.25652602 -0.10513587 -0.011720236 0.16121683 0.032581456 -0.0774789 0.33149895

proj f4 [12, 60]
00000000: 23e8 0c3d 5ba2 873c 7448 8e3d fa36 fabc
00000010: 3aec e23d f348 7d3d fd83 47be ec94 cbbb
00000020: edbc 823e cff3 7bbe 6c9b bd3d 92c6 2abd
00000030: 23b2 12be 32af a63d a31e 2d3e 66a6 df3c
00000040: 51e3 4ebd 147d 88be 4214 b13d e03e 49be
00000050: 11ee 133e 3d0d 023e 2e05 763c b809 ba3d
00000060: 111b 123e 2256 5bbe 0b62 2bbe cb6b 84be
00000070: 68a8 93bd fe79 d23d 0d7b 77bc 592d 38bd
00000080: 6008 7bbd 120a b23e fc3b cc3c ef4a 9abd
00000090: 50b6 793d edbf 0d3e fa07 47bd dafe 373e
000000a0: 8aee 033e 75f8 e9bd 0567 4d3d 42f0 173c
000000b0: dd96 dabd ee49 863c 7d8d 093d f2e9 e03d
000000c0: 7f8d a83c fffb a2be 93bb 493c 304f b53b
000000d0: 3c4e 3a3d 70f2 103e a410 e8bd 6911 0fbe
000000e0: a552 053e db3d b2bd fe84 58bd 979a f43d
000000f0: 0c5b 17be 91bb 433c eebb b53d b2c9 4d3e
00000100: dd6f 57ba 1213 993d d4b7 263e 1552 40bd
00000110: 8690 973d c143 7f3b f2ee fd3d be82 85bd
00000120: e60c 77be b821 0a3f c6dc 2cbd d2b7 d63c
00000130: 8dbe f53d a420 d7bd 8551 173e 51f7 b2bd
00000140: a0f0 e63a 3642 733e f7c8 c73d fb93 6abd
00000150: 2068 713e 2ecf b93d e490 2dbe 0bc9 b73d
00000160: 7556 103d 002f a13e 645f 7dbe f9ff 0fbd
00000170: 5ed1 8f3e 90eb 6a3d 337b 3dbd 7d7e d13d
00000180: 83df 22be 4944 f2bc ff13 c8be 415b 103e
00000190: c02e a3be 9961 a7bc 7da3 053c 6ba0 983d
000001a0: 18f8 923d 7b1d 8b3d 6b14 073d 0611 ccba
000001b0: 84ea 46be 516f dbbd b656 04be 5594 38bd
000001c0: c3dd 16bc 25e9 403e 1e5b 7fbd 3853 28bc
000001d0: da1e 543c 0c88 473e 7256 f53d 28ff 263d
000001e0: 7fbf 3a3e a954 dcbb a643 903e 3a07 e2bc
000001f0: 64eb 843b 4300 233c 3a46 81be 95e9 d5be
00000200: 764b 3abe ef5c 9bbd fbea a3be 4580 a03c
00000210: e47c 9e3e b9ca 2fbe fc08 ee3d f136 b83d
00000220: fc63 b0bb 9abf 783e 2534 983d 13ac e83d
00000230: 9238 893d d3f3 133e 49f0 87be 0813 5cbe
00000240: 5955 59be f66e eebd 8d24 33bd 76f5 5dbe
00000250: 7ebb 103d ff29 1ebe d706 653e 54a7 adbe
00000260: 508e 53be f53b dd3d 0cab 2d3e 7dff a6bd
00000270: bcf8 96be 4321 473c d07c 4f3e 396e 74bd
00000280: 147c d9be 976f e4bd cb45 303e ed9a 3a3e
00000290: 613b bcbe e916 903e eac5 14bd aefc 0c3e
000002a0: 1845 2a3e 2cc9 a73d 32d4 8f3e ecf4 f63c
000002b0: 071b 813e b1d1 903d ca3f 0bbc c4e3 b43c
000002c0: ea32 d3bd 41be 74be 90a4 303e 33f4 8a3c
000002d0: 7500 b1bd 84d8 18be d994 e7be f68c 04bf
000002e0: 92fe 22be 168a 34be 3c6b 39be 98fd ac3e
000002f0: 3a06 cebc e7fe 8cbe aa0e 023e 00d7 433d
00000300: 307a 973d 2f50 d9be 48e6 f2bd 72b5 c2be
00000310: 1ad1 f63c 5075 48bd a628 41be dc44 7e3e
00000320: 5453 5ebe 976d 3d3c b9cc c23d 6a76 693e
00000330: 308b 3e3e 817a 9a3d 7325 1d3e 0fa6 8f3d
00000340: 00a0 c93e 89ca 6d3d e096 d9bd 87b2 b0bd
00000350: 2291 f2bd d2a1 f7bd fce3 05be 2d46 1dbd
00000360: 5a38 31bd 65fd 223c 19de 8abd ddbb 6fbe
00000370: 4ee9 7b3e 6dd1 93bc a2be 83be 265d 04bd
00000380: 88ba ad3e fb5d db3d 66ee 93be f6c8 82bc
00000390: dea9 4fbe 2187 2a3e 71a4 2dbe fd48 e43c
000003a0: e2a6 8ebe e0c4 dfbe c8c3 0f3b 2ef5 c4bc
000003b0: 4ea1 8a3d d9b4 2b3e 8d8d 5bbd f9e9 babd
000003c0: a6a8 1b3e 6942 fc3c 9975 93bd 05ea f1bd
000003d0: 3a97 773e 6716 e63d cdcb dcbe cea7 cfbd
000003e0: 9abe c83d 4649 e33d ae5f c7bd efab 2abe
000003f0: 2e80 79bd ece5 ac3d b865 c43d 6d0b 8b3e
0.03440107 0.01655691 0.06947413 -0.030543793 0.11080213 0.061837148 -0.19483943 -0.006212821
0.25534764 -0.24604724 0.0925816 -0.041693278 -0.14325766 0.081388846 0.16906218 0.027301025
-0.050509755 -0.26657927 0.08646442 -0.19652891 0.14446284 0.12700363 0.015015883 0.09083885
0.14268138 -0.21419576 -0.16736619 -0.2586349 -0.07209855 0.102771744 -0.015105021 -0.044965122
-0.061287284 0.34773308 0.024930947 -0.07533824 0.060964882 0.13842745 -0.04859159 0.17968312
0.12883964 -0.114243425 0.050147075 0.0092735905 -0.10673306 0.016392674 0.0335822 0.109821215
0.020575283 -0.31832883 0.012312788 0.0055331215 0.045484766 0.14154983 -0.11331299 -0.13971485
0.13019808 -0.08703204 -0.052861206 0.11943548 -0.14780825 0.011946575 0.08873735 0.20096472
-0.0008218268 0.074743405 0.16281062 -0.04695328 0.074006125 0.0038950297 0.12399091 -0.06519078
-0.24126014 0.539577 -0.042202733 0.0262107 0.11999235 -0.105042726 0.14777191 -0.08738578
0.0017619319 0.23755726 0.09755128 -0.05727003 0.23574877 0.090727195 -0.16949803 0.08973893
0.0352387 0.3148117 -0.2474342 -0.035156224 0.28089422 0.057353556 -0.04626007 0.10229204
-0.15905575 -0.029573577 -0.39077756 0.1409731 -0.31871605 -0.02043228 0.008156654 0.07452472
0.071762264 0.06792732 0.032978456 -0.0015569038 -0.19425398 -0.10714591 -0.12923703 -0.045063335
-0.009208146 0.18838938 -0.062342755 -0.010273747 0.012946809 0.19485492 0.11979379 0.04077068
0.18237112 -0.0067239595 0.28176612 -0.027591337 0.004056381 0.009948793 -0.2524889 -0.4177977
-0.18192849 -0.07586085 -0.32015213 0.019592414 0.3095466 -0.17167176 0.116228074 0.08994854
-0.005383013 0.2429184 0.07431821 0.113609456 0.06700243 0.1444848 -0.2655051 -0.21491635
-0.21223964 -0.11642258 -0.04373603 -0.21675667 0.035335056 -0.15445708 0.2236589 -0.33916724
-0.20659757 0.108024515 0.1695978 -0.08154199 -0.29486644 0.012153926 0.20262456 -0.05967543
-0.42477477 -0.111540966 0.17214124 0.18223162 -0.36764053 0.2814248 -0.036321558 0.13768265
0.1662792 0.08192667 0.2809158 0.030146085 0.25215933 0.070712455 -0.008499095 0.022081263
-0.103124455 -0.23900701 0.17250276 0.016962146 -0.08642665 -0.14926344 -0.4523075 -0.5177759
-0.15917423 -0.176308 -0.18107313 0.33787227 -0.025149453 -0.27538225 0.12700906 0.04781246
0.07396352 -0.42443988 -0.11860329 -0.38029057 0.030129004 -0.048940003 -0.18863162 0.24830955
-0.21711475 0.011561773 0.09511704 0.22799078 0.18607783 0.07542897 0.15346317 0.07014095
0.39379883 0.05805448 -0.1062448 -0.086278014 -0.11844088 -0.12091412 -0.1307525 -0.038397003
-0.04326663 0.009948109 -0.06780643 -0.23411508 0.24600717 -0.018044198 -0.2573138 -0.032315396
0.33931375 0.10711285 -0.2889282 -0.015964966 -0.20279643 0.1665311 -0.1695726 0.027866835
-0.27861696 -0.4370489 0.0021936763 -0.024042692 0.06769048 0.16768207 -0.05360179 -0.09126658
0.15201053 0.030793386 -0.07200164 -0.11812214 0.24178782 0.11234742 -0.43124238 -0.10139428
0.09801979 0.1109796 -0.09735046 -0.1666715 -0.060913257 0.084422916 0.09589714 0.27157155

bias_ih f4 [240]
00000000: cd12 75bd b329 81be 508e db3d 6e70 823c
00000010: f4f7 a43c 2220 9bbd 4943 923e fd39 a53c
00000020: de31 063e 93db 59be 8269 42be 25ee d8be
00000030: 94fd 9a3d 442a c63c a265 f93c da14 ef3d
00000040: c52b 97be 2ff3 d5bd e8fe 7ebd 6a6c 12be
00000050: 19fe 793b 1720 69bd d28f cc3c 16d5 633d
00000060: 3740 7abe 1ad7 23be 59f8 0ebe ffc8 59be
00000070: 8d7a 0fbd 0e00 783b 7e6e 683e 7e84 76be
00000080: 8a25 7a3d 6e17 d33d 17aa b0be 3569 8e3d
00000090: bcb4 9abe 358d 3b3d 1894 81bd 33cd c2bd
000000a0: ceda 5e3d 5f6f 0fbe 52d1 a8bd 4bb8 bd3c
000000b0: a85a da3d 757d 63be cbec bebc 8507 eebd
000000c0: e581 0cbc 8815 b8bd 0787 71bd 9c4a 7dbe
000000d0: 0e57 743c bb49 b43d 0673 8cbe eed0 e8be
000000e0: f686 3dbe dbd1 ea3d 650d 053b fa27 09be
000000f0: 596a 7fbc a4ce 323d 40f1 61bd 72e8 83bb
00000100: 4c1c 153e 4034 83bc dce2 b83e 077f 7bbd
00000110: 1726 b73e 444e 2a3e 60c0 a0bd 889b 00be
00000120: f596 643d 42ef c03c c04f cd3c 8406 babc
00000130: 5edb 6b39 138a 023e 3f8e e33a 4f17 eebc
00000140: 45e6 143d b526 71be fb1e 173f 079c 273d
00000150: e66c 19be ae6d 0bbd a873 1abd 373f e83c
00000160: 580c 5abe 7b6e cd3d 870f 5d3e 0a4a 66bd
00000170: a210 e23e 966c e93e 93dd e3be 720a 2fbd
00000180: 1146 0bbe bd1d 7b3d d4a8 3ebe 7625 e2bd
00000190: 5560 c63e 7170 a0be e0da 28be b625 a43e
000001a0: f275 0abe f4a9 40bd c49c cc3d 3219 97bd
000001b0: b964 cb3d afaa 36be 24df fdbd 50f3 a5be
000001c0: 4420 4abe 5d57 5cbb 4af6 a6bd 14a5 2bbe
000001d0: f15f 83bd a2c1 693e 706e ab3e 5049 c03d
000001e0: 2427 0d3c c399 eebd 4860 283e 46d3 2dbc
000001f0: 7a68 d7bd 0ed8 b0bc e212 3a3d c5c3 5abd
00000200: dc33 aebc c694 913d 5ada 823c 90b0 6a3d
00000210: 0e5e aa3c bab8 6dbd 1796 5cbd 3fbf 04be
00000220: 9540 92bc 5743 3e3d c723 2d3d c1df f4bd
00000230: d018 aebd 555f 0bbe 269e f63c 459f edbd
00000240: 7569 e6bd 709f d4bc 5e9a 1a3e 8009 823d
00000250: c0cb 3c3d 3a98 0dbe 6f52 19bc d63f 423d
00000260: 5b2e 80bd e617 733d 0127 86bd 9108 a9bd
00000270: eb0b b43c 4876 87bd d060 d93d e15a 51bd
00000280: a87e 843c 77fa f53d db8e 303d 2878 15bd
00000290: be53 ccbd 1d8a 61bd bb13 b7bd 82d6 a9bd
000002a0: a7ac ce3d c559 d63c 75e7 41bd daa8 c63d
000002b0: e4fe c93c e103 efbd a143 bd3d 108c c5bd
000002c0: ea03 b4bc 8074 8dbd 085e e93c 6629 b1bd
000002d0: dbac 9e3b cbaa 16be 6104 5e3e 9319 c7bd
000002e0: ff36 b43d 223a 1e3d 88db babd 6fd0 2b3e
000002f0: 6504 3d3e 9e8a f4bd 9a38 51be b353 cfbe
00000300: 3ce3 073d 9437 613e f9eb ecbc f9e7 00bd
00000310: 6153 23be 5261 293e ca2e 6fbe 481d 00bd
00000320: f2a8 16bd cf9e 9cbc 2a28 ad3e 1d6d e83d
00000330: f26f e3bd ca35 1abe 8512 28be 8204 8cbe
00000340: 7814 323d 62e9 113e 99a8 6c3e bb2b 73be
00000350: 52a4 dfbc 0d30 da3d 60b4 71be 2383 b53d
00000360: ab55 3dbe 8c39 2c3d 274d 923c c1ea 0d3d
00000370: b60f e43d 2229 c03d de02 8a3d 2c3f abbd
00000380: a224 043e 237c 113c db32 9fbd fe9c 0ebd
00000390: ff41 9cbc e085 913a 0ba0 3fbd 9a1f 9cbe
000003a0: 1f57 a6bd 4a62 883d a8c2 53be 66bb f1be
000003b0: cf1a 7ebe 0434 743d fec6 793e 8424 ae3c
-0.059832383 -0.25227126 0.10720503 0.015922751 0.020137765 -0.07574488 0.2856696 0.020169253
0.1310496 -0.21275167 -0.1898556 -0.4236919 0.075678974 0.024190076 0.03044397 0.11673899
-0.2952558 -0.10446774 -0.062254816 -0.14299169 0.0038145839 -0.05691537 0.024970923 0.055623136
-0.24438559 -0.16000023 -0.13961925 -0.2126808 -0.035028983 0.003784183 0.226984 -0.2407398
0.061070956 0.10307203 -0.34504768 0.069536604 -0.30216014 0.045788962 -0.06327075 -0.09511795
0.054407887 -0.14007328 -0.0824305 0.023159167 0.106618226 -0.22215827 -0.023306271 -0.11622528
-0.008575891 -0.08988482 -0.058966663 -0.24735492 0.014913334 0.088031255 -0.27431506 -0.454719
-0.18508515 0.11465808 0.0020302173 -0.13394156 -0.01558932 0.0436541 -0.055161715 -0.0040255124
0.14561576 -0.016016126 0.3611058 -0.06140044 0.35771248 0.16631418 -0.078491926 -0.1255933
0.055808026 0.023551587 0.025062442 -0.022708185 0.00022493067 0.12747984 0.0017361118 -0.029063849
0.036352415 -0.23549922 0.5903165 0.040920284 -0.14982948 -0.034040146 -0.037707955 0.028350456
-0.21293771 0.10030838 0.21587954 -0.056222953 0.44153315 0.45590657 -0.44504985 -0.04273457
-0.13600947 0.061307658 -0.1861909 -0.11042301 0.3874537 -0.31335786 -0.16489744 0.3206002
-0.13521555 -0.04703708 0.09990838 -0.073778525 0.09931321 -0.17838548 -0.12396076 -0.32412195
-0.19738871 -0.0033621409 -0.08152445 -0.16762191 -0.06414784 0.22827771 0.33482695 0.09388983
0.008615289 -0.116504215 0.16442978 -0.010609454 -0.10517974 -0.021587398 0.045428164 -0.053409357
-0.021264963 0.071084544 0.015973259 0.05729729 0.020796802 -0.058037497 -0.053854074 -0.1296358
-0.01785306 0.04645094 0.042270448 -0.1195674 -0.08500826 -0.13610585 0.030104708 -0.11602644
-0.11250583 -0.025954932 0.15097949 0.06349468 0.04609275 -0.13827601 -0.009358033 0.04742416
-0.062588416 0.059348963 -0.06550408 -0.08253587 0.02197834 -0.06614357 0.10614169 -0.05111206
0.016173676 0.12010663 0.043104988 -0.036491543 -0.0997691 -0.055063356 -0.0893931 -0.08292867
0.100915246 0.026165852 -0.047339875 0.09700175 0.024657674 -0.11670662 0.09241415 -0.096458554
-0.021974523 -0.06906986 0.02848722 -0.08650474 0.0048423833 -0.1471359 0.21681358 -0.09721675
0.08799552 0.03862966 -0.091239035 0.1677873 0.18458708 -0.11940502 -0.20431748 -0.40493545
0.033175692 0.21993858 -0.028921114 -0.031471226 -0.15949775 0.16541031 -0.23357692 -0.031277925
-0.036782213 -0.019118695 0.33819705 0.11348937 -0.11105336 -0.15059581 -0.16413315 -0.2734719
0.04347655 0.14249185 0.2311119 -0.2374715 -0.027300034 0.10653696 -0.23603964 0.08862903
-0.18489711 0.04204707 0.017859055 0.034647707 0.11135809 0.093828455 0.06738828 -0.083616585
0.129046 0.008879694 -0.07773372 -0.03481769 -0.019074438 0.001110252 -0.04678349 -0.3049286
-0.08122086 0.06659372 -0.20679724 -0.47213286 -0.24814914 0.05961992 0.24392316 0.021257646

bias_hh f4 [240]
00000000: 71df e53d d650 b8be 593f 513e 2024 33bd
00000010: bc1c c53d 4863 b43c dcba c93d 36c4 e33d
00000020: 5720 63bd 97b1 2ebe a30a 45be 25ac b8be
00000030: 36bf be3d 5ba5 d73d ce63 863b ba0a be3d
00000040: 1a69 3bbe 01bd 2dbe 7639 c63a dbb5 c6bc
00000050: 6002 c33c 7760 bebc 43b0 7b3e 3ac7 1f3e
00000060: 77ad d2bd a534 b4bd fd24 9bbd 59f2 7abe
00000070: 9de9 b4bd fe19 313e d647 c73d f26c a7be
00000080: 264b 6d3e acba 933d 409b 8bbe 8e82 3b3e
00000090: 0681 c1be c21e 033c 085b 52bd 1ff4 033e
000000a0: 1d38 d5bc 4f3d 08be e597 b43d 8a0a a73d
000000b0: 293c 623d 44fd 19be fe52 8a3d 4483 e83c
000000c0: 72b3 64bd 605e 29be c36f 67bb 4206 87bd
000000d0: f83e c83d bca3 f9bd a493 85be 8170 c1be
000000e0: 889b bbbe e2d7 e03b 3519 9c3b c3bd 0dbd
000000f0: c10f f43d 1f04 803c 1813 03be 188a b73c
00000100: fdaa 003e 06ff 0abc eb32 c33e 3a88 d93d
00000110: 7f73 a53e c620 9b3d 7bc6 e7bd 96d3 87be
00000120: b73e bdbd 62dd 8cbc 8db7 c9bb 854b aabd
00000130: d5e2 e6bd c8d8 233e d81d febc 4325 5cbd
00000140: 71df e83d 6e59 a2be a27e ea3e 15fe bf3d
00000150: 5b36 20be edf8 c1bd 8f90 dbbd d771 59bd
00000160: 8dd2 6bbd 5de5 1c3e 0e0f 483e 890b c3bd
00000170: 76cb 773e f8f4 e03e 8ea4 babe 35db 53bd
00000180: 86d5 3d3d 4a14 8b3c 37bd 84be 9603 e1bd
00000190: bdce bb3e 916c 82be 71b8 87bd 89d3 7a3e
000001a0: 6c3d 703d 362f 55be 32f7 ccbd 2014 20bd
000001b0: 9460 1bbd bf05 e0bd 21e6 0bbe 9112 b4be
000001c0: 28b2 1dbe 4f44 993d bb4e 8bbe 5dc2 09be
000001d0: 6edf 0fbe a0c1 683e 7e54 2e3e 6437 16be
000001e0: 5993 dabd 11b5 663d eed4 61bd 4066 063e
000001f0: d7d9 ebbd 9202 b1bd 4dba 7d3d 346b 9bbd
00000200: 6462 f5bb 54f1 f83d 9e2d 013e 6eb4 45bc
00000210: 751a 55bd f712 153e 2e0b 81bd c4a0 413c
00000220: d409 dbbc 30cb 57bc f6d5 e7bd 0403 bc3c
00000230: f35b 0fbe b60f cfbd ab66 76bd 6d4a 60bd
00000240: 29a3 60bc 2210 fc3d 8691 adbd 6a07 803d
00000250: 7072 9e3d 8f95 b5bd 5002 0b3c ae3b 863d
00000260: 6e62 d53c 3b80 bfbc 8de1 263c b401 16be
00000270: 82f5 ed3c 07ac dcbd 8726 a1bd 561b b7bd
00000280: c549 1abe 883f ae3d af2c fa3b e78b bdbd
00000290: 39c4 b73d 152b f1bd 4fbe 923d 0293 87bd
000002a0: 8a58 8d3c d258 c93d 8ecd c43d f9a6 f03c
000002b0: 1911 2f3d 8611 3abd 3ff6 f03d d7d8 d63c
000002c0: 8987 f2bd 88ab 10be 725a 663d 3b8b 01be
000002d0: 8452 07be fbf5 b7be 5434 8c3e 4028 c83d
000002e0: 821a debc b04b 4e3d d743 0a3d 941d cc3d
000002f0: 9915 3f3d 04bf 19be f6c5 f6bd fbaf f8be
00000300: 719f c8bd 21b8 313e 2544 6cbd 1c73 3cbc
00000310: 0043 02be d990 053e e34b 2dbe 0da1 05bd
00000320: a63b 50bd 1f8e 76bd 159a 9f3e 2e8b 683d
00000330: 8f2c 0abe 6873 ecbd 6e18 533d 936f 2fbe
00000340: a4bd 27bd 539c aabb 5754 933e f8c3 21be
00000350: eb7c 2e3e dc54 913d 9168 dabe 839c 3abd
00000360: 88d5 70be cddd 8c3d c350 5bbe 7c50 a3bd
00000370: 8a13 e23d df69 09be 0674 6dbd aa86 bc3d
00000380: a940 92bd 6e64 24bd 6d95 7a3d e861 a5ba
00000390: de0f 563d a341 24be e4d5 d8bc b7d0 01be
000003a0: 065c c3bd b698 dabd f4ed a2be b6da bcbe
000003b0: 6f3c 89be 3ee3 863e 703b 723e 0443 58be
0.11224259 -0.35999173 0.20434321 -0.043735623 0.09624621 0.022019997 0.09850094 0.11121409
-0.055450764 -0.17059933 -0.19242339 -0.36068836 0.09313814 0.10529586 0.004101253 0.0927939
-0.18301812 -0.1696663 0.0015123326 -0.024256637 0.023804843 -0.023239357 0.24578957 0.15603343
-0.10286992 -0.08799104 -0.07575414 -0.24506511 -0.08833621 0.17295071 0.097304985 -0.32700306
0.23173198 0.07213339 -0.27266884 0.18311521 -0.3779375 0.008002939 -0.051356345 0.12886094
-0.026027733 -0.13304637 0.08818034 0.08156307 0.055233154 -0.1503802 0.06754111 0.028382905
-0.055835195 -0.16539907 -0.0035314418 -0.065929905 0.09777635 -0.12189433 -0.26089203 -0.37781146
-0.36642098 0.0068616727 0.004763747 -0.0346048 0.11917067 0.015626965 -0.12800252 0.022404715
0.12565227 -0.008483654 0.38124785 0.10621686 0.3231468 0.075746104 -0.11317154 -0.26528615
-0.092404775 -0.017195407 -0.006155914 -0.083151855 -0.112737335 0.16000664 -0.03102009 -0.053746473
0.11370743 -0.31708854 0.45799738 0.09374634 -0.15645735 -0.09471307 -0.10720932 -0.05308708
-0.057573844 0.1532187 0.19536993 -0.095236845 0.24198708 0.43936896 -0.3645367 -0.051722724
0.04634621 0.016977448 -0.2592561 -0.10987012 0.36681166 -0.25473455 -0.06626976 0.24494757
0.058652326 -0.20818791 -0.10008086 -0.039081693 -0.0379339 -0.10938596 -0.13662006 -0.35170415
-0.15399992 0.07483732 -0.27208504 -0.1345305 -0.14050075 0.22730112 0.17024419 -0.14669567
-0.106726356 0.056325022 -0.055134706 0.13124943 -0.11516159 -0.086430684 0.06194525 -0.07588807
-0.0074885357 0.12155405 0.12615058 -0.012066944 -0.052027185 0.14558016 -0.063009605 0.011818115
-0.026738085 -0.013171002 -0.11320107 0.022950657 -0.1399992 -0.101104185 -0.060156506 -0.054758478
-0.013710775 0.123077646 -0.08475022 0.06251414 0.07736671 -0.08866417 0.008484438 0.06554352
0.026047911 -0.023376575 0.010185611 -0.14649087 0.029047731 -0.10774999 -0.07868677 -0.08940761
-0.15067203 0.085082114 0.007634721 -0.092552 0.089729734 -0.11775795 0.07165205 -0.066198364
0.017254133 0.09831394 0.09609519 0.029376494 0.042740915 -0.045426868 0.11765718 0.026226444
-0.118422575 -0.14127934 0.0562386 -0.12650768 -0.13215071 -0.35929856 0.27383673 0.09773302
-0.02711225 0.05036515 0.033756103 0.09966579 0.046651457 -0.15014273 -0.12049477 -0.48571762
-0.09796036 0.17355396 -0.057682175 -0.011502054 -0.12720871 0.13043536 -0.1692348 -0.032624293
-0.050838135 -0.06019413 0.31172243 0.056773357 -0.1349356 -0.115454495 0.05153697 -0.17132406
-0.04095234 -0.0052066236 0.28775284 -0.15797412 0.1703984 0.07096264 -0.42657903 -0.045559417
-0.23518956 0.06878243 -0.21417527 -0.079743356 0.11038883 -0.13419293 -0.057971977 0.09205373
-0.07141239 -0.04013484 0.06117766 -0.0012617679 0.052261226 -0.16040663 -0.026469178 -0.12677275
-0.095390365 -0.106736585 -0.3182217 -0.36885613 -0.2680392 0.26345247 0.23655486 -0.21119314

weight f4 [3, 12]
00000000: e7cf b6be b05e 32be 5d3d 64be bbf8 bcbd
00000010: 04cc babe a4a2 96be fd0b 723e f796 2d3e
00000020: 5d34 453e 1250 723e 5552 cb3d adf3 a63e
00000030: 314c fd3c 4e07 92bd 3cea 86be 0c5f c63d
00000040: e06c 833e 107c 373e 73c0 64bd 0311 82be
00000050: b508 3e3d 1090 72be 2df7 d63d 935a 7fbb
00000060: b0ba 61be a13a 79be a163 643e c82d 043c
00000070: 103a a03e 5dc1 70bd 8b41 1c3e e0a2 a73d
00000080: 5ddf 753d 1fcd 33bd 3916 f43d 7d87 15be
-0.35705492 -0.17418933 -0.22289033 -0.09227129 -0.36483777 -0.2942096 0.23637386 0.1695212
0.19258256 0.23663357 0.09927813 0.32607785 0.03092012 -0.071302995 -0.26350582 0.096860975
0.25669003 0.1791842 -0.055847596 -0.25403604 0.046395022 -0.23687768 0.10496364 -0.0038963899
-0.22043872 -0.24338771 0.2230363 0.008067556 0.31294298 -0.058778156 0.15259378 0.08185363
0.06002747 -0.04389679 0.11918301 -0.14602466

bias f4 [3]
00000000: fdc8 f83e bc36 1f3e f618 5e3e
0.48590842 0.15548223 0.2168921
