models/paramsearch_0.00042617506778886376_0.99999_0.99999_10.pt (torch, 31984 bytes, 7 tensors)

weight_ih f4 [240, 6]
-0.46597606 -0.46543047 -0.3857042 0.43042085 -0.26190594 -0.46085146 -0.6244745 -0.7018138
-0.64311194 -0.6782085 -1.0820663 -0.47882515 -0.39704102 -0.5148793 -0.3599009 -1.3102926
-1.5237563 -0.43058264 -1.0504708 1.6745342 -0.8668793 -1.3975058 -1.3070306 -1.6383487
-0.31910098 -0.5590942 -0.37169915 -1.0899726 -1.4444137 -0.29266846 -0.48928934 -0.5956811
-0.3712246 -0.5795895 -0.9532773 -0.59029657 -0.6448545 -0.48874813 -0.5936869 -1.7548867
-1.3552979 -0.43133807 0.103987545 -0.3346587 -0.10448574 1.7069083 0.99771255 -0.09537902
-0.83075875 0.67017335 -0.46791014 -1.8492217 -1.6757483 -1.1661147 -0.3306638 -0.5441913
-0.4058278 -0.30893746 -0.4306575 -0.3989505 -0.5798559 -0.5045397 -0.2579903 -1.7352054
-1.8636258 -0.47882015 -0.4503313 -0.84819126 -0.503227 0.93505037 0.421006 -0.5626817
-0.41909528 -0.58717513 -0.41098437 -0.82442605 -0.99597484 -0.48696935 -0.6601061 -0.7227245
-0.68828326 -0.5776629 -0.6542081 -0.68493164 -0.14888547 0.7379055 -0.15328647 -1.3421878
-1.3917522 -0.50492007 -0.3230467 -0.42210564 -0.27528656 1.1716546 0.24925373 -0.25533825
-0.6392264 -0.82382184 -0.6089099 -0.2458339 -0.7791638 -0.7294572 -0.69053817 0.4055322
-0.6067886 -0.7401818 -0.91928387 -1.3182763 -0.5956789 -0.64403987 -0.3733318 -1.7930713
-1.5722921 -0.3417638 -1.1276971 -1.2791274 -1.3552183 0.1464099 0.7820229 -1.0003369
-0.19487032 0.26656944 -0.120332085 -1.6230582 -1.2261497 -0.3007543 -0.39190683 -0.24157833
-0.3071858 -1.9624047 -1.8305532 -0.28423163 -0.13238788 -0.92941046 -0.51001585 1.3655758
1.3418136 -0.17180172 -1.2949055 -0.02464154 -1.25571 -0.5119507 -0.94543415 -1.1961001
-0.55616105 -0.6401829 -0.31541115 -1.4757781 -1.5177182 -0.31201193 -0.016854024 -0.23872016
-0.44901088 1.5093353 0.67958796 -0.3284794 -0.21014762 -0.97008044 -0.6260442 1.3504974
1.2513638 -0.12812917 -0.5865432 0.015911397 -0.29656973 -0.51479185 -0.9381549 -0.7512609
-1.1130105 -0.24316122 -1.3367931 -0.6169568 -0.9540789 -1.0769598 -0.5236653 0.04775216
-0.25287408 -0.48876387 -0.9760174 -0.7823751 -0.40840337 -0.42267522 -0.4837244 -1.622125
-1.4487581 -0.12324704 -0.5827515 -0.82924193 -0.5803266 0.41901827 0.30067313 -0.3909434
-0.540086 -0.43800852 -0.5665844 -1.4616345 -1.5184693 -0.80155253 -0.7105828 -0.61968815
-0.5436219 -0.26120818 -0.71791404 -0.7605243 -1.0166999 -0.6950637 -0.68812275 -0.9208038
-1.1687528 -1.159397 -0.477799 -0.8403422 -0.50659865 0.7385836 0.65473557 -0.5182144
-0.32445338 -0.59666103 -0.55771136 1.0065231 0.6184544 -0.4829734 -0.42615727 -0.39454406
-0.5217116 -1.7185698 -1.3596405 -0.25515738 -0.5762153 -0.9315279 -0.5854952 0.3824382
0.13636953 -0.50649977 -0.41986355 -0.5388679 -0.37987718 -1.3159808 -1.5215362 -0.3919781
-0.51808083 -0.22245343 -0.67242557 0.17356612 -0.22958167 -0.734466 -0.34876698 -0.5821703
-0.45128688 -1.2126312 -1.5753694 -0.4337407 -0.6049284 -0.73101425 -0.5351742 -0.892673
00000000: 6a94 eebe e74c eebe 057b c5be 1f60 dc3e
00000010: 8918 86be b9f4 ebbe 90dd 1fbf 12aa 33bf
00000020: fca2 24bf 129f 2dbf 2681 8abf 9228 f5be
00000030: f648 cbbe 21cf 03bf ee44 b8be abb7 a7bf
00000040: 720a c3bf 5475 dcbe d475 86bf 2357 d63f
00000050: cdeb 5dbf 78e1 b2bf c74c a7bf 69b5 d1bf
00000060: 3461 a3be cc20 0fbf 5a4f bebe 3984 8bbf
00000070: 8ce2 b8bf a4d8 95be 2284 fabe 8e7e 18bf
00000080: 2711 bebe fa5f 14bf fb09 74bf ad1d 17bf
00000090: 2f15 25bf 323d fabe ddfb 17bf 21a0 e0bf
000000a0: 677a adbf 58d8 dcbe 6cf7 d43d 6358 abbe
000000b0: 9ffc d5bd f97b da3f 176a 7f3f 1356 c3bd
000000c0: 9bac 54bf 7b90 2b3f eb91 efbe 4cb3 ecbf
000000d0: ec7e d6bf 3f43 95bf c44c a9be 1f50 0bbf
000000e0: a9c8 cfbe 0d2d 9ebe 247f dcbe 3d43 ccbe
000000f0: 7071 14bf 8429 01bf 4e17 84be 361b debf
00000100: 4a8b eebf ea27 f5be d391 e6be 1023 59bf
00000110: 7cd3 00bf 765f 6f3f 198e d73e e80b 10bf
00000120: a893 d6be 1c51 16bf 8b6c d2be 960d 53bf
00000130: 35f8 7ebf 0c54 f9be b7fc 28bf 7904 39bf
00000140: 5533 30bf b7e1 13bf 2f7a 27bf ae57 2fbf
00000150: 6f75 18be 60e7 3c3f 21f7 1cbe cfcc abbf
00000160: f024 b2bf 7142 01bf 6166 a5be 3b1e d8be
00000170: 5cf2 8cbe c7f8 953f 5f3c 7f3e b2bb 82be
00000180: 57a4 23bf fde5 52bf 85e1 1bbf e2bb 7bbe
00000190: 4777 47bf b5bd 3abf 1cc7 30bf eba1 cf3e
000001a0: 7f56 1bbf 8e7c 3dbf 3056 6bbf 47bd a8bf
000001b0: 6a7e 18bf ccdf 24bf 5825 bfbe 5c83 e5bf
000001c0: de40 c9bf aafb aebe 6158 90bf 72ba a3bf
000001d0: cb77 adbf 7aec 153e a732 483f 0a0b 80bf
000001e0: 168c 47be ca7b 883e ab70 f6bd 5fc0 cfbf
000001f0: 79f2 9cbf 78fc 99be 03a8 c8be 4f60 77be
00000200: 7547 9dbe 1430 fbbf 914f eabf cf86 91be
00000210: b090 07be d8ed 6dbf 6690 02bf 30cb ae3f
00000220: 8cc0 ab3f caec 2fbe 77bf a5bf 0edd c9bc
00000230: 1bbb a0bf 330f 03bf f907 72bf cf19 99bf
00000240: 9260 0ebf 07e3 23bf 927d a1be 4ce6 bcbf
00000250: 9744 c2bf 07c0 9fbe 7311 8abc 0f73 74be
00000260: c1e4 e5be e631 c13f 7af9 2d3f 742e a8be
00000270: f030 57be 3157 78bf 6f44 20bf 19dd ac3f
00000280: b02c a03f 4b34 03be b227 16bf 9e58 823c
00000290: fdd7 97be 66c9 03bf eb2a 70bf a252 40bf
000002a0: 2177 8ebf 41ff 78be 091c abbf e1f0 1dbf
000002b0: 843e 74bf d2d9 89bf ee0e 06bf c597 433d
000002c0: b678 81be 423f fabe 47dc 79bf bc49 48bf
000002d0: 3f1a d1be e368 d8be b9aa f7be cba1 cfbf
000002e0: e870 b9bf f268 fcbd 342f 15bf 3349 54bf
000002f0: 4990 14bf 9089 d63e d4f1 993e bc29 c8be
00000300: 1343 0abf a742 e0be ad0b 11bf d716 bbbf
00000310: 345d c2bf 8c32 4dbf c1e8 35bf e2a3 1ebf
00000320: ce2a 0bbf 14bd 85be 37c9 37bf b8b1 42bf
00000330: 3923 82bf b2ef 31bf d028 30bf ccb9 6bbf
00000340: b199 95bf 1f67 94bf 12a2 f4be ab20 57bf
00000350: 73b0 01bf d113 3d3f c09c 273f b3a9 04bf
00000360: c11e a6be c7be 18bf 2cc6 0ebf c0d5 803f
00000370: 0753 1e3f 4a48 f7be 4931 dabe ae01 cabe
00000380: e48e 05bf 18fa dbbf b308 aebf fda3 82be
00000390: d982 13bf 9d78 6ebf 03e3 15bf f1ce c33e
000003a0: 74a4 0b3e f8a9 01bf 5bf8 d6be 3ff3 09bf
000003b0: 437f c2be 0f72 a8bf b3c1 c2bf 5bb1 c8be
000003c0: f2a0 04bf d5ca 63be 1524 2cbf 51bb 313e
000003d0: 7517 6bbe f705 3cbf 9691 b2be 1d09 15bf
000003e0: 130f e7be 8037 9bbf b4a5 c9bf 4313 debe
000003f0: 96dc 1abf c023 3bbf 2d01 09bf 3886 64bf

weight_hh f4 [240, 12]
-0.4087493 -0.30485982 0.3710933 0.5808232 0.34110528 -0.35814235 -0.5067458 -0.18956266
-0.3345342 -0.40802646 -0.37199184 -0.44560403 -0.3857658 -0.50659335 0.40998077 0.4694076
0.39110106 -0.5279062 -0.30330223 -0.4601581 -0.4267279 -0.38418007 -0.5684099 -0.37183687
-0.3355391 -0.3637348 0.31949192 0.41197875 0.4416197 -0.42817342 -0.4071659 -0.26880318
-0.31599382 -0.254402 -0.5178482 -0.26663977 -1.094506 -1.1371282 1.0428393 1.1659884
0.9297314 -1.0495046 -1.2351915 -1.055534 -1.2004483 -0.9937141 -1.4182825 -1.2381748
-0.33417973 -0.3786546 0.30075416 0.3201055 0.36125022 -0.3386295 -0.27930227 -0.2422862
-0.22787386 -0.450999 -0.37744838 -0.27353683 -0.4482716 -0.46899402 0.5237913 0.37498334
0.34827855 -0.32452047 -0.47125176 -0.43315673 -0.3729509 -0.24287303 -0.5197684 -0.37600967
-0.42184487 -0.31910244 0.5239564 0.37758192 0.31977975 -0.28126872 -0.18682927 -0.45499715
-0.3974154 -0.30235377 -0.591157 -0.5266802 -0.07934562 -0.29566017 0.22809772 0.07265002
0.18072133 -0.24459167 0.20957716 -0.1736198 -0.28287077 -0.29153785 -0.14030667 -0.38933986
-0.9142783 -0.99815476 0.92709947 0.8239236 0.35382515 -1.0332228 -1.0437461 -0.930051
-1.059341 -0.8643703 -1.0789187 -0.80314547 -0.3739301 -0.524919 0.35882413 0.35635155
0.49389252 -0.4216073 -0.3851025 -0.39403227 -0.4862647 -0.41372532 -0.3598141 -0.23438379
-0.32006493 -0.28309438 0.45040956 0.47755 0.30179074 -0.4929745 -0.38632983 -0.34882936
-0.3516092 -0.4080429 -0.39037466 -0.36793834 -0.66249853 -0.6233203 0.6329411 0.5818362
0.32662946 -0.6181094 -0.5673662 -0.3791883 -0.592333 -0.59531534 -0.47966486 -0.28535658
-0.44295204 -0.53558815 0.5182512 0.5462955 0.32141253 -0.30740795 -0.51447314 -0.39633924
-0.4098582 -0.37578255 -0.39703038 -0.4932476 -0.4801228 -0.44103336 0.6531791 0.5803749
0.3322022 -0.6381488 -0.8654048 -0.5312179 -0.52276385 -0.4214139 -0.52034205 -0.2686231
-0.16912505 -0.32535383 0.23734619 0.17222589 0.21880329 -0.3962974 -0.3719336 -0.15136589
-0.13641764 -0.25802758 -0.29168305 -0.09716903 -0.24871276 -0.38333285 0.41704136 0.3220401
0.44191864 -0.39952478 -0.44509074 -0.4378026 -0.4554156 -0.54511786 -0.41704425 -0.5385444
-0.64946383 -0.5708346 0.8452999 0.74571365 0.2966522 -0.64290065 -0.8204581 -0.70090574
-0.7089907 -0.69718874 -0.5147849 -0.39130905 -0.7396276 -0.603856 0.59602034 0.65547204
-0.36798254 -0.63653517 -1.0719621 -0.5878271 -0.709723 -0.6740355 -0.6773874 -0.080011494
-0.48497716 -0.3780604 0.61150485 0.43944553 0.37636077 -0.5176195 -0.3239631 -0.34171262
-0.49764562 -0.4305546 -0.4214023 -0.590275 -1.2138937 -1.409584 1.245902 1.1521883
0.69168085 -0.74733853 -0.85986197 -1.1953684 -1.1883588 -1.1465595 -1.4296823 -1.4584486
-0.4847762 -0.542478 0.3723259 0.2593958 -0.1616437 -0.1880635 -0.3776076 -0.39304507
-0.31750506 -0.18032542 -0.38032928 -0.12913544 -0.28323764 -0.35998744 0.47486198 0.3024771
00000000: 9747 d1be 9616 9cbe f1ff bd3e d4b0 143f
00000010: 5aa5 ae3e 6f5e b7be 18ba 01bf b71c 42be
00000020: 1148 abbe d8e8 d0be b775 bebe 3626 e4be
00000030: 1883 c5be 1ab0 01bf 00e9 d13e 3156 f03e
00000040: 663e c83e dc24 07bf 6e4a 9bbe d899 ebbe
00000050: 147c dabe 40b3 c4be 5083 11bf 6761 bebe
00000060: c8cb abbe 733b babe 7294 a33e e1ee d23e
00000070: fa1b e23e 8c39 dbbe 0d78 d0be 92a0 89be
00000080: f1c9 a1be fb40 82be b391 04bf 0285 88be
00000090: c618 8cbf 6b8d 91bf c27b 853f 1c3f 953f
000000a0: e102 6e3f 2b56 86bf c11a 9ebf bd1b 87bf
000000b0: 4aa8 99bf 0c64 7ebf 488a b5bf 837c 9ebf
000000c0: 9b19 abbe 04df c1be 73fc 993e dee4 a33e
000000d0: caf5 b83e d960 adbe b500 8fbe e019 78be
000000e0: c457 69be 57e9 e6be ea40 c1be 050d 8cbe
000000f0: db83 e5be fc1f f0be 3017 063f d1fd bf3e
00000100: 9151 b23e 8c27 a6be e947 f1be b8c6 ddbe
00000110: 6cf3 bebe b5b3 78be 8b0f 05bf 5784 c0be
00000120: 0dfc d7be 6561 a3be 0222 063f 6b52 c13e
00000130: 2cba a33e 7402 90be 2c50 3fbe 63f5 e8be
00000140: 087a cbbe 1dce 9abe 1156 17bf 83d4 06bf
00000150: f57f a2bd c560 97be 7392 693e 89c9 943d
00000160: 030f 393e 3d76 7abe 659b 563e 64c9 31be
00000170: 70d4 90be 7344 95be 8dac 0fbe 8e57 c7be
00000180: 250e 6abf 1287 7fbf 6456 6d3f a8ec 523f
00000190: 9228 b53e a540 84bf 7999 85bf d317 6ebf
000001a0: 7c98 87bf 5f47 5dbf 021a 8abf f19a 4dbf
000001b0: c473 bfbe 1761 06bf ccb7 b73e b673 b63e
000001c0: 7bdf fc3e e9dc d7be 282c c5be 99be c9be
000001d0: b0f7 f8be ced3 d3be 8e39 b8be 4e02 70be
000001e0: 8ddf a3be bff1 90be 159c e63e 6f81 f43e
000001f0: 5184 9a3e 2767 fcbe 06cd c5be c399 b2be
00000200: 1f06 b4be 00eb d0be 30df c7be 6a62 bcbe
00000210: 8199 29bf eb91 1fbf 6e08 223f 38f3 143f
00000220: fa3b a73e 6b3c 1ebf e93e 11bf f824 c2be
00000230: 23a3 17bf 9666 18bf a296 f5be 421a 92be
00000240: 9cca e2be 4e1c 09bf 1cac 043f 06da 0b3f
00000250: 2f90 a43e 9364 9dbe 83b4 03bf faec cabe
00000260: efd8 d1be 9266 c0be 9147 cbbe f38a fcbe
00000270: a8d2 f5be 20cf e1be bf36 273f 7393 143f
00000280: 6816 aa3e b85d 23bf 2b8b 5dbf e5fd 07bf
00000290: dad3 05bf 90c3 d7be 2335 05bf f888 89be
000002a0: 1e2f 2dbe c794 a6be e10a 733e fc5b 303e
000002b0: f80d 603e 7ee7 cabe 156e bebe a9ff 1abe
000002c0: 11b1 0bbe 311c 84be 7b57 95be 8e00 c7bd
000002d0: 8fae 7ebe 3444 c4be 7286 d53e 71e2 a43e
000002e0: 2943 e23e 838e ccbe efe2 e3be aa27 e0be
000002f0: 3c2c e9be d88c 0bbf d386 d5be 0cde 09bf
00000300: 4343 26bf 3722 12bf 9365 583f 17e7 3e3f
00000310: cce2 973e 2395 24bf 8b09 52bf 8f6e 33bf
00000320: 6a80 35bf f67a 32bf f1c8 03bf a959 c8be
00000330: 3c58 3dbf 4f96 1abf ca94 183f 04cd 273f
00000340: 3568 bcbe f8f3 22bf 0e36 89bf d67b 16bf
00000350: 68b0 35bf 978d 2cbf 4369 2dbf 11dd a3bd
00000360: ed4e f8be 2291 c1be 958b 1c3f 01ff e03e
00000370: 5cb2 c03e b682 04bf 7ede a5be f5f4 aebe
00000380: 68cb febe a771 dcbe 0bc2 d7be 431c 17bf
00000390: de60 9bbf 406d b4bf b779 9f3f e87a 933f
000003a0: ff11 313f 9451 3fbf ea1f 5cbf d501 99bf
000003b0: 241c 98bf 76c2 92bf d4ff b6bf 72ae babf
000003c0: 9634 f8be d7df 0abf 80a1 be3e 87cf 843e
000003d0: ed85 25be b893 40be c955 c1be 343d c9be
000003e0: 0690 a2be 3aa7 38be 85ba c2be 153c 04be
000003f0: 8604 91be 4650 b8be 1c21 f33e 47de 9a3e

proj f4 [12, 60]
0.3379734 -0.06863777 -0.16275506 -0.19023925 0.2323147 0.04035138 -0.34950298 -0.069019794
-0.0029882644 -0.049011532 0.34427497 -0.38343096 0.12025651 0.015616727 0.2669735 -0.21445775
-0.19756639 -0.37015915 0.13425866 0.2767627 0.251581 -0.24207652 0.028713265 -0.60599965
-0.28241435 -0.5556123 0.106074914 0.24175172 -0.5644672 -0.2640702 0.24209486 0.14285848
0.19904372 0.15704057 -0.1475135 0.38126653 -0.066631235 -0.22341451 0.36096567 0.15102345
-0.12146927 -0.24450792 -0.15634653 0.26897287 0.29165184 0.38355854 -0.35472038 0.043300774
-0.38535142 0.23660325 -0.14391361 0.31031796 0.1354348 -0.109310046 -0.12430825 -0.041421365
0.08373991 0.22127402 -0.27694058 0.3296663 0.39854836 -0.11956992 0.08316352 -0.13484663
0.11116311 -0.22866388 -0.11326594 -0.19151218 -0.1608437 0.014817587 0.16567945 -0.41525087
-0.083669946 -0.06209164 0.23845571 -0.2674332 -0.17869174 -0.34404618 0.21954696 0.03879721
0.05473592 -0.27079707 0.022883946 -0.6056889 -0.20054051 -0.551216 0.036773037 -0.01928668
-0.5199099 -0.31752905 0.25014684 0.097715996 0.06495168 0.28987 0.009363926 0.25243807
-0.1241972 -0.2026951 0.248711 0.21932359 -0.25926608 -0.30325228 -0.17592138 -0.04024863
0.066228665 0.40115616 -0.25539324 -0.048251987 -0.34119877 0.12137884 0.0179464 0.40262592
0.24332035 -0.064738154 -0.2771316 -0.049598 0.08542222 0.18444727 -0.07223309 0.16314133
-0.42588985 0.1854476 0.14423439 0.17999928 -0.20045473 -0.06520659 0.301629 -0.03178416
0.037459724 -0.0017457972 -0.32326698 0.32827628 -0.07068637 -0.0732778 -0.30580533 0.1832664
0.15504874 0.2561976 -0.27862385 -0.13079266 -0.065506384 0.12560254 0.017341072 0.38807917
0.20369008 0.6008815 -0.014694018 -0.27860618 0.50770134 0.28430808 -0.20124261 -0.13030456
-0.042203106 -0.16698302 0.13671286 -0.26738626 0.18632974 0.28903642 -0.29815775 -0.11566279
0.1461337 0.20893718 0.10470999 -0.35001105 -0.2871209 -0.36147383 0.32900277 -0.15194581
0.50403917 -0.26382303 0.1575606 -0.31355396 -0.21196333 0.06056745 0.35865423 0.0642967
-0.059310768 -0.2348511 0.19227575 -0.21213154 -0.41574547 -0.007750104 0.082055174 -0.3053549
-0.30846125 -0.15750816 0.106679544 0.28573242 0.27818698 -0.07200219 -0.09493641 0.26874647
-0.031846054 0.24695253 -0.48372802 0.37346768 0.15327229 0.31616178 0.033055805 0.017868299
-0.25921682 0.24765943 0.5707474 -0.2420853 0.16539028 0.7970434 -0.5271604 -0.07641455
-0.060433093 0.0670018 -0.036768068 -0.2941254 -0.23316453 -0.10965494 0.24401017 -0.13672823
0.3315011 0.09628427 -0.4674459 -0.06623685 0.33703288 0.2911934 0.03400865 -0.17895746
-0.086537786 -0.23570651 0.22249891 0.3706854 0.22471498 -0.251257 0.12057814 0.21914126
-0.68679845 -0.01987606 0.24125153 0.08160336 -0.2607671 0.09730327 0.15861097 -0.42894468
-0.16944997 0.0066721644 -0.065310255 -0.07674175 0.015603457 0.21359757 -0.11977072 0.87518567
0.19324394 0.26929042 0.03030508 0.090222664 0.22971493 -0.18458433 -0.70887285 0.5462942
00000000: d90a ad3e f691 8cbd 43a9 26be 14ce 42be
00000010: e8e3 6d3e 7d47 253d 0ef2 b2be 405a 8dbd
00000020: c2d6 43bb 51c0 48bd cf44 b03e 1051 c4be
00000030: 0c49 f63d 4ddd 7f3c c0b0 883e d09a 5bbe
00000040: d84e 4abe 8085 bdbe 1a7b 093e d7b3 8d3e
00000050: 3acf 803e e8e2 77be 1538 eb3c cb22 1bbf
00000060: 9d98 90be 9c3c 0ebf ce3d d93d c38d 773e
00000070: ec80 10bf 3634 87be b7e7 773e 7e49 123e
00000080: 1ed2 4b3e 3ecf 203e c70d 17be 5e35 c33e
00000090: f575 88bd c6c6 64be 7ed0 b83e e4a5 1a3e
000000a0: e1c4 f8bd 4960 7abe 4e19 20be d0b6 893e
000000b0: 6453 953e c961 c43e e99d b5be 275c 313d
000000c0: c84c c5be 1f48 723e 175e 13be ffe1 9e3e
000000d0: 6caf 0a3e f2dd dfbd 5395 febd 73a9 29bd
000000e0: d47f ab3d a895 623e 28cb 8dbe 05ca a83e
000000f0: 880e cc3e 13e1 f4bd a351 aa3d 3c15 0abe
00000100: 7ca9 e33d dd26 6abe f9f7 e7bd c51b 44be
00000110: 36b4 24be 77c5 723c e0a7 293e c39b d4be
00000120: 265b abbd ce53 7ebd bc2d 743e 01ed 88be
00000130: f8fa 36be d226 b0be ebd0 603e d3e9 1e3d
00000140: c632 603d eaa5 8abe 1d77 bb3c 6e0e 1bbf
00000150: 7e5a 4dbe 7e1c 0dbf 539f 163d 19ff 9dbc
00000160: d118 05bf 2b93 a2be 3f13 803e 531f c83d
00000170: 6305 853d d769 943e 276b 193c 903f 813e
00000180: 1a5b febd 4e8f 4fbe 19ae 7e3e 5d96 603e
00000190: 86be 84be e243 9bbe bc24 34be bfdb 24bd
000001a0: e5a2 873d 5764 cd3e e7c2 82be e0a3 45bd
000001b0: 9bb1 aebe 7895 f83d 5404 933c fc24 ce3e
000001c0: f828 793e 7095 84bd 31e4 8dbe 4627 4bbd
000001d0: d8f1 ae3d bfdf 3c3e f1ee 93bd 850e 273e
000001e0: 3c0e dabe fae5 3d3e 2eb2 133e bb51 383e
000001f0: 0144 4dbe 088b 85bd 1e6f 9a3e 1b30 02bd
00000200: 5e6f 193d 3cd3 e4ba 4083 a5be d413 a83e
00000210: 04c4 90bd ac12 96bd 8492 9cbe 30aa 3b3e
00000220: 19c5 1e3e 552c 833e c9a7 8ebe 83ee 05be
00000230: 3628 86bd f49d 003e dd0e 8e3c 50b2 c63e
00000240: 2294 503e 5fd3 193f 2ebf 70bc 78a5 8ebe
00000250: b7f8 013f d490 913e 8b12 4ebe 8f6e 05be
00000260: 2add 2cbd 99fd 2abe 75fe 0b3e dae6 88be
00000270: 39cd 3e3e 95fc 933e 22a8 98be 9de0 ecbd
00000280: 13a4 153e a1f3 553e 3172 d63d a634 b3be
00000290: 8301 93be 1913 b9be 0d73 a83e af97 1bbe
000002a0: b608 013f d013 87be 9157 213e 258a a0be
000002b0: ea0c 59be 9315 783d 87a1 b73e fdad 833d
000002c0: d9ef 72bd cf7c 70be efe3 443e 0339 59be
000002d0: 97dc d4be 96f4 fdbb 8b0c a83d 7a57 9cbe
000002e0: a2ee 9dbe d249 21be ce7a da3d 854b 923e
000002f0: 866e 8e3e e275 93bd 056e c2bd 2399 893e
00000300: 0271 02bd 20e1 7c3e 33ab f7be 2837 bf3e
00000310: 69f3 1c3e f5df a13e 8665 073d 8a60 923c
00000320: 11b8 84be 6f9a 7d3e 801c 123f 35e5 77be
00000330: 125c 293e 090b 4c3f fcf3 06bf 3b7f 9cbd
00000340: b188 77bd 3d38 893d 1d9a 16bd 9b97 96be
00000350: afc2 6ebe c592 e0bd cddd 793e 7c02 0cbe
00000360: 83ba a93e b030 c53d 1255 efbe 30a7 87bd
00000370: 938f ac3e 4d17 953e a74c 0b3d a040 37be
00000380: b93a b1bd 0c5d 71be c1d6 633e 7aca bd3e
00000390: af1b 663e c2a4 80be acf1 f63d 9166 603e
000003a0: 06d2 2fbf 1ed3 a2bc a40a 773e aa1f a73d
000003b0: 4483 85be f046 c73d ea6a 223e a39e dbbe
000003c0: 4b84 2dbe 2ca2 da3b 62c1 85bd c72a 9dbd
000003d0: a4a5 7f3c 52b9 5a3e 5a4a f5bd 2b0c 603f
000003e0: bde1 453e 6fe0 893e 5c42 f83c a9c6 b83d
000003f0: 643a 6b3e ad03 3dbe b178 35bf f0d9 0b3f

bias_ih f4 [240]
-0.07992846 -0.17821358 -0.17680544 -1.2181054 -0.1810037 -0.323175 -0.31522834 -0.17062013
-0.9847111 -0.19574998 -0.12425473 -0.19887841 -0.277491 -0.43687484 -0.45084545 -0.23985244
-0.5471288 -1.0793248 -0.15238321 -1.2671922 -0.6638805 0.058369953 -0.41757578 -1.202656
0.0012073244 -0.28553626 -0.22416146 -0.2792052 -1.2634939 -0.5512449 -0.16343613 -0.42019302
-0.59978056 -0.63468164 -0.70347446 -0.48478055 -0.13631801 -0.037461687 -0.12605396 -0.08412733
-1.0528572 -0.13578972 -0.15560004 -1.1979597 -0.15154378 -0.5758397 0.11959798 -0.26007858
-0.14920953 -0.5230774 -0.7732012 -1.1106251 -0.41946456 -0.3589698 0.03279935 -0.25024378
-0.110700935 -0.24025083 -0.33805194 -0.51921254 0.35213685 -0.26111674 -0.27646035 -1.3081133
-0.14735687 -0.12844406 -0.20622505 -0.3540213 -1.1978163 -0.18873245 -0.07414954 0.030156212
-0.3133613 -0.48096302 -0.46154314 -0.27925137 -0.34761062 -0.6794873 -0.18276641 -1.3147577
-0.7612186 -0.12653428 -0.43448076 -1.208372 0.035816606 -0.4930621 0.3862295 -0.1293006
-0.93652064 -0.7089888 -0.03848337 -0.24450336 -0.74292904 -0.6854157 -0.292219 -0.085657746
-0.053242292 -0.043851975 0.23232494 -0.06944034 -1.1174425 0.31065583 -0.2177056 -1.1053408
-0.074804015 -0.12373681 0.026053613 -0.16656576 0.13446218 -0.108670965 0.00076816784 -1.0077941
-0.20303462 -0.11742355 -0.11541108 -0.30218115 0.82596946 -0.07560361 -0.32786503 -0.8029025
0.21752726 -0.23312014 -0.23898618 0.3898109 0.25909618 0.33173913 -0.1866463 0.100524224
0.011239361 0.10661138 0.31008595 -0.16532694 0.22261079 -0.01275514 0.063665405 0.30701092
-0.034710262 -0.088408515 0.24243806 -0.33631852 0.16892052 -0.29560333 -0.1310568 0.24584487
-0.3071327 0.22657494 0.250711 0.23929872 0.46061954 0.16068514 0.32939905 0.10735557
-0.027125815 0.050197817 -0.11497482 0.07071794 -0.14506966 -0.3958833 0.15585268 0.22559133
0.27355385 -0.19880371 -0.40254956 0.3452732 0.4626607 0.14777859 -0.34985074 -0.17713629
-0.17396225 0.12283314 -0.32583794 -0.24410655 0.007274619 -0.29275882 -0.2527413 -0.16534331
0.13415998 0.2731705 -0.10306305 0.010267834 -0.20450367 -0.4594051 -0.23562363 -1.1098775
-0.21497929 -0.3676597 -0.13816056 -0.07462299 -1.0713494 -0.11595758 -0.061763875 -0.1154192
-0.31550118 -0.44340912 -0.5581127 -0.14828503 -0.484705 -1.0284863 -0.2151123 -1.3813736
-0.6856835 -0.10481363 -0.34335792 -1.3538109 -0.22033395 -0.32970312 -0.20207326 -0.18194225
-1.2767228 -0.62200946 -0.16281334 -0.42986298 -0.67608863 -0.49175996 -0.73016894 -0.40636775
-0.19402564 -0.07050678 -0.16091661 -0.25171423 -0.8156557 -0.080417395 -0.36568382 -1.0888565
-0.10791773 -0.5967538 -0.14651679 -0.36270896 -0.14489937 -0.46755904 -0.9192057 -1.2629687
-0.47726268 -0.48843193 -0.00068793714 -0.4593101 0.15008706 -0.1557216 -0.2863427 -0.569975
00000000: 88b1 a3bd 9f7d 36be 7c0c 35be e1ea 9bbf
00000010: 0959 39be 3277 a5be 9c65 a1be 0bb7 2ebe
00000020: 0716 7cbf af72 48be 4479 febd c8a6 4bbe
00000030: 4d13 8ebe 0fae dfbe 37d5 e6be e19b 75be
00000040: a210 0cbf 5127 8abf 580a 1cbe 5b33 a2bf
00000050: 13f4 29bf 5515 6f3d 7ecc d5be a2f0 99bf
00000060: 163f 9e3a cf31 92be 958a 65be fcf3 8ebe
00000070: 2bba a1bf 631e 0dbf cd5b 27be 8a23 d7be
00000080: 388b 19bf 7f7a 22bf e716 34bf 2835 f8be
00000090: f396 0bbe 6d71 19bd 4a14 01be f34a acbd
000000a0: 06c4 86bf 760c 0bbe 9e55 1fbe be56 99bf
000000b0: 4b2e 1bbe 3b6a 13bf c9ef f43d 0529 85be
000000c0: 62ca 18be 67e8 05bf 84f0 45bf f728 8ebf
000000d0: 0fc4 d6be e4ca b7be 9c58 063d f41f 80be
000000e0: 2cb7 e2bd 5004 76be 2515 adbe 1deb 04bf
000000f0: 484b b43e 18b1 85be 368c 8dbe 4270 a7bf
00000100: b8e4 16be d786 03be a92c 53be 4842 b5be
00000110: 0b52 99bf 1443 41be b7db 97bd 290a f73c
00000120: e470 a0be c940 f6be 624f ecbe 09fa 8ebe
00000130: 05fa b1be e1f2 2dbf 1e27 3bbe fb49 a8bf
00000140: 39df 42bf 3492 01be 4374 debe efab 9abf
00000150: 6fb4 123d a372 fcbe dfbf c53e 6067 04be
00000160: d1bf 6fbf 4a80 35bf bda0 1dbd 175f 7abe
00000170: 9930 3ebf 6777 2fbf bb9d 95be 546d afbd
00000180: 9714 5abd 219e 33bd 97e6 6d3e bd36 8ebd
00000190: 5b08 8fbf 480e 9f3e 38ee 5ebe cf7b 8dbf
000001a0: d932 99bd ba69 fdbd 636e d53c 3790 2abe
000001b0: 74b0 093e e28e debd df5e 493a 66ff 80bf
000001c0: 4fe8 4fbe c27b f0bd a55c ecbd 7db7 9abe
000001d0: bc72 533f 11d6 9abd eddd a7be 058b 4dbf
000001e0: 77bf 5e3e 0cb7 6ebe cbb8 74be 4b95 c73e
000001f0: 41a8 843e b6d9 a93e 3520 3fbe a5df cd3d
00000200: 4c25 383c 1157 da3d 96c3 9e3e 774b 29be
00000210: 15f4 633e effa 50bc 0263 823d 8930 9d3e
00000220: 592c 0ebd 860f b5bd af41 783e f131 acbe
00000230: 80f9 2c3e 5259 97be c133 06be c2be 7b3e
00000240: 7f40 9dbe 4303 683e 315d 803e b90a 753e
00000250: 53d6 eb3e a58a 243e fea6 a83e 3ddd db3d
00000260: f536 debc 3a9c 4d3d eb77 ebbd 91d4 903d
00000270: 248d 14be 37b1 cabe d897 1f3e 6a01 673e
00000280: 400f 8c3e 3393 4bbe fa1a cebe a6c7 b03e
00000290: dde1 ec3e 4553 173e a31f b3be 3763 35be
000002a0: 2923 32be f18f fb3d 3bd4 a6be 11f7 79be
000002b0: ed5f ee3b 7ce4 95be 4f67 81be c24f 29be
000002c0: 3c61 093e 01dd 8b3e b812 d3bd 6b3a 283c
000002d0: 6969 51be 2537 ebbe 5247 71be 7710 8ebf
000002e0: 8823 5cbe e43d bcbe f679 0dbe f0d3 98bd
000002f0: fa21 89bf 2b7b edbd 1efc 7cbd e760 ecbd
00000300: 5f89 a1be 8506 e3be 79e0 0ebf 08d8 17be
00000310: 412b f8be 70a5 83bf 6646 5cbe dad0 b0bf
00000320: f488 2fbf 87a8 d6bd 9ccc afbe ad49 adbf
00000330: 399f 61be d9ce a8be 4bec 4ebe 124f 3abe
00000340: a76b a3bf 033c 1fbf 8ab8 26be 0017 dcbe
00000350: 2514 2dbf f6c7 fbbe 5aec 3abf 6f0f d0be
00000360: a8ae 46be dc65 90bd 53c7 24be b0e0 80be
00000370: d0ce 50bf e0b1 a4bd e93a bbbe a65f 8bbf
00000380: f903 ddbd dbc4 18bf 7f08 16be fdb4 b9be
00000390: 8060 14be e663 efbe 1151 6bbf f5a8 a1bf
000003a0: c65b f4be c013 fabe ae56 34ba b22a ebbe
000003b0: 6cb0 193e 7c75 1fbe 839b 92be e2e9 11bf

bias_hh f4 [240]
0.07064079 -0.1885982 -0.15055864 -1.2256019 0.034410138 -0.16944328 -0.17860873 -0.24583447
-1.0940263 -0.33687383 -0.16617939 -0.21923232 -0.2340428 -0.44451803 -0.52100074 -0.32695803
-0.5239987 -0.8611506 -0.2489518 -1.2706783 -0.7601488 0.08334291 -0.46048316 -1.2889972
-0.20727864 -0.22200632 -0.09482362 -0.15499727 -1.0524948 -0.5786642 -0.11947727 -0.36995718
-0.78804785 -0.64377785 -0.8773217 -0.45534864 -0.1781258 -0.08163988 -0.31267402 -0.29390618
-0.9132946 -0.005427496 -0.23409103 -1.2994905 -0.08375045 -0.5533227 -0.059321783 -0.37129548
-0.09821963 -0.53857714 -0.8360841 -1.2676569 -0.44466534 -0.46746844 -0.051820464 -0.45079672
-0.032266565 -0.3482654 -0.28366646 -0.48197797 0.23721853 -0.16109659 -0.12756276 -1.3443941
0.049948547 0.0084302025 0.006499733 -0.4069855 -1.0489327 -0.33241814 0.09559321 -0.06538121
-0.10970216 -0.34217134 -0.6034998 -0.25409395 -0.38278326 -0.78997153 -0.05693656 -1.2020384
-0.82438546 -0.09241366 -0.3783686 -1.2363547 -0.06274085 -0.4631169 0.24249548 -0.24099144
-0.9255365 -0.54016286 0.041779507 -0.24026269 -0.60396963 -0.49922672 -0.17119715 -0.057833828
-0.047365036 -0.10864719 0.19762701 -0.024068156 -1.1273422 0.14821431 -0.28105956 -0.9583655
-0.07126594 -0.12437716 -0.03795801 0.0021722459 -0.05470173 -0.1143292 0.08349677 -1.18864
-0.3647049 -0.129806 0.003833651 -0.27878302 0.76837176 -0.12848602 -0.43264654 -0.7623925
0.16927926 -0.04040653 -0.37234166 0.3222319 0.123385265 0.22092967 -0.26252285 0.12774272
0.020016441 0.2277014 0.20525558 -0.07760625 0.122940734 -0.17787185 0.029933741 0.09722026
-0.25152785 -0.2262895 0.43129078 -0.29784113 0.28622308 -0.2753907 0.022626463 0.42980057
-0.18857986 0.13035414 0.14665678 0.30206418 0.4346789 0.046832263 0.45020694 0.16981351
0.008911132 -0.0921759 -0.21759158 0.061006583 -0.12982148 -0.47720286 0.20802675 0.24945918
0.41645032 -0.2650959 -0.24112137 0.23898685 0.41670087 0.24840131 -0.3455563 -0.19755949
-0.082531095 0.22622673 -0.23393208 -0.11407597 -0.05722052 -0.27296305 -0.28351438 -0.22854319
0.2658563 0.37485364 -0.15722892 0.11567612 -0.05215607 -0.32554984 -0.221826 -1.1047211
-0.18894453 -0.32508364 -0.34074062 -0.26291996 -0.9268338 -0.073883146 -0.108888924 -0.2273359
-0.25974914 -0.62229574 -0.59333634 -0.3321313 -0.55998856 -1.0014524 -0.33581975 -1.1940534
-0.7186522 -0.005233321 -0.42677394 -1.2226636 -0.14186339 -0.17049165 -0.20307842 -0.20478386
-1.1845996 -0.47653696 -0.19138646 -0.4422456 -0.63797146 -0.51570445 -0.8259547 -0.31786978
-0.1616526 -0.27448562 -0.08869151 -0.28528893 -0.80499923 -0.017392762 -0.3280841 -1.3053228
-0.32889402 -0.4925435 -0.008431247 -0.35226974 -0.27300382 -0.5108571 -0.91314024 -1.3382266
-0.37881252 -0.50636303 -0.15612423 -0.22225797 0.043640103 -0.3856583 -0.4097768 -0.6847658
00000000: 1eac 903d e31f 41be 0b2c 1abe 86e0 9cbf
00000010: a5f1 0c3d 8a82 2dbe 35e5 36be 08bc 7bbe
00000020: 0e09 8cbf ba7a acbe ee2a 2abe 707e 60be
00000030: eaa8 6fbe de97 e3be 4e60 05bf 0b67 a7be
00000040: c724 06bf 5e74 5cbf 38ed 7ebe 96a5 a2bf
00000050: 1d99 42bf b0af aa3d 73c4 ebbe dcfd a4bf
00000060: da40 54be a055 63be e332 c2bd 9bb7 1ebe
00000070: 26b8 86bf 5623 14bf 80b0 f4bd 076b bdbe
00000080: 81bd 49bf a0ce 24bf 2898 60bf 7523 e9be
00000090: 9c66 36be cf32 a7bd cf16 a0be df7a 96be
000000a0: adcd 69bf 23d9 b1bb 8fb5 6fbe b455 a6bf
000000b0: 5b85 abbd 8ea6 0dbf 66fb 72bd 711a bebe
000000c0: 6027 c9bd 31e0 09bf 9c09 56bf 9542 a2bf
000000d0: 2dab e3be 0658 efbe b241 54bd d4ce e6be
000000e0: f229 04bd d84f b2be bb3c 91be d1c5 f6be
000000f0: 6ae9 723e 81f6 24be d09f 02be 1b15 acbf
00000100: d996 4c3d d51e 0a3c b6fb d43b 6760 d0be
00000110: 6d43 86bf b632 aabe 5fc6 c33d 95e6 85bd
00000120: 87ab e0bd 1531 afbe f77e 1abf 9a18 82be
00000130: 2bfc c3be 933b 4abf 4f36 69bd 65dc 99bf
00000140: ed0a 53bf 5f43 bdbd 87b9 c1be df40 9ebf
00000150: 467e 80bd a91d edbe bc50 783e 76c6 76be
00000160: f6ef 6cbf 1d48 0abf fd20 2b3d 6c07 76be
00000170: c19d 1abf a59a ffbe 4e4e 2fbe 2ae3 6cbd
00000180: d701 42bd 6b82 debd bc5e 4a3e 952a c5bc
00000190: c04c 90bf 7ec5 173e 0ae7 8fbe 7157 75bf
000001a0: e1f3 91bd 74b9 febd dc79 1bbd 3d5c 0e3b
000001b0: ec0e 60bd 6d25 eabd 5b00 ab3d 5b25 98bf
000001c0: 9aba babe ddeb 04be fe3d 7b3b a6bc 8ebe
000001d0: 03b4 443f d791 03be d983 ddbe 282c 43bf
000001e0: 8b57 2d3e 5181 25bd 91a3 bebe 94fb a43e
000001f0: 6ab1 fc3d 633b 623e 6569 86be fdce 023e
00000200: 85f9 a33c 8e2a 693e 852e 523e 07f0 9ebd
00000210: 5ac8 fb3d 0a24 36be 9b37 f53c 6a1b c73d
00000220: 42c8 80be 6fb8 67be 25d2 dc3e a27e 98be
00000230: d58b 923e 0300 8dbe 225b b93c d20e dc3e
00000240: 141b 41be 8e7b 053e 322d 163e 28a8 9a3e
00000250: 3c8e de3e 30d3 3f3d 8681 e63e 98e3 2d3e
00000260: ffff 113c b8c6 bcbd 54d0 5ebe 0ae2 793d
00000270: ecef 04be ef53 f4be f704 553e 3a72 7f3e
00000280: fa38 d53e a6ba 87be 85e8 76be f8b8 743e
00000290: d159 d53e ea5c 7e3e c1ec b0be 094d 4abe
000002a0: 1006 a9bd fba7 673e e48b 6fbe aaa0 e9bd
000002b0: 1060 6abd d0c1 8bbe cc28 91be 3a07 6abe
000002c0: 511e 883e d1ec bf3e 9e00 21be 9ae7 ec3d
000002d0: 9aa1 55bd 78ae a6be 5b26 63be 8067 8dbf
000002e0: ad7a 41be 5d71 a6be 8e75 aebe 729d 86be
000002f0: fb44 6dbf 0c50 97bd 2801 dfbd beca 68be
00000300: d7fd 84be c64e 1fbf e4e4 17bf 1d0d aabe
00000310: 695b 0fbf 982f 80bf 91f0 abbe bed6 98bf
00000320: 97f9 37bf 477c abbb 1d82 dabe 3e80 9cbf
00000330: a344 11be 5d95 2ebe caf3 4fbe dcb2 51be
00000340: f6a0 97bf a7fc f3be d0fa 43be 046e e2be
00000350: 1952 23bf 3505 04bf c471 53bf d4bf a2be
00000360: 4288 25be 6189 8cbe e5a3 b5bd 6411 92be
00000370: 6e14 4ebf 447b 8ebc a4fa a7be d114 a7bf
00000380: cc64 a8be a92e fcbe 3723 0abc b35c b4be
00000390: 28c7 8bbe 88c7 02bf 8fc3 69bf 024b abbf
000003a0: b7f3 c1be 02a1 01bf 08df 1fbe 9897 63be
000003b0: f7bf 323d 0175 c5be 44ce d1be d04c 2fbf

weight f4 [3, 12]
0.61663264 0.632474 -0.59097344 -0.45343 -0.41937074 0.32418326 0.15226671 0.6299409
0.6180306 0.6540687 0.5606833 0.49122128 -0.010553355 -0.03547093 0.045457076 -0.05716606
0.004580614 0.05523351 0.21715593 0.007441444 0.035493642 0.15279905 0.05427297 -0.15354474
0.067357525 -0.16380644 -0.025753098 0.06869447 0.7950755 -0.01308161 0.6365323 -0.3009078
-0.071572624 -0.18698268 -0.37375617 -0.92572904
00000000: a3db 1d3f d1e9 213f 094a 17bf fa27 e8be
00000010: c3b7 d6be 59fb a53e ceeb 1b3e cf43 213f
00000020: 4137 1e3f 0c71 273f f188 0f3f 5b81 fb3e
00000030: fbe7 2cbc f749 11bd 3331 3a3d f526 6abd
00000040: fa18 963b 883c 623d 205e 5e3e 5bd7 f33b
00000050: c861 113d 5b77 1c3e 554d 5e3d d53a 1dbe
00000060: bef2 893d e0bc 27be 29f8 d2bc b0af 8c3d
00000070: 118a 4b3f 4054 56bc c8f3 223f 9610 9abe
00000080: ab94 92bd 6378 3fbe f85c bfbe 94fc 6cbf

bias f4 [3]
0.58087564 0.055560295 0.23113218
00000000: 44b4 143f 3193 633d eaad 6c3e
