models/paramsearch_6.385082369299984e-05_0.3031703769159976_0.637376883370357_68.pt (torch, 33112 bytes, 7 tensors)

weight_ih f4 [240, 6]
000000 8d 5d 0a 3e a3 56 a4 3d 80 76 b6 3c 82 78 95 bc
       0.1351225 0.08024337 0.022273302 -0.01824594
000010 1b 2e 34 3c af 75 08 be e6 91 13 bd 72 0d 31 bd
       0.0109973205 -0.13326143 -0.03602781 -0.043225713
000020 be 79 5e 3d 2a 67 a4 bb 3e 85 b0 bd 8d 3d f2 bd
       0.05431532 -0.005017181 -0.08619164 -0.11828146
000030 6f fd 35 bc c8 a3 d8 3d a5 da 89 3d e2 2d 34 bc
       -0.011107787 0.10578114 0.06731156 -0.010997267
000040 4b 81 13 be bb c3 50 3d a8 3a b4 3c 69 93 ea 3d
       -0.1440479 0.050967913 0.022000626 0.114538975
000050 61 cf 3d 3d c6 09 e9 bd 9a df b1 bd 7c 2d c4 bd
       0.04634035 -0.11378817 -0.08685227 -0.09578988
000060 6c 06 63 bd 8d 8a fc bc 2b a1 02 3d e0 d2 ae 3d
       -0.055426046 -0.030827785 0.031891983 0.08536315
000070 d9 8a 0e be d4 0d 96 bd 8f 51 97 3c 3e e5 a2 3d
       -0.13920154 -0.07326856 0.018471507 0.07953881
000080 30 e7 07 3e 47 7e 03 be eb a3 1e bd 6e 99 85 bd
       0.13271785 -0.1284114 -0.038730543 -0.06523405
000090 33 17 97 3d b7 5b 24 bd 00 6c 00 bd 8b 83 02 be
       0.07377472 -0.04012653 -0.031352997 -0.12745492
0000a0 d4 48 36 be ad 5a 95 bd e8 cd ba bd 64 8b a9 bd
       -0.17801219 -0.07292686 -0.09121305 -0.0827854
0000b0 e8 cf 0d 3e 54 34 f1 bd 76 fc 2a be b5 10 37 3c
       0.13848841 -0.11777559 -0.16697869 0.011173417
0000c0 3a a9 04 3d 23 d0 ea 3d c9 17 f5 3d 26 0e ab bc
       0.03238795 0.1146548 0.11967427 -0.02088077
0000d0 b4 53 89 3d 7c 63 7a 3d ea 29 31 3d 41 02 f6 3d
       0.06705418 0.061130032 0.043252863 0.12012149
0000e0 88 4e 7d bc d3 44 f3 bd bc 1c e6 bc 1d 00 a7 3d
       -0.015460618 -0.118783616 -0.028089873 0.081543185
0000f0 40 fa 71 bd c1 19 b6 bc 1c 3c 24 3d ac 5d 60 be
       -0.059076548 -0.022229077 0.040096387 -0.21910733
000100 92 1c 2a be c6 fb f3 3b 24 33 e2 bc 41 75 91 3d
       -0.16612461 0.007445785 -0.027612276 0.071024425
000110 77 5c b2 3d b5 ba 16 bd 63 cc d2 3d 0f 99 a9 3d
       0.087090425 -0.03679915 0.1029289 0.08281147
000120 e2 aa 52 bc 80 67 9f bd 3e 59 12 bd 5b 64 8e bd
       -0.012858124 -0.07783413 -0.03572964 -0.06952735
000130 d5 cc 9d bd b2 bc 55 3d db c8 bf 3d de 9e 19 bd
       -0.07705084 0.052181907 0.09364482 -0.037505023
000140 45 a0 ae bd 92 c9 15 be 35 da 9a bd ef 5b 75 3d
       -0.08526663 -0.14627674 -0.07561151 0.059902128
000150 9a 96 99 bd 44 9f c1 bd e9 6e 10 3e 13 1c 0b be
       -0.07499428 -0.09454206 0.14104809 -0.13584928
000160 f1 85 0c 3d 40 28 87 3c bb f6 e7 bd 6f cb e4 bd
       0.034307424 0.016498685 -0.11326357 -0.111716144
000170 90 59 16 3e dd c2 e1 bd 86 02 15 3d 95 61 ee 3c
       0.14682603 -0.11023495 0.03637936 0.029099265
000180 9a 3c dd 3d f8 db d8 bd ff fa aa bd 3d 69 f2 bd
       0.108025745 -0.10588831 -0.08348655 -0.11836479
000190 42 c2 af 3c 46 08 a2 3a a0 2d d6 bd 90 ca 4e bd
       0.021454934 0.0012362085 -0.10457921 -0.050486147
0001a0 3c 37 46 3c 20 8f ae bd 63 9c 86 3c 1a 8d ab bd
       0.01209813 -0.08523393 0.016431993 -0.08376522
0001b0 b0 24 84 bd 16 b9 2e bd 03 44 08 3e 1c dc 4f bd
       -0.0645231 -0.04265698 0.13307194 -0.050747022
0001c0 92 ea 47 bd 1b 3f f6 bc b5 38 46 3d cf 35 80 3d
       -0.048807688 -0.030059388 0.048393924 0.06260263
0001d0 28 2c 0e be 4f b3 4c ba 01 55 23 be f4 a5 ec bd
       -0.13884032 -0.00078087015 -0.15950395 -0.115550905
0001e0 4f d5 01 3e 03 e3 a2 3d 05 b6 d6 3d 90 7f 3b 3c
       0.12679027 0.07953455 0.10483936 0.0114439875
0001f0 ab 52 d7 bd 0f e2 15 be 72 88 0d 3e c8 5c 0b bd
       -0.105138145 -0.14637016 0.13821581 -0.03402403
000200 de 37 10 3c 69 e8 07 be b4 e0 b5 bd 6b b5 7f 3d
       0.008802382 -0.13272251 -0.08880749 0.062428873
000210 02 4e f7 3d b2 76 f5 3d 69 28 39 bc d3 12 89 3d
       0.12075426 0.1198553 -0.011301138 0.066930436
000220 46 a8 ec bc f2 dc e9 3d ab 3d d1 bd 14 c6 be 3d
       -0.028888833 0.11419095 -0.1021684 0.09315124
000230 b4 2f ec bc c9 11 c9 bd 83 83 2c be 69 01 fd bd
       -0.02883134 -0.098178454 -0.16847043 -0.123537846
000240 19 bd c5 bd 17 2d fe 3b 2b d3 eb 3c e8 59 4f 3d
       -0.09655208 0.00775684 0.028787216 0.05062285
000250 03 95 e9 bd f5 4e f1 3c 4d 38 be 3c 12 7e a7 3d
       -0.11405375 0.029456595 0.023220206 0.08178343
000260 ca d8 30 bd 72 3c a1 3d 6c 9e 6f bd b6 8c b9 bd
       -0.043175496 0.07872857 -0.058500692 -0.090600416
000270 5f cf f3 3d 34 49 e1 3d e1 d7 8b 3d 59 a1 21 3d
       0.11904787 0.110002905 0.06828285 0.039460514
000280 c5 21 f5 bd 36 9a 14 3e 09 3e f9 3c a4 c3 a5 3b
       -0.11969332 0.14511952 0.030425088 0.0050587226
000290 d0 ff c0 bd 4c d2 a6 3d dd 89 43 3d 4b 01 94 3d
       -0.09423792 0.0814558 0.0477389 0.07226809
0002a0 42 3c 44 3e 3a 2b ba 3d ba aa 05 3d 7b b6 65 bd
       0.19163612 0.09090276 0.03263352 -0.05608223
0002b0 81 5c 9d bd 72 a7 ca 3d 33 0c 98 3d a8 e9 af 3d
       -0.07683659 0.09895219 0.07424202 0.08589488
0002c0 fb 28 22 3d 76 cf d2 3c 0a 56 3f bd 88 5c 2b bd
       0.039589863 0.02573369 -0.046712913 -0.04183629
0002d0 01 82 8b bc 38 68 ac 3d 14 ab d2 3c ac 21 c9 bd
       -0.017029764 0.08418316 0.025716342 -0.098208755
0002e0 e2 d5 05 3d c5 e0 f4 bd 95 e7 70 bd ce b8 fa 3d
       0.032674678 -0.11956934 -0.058814604 0.1224228
0002f0 f9 3a e4 bd f3 c2 78 3c 71 c2 01 be 39 fd f0 bb
       -0.11144061 0.015183198 -0.1267183 -0.0073544052
000300 b5 2d 57 bd 0d fd af 3d 69 92 f2 3d 3c d5 83 bc
       -0.052533824 0.085931875 0.11844332 -0.016092889
000310 38 6c 09 3d 15 5c 19 bb ee e8 0e 3e 33 43 c2 bd
       0.03355047 -0.0023400832 0.13956043 -0.094854735
000320 c9 33 84 bd b4 1b f2 bd 8d e7 8c 3d 67 99 7c 3d
       -0.0645519 -0.1182169 0.06880102 0.061669733
000330 88 03 7d bd c2 fd be bb c0 2c 55 3e 90 a7 26 3e
       -0.061770946 -0.00582859 0.20817852 0.16274858
000340 39 ea f3 3d 4c 66 f5 bb 44 9f 6e bc e7 fc 25 3d
       0.11909909 -0.0074890014 -0.014564339 0.04052439
000350 c2 88 e1 3d 54 f3 48 bd 31 c5 04 be c2 95 bb 3d
       0.110124126 -0.04906018 -0.12965848 0.091594234
000360 ed d1 92 bb 74 9e 43 bd a5 09 68 3c fe 8b 1a be
       -0.0044805915 -0.047758535 0.014162456 -0.15092465
000370 2d 4f ec bd e7 80 91 3d 45 90 07 3e 32 47 4c bb
       -0.11538539 0.07104664 0.13238628 -0.0031170365
000380 78 14 18 bd 5a 18 d4 3d 53 9f 91 bd 44 b7 06 bc
       -0.037128896 0.10356207 -0.07110467 -0.008222405
000390 2d 3d dc bd 26 5e 8f 3d 52 17 22 bc 6a dd 0c bc
       -0.10753856 0.07000379 -0.009893255 -0.008597711
0003a0 af 4a 30 be 92 b6 04 be af a0 7f 3d 1f 3e 2f bc
       -0.1721599 -0.1296027 0.0624091 -0.010695963
0003b0 04 61 2f bc 94 35 34 be 2c 94 9a bc ca 6a a6 3b
       -0.010704283 -0.17598563 -0.018869482 0.005078648
0003c0 1f 7b 03 be 88 3c 1d bc 41 37 6d bc 1c 00 6a 3c
       -0.12839936 -0.009596951 -0.014478506 0.014282253
0003d0 2b 74 0b 3c 60 fc 51 bd f6 9c 9d 3d 74 ee 10 be
       0.008511583 -0.051266074 0.076959535 -0.14153463
0003e0 93 4c b0 3d 32 c8 d7 3c 8c 28 ba bd 8f 24 78 3d
       0.086083554 0.026340578 -0.09089765 0.06058174
0003f0 30 7f e5 3d d3 1b 2d 3e 75 9a 4e bb 2e ac 05 3e
       0.112059 0.16905145 -0.003152517 0.13053963

weight_hh f4 [240, 12]
000000 a7 6f b5 bb 4b 4e b9 bd 6e 13 e1 3c b6 d1 37 bd
       -0.0055369916 -0.09048136 0.027475085 -0.04487773
000010 85 21 f3 3d af 92 ad bd 71 1d 09 be d2 af c1 3b
       0.11871628 -0.08475243 -0.13390137 0.005910852
000020 1c b5 1d 3e aa c7 69 bd 99 58 a7 bd f8 50 d9 bd
       0.15401119 -0.05707518 -0.081711955 -0.10611147
000030 4f 8a d1 3d aa ff 9f 3d f2 c5 3b 3d dd 40 89 3d
       0.102314584 0.07812436 0.045843072 0.06701825
000040 ce 8f 83 3d 37 c3 01 be 3e 49 cd 3d 75 e0 d0 bd
       0.06423913 -0.12672125 0.100237355 -0.10199062
000050 1f 50 b0 bd 2c 31 93 3d 1a e3 e8 bc 56 29 84 3c
       -0.08609032 0.07187113 -0.028428603 0.016132992
000060 9a 8e 15 3d 3d 6f 30 3a f5 a2 43 bd b5 9e 8d bd
       0.03651295 0.0006730443 -0.04776283 -0.069150366
000070 c7 48 2b bc 68 be d3 bd 5f 81 5c 3d 2c aa c9 bc
       -0.010454363 -0.103390515 0.053834315 -0.024617277
000080 b0 47 32 3d ab 7d 78 bd f4 37 23 bd 49 4a e4 3c
       0.043525398 -0.06066672 -0.039848283 0.027867453
000090 7a 95 6e bd cb 97 3a 3d 1a 05 97 bd 7e 65 0b 3e
       -0.05824802 0.045554917 -0.0737402 0.13612935
0000a0 cd 70 96 bd e2 88 31 3d 4f 89 fb bd b2 1d 3a 3d
       -0.07345734 0.043343432 -0.12282049 0.045438476
0000b0 f5 e2 e3 3d 40 57 c6 bc 73 3d 02 3d d5 df 53 bd
       0.11127273 -0.024211526 0.031796884 -0.051727135
0000c0 56 6c 50 bd 3f ad 96 bd 91 3f a2 3d b7 1e 00 3e
       -0.050884567 -0.07357263 0.079222806 0.12511717
0000d0 a8 c3 96 bc d8 74 89 3c a3 34 1b 3d d0 1e cd bd
       -0.018403843 0.016779348 0.037891995 -0.10015643
0000e0 5c c9 2b 3d 88 95 ac bc 35 dc 20 3d a9 d7 07 be
       0.04194008 -0.021067396 0.039272506 -0.13265862
0000f0 c2 61 c1 bc 8b 66 07 bd e0 6a ea 3c 51 fd 1b 3e
       -0.023606185 -0.033056777 0.028615415 0.15233351
000100 9f b3 04 3e 97 e9 a9 3d 4b 2f ac 3c 3d 36 f9 bd
       0.12959145 0.08296507 0.021018645 -0.12168548
000110 67 24 1c 3e 4d b8 bd bd bf 00 61 3c 2f ea 14 3d
       0.15248261 -0.09263668 0.013733088 0.036356147
000120 50 09 2a 3d b1 7b a4 bd 50 dd 0b bd e5 f8 a2 bc
       0.041512787 -0.08031405 -0.034146607 -0.019894073
000130 14 f3 39 bd 44 8f 51 bc 10 2e a0 bd 59 d6 86 3d
       -0.045397833 -0.012790505 -0.07821286 0.06583852
000140 0e 01 8f 3d 15 3a 82 bd be 07 72 3d 99 ed 58 3d
       0.06982623 -0.063587345 0.059089415 0.052960966
000150 0a 95 30 bc a9 85 7e bd 4d c8 f3 3c 4f 25 d8 3d
       -0.010777721 -0.062139187 0.029758597 0.10553991
000160 f6 5f 0c 3e a3 3c 7c bd c4 10 c8 bc ba f4 8d 3d
       0.13708481 -0.061581265 -0.024422057 0.069314435
000170 24 36 0e 3d c4 54 94 bb b8 d4 91 3d 89 4c 88 bd
       0.0347196 -0.0045267064 0.07120651 -0.06655223
000180 21 c8 ba bd d3 03 9c bd 7b 45 a7 bd 11 8a 8f bd
       -0.09120203 -0.07617917 -0.08167549 -0.07008756
000190 a7 9f aa 3d 8f ef 70 ba da 3f b5 3d 69 4b 14 bd
       0.083312325 -0.00091909704 0.08850069 -0.03620473
0001a0 68 d8 87 bc 1c 24 bf 3d 81 dc c0 3d 79 37 aa bd
       -0.016582683 0.09333059 0.09417058 -0.08311362
0001b0 32 7e 15 bd f3 72 a1 3c 38 14 24 bd ae 82 c9 bc
       -0.036497302 0.019708132 -0.040058345 -0.024598446
0001c0 5f 08 15 bc 49 59 1d bb 46 fe ca 3d 5c db f0 3a
       -0.009096234 -0.0024009517 0.0991178 0.0018375921
0001d0 60 00 1c 3e e2 f0 89 3d ef 76 b0 3d c6 98 73 bd
       0.15234518 0.06735398 0.08616435 -0.059471868
0001e0 f2 ad de bb 3c ee 64 3d cc 39 af 3d ff b1 bc 3c
       -0.0067956382 0.05589126 0.08555946 0.023034094
0001f0 22 32 ae bc 72 a9 da 3d e2 3c d9 bd 52 4b 64 bb
       -0.02126414 0.106768504 -0.106073156 -0.0034834933
000200 2b bf 34 bd 0e d1 99 bd 43 bd ce bd e1 83 04 3e
       -0.044127624 -0.07510577 -0.100946926 0.12940933
000210 40 15 c3 3d d0 39 4d 3d 11 d4 f4 bd 28 4b 94 3d
       0.095255375 0.050103962 -0.11954511 0.072408974
000220 e8 45 53 3d ae f4 8b 3d 85 bd 11 be 61 8c 01 be
       0.05158034 0.06833778 -0.14232452 -0.12651207
000230 42 e1 37 3d 4c 5d d0 3d 98 f4 c3 bd e6 89 3e bd
       0.044892557 0.10174045 -0.09568137 -0.04651823
000240 bc 59 bc bc d6 d1 ad 3d da ed 7f 3d b9 2d 00 3c
       -0.022992007 0.08487289 0.062482692 0.007823401
000250 3f 20 1a bd af b3 23 3d 84 f2 be bd ab 67 ee bb
       -0.03762841 0.03996628 -0.093236 -0.007275542
000260 b5 e9 d5 3d ab d2 cd bd 28 98 8c 3d 33 a5 71 3d
       0.10444967 -0.10049947 0.06864959 0.058995437
000270 b1 02 16 bd fa 21 92 3d 0b ad 34 3d ae 25 75 3d
       -0.03662366 0.07135387 0.04411034 0.059850387
000280 36 be f4 bc 58 1f 9a 3d 0e 39 d6 3d 62 20 cb 3b
       -0.029875856 0.075255096 0.10460101 0.0061989287
000290 54 2c fe 3d e8 34 fd 3d f2 9f 11 3e 9a 36 c2 bd
       0.12410799 0.12363607 0.1422117 -0.09483071
0002a0 f3 8a 98 bd 6b ae 2e ba f6 41 b6 3d 1c 19 ed 3d
       -0.074483775 -0.00066635635 0.088993 0.11577055
0002b0 38 87 f7 3d 63 cb b5 3d 93 3e 9a 3d 7a 20 89 bb
       0.12086338 0.088766836 0.07531466 -0.0041847797
0002c0 50 ff 84 3c 72 24 70 bd a8 70 00 bc 46 3d 54 bd
       0.016235024 -0.058628507 -0.007839359 -0.051816247
0002d0 7f 4f 6b 3d 31 69 7d bd 63 a1 3b bc 2b 9a a7 3d
       0.05744886 -0.061867896 -0.011452052 0.08183702
0002e0 ad 4c 06 bd 2f 4d 6f bd 24 1a b7 3c 1b 51 43 bd
       -0.032787967 -0.058423217 0.022351332 -0.04768477
0002f0 9e 15 d9 3d 50 57 70 3d e6 1f 24 3e c4 55 ed bc
       0.10599826 0.058677018 0.16027793 -0.02897156
000300 45 ec a2 3d d2 04 d5 3d b6 e8 b6 bd 37 5f dd 3d
       0.07955221 0.1040131 -0.08931105 0.108091764
000310 69 95 4a bd 24 7c 17 be c9 ae c0 3c 7e 44 b3 3d
       -0.049458895 -0.1479345 0.023520844 0.08753298
000320 9a e4 cf bc 01 63 28 bc 2b f2 5f 3d ff 65 c0 3d
       -0.02537756 -0.010277511 0.05467431 0.09394454
000330 22 9a 0c bd 13 12 f9 3c 68 bd 82 bd 60 90 b6 3d
       -0.03432668 0.030404126 -0.063837826 0.08914256
000340 58 52 73 bd 7b 44 1a be d6 71 f3 bd 29 70 1d be
       -0.0594047 -0.15065186 -0.11886947 -0.15374817
000350 8f 56 bb 3d fa 76 52 bd 4b dd 57 3d e7 2c cd bd
       0.09147369 -0.051382996 0.052701276 -0.1001833
000360 d9 4b 92 bd af 57 c6 bc eb 4e af 3c 10 03 8b bd
       -0.07143373 -0.024211733 0.021399936 -0.067876935
000370 88 60 3a bd 49 0a 30 3c 0c 6f 7f 3d f8 62 b2 ba
       -0.045502216 0.01074464 0.062361762 -0.0013609817
000380 1c 59 54 bc 46 00 04 3e 03 ca 18 3e c2 97 75 3d
       -0.012960698 0.1289073 0.14920811 0.05995918
000390 cd ac 49 bd 12 55 60 3c 60 53 de 3d d9 5c 04 bd
       -0.04923706 0.013692157 0.10855746 -0.03231511
0003a0 f4 16 69 3d 14 b2 f2 bd 25 31 b0 3d 1d 99 b3 bd
       0.056906655 -0.11850372 0.086031236 -0.087694384
0003b0 53 7f ec bd a1 9e e9 3d 98 1b c0 bd e6 18 b9 bd
       -0.11547723 0.11407209 -0.09380263 -0.09037952
0003c0 02 40 fb 3d 43 27 2d bb 71 68 06 be 03 fa 2a 3d
       0.12268068 -0.0026421107 -0.13125779 0.041742336
0003d0 3a 7d 4e 3d f8 20 ae 3d 24 cf a1 bd 18 5d 1b 3c
       0.050412394 0.08502382 -0.07900837 0.0094826445
0003e0 7d 3c a8 3d 0b 02 d2 3d b3 61 f9 bc 4f 5b 49 bd
       0.08214662 0.10254296 -0.030442094 -0.049159344
0003f0 3b 0c 69 3d 96 b8 1f 3d 45 4a e0 bd 16 22 e8 bc
       0.05689643 0.038994394 -0.10951666 -0.028336566

proj f4 [12, 60]
000000 ec 2b ea bc 83 e9 22 3e fa 78 77 3d 6f 8c 2a be
       -0.028585397 0.1590939 0.060418107 -0.16655134
000010 53 52 1d be 6e d4 04 ba f2 c0 14 bd 9a 59 33 3e
       -0.15363435 -0.0005067055 -0.03631682 0.17514649
000020 00 ef e8 3c 6c 03 73 bb d1 46 2c bd e7 a5 8c 3d
       0.028434277 -0.0037080897 -0.042059723 0.06867581
000030 5f a8 9b bd 78 1f 8b 3d 24 02 d1 bd 35 91 ab 3c
       -0.076004736 0.067931116 -0.102054864 0.020943264
000040 1a c8 ac 3c 76 fb 92 3d f0 29 98 bc c7 9b 80 3c
       0.02109151 0.071768686 -0.018574685 0.01569928
000050 a6 9c da 3c 80 f2 91 3d 50 b7 2a 3d 60 d9 28 3d
       0.026686024 0.07126331 0.041678727 0.04122293
000060 1c be d2 3c 2e f4 f2 3d cd d9 d4 bc ba 91 b1 3d
       0.025725417 0.1186298 -0.025982762 0.08670373
000070 df 4c 15 3b eb b3 d2 3c a6 7c 42 bd d0 da aa 3d
       0.0022781414 0.025720557 -0.047482155 0.083425164
000080 fb e5 3e bd 74 45 1b bd 52 d4 bd 3d c6 54 8c 3c
       -0.046606045 -0.037908033 0.092690125 0.017130267
000090 06 bc e2 3d 10 60 9d bb 34 a1 0a 3e c5 c3 01 3a
       0.11071019 -0.0048027113 0.13538057 0.00049501314
0000a0 62 a0 34 3d 2e 68 10 3e 78 d9 c2 bc 84 77 3c 3c
       0.044098265 0.14102241 -0.023785338 0.011503104
0000b0 bf 91 f0 bd 0c 73 c1 3c 0a a9 01 3e 57 50 ef 3d
       -0.11746549 0.023614429 0.1266214 0.116852455
0000c0 5c 12 2d be 1d 7e ff bd 38 f7 20 be 54 28 6f bd
       -0.16901535 -0.12475226 -0.15719306 -0.05838807
0000d0 b1 22 4d 3c ca 70 8b bd 1d c9 17 be 71 50 01 bd
       0.012520478 -0.06808622 -0.14822812 -0.031570856
0000e0 44 97 d7 3d 3a 76 04 bd 4a 20 28 3e b8 ca 4c bd
       0.105268985 -0.032339312 0.16418567 -0.049998015
0000f0 63 3a d5 3d 64 94 f9 3d ad b3 25 bd 29 ab 0a be
       0.10411527 0.121865064 -0.040454555 -0.13541855
000100 54 5f 15 be 6c 3a ec 3d 2a 22 d5 3d 9f f7 16 3e
       -0.14587146 0.115345806 0.10406907 0.14742897
000110 92 f7 bc bd 37 7b 97 3c b3 3e 19 bc 73 8a 0f bd
       -0.09226908 0.01849137 -0.009353328 -0.035044145
000120 d5 aa ef 39 33 d6 99 bd 18 2d d4 3d 01 d4 63 bd
       0.00045712912 -0.075115584 0.103601635 -0.055622105
000130 0b 73 0d 3e b1 e9 0d 3e 4d 59 8a 3c 1d ed aa 3d
       0.13813417 0.13858677 0.016888285 0.08346007
000140 f6 37 a7 3b 54 78 76 bc bc fd 0f 3e 35 b3 16 be
       0.0051031066 -0.015043337 0.14061636 -0.147168
000150 9c 34 cf bd cc bb bb 3c be e4 28 bd 4b 58 4e bb
       -0.10117456 0.022916697 -0.04123377 -0.0031485732
000160 99 90 dd 3c a0 69 2d bd 12 9a 57 3d 27 54 eb bd
       0.027046489 -0.04233706 0.052637167 -0.1149066
000170 8a dd b9 bd f5 77 17 be d6 7f d6 bb b9 4e 4a bd
       -0.09075458 -0.14791854 -0.006546001 -0.049391482
000180 f7 30 42 3d eb cf 27 3e 23 2b 94 3d 1e 55 81 3c
       0.047409978 0.16387908 0.0723479 0.015787657
000190 fc 49 11 3e a8 ab b2 3d 0e ad bc 3b c3 5a bd bc
       0.14188379 0.08724147 0.0057579344 -0.023114568
0001a0 36 09 f2 3b 0c 61 7c 3d 8a 8f 9c 3d c5 7e c8 bd
       0.007386352 0.06161599 0.076445654 -0.09789804
0001b0 37 37 22 be 43 3f c3 bd e9 90 c1 bd d9 8d a2 3d
       -0.15841375 -0.095335506 -0.094514675 0.079372115
0001c0 f7 94 05 3d 7d 84 37 3c ab 1f f2 3c 2a 9d e4 3d
       0.032612767 0.011201021 0.029556116 0.11162789
0001d0 aa f4 9f 3c 7e 87 80 bd 05 b6 09 3e d4 a9 1a be
       0.019525845 -0.06275843 0.13448341 -0.15103847
0001e0 8b c9 bf bd 6c 5e f0 3d 8a d0 98 bd de 49 00 3e
       -0.09364613 0.117367595 -0.07461651 0.12528178
0001f0 83 a0 3e bc 55 d3 be bc f9 dd da bc 5b 0d 00 bd
       -0.011634949 -0.02329413 -0.026717173 -0.031262737
000200 0f 79 3a bb 78 67 16 bc 94 c6 b3 bc 53 4b cb 3c
       -0.0028453504 -0.009179942 -0.021945275 0.02481619
000210 9e 65 c1 3d 65 fc 08 3d 54 e7 19 bd 19 eb 52 bd
       0.0944321 0.033443827 -0.037574127 -0.051493738
000220 71 e1 bb 3c 65 e8 8f bd e0 62 86 3d 9c 71 1e bd
       0.022934647 -0.070267476 0.06561828 -0.038682565
000230 14 b1 d9 bd 21 a2 5a 3d 7a 90 cc bd 35 42 1b 3d
       -0.10629478 0.053377274 -0.09988494 0.037904937
000240 f1 b5 58 bd b5 49 28 bc c5 80 0b be b1 8b db bd
       -0.052907888 -0.010271479 -0.1362334 -0.107200034
000250 9f c3 c7 3d 48 a2 d8 3d d7 59 ee bc b6 82 47 3c
       0.09754109 0.10577828 -0.029095573 0.01217716
000260 aa 70 b7 3d 78 9d 63 3d 4d c8 c3 3c af 9c 83 bc
       0.08957036 0.055570096 0.023899222 -0.016065923
000270 24 f6 0e be 55 35 86 bd 09 56 b9 bd 00 e4 34 3a
       -0.13961083 -0.06553141 -0.09049613 0.000690043
000280 39 8a a7 3c 5a e6 19 be 9f 3b 1d be 1d 52 d1 bd
       0.020451652 -0.15029278 -0.15354775 -0.1022074
000290 4c 79 77 3d 8b fa 64 bc bd 58 17 3b e7 ed da 3d
       0.060418412 -0.01397575 0.0023093664 0.106899075
0002a0 5f 05 09 bc 1f 86 d7 3d 68 11 f5 3d 34 78 51 bd
       -0.008363097 0.105236284 0.119662106 -0.051140025
0002b0 39 e0 30 3d fb 2c f4 bd 53 3d 0f 3e 86 34 de bb
       0.043182585 -0.11922642 0.13988237 -0.0067811636
0002c0 c8 89 63 bd 5c 86 9a 3d b7 2d 02 be ae 5b 82 3c
       -0.05555132 0.07545158 -0.12712751 0.015912857
0002d0 89 13 de 3d 28 bf 82 bd 6c 7d 98 bd 2b b4 e9 3b
       0.1084357 -0.063841164 -0.07445797 0.0071320734
0002e0 7c 5a 7b bd 1d 1e 98 bd be e8 5c bb d7 c1 1f 3d
       -0.06136559 -0.07427619 -0.003370806 0.03900322
0002f0 60 94 a5 bd 67 91 1c 3e 88 d2 85 3d 0f 60 3d bc
       -0.08084941 0.15289842 0.06534296 -0.011558547
000300 74 57 b4 3d e8 25 77 bd a2 01 15 bc 69 5d ac 3d
       0.08805743 -0.060338885 -0.009094628 0.08416254
000310 72 f7 d5 3d 10 0e d2 3d db 71 d7 bc d3 a2 02 3d
       0.10447587 0.102565885 -0.026299408 0.031893563
000320 2a 46 49 3d 35 1b 16 3d bf c0 b9 3d b1 65 7f 3d
       0.04913918 0.03664704 0.090699665 0.06235284
000330 15 54 0f 3c 82 7f df 3b 99 ff 09 3e 64 6b 34 3d
       0.008748074 0.00682062 0.13476409 0.04404773
000340 87 c1 39 be 28 6b b6 3d df 90 be bc 3d fc b5 bd
       -0.18140231 0.08907157 -0.02326244 -0.08886001
000350 71 4f 16 3e 50 90 ed bd 2d a7 26 3e 58 c2 91 3d
       0.14678742 -0.11599791 0.1627471 0.07117146
000360 47 0e b0 3d 23 c9 0a bd 18 01 a6 3d cd 3d 1f 3d
       0.08596473 -0.033883225 0.08105677 0.038877297
000370 33 9d b8 bd d9 27 4e 3d 4f f4 8e 3d 53 79 a5 3d
       -0.09014358 0.05033097 0.06980192 0.080797814
000380 51 07 5d bd d2 80 92 3c ae 3c 77 3d e0 f0 40 bd
       -0.053962056 0.017883692 0.060360603 -0.047104716
000390 7b 28 93 bd 44 7c 11 bd ca 65 4c 3c 39 d6 db 3d
       -0.071854554 -0.0355189 0.01247544 0.10734219
0003a0 f5 d5 95 bd ee 33 a2 bd 5f 60 d1 bc de fd 8b 3d
       -0.073162 -0.07920061 -0.025558649 0.06835531
0003b0 13 a4 c4 bd 7c a4 fe bd 53 e3 fa 3d db 96 90 bd
       -0.09601607 -0.12433717 0.1225039 -0.070600234
0003c0 4b 64 14 3d 76 39 09 3e 58 78 8d 3d ac 9d 00 be
       0.03622846 0.13400826 0.069077194 -0.12560147
0003d0 b4 64 b5 bc c3 9c 67 bc 27 b8 17 bd ac c2 0b 3e
       -0.022142746 -0.014136496 -0.037040856 0.1364848
0003e0 05 2b f7 bd 1c 8c 78 3c 4a 10 bb bd 34 12 1f 3d
       -0.12068752 0.015170123 -0.09133966 0.03883572
0003f0 e5 f6 12 3e 74 25 e6 bd 22 d9 88 b9 52 47 9f 3d
       0.14351995 -0.11237612 -0.00026101718 0.07777275

bias_ih f4 [240]
000000 6a fa 17 3e 57 d7 d4 3d ed de fd 3d 0f 6a 41 3c
       0.14841619 0.10392635 0.12396035 0.0118050715
000010 b1 88 1c bd 8d 2b c9 3d 77 4b 28 3d a9 95 2e 3e
       -0.038216297 0.0982276 0.041087594 0.17049278
000020 17 ae b3 bc 38 e0 f9 3d 03 f0 91 3d 59 56 06 3d
       -0.021933598 0.122009695 0.07125857 0.03279719
000030 a9 6e 4e bd 1e 2d 24 bd 37 f8 d3 3d 47 05 1b 3e
       -0.050398502 -0.04008209 0.103500776 0.15138732
000040 40 e2 c9 3d 7f 30 ca 3d c6 6c 4e 3d 6c f8 af bd
       0.09857607 0.09872531 0.050396703 -0.085923046
000050 03 d6 b4 3c 40 1e 9f 3d 0f e0 ee ba 71 52 8e 3d
       0.022074705 0.077694416 -0.0018224734 0.06949318
000060 e9 37 fe 3d 36 f7 a2 3d 14 0a be 3c d1 ec cb bc
       0.12413008 0.07957308 0.023198165 -0.024893196
000070 f7 22 87 3d b2 55 d0 3d 71 de 03 3e c0 11 2b bd
       0.06598466 0.10172595 0.12877823 -0.041764975
000080 2b 63 f6 3d 01 eb 1c 3e 47 c7 c5 3c da cb 36 3d
       0.120306335 0.15324022 0.024142874 0.044628
000090 53 f5 cd bd 56 a3 c5 bc f1 67 5c bd 36 4e 2d 3d
       -0.100565575 -0.024125736 -0.053810064 0.042310916
0000a0 05 ee 79 3d 7c 26 b7 3d 4e 0e 54 3e 27 8f fb 3d
       0.06101801 0.08942887 0.20708582 0.122831635
0000b0 c5 19 ce 3d 33 dc df 3d a1 b7 89 bd 18 dd cd bb
       0.10063509 0.109306715 -0.067244776 -0.00628246
0000c0 bc 48 4c 3d e0 56 bb 3a 24 f5 97 bd 8c 4b f1 3d
       0.049874052 0.0014292859 -0.07419804 0.117819875
0000d0 47 5c 1c bd 3c 78 dd 3d 76 ac 99 bd 6f 24 8a bd
       -0.03817394 0.108139485 -0.075035974 -0.067452304
0000e0 8b d4 be bd 12 e5 95 bd af 98 bd 3b 93 fa c8 3c
       -0.09317883 -0.07319082 0.0057860236 0.024533546
0000f0 64 7d a8 3c 7b 8a 3d 3d b6 5c 08 bd fd ef 15 3e
       0.020567603 0.046274643 -0.03329154 0.1464233
000100 22 c6 ce 3d c0 12 db 3d 0e 1e 3f 3d d6 ca a5 bd
       0.100963846 0.10696936 0.04665952 -0.080953285
000110 a5 bb 32 3d b5 df 7c bc 15 f8 9d 3c 95 02 24 bd
       0.043635983 -0.015434195 0.019283334 -0.040041525
000120 4d 11 93 3a 9e e0 2b bd d3 8e 36 3d 17 76 51 bd
       0.0011220366 -0.04196226 0.0445698 -0.05113801
000130 6e ec c2 3d 15 37 07 3e 2b 1a 5d 3d 4d 6f 05 3d
       0.09517752 0.13204606 0.053980034 0.032576848
000140 41 f9 cb 3d a3 91 23 bd 7f 28 f3 3d 17 19 11 3e
       0.09959651 -0.039933812 0.118729584 0.14169727
000150 93 61 82 bd 5b e7 e6 3d c4 a6 ed 3c 9c 63 f1 3d
       -0.06366267 0.11274596 0.029010184 0.11786577
000160 7f 85 ad bd 94 78 94 bd b6 51 f3 3c 0c 62 0e 3e
       -0.08472728 -0.07249561 0.029702049 0.1390459
000170 06 f8 19 3e a9 59 d6 3d c7 ef 91 ba dd b2 eb 3d
       0.1503602 0.1046632 -0.0011134081 0.11508725
000180 ea f9 8f 3d 1b 68 4d 3d a7 75 5e 3d 42 64 4f 3c
       0.07030089 0.05014811 0.05431142 0.012658181
000190 45 c8 26 3e a8 a4 ca bc 83 3d 6d bc 98 91 29 3d
       0.16287334 -0.024736717 -0.014479998 0.041398615
0001a0 ac 91 c4 bd 92 13 f9 3d 2f dd af bd 76 d7 a1 3b
       -0.09598097 0.12161936 -0.08587109 0.004939015
0001b0 06 b2 33 bd 00 60 f6 3d 55 ad a7 bd bb 8f 2c bd
       -0.04387095 0.12030029 -0.08187357 -0.04212926
0001c0 4e 2e 17 3e 16 5e 26 3d ec 42 6a bd 11 11 1a bd
       0.14763758 0.04061707 -0.057192728 -0.037613932
0001d0 eb f7 04 3e 1f 3d 23 3e 8a ef 13 3e 64 29 a4 3d
       0.12985198 0.15941285 0.14446846 0.08015707
0001e0 65 b4 cf 3d 0f 86 fd 3c 1f 29 13 be 88 44 53 bd
       0.101418294 0.030947713 -0.14371155 -0.05157903
0001f0 bf ef 8e bd ce dd 31 3e 46 ea 94 3d 61 f2 19 3e
       -0.06979322 0.17369768 0.072712466 0.15033866
000200 17 a0 97 bd 3f da 87 3c 76 c3 db 3d 28 1a 66 3d
       -0.074035816 0.01658356 0.107306406 0.05617729
000210 26 46 9b 3d 77 87 ce bd 9d 7c 36 bc 22 a4 f2 bc
       0.07581739 -0.100844316 -0.011138109 -0.02961928
000220 60 9a 39 bd b0 70 20 3e 39 7a 8b 3c d1 4d ab bd
       -0.04531324 0.15667987 0.017026054 -0.08364452
000230 f9 07 e8 3d b5 a4 e9 bd c7 e4 29 3e e8 d8 fc bc
       0.11329646 -0.114083685 0.16591178 -0.030865148
000240 e7 2a 1e bc 66 a6 92 3d ac 2f 6e bd e2 e0 b0 bc
       -0.009653783 0.07160644 -0.058150932 -0.021591607
000250 36 34 c5 bd ee ca 84 3d b9 42 67 3d 6a 43 0f 3d
       -0.09629099 0.06484018 0.056460116 0.0349764
000260 c7 21 fb 3d d0 5b 15 be 40 64 e4 3b 77 3d 20 3e
       0.12262302 -0.14585805 0.0069699585 0.15648447
000270 28 03 2b bc dd bc 16 3d 21 db d6 3d 6f ee 82 3c
       -0.010437764 0.036801208 0.10491014 0.015982835
000280 38 e0 5f 3d 8e b2 bd 3d ce e1 4c bd 33 42 27 be
       0.05465719 0.09262572 -0.05002003 -0.16333847
000290 4e 7f c4 bc cd f3 2e 3e 4f c1 20 3e 4f 18 8c bd
       -0.023986485 0.1708519 0.15698741 -0.06840574
0002a0 b9 54 03 be d0 dc 08 be b9 07 be bd 0b e4 ef 3d
       -0.12825288 -0.13365483 -0.09278817 0.117134176
0002b0 ba 64 91 3d 31 d7 9f 3d 3e 1f 79 bd 84 09 82 3d
       0.0709929 0.078047164 -0.06082081 0.06349471
0002c0 ea 0f 85 3d 24 ec 95 bc 42 df b3 3d 28 06 6c 3d
       0.06497176 -0.018301077 0.087828174 0.05762306
0002d0 24 81 ab bd 2c ee ca bd 2d 0c 1a 3e 2d 54 87 3c
       -0.08374241 -0.09908709 0.15043707 0.01651963
0002e0 3c b3 a8 bd be e1 b1 3d ae dd 54 3d 13 22 7d bd
       -0.08237311 0.08685635 0.051969223 -0.061800074
0002f0 cf e5 a8 bc 33 52 85 3d 0d 98 7c 3d ce e3 db bc
       -0.020617394 0.06509819 0.061668444 -0.026842024
000300 ca 60 6e bd f2 7d 4e bd 9b b3 4b 3d 91 d0 aa bd
       -0.058197774 -0.05041308 0.049731832 -0.08340562
000310 1b e8 c5 3c 51 99 90 bd 31 86 2c 3d 45 91 40 3d
       0.024158528 -0.07060493 0.042120162 0.04701354
000320 e4 8b 98 3d cc 2d 58 bb 1b 64 81 bd 63 84 29 3e
       0.07448557 -0.0032986281 -0.06317922 0.16554408
000330 77 00 af 3d 0f 01 f8 3d 80 ad 8e bd 2c 18 b0 3d
       0.085450105 0.12109577 -0.06966686 0.085983604
000340 62 4b 27 3d 06 84 bb bd 4c aa 1d 3d ba 48 85 3d
       0.040843375 -0.09156041 0.038492486 0.06508012
000350 e8 7a a1 3d 62 f4 f1 bc 1c 18 a3 3d 93 74 83 bd
       0.07884771 -0.029535476 0.07963583 -0.06418719
000360 90 e1 b9 3c bc 09 79 3d 4c c7 86 3d 41 ab 58 ba
       0.022690564 0.0608003 0.065809816 -0.0008265265
000370 82 e6 14 3e f8 fc 02 3e a9 eb fa 3d 98 33 aa bd
       0.14541057 0.12791812 0.1225198 -0.08310622
000380 49 57 70 bc 55 7b 53 3d f2 f8 cd 3c 77 9f b7 bb
       -0.014669248 0.05163129 0.02514312 -0.0056037265
000390 c6 ed 4b 3d 83 51 72 bd 2d ac 1e 3e 59 5c 16 bc
       0.049787305 -0.059159767 0.15495367 -0.009177291
0003a0 36 70 54 bd bf 8f 9b 3d 9f 07 99 3c e6 5c fc 3c
       -0.051864825 0.07595777 0.018680392 0.030806016
0003b0 3f b7 d9 bd b1 d0 89 bd 60 ac 05 3e 30 cd ea 3d
       -0.106306545 -0.06729258 0.13054037 0.11464918

bias_hh f4 [240]
000000 88 dc dc 3c cc 6f 83 3d f1 54 fe 3d 11 53 50 bd
       0.026960626 0.06417808 0.12418545 -0.05086047
000010 22 77 ad bd 31 79 12 bc f3 32 77 3d 0f a9 0c bc
       -0.084699884 -0.008940027 0.060351323 -0.008585229
000020 9d e4 72 bd f4 05 6a bd a7 d4 84 bd dc b3 02 3e
       -0.059300054 -0.057134584 -0.06485873 0.12763923
000030 32 8f 20 bd e1 6d 91 3d 58 6a d1 3c 1f 27 81 3d
       -0.03919906 0.07101036 0.025563404 0.0630629
000040 14 fb 06 3e 46 09 94 3d 1c dd 31 bd 95 2b 1b 3d
       0.13181716 0.07228331 -0.043423757 0.03788336
000050 e6 7c 9d 3d f6 8e 25 bd 64 bf 9e 3d d7 f9 a1 3d
       0.07689838 -0.04041954 0.077513486 0.07908981
000060 7e cb c0 bd 16 d2 1b bd 26 5a 4e bc e3 f4 e7 3d
       -0.09413813 -0.03804215 -0.012594735 0.11326005
000070 7c 34 b1 bd e9 48 e4 bc ec 53 b0 3c 5f c1 e7 3d
       -0.08652589 -0.027866798 0.021524392 0.113161795
000080 cb 52 1c bd 05 80 0a 3e f3 af 5a 3e 8d b8 8a bb
       -0.038164895 0.13525398 0.21356182 -0.004233426
000090 69 8b 07 3e 13 e7 a9 3d e1 b4 50 3d fd e9 eb 3d
       0.13236775 0.08296027 0.05095375 0.11519239
0000a0 c7 ca 01 3e 3c 41 92 3d dd 4b e6 3d bf 1c 29 bd
       0.1267501 0.07141349 0.112449385 -0.04128718
0000b0 22 d0 29 bd 12 35 77 3d 0d dd 83 bd 36 a1 99 bd
       -0.041458257 0.060353346 -0.064386465 -0.07501452
0000c0 a6 90 d1 bb 85 c9 d3 3d a6 60 d9 3d 09 cf f8 bd
       -0.0063954173 0.10341171 0.10614137 -0.12148864
0000d0 05 8f c5 3d b4 34 7a bd 7f 44 9f bd b5 84 f4 3d
       0.096464194 -0.061085418 -0.077767365 0.11939374
0000e0 99 11 fc 3d d6 a3 f7 3d cb b8 73 bc fc 26 b9 bd
       0.12308044 0.12091796 -0.014875601 -0.09040639
0000f0 99 d2 19 bd 54 d6 ca 3c 66 66 9e bd f1 74 ca 3d
       -0.037554357 0.024760403 -0.07734375 0.09885586
000100 8c d0 47 bd 20 b7 a6 3d 79 fb 1f 3e 2b 66 e8 bc
       -0.04878287 0.08140397 0.15623273 -0.02836903
000110 ef 17 8f 3c 38 02 ab bc 6d 0f 9f 3b 75 63 18 3e
       0.017467467 -0.020875081 0.004854134 0.1488169
000120 00 95 cd 3c 20 4c c3 3d c2 5e e7 bd ea 8d e2 3d
       0.025095463 0.09536004 -0.112973705 0.11062224
000130 9f 5d 02 3e 0b 37 96 bd f5 d8 65 bd 09 44 83 bc
       0.12731026 -0.07334717 -0.05611511 -0.016023653
000140 62 b0 fb bb 32 fe f1 3d f1 0b 83 bd 9f 04 9b bd
       -0.0076809386 0.11816062 -0.06398762 -0.07569241
000150 4f 70 05 3b e9 ce fa 3c 92 88 74 bd 6b db a2 3c
       0.002036113 0.03061624 -0.059700556 0.019880017
000160 d4 06 bc 3d ba 2a 05 3d b9 32 ca 3c c8 f8 1c bd
       0.0918099 0.03251145 0.02468239 -0.038323194
000170 50 35 c9 3d 2e 64 97 bb 67 63 85 bc d1 ca 29 3c
       0.09824622 -0.0046200966 -0.01628275 0.010363297
000180 99 34 86 3c 91 5d ff bd b2 13 eb 3c 96 41 90 bb
       0.016382502 -0.12469018 0.028695915 -0.0044023497
000190 ca d8 00 3e cd ae 67 3c e7 49 7a 3d 2b a2 10 3e
       0.12582698 0.014140797 0.061105635 0.14124362
0001a0 98 51 c5 3d 5a ae 10 3e 33 9b cb 3d a1 08 b8 3b
       0.096347034 0.1412901 0.09941711 0.005616263
0001b0 d8 a0 9f bc d5 45 7d bb e5 eb 80 38 b2 d6 e1 3d
       -0.019485876 -0.003864636 6.1474544e-05 0.11027278
0001c0 ac 90 93 bc 67 95 bb bc e3 b9 92 bd 36 b1 7d 3d
       -0.01801332 -0.022898389 -0.07164361 0.06193658
0001d0 6e ce ab 3d ef 39 34 bd ef 31 03 3e ca d0 b4 bd
       0.08388983 -0.044000562 0.12812017 -0.08828886
0001e0 34 9c 8c 3d bb 49 0a 3d 54 19 b6 3c 1f d4 16 bd
       0.06865731 0.03376172 0.022228874 -0.03682339
0001f0 e4 ef 2a be 66 ec 94 bc 54 e0 c7 3d 34 34 12 3e
       -0.16693074 -0.01817913 0.09759584 0.14277726
000200 37 77 9c bd af 36 23 3e bc f4 d7 3d a1 48 a8 bc
       -0.07639926 0.15938829 0.10544726 -0.020542445
000210 1d 18 fb 3b db d0 d3 bc ae 5f c5 bc 88 fc 0e be
       0.0076627866 -0.025856426 -0.024093475 -0.1396352
000220 5d f7 1b 3e 5c b3 e2 3d b6 51 f4 bd 18 a1 01 3e
       0.1523108 0.11069366 -0.119296476 0.12659109
000230 2b 17 17 3e 39 d8 19 3d 9e e2 d2 3d eb ca e7 bd
       0.14754932 0.03755972 0.1029713 -0.113180004
000240 1c 40 4c bd 20 93 29 3e 1f 38 01 3e 95 4d 0c 3e
       -0.049865827 0.1656003 0.12619065 0.1370147
000250 87 00 c4 bd 82 c2 00 3e 43 dd d2 3d 9f 5a 2f be
       -0.09570413 0.12574199 0.102961086 -0.17124413
000260 f9 17 6d bd 49 56 dc bb 20 92 d1 3d 75 32 91 3d
       -0.05788419 -0.006724153 0.10232949 0.07089702
000270 d2 d0 8c 3d 1f 52 98 bd 40 09 0a 3e 2c e8 a7 3d
       0.06875767 -0.07437538 0.13480091 0.0819858
000280 e9 4d 2a 3c 27 3c 28 bc 5f 75 41 bd 85 80 b7 bc
       0.010394552 -0.010268248 -0.047231074 -0.02240015
000290 fd f2 0d 3d 13 1d 89 ba e0 4c f1 3d 19 65 7d 3c
       0.03465556 -0.0010460935 0.11782241 0.015465998
0002a0 b5 84 a7 bd 7d 55 00 be 3f 7c e1 bd 44 8a 87 bd
       -0.08179609 -0.12532611 -0.11010026 -0.06618169
0002b0 50 17 85 3d 2c e7 5a 3d 8e 59 84 bd c0 9c d3 3d
       0.06498587 0.05344312 -0.06462394 0.10332632
0002c0 37 2d 23 bb a4 c2 05 be 7c d5 90 3d be 66 29 be
       -0.0024898776 -0.13062531 0.07071969 -0.165431
0002d0 87 c9 63 3c 35 3a 7b bd db ac f6 bc e8 ef 7e 3d
       0.013903028 -0.061334807 -0.03011172 0.06224051
0002e0 4c 54 b9 bd 4e 0f cf 3c 42 35 20 3e f8 87 8d 3d
       -0.090492815 0.025275853 0.15645316 0.069106996
0002f0 8d 5a 94 bc 17 06 05 3e 8c 25 82 3d 7f 34 20 3e
       -0.018109584 0.12990604 0.06354818 0.15645026
000300 c2 f4 77 3d b4 87 f2 bc 78 c9 40 3d 61 65 1b 3e
       0.060536154 -0.029605724 0.047067136 0.15175392
000310 78 93 bc 3d 60 73 99 bd cf 5b 15 3e 01 be 8f 3d
       0.09207815 -0.07492709 0.14585803 0.07018662
000320 f8 4a 70 3d 9e 93 6a 3d 22 88 3b 3d 0e 9b 20 3e
       0.058665246 0.057269685 0.045784123 0.15684149
000330 01 b0 55 bd 8d e1 bb 3d c2 40 d8 3d 79 18 46 3d
       -0.052169804 0.0917388 0.105592266 0.048363183
000340 6f 53 06 3d a2 e9 0b bd 7c d6 c6 bd 25 93 e6 3c
       0.032794412 -0.034158356 -0.097088784 0.028146336
000350 9d 08 09 3e fc 45 25 3e 58 23 31 3e bd 01 42 3c
       0.13382192 0.16139978 0.17298639 0.011841235
000360 41 89 d1 bb 5f 72 1b bd df 19 ff 3d 71 e4 09 3c
       -0.006394536 -0.03795087 0.124561064 0.008416281
000370 cb 7a 07 3d 04 64 ab 3d 02 0a d3 bc 66 83 c3 3d
       0.03307609 0.08368686 -0.025761608 0.09546547
000380 a6 d6 e5 bd 52 c2 85 3d 36 39 70 bd fa 12 ed bd
       -0.112225816 0.06531204 -0.05864831 -0.11575885
000390 c5 7c 16 3e 8a 83 28 bd 23 e0 4d bd 0e 31 87 3d
       0.14696033 -0.04114107 -0.05026258 0.06601153
0003a0 14 31 9a bd 4c bc 87 3d 84 3a f0 3c b0 5e ae bd
       -0.07528892 0.06627712 0.029324777 -0.08514154
0003b0 ad 44 96 bb 7f 66 10 3e 46 74 fb 3b 07 a6 ac bd
       -0.0045858235 0.14101599 0.007673773 -0.08430105

weight f4 [3, 12]
000000 80 67 64 3d f5 0d a3 3e 45 72 58 bd ac 36 80 3e
       0.055762768 0.31846586 -0.05284335 0.2504171
000010 3f 79 3b 3d 55 79 60 be e7 69 83 be 95 60 a0 be
       0.045769926 -0.21921284 -0.25666735 -0.31323686
000020 fc 54 9b 3b 2a 2c 5e 3e e0 c9 3d 3e c6 f2 75 be
       0.0047403555 0.21696535 0.1853404 -0.24018392
000030 7f 5c 35 3e ad a7 98 bd f3 28 8d be 0b ad b6 bc
       0.17711066 -0.074538566 -0.27570304 -0.02229931
000040 a7 aa 8f be 70 00 4c 3e 89 3f 86 bd 10 c4 eb bc
       -0.28059885 0.19922042 -0.06555087 -0.028780013
000050 76 dc 84 be 68 06 82 be 0f c0 e2 3d 13 d0 96 3d
       -0.25949448 -0.25395513 0.110717885 0.07363906
000060 f4 47 b4 3d d3 e4 2b 3d a8 d4 4c 3e 8f 29 b4 bd
       0.088027865 0.04196627 0.20002997 -0.08796989
000070 78 2d 82 3d 6b c8 8f be cc 7e 98 3d 3c 4b 71 3e
       0.06356329 -0.28082594 0.074460596 0.23563856
000080 9d 44 2f be a1 78 5f 3e 96 04 13 3e 78 c1 93 be
       -0.17116018 0.2182336 0.14357218 -0.28858542

bias f4 [3]
000000 11 ed 6b be ea 70 35 3e 4b a1 01 3e
       -0.23039652 0.17718855 0.12659185
