models/paramsearch_1.2244463348197836e-05_0.3988537387200117_0.5407679585823161_15.pt (torch, 33148 bytes, 7 tensors)

weight_ih f4 [240, 6]
0.008688819 0.0348368 -0.11126431 0.19551337 0.03187988 -0.1557735 0.04013962 -0.013071194
-0.021548899 0.042255472 -0.06635272 0.093636766 0.08393052 -0.0056587034 -0.11961199 0.04748185
0.09680148 0.038429864 -0.046706777 0.13377531 -0.005465908 -0.04055544 0.107367516 -0.027594183
-0.07344424 0.086657435 0.043542683 -0.16393024 -0.061269872 -0.02140792 0.01528457 -0.11340795
-0.05116691 -0.07718721 -0.0067457976 -0.05170322 -0.015571455 -0.057526134 -0.045716718 -0.07776175
-0.06501672 0.010038468 0.11331756 -0.03458247 -0.11958137 -0.026649753 -0.12912883 -0.09758485
0.0759146 0.05535867 0.06355584 -0.024868544 0.16563378 0.00486587 0.06525864 0.12220399
-0.049540535 -0.049915288 -0.10022778 -0.018323205 0.0020568778 -0.041341238 -0.086467154 -0.12000343
-0.0077829775 0.052240204 0.06474596 0.116149105 0.004850179 0.040723894 -0.02958401 -0.031387664
0.0020248846 0.12065539 0.011382934 0.08159981 0.21061878 0.019432489 0.12881324 -0.07169761
0.09155262 0.00051025196 0.091374956 -0.05573913 -0.14197491 -0.09051491 0.014589807 -0.07151444
0.14622262 0.0844207 -0.0015751497 0.09887128 -0.058680087 0.03976373 0.04438524 0.031090774
0.0077039883 -0.053755943 -0.00051700673 -0.024104213 -0.05482399 -0.05256012 0.03559678 0.030225346
-0.071578726 0.054447442 0.0071035945 0.11226816 0.1165004 0.03258151 -0.1229458 -0.08886849
-0.015425015 0.03674165 -0.0060623563 0.057093665 -0.059403453 -0.038424093 0.07823862 -0.124701895
-0.052782133 -0.091668375 -0.114946865 0.20615758 0.16024779 -0.061174266 -0.014331946 0.041477304
-0.050633293 -0.07982125 -0.1336231 0.0036159758 0.009542052 -0.011662919 0.065046996 0.011985987
0.121521086 0.090485044 -0.018843269 0.05860086 -0.07762784 0.13921845 0.16532879 -0.041873895
0.14806277 0.117346264 0.019755272 -0.019577397 0.12087928 -0.0365724 -0.06976867 0.13488053
0.09238796 -0.061962787 -0.02366427 0.04241885 0.082349084 0.009933316 0.0022574777 0.06544115
-0.067149386 -0.13845102 0.11894119 0.117012195 0.00125282 -0.089714825 -0.088798694 0.09626069
-0.03461706 0.13660784 -0.08832853 -0.022946483 0.15544601 0.13385977 0.11130495 -0.047868077
-0.07049762 -0.08630502 -0.02911264 -0.056560818 0.027782671 0.11997183 0.045462623 -0.04205116
-0.041813947 0.09921149 -0.021357553 0.052965034 0.0052107424 -0.020880163 0.0023037873 0.07154366
-0.011202963 0.07288754 0.12244384 0.05150949 0.0694023 -0.12238449 -0.05549559 -0.07466017
0.037248477 0.074274704 -0.0401638 0.049711157 0.10806421 -0.09781245 0.097437434 0.04567013
-0.07037241 0.040612247 0.15947628 0.08451844 0.009621841 0.05103697 0.010471089 0.08010854
0.07193403 -0.016825939 -0.0140143335 0.0069455844 0.04220514 -0.09698611 0.07950187 0.07089899
-0.12862353 0.08354029 0.014938018 -0.11457195 -0.14205647 0.047411032 0.06315046 0.078869626
0.090907745 0.049026694 0.07131277 0.024630133 0.09049196 -0.048144676 0.124840826 -0.10505476
0.0534539 0.066096574 0.013872404 -0.01866723 0.010569138 -0.021838095 0.10994267 0.07323324
0.004820356 0.00076761824 -0.11526857 0.11180184 0.14572686 -0.06765821 -0.13246186 -0.06237512
00000000: 8c5b 0e3c 08b1 0e3d 8bde e3bd a834 483e
00000010: 7a94 023d 1783 1fbe 7169 243d 9028 56bc
00000020: 5187 b0bc 1314 2d3d efe3 87bd a2c4 bf3d
00000030: c4e3 ab3d a56c b9bb 22f7 f4bd 547c 423d
00000040: db3f c63d a268 1d3d 9b4f 3fbd 65fc 083e
00000050: 5c1b b3bb 761d 26bd 80e3 db3d 320d e2bc
00000060: ef69 96bd 7479 b13d d059 323d 54dd 27be
00000070: 1ef6 7abd aa5f afbc 226c 7a3c 6d42 e8bd
00000080: 6594 51bd 5414 9ebd da0b ddbb c1c6 53bd
00000090: 6a1f 7fbc 86a0 6bbd 7441 3bbd 8d41 9fbd
000000a0: 7c27 85bd 6378 243c 0913 e83d 59a6 0dbd
000000b0: 14e7 f4bd 9550 dabc 593a 04be 91da c7bd
000000c0: 1d79 9b3d c6bf 623d 9029 823d 1eb9 cbbc
000000d0: e79b 293e e071 9f3b 52a6 853d 1646 fa3d
000000e0: 04eb 4abd f973 4cbd 3944 cdbd 8c1a 96bc
000000f0: afcc 063b 6e55 29bd b115 b1bd 5cc4 f5bd
00000100: 5908 ffbb d3f9 553d 8899 843d 95df ed3d
00000110: 40ee 9e3b 19ce 263d 2a5a f2bc 5a90 00bd
00000120: edb3 043b 2c1a f73d 7c7f 3a3c cd1d a73d
00000130: 73ac 573e e230 9f3c 9ee7 033e 32d6 92bd
00000140: f17f bb3d 6ec2 053a cb22 bb3d b74e 64bd
00000150: df61 11be e25f b9bd 160a 6f3c 2a76 92bd
00000160: 62bb 153e c3e4 ac3d 4175 ceba 077d ca3d
00000170: 885a 70bd 4bdf 223d 4ccd 353d 14b2 fe3c
00000180: bd71 fc3b 312f 5cbd bc87 07ba 3376 c5bc
00000190: 1f8f 60bd 4849 57bd eecd 113d 259b f73c
000001a0: de97 92bd 4804 5f3d 45c5 e83b d9ec e53d
000001b0: c397 ee3d 3074 053d 02cb fbbd af00 b6bd
000001c0: 34b9 7cbc 6a7e 163d bba6 c6bb 0cdb 693d
000001d0: 0951 73bd 9562 1dbd 923b a03d b563 ffbd
000001e0: 1432 58bd a1bc bbbd 4369 ebbd f91a 533e
000001f0: ff17 243e de91 7abd 8ad0 6abc 1be4 293d
00000200: db64 4fbd 5379 a3bd 7ed4 08be 02fa 6c3b
00000210: 4456 1c3c d415 3fbc 5c37 853d e060 443c
00000220: 0ce0 f83d 3950 b93d 335d 9abc 7507 703d
00000230: 58fb 9ebd 488f 0e3e f34b 293e f683 2bbd
00000240: c49d 173e 3d53 f03d cfd5 a13c c760 a0bc
00000250: 8e8f f73d f1cc 15bd e0e2 8ebd 1f1e 0a3e
00000260: e635 bd3d b1cc 7dbd 92db c1bc 63bf 2d3d
00000270: a3a6 a83d 59bf 223c 31f2 133b 0206 863d
00000280: 9e85 89bd 1bc6 0dbe 7097 f33d 17a4 ef3d
00000290: aa35 a43a 68bc b7bd 17dc b5bd 5324 c53d
000002a0: 9eca 0dbd ede2 0b3e 97e5 b4bd 43fa bbbc
000002b0: 3d2d 1f3e 8912 093e daf3 e33d 5111 44bd
000002c0: 0e61 90bd b0c0 b0bd a27d eebc 51ac 67bd
000002d0: 7c98 e33c cab3 f53d 0437 3a3d d63d 2cbd
000002e0: 1a45 2bbd 652f cb3d 09f6 aebc ddf1 583d
000002f0: e0be aa3b e00c abbc 23fb 163b 7b85 923d
00000300: a28c 37bc 1046 953d d6c3 fa3d 9dfb 523d
00000310: cb22 8e3d b8a4 fabd 584f 63bd 6ee7 98bd
00000320: dc91 183d 561d 983d cc82 24bd ed9d 4b3d
00000330: c550 dd3d e551 c8bd 478d c73d 9a10 3b3d
00000340: 691f 90bd 0759 263d c04d 233e 0118 ad3d
00000350: eda4 1d3c 240c 513d ee8e 2b3c f20f a43d
00000360: 2652 933d 8dd6 89bc 609c 65bc c997 e33b
00000370: 4cdf 2c3d a7a0 c6bd e0d1 a23d 7d33 913d
00000380: e3b5 03be 2c17 ab3d 97be 743c b3a4 eabd
00000390: 4077 11be 1232 423d 0755 813d 6686 a13d
000003a0: d72d ba3d 37d0 483d 6e0c 923d 22c5 c93c
000003b0: d953 b93d 5a33 45bd 8cac ff3d f326 d7bd
000003c0: 7af2 5a3d a45d 873d 1449 633c 05ec 98bc
000003d0: 2e2a 2d3c cee5 b2bc 9f29 e13d 4ffb 953d
000003e0: 14f4 9d3b fd39 493a ee11 ecbd 5df8 e43d
000003f0: 6c39 153e 6390 8abd 15a4 07be 0e7d 7fbd

weight_hh f4 [240, 12]
0.08750902 -0.055291284 0.081438445 0.028316945 -0.082668 -0.03260195 0.067875944 -0.007357336
-0.101790965 -0.039475556 -0.12259942 0.08608877 0.14184295 0.02703278 -0.092419885 -0.08710413
0.049767025 -0.006083202 -0.0012454344 -0.05563486 0.07115337 -0.07279252 0.025562687 -0.013965794
-0.005043334 -0.1198456 0.017468339 0.08929511 0.04639217 0.04075303 0.101335414 -0.05073188
-0.017450906 0.1500915 -0.12096946 0.11769986 -0.06436934 -0.02541845 -0.12649114 -0.052333273
0.056379795 -0.09020296 0.01867081 -0.008865025 -0.12838544 0.043926172 -0.0888192 -0.09618504
-0.13036008 -0.06570522 0.10387296 -0.13965338 0.1005378 0.07141407 0.06653375 0.101018086
0.08964877 0.070441574 0.07450092 -0.06295593 -0.0076153115 0.013363762 -0.021166544 -0.120167196
-0.06967875 -0.08790043 0.08792379 0.034781095 0.05265305 0.006615525 -0.054397885 -0.01934339
-0.08183273 -0.11459545 0.05258525 0.0129225375 -0.1120485 -0.12213477 -0.04574232 0.14631109
0.037617877 -0.058020554 0.004380095 0.017800938 0.03157757 -0.040543187 -0.036262587 0.070287235
-0.029857716 0.040358335 0.0945013 -0.09850887 -0.13154295 0.10428987 -0.117177874 0.0797677
0.10868399 -0.051084414 0.055480707 0.15942232 0.04666015 -0.107322656 0.02641764 0.0470586
-0.081764735 0.15327986 -0.14116178 -0.012828101 -0.017338274 -0.01856398 -0.14148286 0.12938264
-0.10671574 -0.14076892 -0.022403954 0.092459776 -0.03625685 0.07463106 -0.14371791 0.11466935
0.102010384 -0.13234276 -0.031958375 0.12338617 0.049444593 -0.10460576 -0.012198955 0.095691584
-0.0013653492 0.05275018 0.07463569 0.029520491 0.01196979 0.024934338 0.023997769 -0.057946306
-0.10936438 -0.0769848 0.020306924 0.115999706 0.015729932 0.0864405 0.07514358 0.026766833
0.11389799 -0.011332261 -0.04898504 -0.08348308 -0.02312549 0.074671894 0.14721867 0.0071917614
-0.10884145 0.105580196 0.052624587 0.06452087 0.11217959 -0.010151784 -0.06822686 0.0123659605
0.021141352 -0.08854371 0.05574809 0.066199206 0.02415492 0.044524312 -0.064195946 0.026512923
0.037837084 -0.08146214 0.10985565 -0.12662312 0.023912895 -0.0470336 -0.13584125 0.022129731
0.010042317 -0.05453949 0.11855506 -0.09716722 0.16445877 0.021621015 -0.06781092 0.13258378
0.0025291552 0.029218348 0.027807346 0.0591572 -0.005842127 0.12507014 -0.08811346 0.03681466
-0.02978582 -0.014341178 -0.08502377 0.12574346 -0.018089743 0.055694602 -0.026300306 -0.027490113
-0.09234566 -0.0033988124 -0.061940514 -0.047360018 0.011965145 0.023782738 0.008739646 -0.03178586
0.1134293 0.07070797 -0.06486858 0.14281012 -0.03606859 0.13972297 0.069782235 -0.008962753
0.091682024 -0.016591676 -0.0339255 0.12291084 0.02880065 0.044626087 -0.014054829 0.09540685
0.05969115 0.11618248 0.073924415 -0.09731663 -0.03265048 -0.021591125 -0.059798386 -0.011220443
0.07420716 -0.034606956 -0.05762842 0.13393699 0.01759949 0.06533751 -0.031657934 0.01177085
-0.059190933 0.022234576 -0.14229856 -0.07980586 -0.12754633 -0.058061413 0.053378977 0.004536775
-0.110295475 -0.027975958 0.0014588134 -0.08874911 0.12384993 0.09160904 -0.11650037 0.063017786
00000000: ee37 b33d 1d79 62bd 33c9 a63d f0f8 e73c
00000010: d74d a9bd 9f89 05bd 8b02 8b3d cf15 f1bb
00000020: c877 d0bd 1fb1 21bd 6815 fbbd 4f4f b03d
00000030: 473f 113e d973 dd3c a346 bdbd a663 b2bd
00000040: 82d8 4b3d 9955 c7bb d83d a3ba 61e1 63bd
00000050: dcb8 913d 3f14 95bd d768 d13c c9d0 64bc
00000060: 8d42 a5bb 9c71 f5bd c319 8f3c 5be0 b63d
00000070: b705 3e3d a6ec 263d f188 cf3d 3bcc 4fbd
00000080: 34f5 8ebc 96b1 193e d6be f7bd a00c f13d
00000090: 13d4 83bd 5a3a d0bc e586 01be 6a5b 56bd
000000a0: 80ee 663d 54bc b8bd 87f3 983c 9c3e 11bc
000000b0: 7977 03be eeeb 333d d7e6 b5bd aafc c4bd
000000c0: 1d7d 05be 7590 86bd 59bb d43d 4c01 0fbe
000000d0: c3e6 cd3d 8a41 923d d942 883d 92e2 ce3d
000000e0: c699 b73d ac43 903d f093 983d 0aef 80bd
000000f0: dd89 f9bb aef3 5a3c 7665 adbc 381a f6bd
00000100: bcb3 8ebd 2405 b4bd 6311 b43d 9f76 0e3d
00000110: b9aa 573d 0cc7 d83b 51d0 5ebd 0776 9ebc
00000120: eb97 a7bd 05b1 eabd a263 573d 0db9 533c
00000130: af79 e5bd cb21 fabd 4d5c 3bbd 93d2 153e
00000140: 3415 1a3d f6a6 6dbd e686 8f3b 46d3 913c
00000150: 7b57 013d 9d10 26bd 1488 14bd c1f2 8f3d
00000160: 2b98 f4bc c84e 253d e689 c13d 05bf c9bd
00000170: 32b3 06be ed95 d53d f4fa efbd 3f5d a33d
00000180: b695 de3d e43d 51bd bd3f 633d 9b3f 233e
00000190: b71e 3f3d fbcb dbbd ce69 d83c 85c0 403d
000001a0: 4574 a7bd 65f5 1c3e b78c 10be f52c 52bc
000001b0: ff08 8ebc 7d13 98bc e2e0 10be e27c 043e
000001c0: c88d dabd ba25 10be 7f88 b7bc 8d5b bd3d
000001d0: 1082 14bd 2bd8 983d ca2a 13be c4d7 ea3d
000001e0: d2ea d03d dc84 07be c9e6 02bd e3b1 fc3d
000001f0: 6a86 4a3d 8b3b d6bd 20de 47bc f3f9 c33d
00000200: 84f5 b2ba 9310 583d 99da 983d f5d4 f13c
00000210: f01c 443c 1943 cc3c f896 c43c 1b59 6dbd
00000220: 6ffa dfbd 35aa 9dbd b55a a63c 4191 ed3d
00000230: 0fdc 803c b807 b13d e1e4 993d 1e46 db3c
00000240: 5943 e93d f3aa 39bc 8aa4 48bd 2df9 aabd
00000250: ab71 bdbc 94ed 983d 7ec0 163e dea8 eb3b
00000260: 44e8 debd 6e3a d83d e18c 573d 8523 843d
00000270: 6abe e53d ab53 26bc 86ba 8bbd 999a 4a3c
00000280: a130 ad3c 6856 b5bd 1c58 643d 7393 873d
00000290: 8ae0 c53c 205f 363d 2a79 83bd a131 d93c
000002a0: 0ffb 1a3d 9fd5 a6bd 00fc e03d 7ea9 01be
000002b0: fae4 c33c 4ea6 40bd f819 0bbe 6949 b53c
000002c0: 8888 243c cd64 5fbd ffcc f23d 9cff c6bd
000002d0: e167 283e 8e1e b13c 74e0 8abd 0bc4 073e
000002e0: 2fc0 253b 515b ef3c 3bcc e33c d24e 723d
000002f0: 506f bfbb 6312 003e d474 b4bd f8ca 163d
00000300: 6401 f4bc 43f7 6abc f120 aebd e5c2 003e
00000310: f130 94bc 0620 643d bd73 d7bc f232 e1bc
00000320: b91f bdbd 9cbe 5ebb 56b5 7dbd 94fc 41bd
00000330: 7509 443c 04d4 c23c bb30 0f3c e431 02bd
00000340: 9f4d e83d 57cf 903d d1d9 84bd d13c 123e
00000350: a8bc 13bd 8a13 0f3e fde9 8e3d 83d8 12bc
00000360: c9c3 bb3d 44eb 87bc 77f5 0abd aeb8 fb3d
00000370: 57ef eb3c d8c9 363d 3a46 66bc ab64 c33d
00000380: b57e 743d 14f1 ed3d af65 973d f14d c7bd
00000390: 82bc 05bd dfdf b0bc 27ef 74bd f3d5 37bc
000003a0: ecf9 973d 06c0 0dbd c70b 6cbd c726 093e
000003b0: ce2c 903c accf 853d c0ab 01bd 86da 403c
000003c0: 3172 72bd 4925 b63c b7b6 11be 4171 a3bd
000003d0: 819b 02be ced1 6dbd eaa3 5a3d 3aa9 943b
000003e0: 98e2 e1bd d62d e5bc a835 bf3a 18c2 b5bd
000003f0: 08a5 fd3d 859d bb3d bf97 eebd 780f 813d

proj f4 [12, 60]
0.013834707 -0.12734681 -0.108872935 -0.033770144 -0.05430185 0.023274269 -0.05287332 -0.1400975
0.03458796 0.061242096 0.002612826 0.12111097 -0.06995042 0.14406955 -0.07379795 0.16581357
-0.12458098 0.063023575 -0.009086796 -0.15388067 0.109564595 -0.063725494 -0.07653937 -0.04507123
-0.00461834 0.013587105 -0.048948787 0.042071786 0.13297251 0.101319686 -0.09041396 -0.015170325
0.03473618 -0.07213987 0.14049073 0.09243687 -0.016809003 0.08889924 -0.05737724 0.097199455
-0.06103715 0.12631793 0.15477379 0.081801794 0.06512531 0.035980802 -0.017046416 -0.02636853
-0.034277983 0.0639734 0.1126868 -0.031152481 -0.14673679 -0.14106065 0.046483412 -0.0044056308
-0.06930896 -0.105737045 0.14742233 -0.12624016 -0.04817984 0.05196052 -0.03848779 0.079039164
-0.07647244 0.10481133 0.073191695 0.043094732 -0.097373344 0.059228834 -0.041842688 0.04324293
-0.048503526 -0.07795413 -0.109029 0.07469306 0.08867641 -0.104791485 0.0006114016 0.13455163
0.016217045 0.061936934 0.039895453 -0.050202284 -0.13124673 0.09587245 0.087087214 -0.027129715
-0.035636853 0.02568917 -0.008495024 0.034748077 0.0207903 -0.014660111 0.049009558 0.09506203
0.05623154 -0.05602466 -0.1376157 -0.06339991 -0.04632354 0.016484072 0.003623976 0.0662177
-0.0052843858 0.0843888 0.04138329 0.029006347 -0.11876138 0.13851626 0.044727944 0.082537115
-0.057692636 0.054960065 -0.0018742027 -0.09169199 -0.034960855 -0.025826473 0.04249866 -0.07204474
-0.14039956 0.056379437 0.15713862 0.14787905 -0.14159325 0.07604994 0.046950255 -0.04764548
-0.1497001 -0.042486537 -0.035767883 -0.078259215 -0.1058512 -0.11390307 -0.0071085067 0.08980208
-0.05733265 0.054445364 -0.12957874 0.10541449 0.029303737 0.14506018 0.14316143 0.10467903
-0.11549172 -0.09152072 0.07534735 0.0021829596 -0.09854879 -0.14650518 0.08663524 -0.019051755
0.013384189 -0.066430956 0.0042827306 -0.15290482 -0.04348723 -0.047917962 0.05600951 -0.128008
0.037511013 0.10819664 -0.01825972 0.037185874 -0.0686958 0.10821717 -0.064252555 0.06965718
-0.07469395 0.107789814 0.06916619 -0.025829993 -0.084771015 0.07392384 -0.029638518 0.094592415
-0.16885065 0.022155045 -0.11834626 0.024078537 0.016792864 -0.10474464 -0.08498425 -0.03681691
-0.022810854 -0.1025575 -0.1365503 0.086348504 0.12017631 0.1458243 0.11669862 0.05009617
0.015444846 0.09586917 0.05998577 0.056342646 -0.09560833 0.052668422 0.09033777 -0.12676097
0.15251516 -0.03162513 0.07864706 0.03918447 0.10465176 -0.16526851 0.018895209 -0.0213149
0.11193909 0.030189073 0.0555125 -0.14645663 -0.019129727 -0.116557986 -0.030581314 -0.08494033
0.0050149225 -0.1536649 0.024322119 0.14198036 0.05280396 0.046178915 0.11722394 0.056819808
-0.013829593 -0.11608861 0.14145622 -0.08430071 -0.08160348 0.030262003 0.1338015 0.01995643
-0.1353933 -0.030665172 0.038265303 -0.057695214 -0.13354433 0.013144402 0.15028246 -0.07840333
-0.009580022 -0.069097474 -0.010378793 0.046373237 0.082873 -0.10078925 -0.10581639 -0.038752884
0.03362744 -0.055326395 0.077197 0.055200826 -0.08265932 -0.16023578 -0.08026805 -0.022425031
00000000: f8aa 623c 3467 02be c6f8 debd 9052 0abd
00000010: 9e6b 5ebd aea9 be3c b291 58bd b875 0fbe
00000020: 1bac 0d3d fed8 7a3d f23b 2b3b 0709 f83d
00000030: 2a42 8fbd f886 133e 6123 97bd 08cb 293e
00000040: 5024 ffbd 8112 813d c9e0 14bc e592 1dbe
00000050: 6763 e03d 8382 82bd acc0 9cbd 9c9c 38bd
00000060: 7255 97bb 739c 5e3c 867e 48bd 7753 2c3d
00000070: f229 083e b280 cf3d f42a b9bd f48c 78bc
00000080: 8647 0e3d 11be 93bd cddc 0f3e 8b4f bd3d
00000090: 09b3 89bc ce10 b63d 6604 6bbd 8210 c73d
000000a0: 1702 7abd 7d59 013e 057d 1e3e b387 a73d
000000b0: 6b60 853d 9b60 133d eda4 8bbc d102 d8bc
000000c0: 1267 0cbd 7c04 833d 56c8 e63d 7d33 ffbc
000000d0: 2b42 16be 3472 10be 6465 3e3d 1c5d 90bb
000000e0: dbf1 8dbd aa8c d8bd e1f5 163e 1a45 01be
000000f0: 3958 45bd 8ed4 543d 5fa5 1dbd 49df a13d
00000100: 959d 9cbd 53a7 d63d 87e5 953d 1a84 303d
00000110: ad6b c7bd ef99 723d 3d63 2bbd 801f 313d
00000120: a2ab 46bd 6aa6 9fbd 994a dfbd adf8 983d
00000130: fa9b b53d eb9c d6bd 7846 203a e7c7 093e
00000140: 9cd9 843c 95b1 7d3d 6a69 233d e9a0 4dbd
00000150: 8b65 06be c658 c43d c85a b23d 233f debc
00000160: f3f7 11bd 1872 d23c b72e 0bbc 0054 0e3d
00000170: 6b50 aa3c f630 70bc 3fbe 483d e2af c23d
00000180: 0b53 663d 1d7a 65bd 21eb 0cbe d0d7 81bd
00000190: c1bd 3dbd 9b09 873c 3a80 6d3b 259d 873d
000001a0: a428 adbb 09d4 ac3d 8681 293d b89e ed3c
000001b0: 2b39 f3bd 35d7 0d3e a634 373d 3809 a93d
000001c0: 1d4f 6cbd ce1d 613d cfa7 f5ba 03c9 bbbd
000001d0: 1d33 0fbd 0a92 d3bc 1313 2e3d 318c 93bd
000001e0: e7c4 0fbe 20ee 663d f2e8 203e 9b6d 173e
000001f0: d2fd 10be 12c0 9b3d e94e 403d e827 43bd
00000200: fc4a 19be 5d06 2ebd 5881 12bd 5e46 a0bd
00000210: 84c8 d8bd 0346 e9bd 7aee e8bb 27ea b73d
00000220: a4d5 6abd 1a02 5f3d 4ab0 04be 8de3 d73d
00000230: 640e f03c a88a 143e e998 123e f661 d63d
00000240: ec86 ecbd 376f bbbd b64f 9a3d fc0f 0f3b
00000250: f3d3 c9bd 7405 16be d16d b13d 6d12 9cbc
00000260: 5c49 5b3c f40c 88bd 2656 8c3b 1593 1cbe
00000270: aa1f 32bd a045 44bd 3a6a 653d 8714 03be
00000280: 26a5 193d 3396 dd3d 6995 95bc 3750 183d
00000290: 62b0 8cbd f7a0 dd3d d896 83bd 6ca8 8e3d
000002a0: 24f9 98bd e8c0 dc3d 01a7 8d3d 6c99 d3bc
000002b0: 6d9c adbd 6265 973d 7acc f2bc abb9 c13d
000002c0: 2fe7 2cbe 7f7e b53c 865f f2bd 5a40 c53c
000002d0: 3091 893c 5c84 d6bd 390c aebd 54cd 16bd
000002e0: d4dd babc ab09 d2bd d8d3 0bbe 7cd7 b03d
000002f0: ff1e f63d f752 153e b0ff ee3d a431 4d3d
00000300: 610c 7d3c 0e57 c43d a4b3 753d 8cc7 663d
00000310: 4dce c3bd d8ba 573d 0203 b93d a1cd 01be
00000320: ef2c 1c3e 5a89 01bd b611 a13d e57f 203d
00000330: a953 d63d 263c 29be 20ca 9a3c 969c aebc
00000340: 5240 e53d 134f f73c 1361 633d baf8 15be
00000350: f2b5 9cbc f4b5 eebd aa85 fabc 32f5 adbd
00000360: 3854 a43b 555a 1dbe 2e3f c73c 4d63 113e
00000370: f748 583d 1a26 3d3d 1b13 f03d e3bb 683d
00000380: 8495 62bc ddbf edbd e6d9 103e daa5 acbd
00000390: ba1f a7bd 05e8 f73c 4303 093e ab7b a33c
000003a0: 8ba4 0abe 8735 fbbc 14bc 1c3d d151 6cbd
000003b0: d8bf 08be 9e5b 573c a5e3 193e ed91 a0bd
000003c0: 86f5 1cbc fa82 8dbd d00b 2abc ddf1 3d3d
000003d0: 52b9 a93d 986a cebd 43b6 d8bd 58bb 1ebd
000003e0: edbc 093d ee9d 62bd 7619 9e3d 431a 623d
000003f0: 4a49 a9bd d914 24be 9363 a4bd b3b4 b7bc

bias_ih f4 [240]
0.1319362 -0.08783187 -0.07217121 0.08169362 -0.116777144 0.09191351 0.08621967 -0.08899142
0.08618003 0.0068525295 0.13137941 -0.10061552 0.048244372 0.077080004 0.023282852 0.06674505
-0.055859923 0.106872916 -0.03672307 -0.02217238 0.15265603 0.10489772 0.0012992821 0.09303571
0.1177041 0.01775582 0.06522066 0.10045151 0.051602002 -0.0674904 0.06325172 0.08839691
0.103307635 -0.0072402027 -0.018634206 0.10087586 -0.03852308 0.066752106 0.00870004 0.05997017
0.08756657 0.12883301 0.08596975 0.044226598 0.12460572 0.10935019 0.032988366 0.0077836467
0.11129092 -0.05988397 -0.080845386 -0.041375026 0.05192957 -0.01242138 0.14500974 0.03883778
0.08136252 0.052294567 0.13692236 -0.045710973 0.05292362 0.0015509129 0.117991425 -0.091099404
-0.038945373 -0.1331349 -0.06318175 -0.03747548 0.08997417 0.0488348 0.098437205 -0.02823017
0.09749427 0.019763088 -0.11355767 0.043059982 -0.059460673 -0.08349517 0.06299972 -0.07108835
0.057272527 0.11004462 -0.04068912 0.1431975 -0.08696959 0.029563252 -0.08364429 -0.035253767
-0.07294423 0.050595887 -0.0151051 0.14060289 0.09172371 -0.080627464 -0.05165511 0.037250087
0.055331334 -0.023501134 0.05122144 -0.046266478 0.030230012 0.063624956 -0.025530899 0.07361007
0.068124466 -0.074737236 -0.04589986 0.13521768 -0.09001877 0.04179759 -0.07889344 0.027209263
0.12805621 0.08289743 0.109980844 0.15196797 0.02539584 0.095893174 0.043307032 0.11417811
0.047199488 -0.01831462 -0.009289238 -0.08003052 -0.047919583 0.064071715 -0.030357301 0.014243262
0.15126248 0.15969871 0.082320705 0.15808797 0.11208421 0.052447665 -0.084082015 0.13415268
-0.11786125 0.09131212 -0.07181738 -0.047176983 -0.019647589 -0.06803065 -0.14760701 -0.12305758
0.13392219 -0.09855908 0.08531833 0.09187489 0.15598257 0.10761954 -0.011231504 -0.10477024
-0.103589155 -0.020460147 0.14118846 0.07581537 -0.0442872 -0.108862616 0.003161919 0.11141744
0.039719675 0.09890288 0.15329906 0.000280284 0.14023955 -0.09158396 0.11136613 0.052932356
0.053379025 -0.04783479 0.034750037 0.10774855 -0.0588884 -0.12239717 0.0059036463 -0.113846764
-0.07040084 0.0023995982 0.16136435 -0.08868652 0.016893547 -0.0043129027 0.09799057 0.076310925
0.115722105 -0.12820198 0.011276239 -0.06477595 0.1365572 0.13292328 0.14293995 0.018638438
0.14021619 0.0887594 -0.055617847 0.023582583 0.060476165 0.023372099 0.047631837 0.07305287
0.03345132 0.044375252 -0.04999178 0.115478955 -0.016376268 0.11633789 -0.09348323 -0.09025724
-0.091132194 0.093130715 -0.096843585 -0.07616701 0.062160373 -0.027550366 -0.07070706 -0.034829803
-0.118280455 0.09587655 0.024017563 0.1161307 0.1117533 -0.030812856 -0.08119708 -0.09193204
-0.061612956 -0.013887034 0.04786304 -0.055130035 0.075225875 0.0068157157 0.0040576938 0.040475264
0.017948722 0.046761334 -0.003108153 0.0706689 -0.07440481 0.0030755722 0.10255126 0.04981931
00000000: 491a 073e 32e1 b3bd 80ce 93bd fc4e a73d
00000010: db28 efbd 263d bc3d f093 b03d 2241 b6bd
00000020: 287f b03d 2f8b e03b 5388 063e 820f cebd
00000030: e49b 453d 1fdc 9d3d aebb be3c a1b1 883d
00000040: 60cd 64bd 30e0 da3d ee6a 16bd daa2 b5bc
00000050: dd51 1c3e 9ed4 d63d ac4c aa3a 8289 be3d
00000060: d90e f13d a774 913c 6992 853d 85b9 cd3d
00000070: 9f5c 533d 6838 8abd 1e8a 813d 7009 b53d
00000080: f492 d33d 393f edbb c3a6 98bc 0198 ce3d
00000090: 61ca 1dbd 54b5 883d 9d8a 0e3c 48a3 753d
000000a0: 1a56 b33d cdec 033e e910 b03d f326 353d
000000b0: 4931 ff3d fef2 df3d cf1e 073d f60d ff3b
000000c0: 7eec e33d e548 75bd 4492 a5bd dc78 29bd
000000d0: 1ab4 543d 0b83 4bbc 6f7d 143e 5d14 1f3d
000000e0: 65a1 a63d d432 563d 6035 0c3e 6e3b 3bbd
000000f0: 70c6 583d 0048 cb3a 7da5 f13d 5392 babd
00000100: 2f85 1fbd 8454 08be 6f65 81bd e47f 19bd
00000110: 6144 b83d 0007 483d 7299 c93d f542 e7bc
00000120: 13ab c73d 33e6 a13c ec90 e8bd aa5f 303d
00000130: 098d 73bd 84ff aabd ff05 813d c596 91bd
00000140: 9996 6a3d 135f e13d a2a9 26bd 5ea2 123e
00000150: 1d1d b2bd a22e f23c b34d abbd 4166 10bd
00000160: c963 95bd a23d 4f3d 627b 77bc 34fa 0f3e
00000170: a4d9 bb3d 0320 a5bd 4f94 53bd 8c93 183d
00000180: 1ca3 623d 7385 c0bc 93cd 513d eb81 3dbd
00000190: eea4 f73c cd4d 823d 2d26 d1bc e0c0 963d
000001a0: d784 8b3d d60f 99bd 7e01 3cbd 8176 0a3e
000001b0: c35b b8bd f333 2b3d e292 a1bd f6e5 de3c
000001c0: 2b21 033e 21c6 a93d a33d e13d 7e9d 1b3e
000001d0: f00a d03c a463 c43d b762 313d 37d6 e93d
000001e0: 4054 413d 8b08 96bc e331 18bc 0be7 a3bd
000001f0: 5347 44bd 0838 833d e0af f8bc 925c 693c
00000200: 8de4 1a3e 0f88 233e c297 a83d d0e1 213e
00000210: 688c e53d 5dd3 563d 3133 acbd 525f 093e
00000220: 3d61 f1bd d901 bb3d fe14 93bd a73c 41bd
00000230: fbf3 a0bc a753 8bbd 4b26 17be 9d05 fcbd
00000240: e622 093e 58d9 c9bd 60bb ae3d e728 bc3d
00000250: e5b9 1f3e a267 dc3d 5804 38bc c891 d6bd
00000260: 8d26 d4bd 0a9c a7bc b593 103e 1745 9b3d
00000270: 7f66 35bd 5df3 debd 3338 4f3b d42e e43d
00000280: 19b1 223d 988d ca3d 6efa 1c3e 15f3 9239
00000290: f59a 0f3e 5f90 bbbd ed13 e43d 99cf 583d
000002a0: f7a3 5a3d 6aee 43bd 0e56 0e3d 46ab dc3d
000002b0: f734 71bd 5eab fabd 6073 c13b 7e28 e9bd
000002c0: 512e 90bd 9442 1d3b b23c 253e 47a1 b5bd
000002d0: 5664 8a3c 4053 8dbb 48af c83d e748 9c3d
000002e0: b6ff ec3d 6147 03be f9bf 383c 41a9 84bd
000002f0: a7d5 0b3e 0a1d 083e da5e 123e a3af 983c
00000300: d594 0f3e 7dc7 b53d 8acf 63bd 4330 c13c
00000310: dbb5 773d d876 bf3c 9a19 433d be9c 953d
00000320: 4004 093d d3c2 353d 2ec4 4cbd 3b80 ec3d
00000330: 8627 86bc 8f42 ee3d 2374 bfbd cad8 b8bd
00000340: 84a3 babd 51bb be3d ee55 c6bd 73fd 9bbd
00000350: e09b 7e3d 4eb1 e1bc ddce 90bd b2a9 0ebd
00000360: 063d f2bd ed5a c43d 7bc0 c43c efd5 ed3d
00000370: eade e43d 3e6b fcbc a84a a6bd de46 bcbd
00000380: de5d 7cbd 7186 63bc 090c 443d 08d0 61bd
00000390: 0610 9a3d 5e56 df3b 67f6 843b 64c9 253d
000003a0: 3309 933c d088 3f3d 27b2 4bbb dbba 903d
000003b0: 8d61 98bd 8a8f 493b 6506 d23d 550f 4c3d

bias_hh f4 [240]
-0.087577745 0.03892916 0.15048063 0.10602867 -0.10693712 0.10407995 -0.09076562 0.027378658
0.11940282 0.12547079 0.14670293 0.00017665874 -0.038666174 -0.08521866 -0.10079611 0.08690309
0.019838091 0.046585333 -0.028939413 -0.092497766 0.1383764 0.048115276 0.12586804 0.06928014
0.07515437 0.023529131 -0.0838011 0.05869398 0.100697204 0.115958236 -0.048079602 0.15562367
-0.077474624 0.06972468 -0.08780447 0.09381565 0.0011731997 0.015877895 0.06522021 0.110460795
-0.0812883 0.0005925896 0.0013388353 -0.030756094 0.005376423 0.16419719 0.03323239 -0.016972639
-0.029364068 -0.03298748 0.049806032 -0.010663007 0.023176938 0.06684467 -0.052232653 0.15647413
-0.041335743 -0.0804503 -0.029881736 0.15618327 0.027908674 -0.023477476 -0.08237445 0.03601694
0.021723447 -0.04092735 0.120475486 0.047828164 0.120534725 -0.03434196 0.15235592 0.041611128
-0.041964777 0.13666068 -0.037921067 0.123737946 -0.0013719583 -0.050393343 0.028917117 0.0917658
-0.016930407 0.00081269065 0.024982478 -0.089869045 0.12757549 0.010444495 0.07722074 -0.092340395
0.035511937 -0.042720705 -0.027710373 -0.032293163 -0.0058584246 0.036440052 -0.045370474 -0.0209532
-0.08691695 0.12026552 0.047138903 -0.023856858 -0.11540455 -0.02543749 0.09634095 0.060493976
-0.0237115 -0.009745888 0.08403177 0.13087615 -0.13619918 -0.059682783 0.00081423146 0.10502705
0.030707585 0.00077714986 0.14249179 -0.092055835 -0.033445716 0.05430737 -0.035565637 0.103247546
0.025467752 -0.09543601 -0.1336437 -0.0220417 0.059034865 -0.027067173 -0.1605837 -0.055327438
-0.06797473 0.13674682 0.16065845 0.06816536 -0.061867982 0.1234342 -0.04822706 0.029874995
-0.097246386 0.119389854 0.13371725 -0.0077030445 0.111128114 -0.123630956 -0.1311964 -0.01837107
0.025862549 0.05088836 0.038098704 0.11244408 0.11735744 -0.0036555752 -0.15554039 -0.059921563
-0.06348471 0.03785716 0.0861466 0.1038623 -0.0054219407 -0.10208026 0.09991143 -0.081290245
0.062760465 -0.016036354 -0.08853178 0.044836752 0.06354571 -0.046128 0.07771823 0.0088102445
-0.04200167 -0.14308071 0.06372442 -0.005773879 -0.010614147 -0.05790996 0.092091985 0.07880943
0.04865594 -0.11258715 0.16059151 -0.09304972 0.065331936 -0.058302745 0.111049145 0.14995319
-0.1230282 0.09030993 -0.035145186 0.02700602 0.1099778 0.023476139 0.07381273 -0.07504895
-0.061430786 0.14115079 -0.053737033 0.11954482 0.091297954 0.09053219 -0.0899041 0.13066362
0.07217664 0.11449876 -0.056126885 0.047500256 -0.07595524 0.02596222 -0.049589403 -0.102754444
-0.030638779 -0.08942841 -0.0083923815 0.038229432 0.009751868 -0.019467521 -0.048163176 0.08781429
-0.098017685 0.03645349 0.010718242 -0.08404259 0.055874225 0.12168527 0.045328684 -0.0344348
-0.04050738 0.1418939 0.037735067 -0.07147084 0.024665177 0.034203578 0.063893795 0.027330752
-0.09388815 0.09577084 0.13236062 0.0068529663 0.025903195 -0.050767537 0.030236559 0.093124524
00000000: f65b b3bd 2f74 1f3d 9817 1a3e 8f25 d93d
00000010: d901 dbbd de27 d53d 53e3 b9bd 3549 e03c
00000020: 7789 f43d 6a7b 003e 4b39 163e 783d 3939
00000030: 6c60 1ebd 1f87 aebd 316e cebd 3ffa b13d
00000040: 7e83 a23c 43d0 3e3d 5912 edbc 786f bdbd
00000050: 8bb2 0d3e 8614 453d 8de3 003e bfe2 8d3d
00000060: 89ea 993d 2ac0 c03c e99f abbd 1969 703d
00000070: 563a ce3d 837b ed3d 1eef 44bd d05b 1f3e
00000080: 04ab 9ebd d0cb 8e3d d4d2 b3bd 6b22 c03d
00000090: 0dc6 993a 5c12 823c 2c92 853d 4539 e23d
000000a0: 7b7a a6bd 0458 1b3a dc7b af3a 34f4 fbbc
000000b0: b42c b03b 4f23 283e b01e 083d 340a 8bbc
000000c0: ea8c f0bc e11d 07bd 6901 4c3d e5b3 2ebc
000000d0: 90dd bd3c dce5 883d e8f1 55bd c13a 203e
000000e0: ab4f 29bd 20c3 a4bd 8bca f4bc 82ee 1f3e
000000f0: bba0 e43c d653 c0bc f0b3 a8bd 8086 133d
00000100: 5ff5 b13c 70a3 27bd dabb f63d 77e7 433d
00000110: e9da f63d 28aa 0cbd 3103 1c3e 6e70 2a3d
00000120: 42e3 2bbd c7f0 0b3e 1f53 1bbd 526a fd3d
00000130: 48d3 b3ba 4069 4ebd 97e3 ec3c b5ef bb3d
00000140: a3b1 8abc bf0a 553a 0ea8 cc3c 430d b8bd
00000150: 26a3 023e 631f 2b3c e825 9e3d f61c bdbd
00000160: f774 113d e8fb 2ebd dd00 e3bc d645 04bd
00000170: 07f8 bfbb 2a42 153d 64d6 39bd 0ca6 abbc
00000180: 8401 b2bd c54d f63d b914 413d 756f c3bc
00000190: 3959 ecbd 4862 d0bc 674e c53d 88c8 773d
000001a0: 9f3e c2bc 38ad 1fbc d918 ac3d 6604 063e
000001b0: cc77 0bbe ef75 74bd 2672 553a 6c18 d73d
000001c0: 798e fb3c a5b9 4b3a 5ee9 113e c587 bcbd
000001d0: 60fe 08bd 6871 5e3d 46ad 11bd 7373 d33d
000001e0: bfa1 d03c f473 c3bd e5d9 08be cc90 b4bc
000001f0: 8bce 713d fabb ddbc 0e70 24be 069f 62bd
00000200: 5636 8bbd 5c07 0c3e a683 243e 489a 8b3d
00000210: 4869 7dbd 12cb fc3d bd89 45bd 68bc f43c
00000220: 1d29 c7bd ab82 f43d 2ded 083e d269 fcbb
00000230: 2397 e33d 3a32 fdbd 5958 06be ed7e 96bc
00000240: b2dd d33c 5070 503d 630d 1c3d 1549 e63d
00000250: 1959 f03d 6092 6fbb fb45 1fbe 5070 75bd
00000260: 4604 82bd 1c10 1b3d a16d b03d c2b5 d43d
00000270: 89aa b1bb 750f d1bd 5d9e cc3d 807b a6bd
00000280: 8f88 803d ac5e 83bc 2650 b5bd bea6 373d
00000290: 4124 823d b7f0 3cbd bc2a 9f3d d858 103c
000002a0: f109 2cbd c083 12be f381 823d cf32 bdbb
000002b0: f6e6 2dbc ff32 6dbd b99a bc3d d766 a13d
000002c0: 734b 473d 1794 e6bd 1a72 243e da90 bebd
000002d0: c0cc 853d dcce 6ebd bc6d e33d 548d 193e
000002e0: 35f6 fbbd 6af4 b83d 66f4 0fbd bb3b dd3c
000002f0: 0a3c e13d 0851 c03c 212b 973d 44b3 99bd
00000300: d99e 7bbd d589 103e 5d1b 5cbd ead3 f43d
00000310: 6cfa ba3d f168 b93d a41f b8bd afcc 053e
00000320: 59d1 933d 537e ea3d 4ee5 65bd a18f 423d
00000330: 6c8e 9bbd b9ae d43c 421e 4bbd ec70 d2bd
00000340: 2dfe fabc 3e26 b7bd 3380 09bc 7796 1c3d
00000350: 4dc6 1f3c 5a7a 9fbc c046 45bd fad7 b33d
00000360: 7fbd c8bd 4150 153d 919b 2f3c 851e acbd
00000370: 5fdc 643d 2036 f93d 92aa 393d 810b 0dbd
00000380: 11eb 25bd a24c 113e 1690 1a3d 4e5f 92bd
00000390: a00e ca3c 0d19 0c3d c0da 823d bee4 df3c
000003a0: 6e48 c0bd 8123 c43d 8b89 073e d98e e03b
000003b0: f032 d43c 9ff1 4fbd a9b2 f73c 12b8 be3d

weight f4 [3, 12]
0.29661316 -0.18517773 0.07749696 0.203105 -0.07415588 0.006376361 0.29593897 0.3051129
-0.07934034 0.07085141 -0.20430325 0.13351949 0.030047283 0.19942905 -0.061924346 -0.017386416
-0.028017737 0.19666955 -0.05411033 -0.25428477 -0.15454818 -0.21719585 -0.30728093 -0.20488243
-0.028538048 0.02594273 -0.3172747 0.28315255 -0.09281824 -0.16441743 -0.15948784 -0.05218171
0.19760104 -0.0018097109 -0.08935721 0.023948312
00000000: aedd 973e 3b9f 3dbe bab6 9e3d c2fa 4f3e
00000010: 0adf 97bd cbf0 d03b 5085 973e c237 9c3e
00000020: 307d a2bd 8b1a 913d df34 51be 55b9 083e
00000030: b825 f63c 2137 4c3e 62a4 7dbd f56d 8ebc
00000040: 7485 e5bc be63 493e cba2 5dbd 9d31 82be
00000050: e141 1ebe 9768 5ebe ed53 9dbe b3cc 51be
00000060: a0c8 e9bc d985 d43c d471 a2be 5ff9 903e
00000070: 7d17 bebd 0b5d 28be c850 23be 7dbc 55bd
00000080: ed57 4a3e d233 edba ea00 b7bd 402f c43c

bias f4 [3]
0.07524265 0.044334482 -0.1382833
00000000: d218 9a3d 1398 353d 239a 0dbe
