models/paramsearch_0.0014155069750820975_0.08932709776871538_0.17277188622213702_10.pt (torch, 33166 bytes, 7 tensors)

weight_ih f4 [240, 6]
00000000: 9cc9 57bd 7ed1 173f 6bf9 2a3f 712a 443f
00000010: b1eb 2d3e 4ad0 28bd 63b6 b73e 14c5 0140
00000020: 4d43 53be b496 ae3f d1de d03f 2735 143f
00000030: ecb5 3c3f 1802 913f eb68 03bf 3acc 573f
00000040: 958d 773f 0932 da3e 43f4 10bd e9c3 53bf
00000050: 08ef d43d 0ff0 e0be 11a8 73be 69cc 8ebc
00000060: 992b 9a3e a3fa 07bf ff7f 39bf 5925 0ebf
00000070: 8b4f 483f 985b 0c3e fcb6 b03e 3c0a cf3e
00000080: 992d 70be a75f 2fbf 5342 8f3f bf22 693e
00000090: 3985 a33e fc42 c83e fdc1 8fbe 8a30 ac3e
000000a0: 7b26 3abe fecd b23e b403 ab3d 272e 7dbf
000000b0: 21aa 243f 7f49 9dbe 1cc5 d6be 6ad1 953d
000000c0: 6931 df3d 2809 af3f ca9e 82bd 0e17 3abf
000000d0: ad1b 0c3e c9be 153e fe7b 00bd 3fce e03d
000000e0: 2727 6ebe 3a72 7bbc e280 113f 7d4d 223e
000000f0: c2cb 5dbe 27f5 a53e 59d2 04bf 5e35 c3bf
00000100: 3ab6 08bf ec8b a2be 7713 86bc 980e 35be
00000110: d62d 713e 0004 213f aa0c 3b3f bd10 ca3d
00000120: 76b7 1bbd d276 2cbe 7cd3 c63e 20bd c23f
00000130: 13e5 8c3e 30c0 41bd 9c65 c5bc 0c32 203d
00000140: 9034 c1be 717b 99bf c97b 9bbe 000d 1bbe
00000150: 3739 2c3e fabf 2c3f 0e1a debe 252e 9fbf
00000160: c637 873e 9d7a 8f3d 585e 06bd fbaa ef3f
00000170: e306 2bbf e5ca c7bd 47a1 f5bd 1dcd 483e
00000180: d531 b83d 55b0 72bf 5ca5 073d 41b2 a2be
00000190: e2b2 15bf 5570 17be 4619 cbbc 8e9b 69bf
000001a0: 8b88 833d 3a0b 16bf 42d2 a2be 1273 8bbe
000001b0: 6b0a 6abc ec4b 81bf 87f8 a1bd e834 b9bf
000001c0: 2ded 04bf 2c2d 26be 0acc 453e b838 5f3f
000001d0: 16ec 87bf fb1a 9cbd 3259 cc3d c9ae 4abc
000001e0: 98a9 123c cebb 7c3f b867 6bbf f32d 17bf
000001f0: 12a4 043f 310f 54bd f222 233e 8185 17bf
00000200: 0a95 963e efaf ac3f 50d0 ac3f 48c2 113f
00000210: 79ba b43e 5e15 d4bf 2ffe 633e c4b9 49bf
00000220: 9883 e93d e205 65bd 5cff 45bd 1880 97be
00000230: b606 32bc ad9f 8bbf ff08 6bbf e888 42be
00000240: 4a18 ed3d 48d8 bf3f 5a15 0e3d d9c8 ec3f
00000250: d050 163f 4d81 5d3e 1096 9d3e 9fc8 043f
00000260: 0ea4 ef3e 5615 dd3f bf5a 3e3f e5fd d43e
00000270: 2428 54be 9c82 1bbf 39dc a63e 2dc2 d33d
00000280: f5e6 4a3e 9384 23be a8c9 193e 9fe9 373f
00000290: 15f6 13bf 82f6 febe 6af8 203e 19e6 9bbc
000002a0: 171f 1d3f 232f 80bf 0876 8d3d 970f 80bf
000002b0: a24c e33e ac83 663e 7f0a 733e 0c9a 323f
000002c0: b112 a5bf 26ce 753f 95e1 603f 4d92 98bd
000002d0: 7264 82bd 4a1a 0abf f543 8a3d a6c5 70bf
000002e0: 7cf1 ef3d ab40 3ebe e880 bcbe 0179 3c3e
000002f0: 603a 0dbf 13ab e83f 2f1a 7a3f 7879 ff3d
00000300: b663 d5be a4e2 fb3d 2101 0abe d8d1 d63f
00000310: 11ca 423f 82a8 033e 8a47 863e 8f71 f2be
00000320: d20e 403c ada9 cebf ca36 72be d9ba 313e
00000330: 8b76 85bd 1be3 523f a3d5 94be 411c b13f
00000340: 048e 4d3f d6fc 793e b020 6b3d b662 203f
00000350: 1fea 3dbe 0cc9 393f ee2d a93e dc4a 4f3d
00000360: 01dd e13e d960 0b3e cb22 c73e 14f6 b33f
00000370: 9c78 bb3f 7b65 1a3f 3e9e 273e d068 823f
00000380: 9fba 763e 1d80 52be 74a8 adbe 2422 1fbd
00000390: e6b7 413e d546 52bf 2edc a03e 0a3e cabf
000003a0: b51b acbe cf1b a53d b5e6 2f3f 55ec 063f
000003b0: a0ff ee3d 1780 943e 1d72 073f 6ccc f53e
000003c0: 58ce 68be e9f3 443d 4510 303e 3b11 e93f
000003d0: c742 143e ff21 8e3d 2ce6 933e 8dd8 9cbf
000003e0: b362 b6be 0119 66bf a2a6 8f3e c6fd d13d
000003f0: 7c43 223e ef63 47bf 6f15 78bd 3a0a 1abe
-0.052682504 0.59304035 0.6678683 0.7662726 0.1698444 -0.041214265 0.35881338 2.0276537
-0.20631142 1.3639741 1.6317998 0.57893604 0.7371509 1.1328764 -0.5133197 0.84296
0.9670041 0.426163 -0.035389196 -0.8272081 0.10397154 -0.4393315 -0.23794581 -0.017431455
0.30111387 -0.53116816 -0.7246093 -0.5552574 0.7824637 0.13706815 0.34514606 0.40437496
-0.23454894 -0.6850533 1.1192116 0.22767161 0.31937578 0.39113605 -0.2807769 0.33630782
-0.18178742 0.34922785 0.08350316 -0.9889855 0.64322096 -0.30720136 -0.41947258 0.07315333
0.10898096 1.3674669 -0.06377943 -0.7269143 0.13682432 0.1462356 -0.03136825 0.10976838
-0.23257123 -0.015347058 0.56837285 0.15849872 -0.21659759 0.324136 -0.51883465 -1.5250661
-0.53403056 -0.31747377 -0.016366703 -0.17681348 0.23552641 0.6289673 0.730662 0.09866474
-0.03801676 -0.16842201 0.38833225 1.5213966 0.2751852 -0.047302425 -0.024096303 0.03911023
-0.37735415 -1.1990796 -0.30367878 -0.15141678 0.168187 0.67480433 -0.43379253 -1.2435957
0.2640974 0.070058085 -0.032804817 1.8724054 -0.66807383 -0.09755496 -0.11993652 0.19609495
0.0899388 -0.9480031 0.033116683 -0.31776622 -0.5847608 -0.14788945 -0.024792325 -0.9125298
0.06422528 -0.5861088 -0.3180104 -0.2723623 -0.01428471 -1.0101295 -0.07908731 -1.4469271
-0.519244 -0.16228169 0.19316116 0.8719592 -1.0618923 -0.076223336 0.0997795 -0.012370774
0.008951567 0.9872407 -0.9195514 -0.5905449 0.5181285 -0.0517723 0.159313 -0.59188086
0.29410583 1.3491191 1.3501072 0.56937075 0.35298517 -1.6569021 0.22264932 -0.7879908
0.11402053 -0.055913813 -0.048339233 -0.29589915 -0.010865858 -1.0908104 -0.918106 -0.18997538
0.115768984 1.4987879 0.03468833 1.8498794 0.5871706 0.21631356 0.3077855 0.51868623
0.4680485 1.7272136 0.7435722 0.41599956 -0.20718437 -0.6074617 0.32589892 0.103397705
0.19814666 -0.15968542 0.15018332 0.7184085 -0.57797366 -0.49797446 0.15719762 -0.019030618
0.61375564 -1.0014385 0.06907278 -1.0004758 0.44394404 0.22511166 0.23734473 0.69766307
-1.2896329 0.9601768 0.8784421 -0.0744978 -0.06366815 -0.53946364 0.06751243 -0.9405159
0.11715981 -0.18579356 -0.36817098 0.18405534 -0.551672 1.8177208 0.97696203 0.1247434
-0.41677636 0.12299088 -0.13476993 1.6782789 0.7608958 0.1285725 0.26226455 -0.47352263
0.011722283 -1.6145531 -0.23653713 0.17356433 -0.06516751 0.82377785 -0.29069242 1.3836747
0.80294824 0.24412856 0.05740422 0.6265062 -0.18546341 0.725724 0.33042854 0.0506085
0.44113925 0.13611163 0.38893732 1.4059472 1.4646182 0.60311097 0.16368958 1.0188236
0.24094628 -0.20556684 -0.33917582 -0.03885092 0.18917808 -0.8213933 0.31417984 -1.5800183
-0.3361489 0.08061945 0.68711406 0.52704364 0.1166985 0.29003975 0.529085 0.48007524
-0.22734964 0.048084173 0.17193706 1.8208383 0.14478599 0.06940078 0.28886545 -1.2253586
-0.35622177 -0.898819 0.28056818 0.102534816 0.15846056 -0.7788686 -0.060567316 -0.15042964

weight_hh f4 [240, 12]
00000000: 649f cb3e ccfb e53b c20f 8fbe c462 953d
00000010: dc6e dbbe 7b61 50be 82d9 80be 8330 203f
00000020: 982f 393e 1770 bb3d db5f 5f3e 4b6e 36bc
00000030: 3920 c23c 69a6 683d 7e57 ac3e 0ea9 0fbd
00000040: d04c d93d 2c62 5abe 9ac5 6c3e 529d 26bd
00000050: 5d15 b03d 3777 dbbe 308d 153d e62c 77be
00000060: 7fc4 503e 66c9 2dbe 59ba 04bf 23aa b3be
00000070: 5c34 c13b e401 a3be fd69 4dbd e41d 993e
00000080: 2e36 39be abd5 233e 6de0 1f3d c1a9 abbe
00000090: 22fc 68be c9e2 2cbd 69b8 083e c595 92bd
000000a0: 2878 b23d 07bd 0cbe e40d c9bd 0ce2 10bf
000000b0: 6fde bb3e c287 b5be fdaf 633d adda 53be
000000c0: 96a5 8c3d adad 1dbf b944 1a3f f644 e23d
000000d0: 69ed e13d 7bbb fdbd 34fe cabe d1da d4bd
000000e0: 3d1e b83e cb2d 39bd cb4d c7bd c711 6bbe
000000f0: 4d1a 953d 17ec e33e 1fff 80be c2d6 3dbe
00000100: 70c4 8fbe 1428 e83d 7ba2 443e de5a ad3e
00000110: 5805 493e 8574 653e fb9c 0dbb c84a 3ebe
00000120: 03e8 7f3d 6182 553e 5ed1 2abf 12e2 533e
00000130: 7a87 b03e 65e7 b33d 2c1b 36bf 915a 683d
00000140: 557d 5ebe b173 8f3d 7d5e e7be fdc5 96be
00000150: 63fa ee3d b080 f93d 011e cabd 251b 09be
00000160: 66f4 0f3f 520d 1f3e a77f f3be 2b47 53be
00000170: e300 013f 23c7 efbe ad82 6f3e fe7d fcbd
00000180: a03b 4a3e efe2 89be 944c 83be 8994 b53d
00000190: 9d3e b7be 10ef 683d eb0d a9bd 4170 803e
000001a0: c687 393e e505 fa3e 2713 a33d 1123 3abc
000001b0: b93c 133e 19b0 bebe 2acd 8d3e 0f3f 9c3e
000001c0: 42cd 4fbd 11b2 953c f867 e8be 17f2 0bbe
000001d0: 8d02 bf3d aa44 a6bc ee63 30be e2e5 02bd
000001e0: 086e a2be 41ff 10bf ebd6 063e 0dcf 26be
000001f0: be90 673e 55e2 05bd c47d ad3d cbb4 a2bd
00000200: 2c6b 603e 433c 62be 4815 bc3d 5ed2 2e3e
00000210: e79a 11be 8a4c 82bd 3198 9f3e 9ae3 383e
00000220: 25e3 d2be 6858 9bbd b2fa 18be 9272 ac3e
00000230: 09b6 353e ac01 68bd f228 abbe 65de e4bd
00000240: a821 5fbe 31c9 933e 35f7 8cbd 8371 adbe
00000250: ba86 bdbd 7c87 00bf 7587 10be a17f 0abf
00000260: 7c12 633d 734a 71be 31c2 ba3e 63dd acbe
00000270: 968f a13d 76d7 1e3e d9d0 3d3d bbb8 e73c
00000280: 9f79 2a3f 8698 963e 977b e73e 8def 2cbe
00000290: 092e 653e f363 03bf 33fe 803e 1615 88bd
000002a0: fafc abbd 1012 09bd 4423 8a3d 5d1a 683d
000002b0: 0104 603e e2ab 9b3e 1c29 26bd 3c0b fabc
000002c0: 2fb5 c33e 277b ffbe a8fe 513e 0d42 e83d
000002d0: 7617 243e 91fe b4be 3267 cbbe 359b 8dbe
000002e0: f546 a53e 289e 993e 926d 04be 31a7 8d3e
000002f0: 5d3f b03e 3151 22be 8557 443e 3ba9 cc3c
00000300: dddf 0e3e 35b7 53be 7736 ae3e a84a 92be
00000310: 65b7 06be d9fc 71be ac5a b6be 73e5 5dbe
00000320: 2b54 c4be 45c4 6ebe bebb 943d 6ad6 f2be
00000330: 5a3c 813e ae76 393e e34b 823e 8922 1a3e
00000340: d136 41bd ba46 f43d 0405 d03e 9301 cc3d
00000350: fe7d bb3e f4cc 7dbe d6f9 293e 8ab0 8cbc
00000360: eac1 e5bb 22b1 83be f739 743e db88 8f3d
00000370: cac7 3cbe f163 2c3e ce90 1dbe 3f4c afbd
00000380: 1535 8d3d c05f 153e 074d 433a ff4e cd3e
00000390: 7b5c 11bd 6553 f8be 36fc c2bd 1079 183e
000003a0: d2bd 503e 8830 8dbe 11dc 88be 137c 8abe
000003b0: adb8 37be f16e 72be ba24 663d 0001 25be
000003c0: 24b2 a8be afca 2e3e 63c4 87be e107 40be
000003d0: 0b14 33be d4ac f6be 0731 573d ede9 9e3e
000003e0: c7cb 013e ad75 f53e 8d77 043e 3ae9 83be
000003f0: 8d01 bd3e aa2e de3e ef80 b7bc e905 903d
0.39770043 0.007018542 -0.2794171 0.07294229 -0.42858016 -0.20349686 -0.25165945 0.62574023
0.18084562 0.09152239 0.2181391 -0.011134694 0.023697006 0.056799326 0.336605 -0.035073332
0.10610354 -0.21326512 0.23122254 -0.040677376 0.08597825 -0.4286439 0.0365116 -0.24138221
0.20387457 -0.16971359 -0.51846844 -0.35090742 0.0058961343 -0.3183738 -0.050149906 0.29905617
-0.18087074 0.15999477 0.03903239 -0.3352795 -0.22752431 -0.042208467 0.13351597 -0.071574725
0.08714324 -0.13743983 -0.098171026 -0.5659492 0.3669314 -0.35455137 0.055587757 -0.20688887
0.068675205 -0.61593133 0.6026111 0.110483095 0.110316105 -0.12389275 -0.39647067 -0.103932984
0.3596057 -0.045209687 -0.09731635 -0.22956 0.07280407 0.4451606 -0.25194642 -0.18538955
-0.28079557 0.11335769 0.19202606 0.3385839 0.19630945 0.2240773 -0.002160846 -0.18583214
0.062477123 0.20850517 -0.6672572 0.20691708 0.3447836 0.087843694 -0.7113521 0.056726996
-0.21727498 0.07004488 -0.45189276 -0.29447928 0.11668851 0.12182748 -0.09869004 -0.13389261
0.562323 0.15532425 -0.47558329 -0.20632617 0.5039198 -0.46831617 0.23389693 -0.123287186
0.19749308 -0.2693095 -0.25644362 0.088662215 -0.35789958 0.056868613 -0.08254608 0.25085643
0.181182 0.48832622 0.079626374 -0.0113609 0.14378633 -0.37243727 0.2769559 0.3051686
-0.05073286 0.018273385 -0.45391822 -0.13666569 0.093266584 -0.020296413 -0.1722562 -0.031957515
-0.31724572 -0.56639487 0.13167922 -0.16289921 0.22613809 -0.03268655 0.084712535 -0.0794464
0.21915883 -0.220933 0.091837466 0.17072436 -0.14219247 -0.06362255 0.311708 0.18055573
-0.41188923 -0.075852215 -0.14939383 0.3368116 0.17745222 -0.05664222 -0.33429676 -0.11175231
-0.21790183 0.28864434 -0.068830885 -0.33875665 -0.09254213 -0.5020673 -0.14114173 -0.54100996
0.05543755 -0.23563556 0.3647628 -0.33762655 0.07888715 0.1551188 0.04634175 0.028286329
0.6659183 0.2941324 0.4521148 -0.16888256 0.22380842 -0.51324385 0.2519394 -0.06644647
-0.08397861 -0.03346449 0.06745008 0.056665767 0.21876527 0.30404574 -0.04056655 -0.030522935
0.3822417 -0.49898645 0.205073 0.11340723 0.16024575 -0.3535047 -0.3972717 -0.27657476
0.32280698 0.30003476 -0.12932423 0.2766662 0.34423342 -0.15851285 0.19174011 0.02498304
0.13952585 -0.20675357 0.34025928 -0.28572583 -0.13155897 -0.2363161 -0.35616052 -0.21669559
-0.38345465 -0.23317058 0.072623715 -0.4742921 0.25241357 0.18111679 0.25448522 0.15052237
-0.047171418 0.119275525 0.40628827 0.09961238 0.36619562 -0.24785215 0.16599211 -0.017174024
-0.0070116417 -0.2572108 0.23850237 0.07008525 -0.18435588 0.16835 -0.1538727 -0.08559465
0.0689489 0.14587307 0.00074501376 0.40099332 -0.035488587 -0.48501125 -0.09520762 0.14889932
0.2038491 -0.2757609 -0.26730397 -0.27047786 -0.17941542 -0.23675133 0.05618737 -0.16113663
-0.3294841 0.17069505 -0.2651702 -0.18753006 -0.17488115 -0.48178732 0.05253699 0.31037846
0.12675391 0.47941342 0.1293623 -0.25763875 0.36915246 0.43394977 -0.022400348 0.07032377

proj f4 [12, 60]
00000000: d95d 883e 4ae8 343e c308 053e 7e9f 353e
00000010: a564 c8bb 5a57 61bb 8aa4 ef3d db7b 573e
00000020: 9c20 913d 81d6 31bb 3e60 b1be 8c0e 28be
00000030: a027 16bf 0cd6 8dbe 851f 0fbd f39d c93e
00000040: f8b0 853e 935d 9d3d 8786 69be 0af0 c6be
00000050: 04f9 5abe fe05 c9bc 3e67 853e ca66 443d
00000060: 576c c4be 623e 3a3e 95d6 eb3c c381 37be
00000070: 8b3f c6bd 33da be3d df54 703e 6d9c cfbe
00000080: 6379 cfbd 8083 a63e 8a2c 5f3f aa59 23be
00000090: c99b 283e 52b2 a73d 958a a9be 5c4c f13d
000000a0: 7694 17bf e3a9 523d e09b 0c3b c76b 2bbe
000000b0: b09a 063d 0082 033e df18 babe ed4f febc
000000c0: 1881 15bf 40e7 b3bc c708 bb3e 40b2 843d
000000d0: 9d0d 083e 9df5 93be 74f3 4c3e 4bb5 cdbe
000000e0: 437b 14bb 3dac 1fbc ad07 513e eff9 7c3c
000000f0: b3d9 d33d 7201 8c3e 8d43 2ebe fb4f 20bd
00000100: b328 b83d 8ffa ecba 67cb 993e 9559 7c3e
00000110: e82b 853e 6242 a3bc 5f91 0cbe 61ed 5d3e
00000120: 6ff0 4b3e 8960 a13e 62c0 fbbd f2cd 8a3e
00000130: e4b1 5ebe a66a c9be 44be 5dbe 4e2d bfbc
00000140: 9e1b bcbb b18f 823e 34ea e7be 7872 243d
00000150: 95fb 94bd 6a6c adbe c7b6 073e 6f93 71be
00000160: bf9e bebe f851 1f3e 2a51 c13d 24c9 0c3e
00000170: ea23 243d 7521 dabe bb29 c13c 8cdc 4ebe
00000180: f592 a5be f475 33bd 1c33 b03e e06d ac3e
00000190: dacf c8be cbea 263d 3cc9 3f3d 6cfa 8ebe
000001a0: 85d4 f33e 72c2 babe cb38 4bbe 7686 683e
000001b0: 9648 febd 13a7 363d d8b0 a9bd 412f 543e
000001c0: 5031 31bd c40f f13d 1ab9 ab3e ca9d a5bd
000001d0: ef18 f9be 3d96 603e b8b8 5c3d 00a9 e3bd
000001e0: 0be6 4dbe ddc1 b13d d632 59be e9d9 d0bd
000001f0: edb7 f4be 74a8 8dbe d613 79be 924c 593e
00000200: 4252 15be 9157 d2be 7cc6 19be a678 083e
00000210: 28c8 b53d c61a 44bc ffaf b63d 4bbd 46be
00000220: 1305 713d eafe 3cbb 6793 133d 7b5c 553e
00000230: 6a13 c4bd cba1 043e 20c3 083e 8b88 b2bc
00000240: facf cabd e94f a43d 96ed 3abe a355 2f3e
00000250: 7b3a b23d d82e a5be b118 28be 5a98 c8be
00000260: c15b 3abc 2b9c 2b3e cac0 ebbe 68b9 b3bc
00000270: 96a8 a93e aa24 2a3e 400d cdbd a074 47be
00000280: 0696 a83e 5d02 13bd 0ac9 8bbe 53f2 f7bd
00000290: 5e41 e7bd e8fa 013e df97 51be d8c9 0e3d
000002a0: 8bb5 453d c798 073e 2544 1dbe a3b9 2bbe
000002b0: 9fec bf3c 25b8 ab3e e01d 30be 1dcd 493e
000002c0: f1da 0e3e 67d2 0bbe d51e fd3d c1db 823e
000002d0: 7c1b f5bd 9081 03bd d5cd 393e 8fb4 1d3d
000002e0: ab19 97bd 9bc2 3ebd 54cd 24be aff9 993d
000002f0: ec16 80bd 546b a7bd 7741 9f3e 0d46 ccbd
00000300: 40da a23d 10fa 06be 305d d93e 6be0 41be
00000310: 5955 b73e aa59 9e3e 8087 1d3d 26f9 093e
00000320: 914b 9f3d e7fa 7b3d 75c4 f23d cc57 36be
00000330: d7cb 0a3e 6755 173e 71fd 96bb 0a58 4cbc
00000340: 685a b83e ad5f 2e3d 24d9 e2bd e317 30bc
00000350: 7093 3d3d eb0b ef3e 7ff5 573d ca1e 0ebe
00000360: 831c 2d3e 8466 8a3e ccc2 963e 7d3c 9b3d
00000370: ff12 9c3e 3ef4 c63d 10b4 cd3d 7735 be3c
00000380: e911 82be e0cb 883e 221d 8f3e b773 443d
00000390: eafa 7d3d e839 0fbd 641d 5b3e 7a95 c3bc
000003a0: b66c c43e e88f 3cbe e7f9 9c3d 8954 a53b
000003b0: 74db 0f3f 1bfe 693e 1ba4 113b 2158 7fbe
000003c0: 9591 833d a8f5 8dbd ad43 ad3e b7ed ba3e
000003d0: 803a 7b3d 1c1c d33b 0f32 a3bd 2b0c c63d
000003e0: db15 7cbd bafb b3bd a48e 463d 4774 85be
000003f0: 3b46 383e bee3 e73d 9dbc e33d 51b2 743e
0.266341 0.17666736 0.12991624 0.17736623 -0.0061155134 -0.003438434 0.11701305 0.21043341
0.07086298 -0.002713591 -0.3464374 -0.16411799 -0.5865421 -0.27702367 -0.03494217 0.39378318
0.2611158 0.076838635 -0.22805224 -0.3885501 -0.21384054 -0.02453899 0.2605533 0.04794959
-0.38363907 0.1818786 0.028788844 -0.17920594 -0.096800886 0.09318962 0.23469876 -0.4054903
-0.101305746 0.32522202 0.87177336 -0.15952173 0.16465677 0.08188309 -0.33113542 0.117821425
-0.5921091 0.051431548 0.0021455213 -0.16740333 0.032862365 0.1284256 -0.363471 -0.031043971
-0.58400106 -0.021960855 0.36530134 0.06479311 0.13286443 -0.28898326 0.20014745 -0.40177378
-0.0022656478 -0.009745655 0.20413084 0.015440448 0.10344257 0.27344853 -0.17017956 -0.039138775
0.08992138 -0.0018080043 0.30037996 0.24643548 0.2601006 -0.019929115 -0.1372733 0.21672584
0.19915937 0.31518963 -0.122925535 0.2711025 -0.21747547 -0.3933918 -0.21654612 -0.023337033
-0.005740597 0.25500253 -0.4529587 0.04014823 -0.07274548 -0.33871776 0.13253318 -0.23591398
-0.3723049 0.15558612 0.09439309 0.13748604 0.040073313 -0.4260365 0.023579469 -0.2020132
-0.32338682 -0.04381366 0.34413993 0.33677578 -0.39221078 0.04075126 0.04682277 -0.27925432
0.47623077 -0.36476475 -0.19845884 0.22707543 -0.124161884 0.04459293 -0.082856834 0.20721151
-0.04325992 0.11770585 0.3353966 -0.080867365 -0.48651835 0.21932311 0.0538871 -0.111162186
-0.20107286 0.086795546 -0.21210799 -0.10197813 -0.47796574 -0.27667582 -0.24323973 0.21220616
-0.1458216 -0.41082433 -0.15017122 0.13327274 0.088760674 -0.011969274 0.08920287 -0.19408147
0.05884273 -0.0028838464 0.036029246 0.2083606 -0.095740154 0.12952344 0.13355684 -0.021793624
-0.0990295 0.08023054 -0.18254694 0.17122512 0.087025605 -0.322623 -0.16415669 -0.39178735
-0.011374415 0.16758792 -0.46045524 -0.021938995 0.33136433 0.16615549 -0.10012293 -0.19478083
0.3292696 -0.035890926 -0.27301818 -0.121067666 -0.11291765 0.1269337 -0.2046809 0.034860462
0.048268836 0.13241874 -0.15358026 -0.16770034 0.02342826 0.3353893 -0.17198896 0.19707151
0.13950707 -0.13654481 0.12359396 0.25558284 -0.11968133 -0.032105982 0.18144925 0.038502272
-0.07377943 -0.04657231 -0.16093951 0.075183265 -0.06254372 -0.08174768 0.31104633 -0.099742986
0.07951784 -0.13181329 0.4245391 -0.18933265 0.35807303 0.30927783 0.0384593 0.13473949
0.07778085 0.061518576 0.118538775 -0.1780693 0.13554321 0.14778672 -0.0046078493 -0.012472162
0.36006474 0.042571712 -0.110765725 -0.010747883 0.046283185 0.4668878 0.052724358 -0.13878933
0.16905408 0.27031338 0.29445493 0.075798966 0.30483243 0.09714554 0.1004411 0.023218853
-0.2540429 0.26718044 0.27951914 0.047961917 0.06200687 -0.034967333 0.2139793 -0.023874987
0.3836419 -0.18414271 0.076648526 0.0050454778 0.56194234 0.2285084 0.0022223059 -0.24935962
0.06424252 -0.06931621 0.33840695 0.36509487 0.061335087 0.00644256 -0.07968532 0.096702896
-0.06154428 -0.087882474 0.048475876 -0.26065275 0.17995541 0.11322735 0.111199595 0.23896147

bias_ih f4 [240]
00000000: e6c7 2a3e 12b4 ea3e b92d fb3e a814 f7bd
00000010: bd07 693e ad14 103b 61b2 903e 9b17 0e3e
00000020: 84eb 2e3e d1a8 f33d c392 79be 19f1 393e
00000030: dc35 44bd 491e b83d 3f07 6abc e9a4 32bd
00000040: 0513 e7bd 0205 b3bd e4e5 5ebe 9f0d bc3e
00000050: d667 593c ce49 6f3e cb47 d33d 30b2 7cbe
00000060: 4825 a73e 52ec a83e 1ab6 9bbe 8a07 f43c
00000070: 598d b63e 82b9 f13d f83a 13be f58b 12be
00000080: ee41 31bd 5251 783e 2a43 7d3d d1cc adbc
00000090: ee7b f43e 219c 963e 4b68 7f3e 71f6 0f3f
000000a0: cac6 11bd 6d81 9d3d f4be 733e 4730 403e
000000b0: 5ee3 283d bfd3 d1bd 0fa1 203f ce54 aa3e
000000c0: a8f6 2a3d 7670 013e c550 653d 7c38 f23e
000000d0: fca5 543e 6aa4 8d3e a0dc 02bd 488e aebd
000000e0: a960 c53e 5630 193e a7fc 2e3c bf7b 9c3e
000000f0: f4dd bb3d 1da6 dc3d 5f68 2bbe 386b 453e
00000100: d5f7 e53e fef5 8c3e 42b6 0f3e 8220 733e
00000110: 1e68 ccbd 34ea 913e f542 39bd 6afd 603e
00000120: 71fd 5e3d 6d34 703e 0312 29bd 04dd a03e
00000130: 486b ed3e d147 da3e be48 d43e 47b5 583e
00000140: a7b4 7d3e 1c27 d43e 6f6c 1d3f c480 4c3f
00000150: 7a96 7dbd cb83 b63e b285 87be 6cbc 263f
00000160: a690 773e d2db 423d dcd7 8a3e e4e1 8b3e
00000170: c3eb 9a3e 2915 ee3d 862e 413e 38eb 043f
00000180: 3dbd af3e fd41 6abd 2511 bd3e 8679 a03d
00000190: 898b b93e e6bd 1aba c288 b93e f716 023f
000001a0: 4fd8 9f3e 8359 b7be c274 383e ff00 9c3e
000001b0: b9ff b23e 9960 8e3e 5c23 ee3d c412 a63e
000001c0: ecda 063e d3da 1c3e 1067 1a3f a213 313e
000001d0: 02f3 0cbd f598 e53e cece 183e f6f5 5c3e
000001e0: 4de8 5c3d 3c16 a4bd 257e 3d3e b334 adbb
000001f0: 1886 25bd a2b0 10bd 40d3 683d 030e ed3d
00000200: e871 8c3d 9959 4bbe ae7f ec3c 211c 793e
00000210: 6f8d 8dbd bb0a 0d3e bf2d a9bd 7e12 09be
00000220: 1295 88be f3fd 97be fa8a c53c 7baf 0bbe
00000230: bcce 203e 1c69 89bd b186 5bbe 2bc7 873e
00000240: dd8b 823e c71d 8a3e 776f 9bbc 4483 643e
00000250: c9cf f03b 49e9 5c3e 426b 803c 500c bf3d
00000260: 594b ef3d 8c04 2fbe 6cdd b3bc 6d54 d83d
00000270: 57e1 863e ef6c e3bb 3f22 b6bd 30e3 bebe
00000280: 6515 473d 657d 8cbe b79b 87bc f378 1dbe
00000290: 9fc4 29bc 3767 f23d 9e87 bdbd 61d4 2f3e
000002a0: 2a5a 17be 9418 3abd 6740 4bbe 528f f4be
000002b0: 2361 85be 9ab2 c1bd eeab 24bd eb68 943d
000002c0: 01d2 82bd 5d7c f4bd 4f30 72be 7341 063e
000002d0: 4102 923a f091 053f cfe7 c33e 1db9 56bd
000002e0: 10ad 883e 7b8b f6bd 728d 963e b665 c53d
000002f0: 74a0 c73d 2171 993d 545d 1dbe c8c9 793e
00000300: 3075 923d ae56 3b3c 8f83 9abd b49e ecba
00000310: 14ce 973d d8dc 173e e765 ae3e c05f a13e
00000320: 9342 2fbe 84da 0a3e c803 ca3e 99e6 d83d
00000330: 9ff5 853d c44e 903e 5459 45be 20f7 9f3e
00000340: 8c06 033f 2120 c93e 68b1 90bd e19d b6bd
00000350: 091a a13e c5f1 5a3e 9c43 363e 05d2 993d
00000360: d103 dc3e bbd6 8f3e f773 943d 56ab 573d
00000370: 58b2 593e eb61 1c3e 05ee fa3d f18e 1cbe
00000380: ec21 8b3e 38d6 38be a3f1 f13e c1c5 a83e
00000390: 9fc4 e23e 2bf4 e3bd 86b7 0239 5306 063f
000003a0: f2ba 2b3e 3221 863e 56e0 663c 36b0 d5bd
000003b0: a4cc 4e3e d4d1 553e 3ef2 083c a714 063f
0.16677818 0.45840508 0.4905832 -0.12064487 0.22756858 0.002198498 0.28261092 0.13876192
0.1708203 0.118974335 -0.24372391 0.18158378 -0.047902927 0.089901514 -0.014283954 -0.0436143
-0.112829246 -0.087411895 -0.21767384 0.36729142 0.013269385 0.23367998 0.10316428 -0.24677348
0.3264563 0.32992798 -0.3041237 0.029788751 0.35654715 0.11802961 -0.14377964 -0.14311202
-0.043275766 0.24249771 0.06183163 -0.021215828 0.477508 0.29415992 0.24942128 0.56235415
-0.03558997 0.07690702 0.23803312 0.18768416 0.04123246 -0.102454655 0.62745756 0.33267826
0.041739136 0.12640557 0.05598523 0.4730872 0.20766443 0.276645 -0.031948686 -0.08523232
0.38550308 0.14959845 0.010680354 0.3056316 0.091731936 0.10773871 -0.16739033 0.19279182
0.44915643 0.27531427 0.1403437 0.2374287 -0.09980796 0.28498995 -0.04522987 0.2197167
0.05444092 0.23457499 -0.041276943 0.31418622 0.46370912 0.42632917 0.41461748 0.21162902
0.24775945 0.41436088 0.6149358 0.7988398 -0.061911084 0.35647425 -0.2646919 0.6513126
0.24176273 0.04757292 0.27117813 0.27320778 0.30257997 0.1162513 0.18865404 0.51921415
0.34324065 -0.057191838 0.36927143 0.07835679 0.3623927 -0.0005902931 0.3623715 0.5081629
0.31219718 -0.3581048 0.1801329 0.3046951 0.34960726 0.27808073 0.11627838 0.32436192
0.1316945 0.1531785 0.6031351 0.17292646 -0.034411438 0.4484326 0.1492264 0.21578202
0.053932477 -0.08012053 0.18505152 -0.0052858233 -0.040411085 -0.0353247 0.05684209 0.11574938
0.068576634 -0.19858398 0.028869476 0.24327137 -0.06911742 0.13773625 -0.082606785 -0.1338596
-0.26676232 -0.29685935 0.02411412 -0.13641159 0.15703863 -0.06709501 -0.214381 0.2651914
0.25497332 0.26975843 -0.018974049 0.22315699 0.0073489887 0.21573366 0.015676145 0.0932852
0.11684293 -0.17091578 -0.021956168 0.10562978 0.26343796 -0.006940476 -0.08893251 -0.37282705
0.048604388 -0.27439418 -0.016553743 -0.1537817 -0.0103618195 0.11836093 -0.092543826 0.1717086
-0.14780489 -0.045433596 -0.19848786 -0.47765595 -0.26050672 -0.09457894 -0.040203027 0.07246574
-0.06387711 -0.11937783 -0.23651241 0.13110904 0.0011139588 0.5217581 0.38262793 -0.05242263
0.26694536 -0.120383225 0.2940479 0.096385404 0.09747401 0.07492281 -0.15367633 0.2439338
0.07151258 0.01143424 -0.07544624 -0.0018052668 0.07412353 0.14830339 0.3406212 0.31518364
-0.1711524 0.1355992 0.3945601 0.10590858 0.06540989 0.28185093 -0.19272357 0.3124323
0.51181865 0.39282325 -0.070650876 -0.08916832 0.31465176 0.2138129 0.17799228 0.07510761
0.42971662 0.28093514 0.07248681 0.052653633 0.21259439 0.15271728 0.1225243 -0.15288903
0.27174318 -0.18050468 0.47254667 0.32963374 0.44290635 -0.11130556 0.00012466134 0.523534
0.16770533 0.261972 0.014091572 -0.10434 0.20195252 0.20880824 0.008358536 0.5237526

bias_hh f4 [240]
00000000: 974e c43d c2c1 d13e 0d09 dd3e 9d75 ab3d
00000010: 1693 673d db8d 3cbe 2af3 c13e 9c21 673e
00000020: e4b6 203d 22ba 383e 3b1f 58be 0f94 243d
00000030: f65a 6b3b 3912 11bd cec1 103e 2c62 8b3d
00000040: ecf5 2fbe 5f2f 94bd 111b b2bd 6bc8 b03e
00000050: 8eed a1bd 8e30 673e 9f6e 333e f1e9 07be
00000060: 6c32 aa3e 6b1d c23e e829 70be a744 ee3d
00000070: 00c1 103e 14c6 ea3d fbc4 54bd 8161 0abd
00000080: fee4 a7bc 1533 2c3e 7538 b13d 9812 00be
00000090: 96fc ef3e 16df 6e3e d3de 153d a226 fc3e
000000a0: ab45 80bd b60b 5d3e 380d 7e3e f39e 133e
000000b0: 3504 3e3e b7a2 1abe a627 fa3e b217 473e
000000c0: 2044 a43d 626a 933e 2acc cdbd db50 853e
000000d0: 3606 a33e 48a9 a63e dc9a 2f3e 07c4 eebd
000000e0: 94c7 b93e 9b04 0e3e 3d2f 15bc c189 883e
000000f0: 3a1e 76bd 88cd a73d efdb 1dbe 5a01 923e
00000100: 3c37 0a3f 3575 fd3d 050e 883e 2323 b53c
00000110: dc47 20bc 90fe 053f ebd7 a43d 74f4 b73e
00000120: 3f85 2bbd 4b59 123e 7232 133d 3390 983e
00000130: 21e6 dc3e bac0 833e b5e7 8f3e 334a 3d3e
00000140: be1f b23e f0ca a33e 11f6 243f 1717 2c3f
00000150: 2708 25be 0cc6 003f b4b0 15be 79d1 653f
00000160: 9164 963e 5853 a63d f43c 903e acee 523e
00000170: cee3 e33e 524f dd3d 6d64 8e3d 12bb fc3e
00000180: 9d19 b33e 2b80 99bd 1474 b63e e3c1 7f3d
00000190: 93be 9c3e 96d3 80bd d4be 963e 88df c13e
000001a0: 302f 703e 149f 34be 7863 2b3e 090d 993e
000001b0: 9d50 bd3e 3a4f d23e 3922 6b3e 7b8f ff3d
000001c0: 5a8f 07bd 5790 3d3d c59b 303f 5593 253e
000001d0: ce0c b6bc d4d1 d43e e742 c73d b128 6a3e
000001e0: 64d4 c43c de9c 8ebd 4535 1c3e aa2d 813c
000001f0: 5f42 003d 0217 433e ace7 7e3d 541f 113e
00000200: ec86 8f3d eed4 e4bc ecfd 41bd a544 a13d
00000210: 134b 44bd 142a 863d 5f42 5abd 87fe 49be
00000220: 2c62 88be 2e6e a8be cee7 783d 78de 3cbe
00000230: 61f1 2cbc de00 35bd f36c a9be 37d7 f33d
00000240: 211e 3a3e 3622 473e b768 99bd ce0d 793e
00000250: 7bd6 19be 48ec 103e f5bc d9bc 5184 723e
00000260: 47cf 97bd e72a 4bbe 9b7d 82bc c460 b5bb
00000270: 1569 7e3e cf3f 1c3e eda3 1cbe 1362 e9be
00000280: bc11 4a3e 6b5e 52be 7c20 a23c 32ef d5bd
00000290: 99e5 efbd 8444 ae3e 1671 46be cd30 2f3e
000002a0: c94a 09bd 586f ab3d 5c4a 86bd e1ab 0bbf
000002b0: fcba 5cbd f89b aabd da23 17bd 1350 64bd
000002c0: 40c4 d0bd fcfa 83bd 1458 e2bd 6f98 c73d
000002d0: 1ede 753b ae53 bf3e 4e0a 873e 968e f03c
000002e0: bd94 e63e 95b3 29be 456a 1b3e 1ea7 7e3e
000002f0: d919 473e b505 403e c971 05be ae5a 243e
00000300: 008e e23d 95a0 f13d 8273 ff3d c046 293e
00000310: aee3 b53c b628 1b3e bc1f b03e 0a62 aa3e
00000320: 25a0 2fbe c1d5 7abc b0b0 ad3e c052 883d
00000330: a1f1 c63d 9673 de3e c5d2 0fbe 7332 b13d
00000340: 4ee5 023f be9d cc3e 63e6 3abe 1f87 5fbe
00000350: e179 7a3e a9ad c53e 558a 8b3d 4003 8cbd
00000360: a461 e23e 717c c93d 89b7 713e a564 1b3e
00000370: d0bd f23d a722 7e3d c3c3 703e fe68 52be
00000380: e273 343e ee0a f33c 04eb d83e d220 bf3e
00000390: 91bc fa3e e392 9fbe 0709 e23d 9d28 ed3e
000003a0: 6d12 1b3e ecf8 f23e 7aad 953c 7dce 16be
000003b0: 9aa6 8c3e 990b 473e ef5f 20be 51db d93e
0.09585302 0.40968138 0.43170968 0.08372042 0.056536756 -0.18413489 0.37880832 0.22571415
0.039236918 0.18039754 -0.21105663 0.040180262 0.0035912371 -0.03541777 0.1413643 0.06805834
-0.17183656 -0.07235598 -0.08696569 0.34527907 -0.07906638 0.22577116 0.17522667 -0.13272835
0.33241594 0.3791307 -0.23453486 0.11634188 0.14136124 0.11463562 -0.051945668 -0.033784393
-0.020494934 0.16816361 0.086533464 -0.12507093 0.46872395 0.23327288 0.036589455 0.49248224
-0.06263288 0.21586499 0.2480973 0.14416103 0.18556292 -0.15101133 0.48858374 0.19442633
0.08020806 0.287921 -0.10048707 0.2603825 0.31840676 0.32551026 0.17148918 -0.11658483
0.3628508 0.13868944 -0.009105501 0.26667598 -0.06008742 0.08193499 -0.1541593 0.28516656
0.5399053 0.12375871 0.26573196 0.022111481 -0.009782758 0.52341557 0.080489956 0.3592869
-0.04187512 0.14291875 0.03593678 0.29797515 0.43144324 0.25732976 0.28106466 0.18485336
0.34789842 0.31990767 0.6443797 0.6722273 -0.16116391 0.50302196 -0.14618188 0.89772755
0.293736 0.08121365 0.28171504 0.20598859 0.4450974 0.10806145 0.069527484 0.49361473
0.3498048 -0.07495149 0.35635436 0.062440764 0.30614147 -0.06290357 0.29442465 0.37865853
0.234555 -0.17638808 0.16737163 0.29892758 0.36975566 0.4107607 0.22962274 0.124785386
-0.033095695 0.04628023 0.68987685 0.16169484 -0.022222903 0.41566336 0.097295575 0.22867085
0.024027057 -0.06963514 0.15254696 0.015768845 0.031313296 0.19051746 0.06223266 0.14172107
0.07008156 -0.027933564 -0.0473613 0.07874421 -0.04792316 0.065509945 -0.053285953 -0.19726
-0.266374 -0.3289656 0.06076794 -0.1844424 -0.010555596 -0.04419028 -0.33090934 0.11906283
0.18175556 0.19446644 -0.07490676 0.24321672 -0.15023224 0.14152634 -0.02657936 0.23683287
-0.07412582 -0.19840585 -0.015929034 -0.005535217 0.24844773 0.15258716 -0.15296908 -0.45582637
0.19733328 -0.2054383 0.01979088 -0.104460135 -0.11713714 0.34036648 -0.19379076 0.1710846
-0.033518586 0.083708465 -0.06557152 -0.5455914 -0.05388926 -0.0833053 -0.036899425 -0.055740427
-0.10193682 -0.06444356 -0.11051956 0.09745871 0.0037516425 0.3736853 0.2637505 0.029364865
0.45035353 -0.16572411 0.15177257 0.24868438 0.19443454 0.18752177 -0.13031687 0.16050217
0.110622406 0.11798207 0.12473203 0.16530895 0.022203293 0.15152249 0.3439921 0.33277923
-0.17150934 -0.015309752 0.33923864 0.06656408 0.09714056 0.4344756 -0.14045246 0.086522005
0.5113114 0.39964098 -0.18251948 -0.21828888 0.24460556 0.38609055 0.06813494 -0.068365574
0.4421512 0.098381884 0.2360517 0.15175112 0.1185261 0.062044766 0.23512177 -0.20547864
0.17622331 0.029668298 0.42366803 0.37329727 0.4897199 -0.31166753 0.11036878 0.46320048
0.15143748 0.47455537 0.018271197 -0.14727207 0.27470857 0.19438018 -0.15661596 0.42550138

weight f4 [3, 12]
00000000: 49b8 043e a5cf 0dbf 6e1a 813e 56b4 61bd
00000010: 73a8 3fbe 4ae5 13bf 4a0e 9ebe ccef 0dbe
00000020: a24a c93d f1e2 8cbe 9d72 263f eafe 69be
00000030: caba 6f3c 7390 31bb c9c1 bb3c 6b13 093e
00000040: 167c 143d 13f4 283d 9c38 a93b f43e 76bd
00000050: 29a2 bd39 9dba 68be ca11 0bbe 7a10 e1bc
00000060: 06e4 543c ef7d 223c 161e 54be 3b15 bbbc
00000070: 9669 2ebe 6c5f f7bd b126 833d e72f 56bd
00000080: aeb5 3bbe 1791 20bc 1a35 e9bd 6879 eebc
0.12960924 -0.55394965 0.25215477 -0.055103622 -0.18716602 -0.5777174 -0.30870277 -0.13861006
0.09828688 -0.27516893 0.65018636 -0.22851148 0.014631936 -0.0027094155 0.022919552 0.13386314
0.03625115 0.041248392 0.005164219 -0.06011863 0.00036169708 -0.22727437 -0.13581005 -0.027473677
0.012993818 0.00991772 -0.20714602 -0.022837272 -0.17032465 -0.12078747 0.06403864 -0.052291777
-0.18331024 -0.009800217 -0.113870814 -0.029110625

bias f4 [3]
00000000: 1a95 c83e b016 9c3e c752 883e
0.39176255 0.3048606 0.26625654
