models/paramsearch_1.0594199909679135e-05_0.38287818424231307_0.21748415276371244_10.pt (torch, 33184 bytes, 7 tensors)

weight_ih f4 [240, 6]
-0.09221871 -0.014016467 0.001224906 -0.079295225 0.16710638 0.039500725 0.05364235 0.08982296
0.010959581 -0.14284034 -0.037996534 0.07587884 0.053536803 0.12755817 -0.08228639 0.14097494
0.21872227 -0.06658892 0.06121643 0.013372903 -0.040457062 -0.15439644 -0.14521548 0.070767686
-0.026462005 -0.11110619 -0.11807344 -0.082883224 -0.20245244 0.049951915 -0.005279544 -0.024866642
0.051965445 0.0051388848 -0.032727506 0.047019694 -0.069916695 -0.05130491 -0.07795658 0.075836964
0.09907545 -0.027602352 -0.059007198 0.0789855 0.06525363 0.044520427 0.029624641 0.010996128
0.03328779 -0.05693947 0.035640642 -0.15190959 -0.09388101 0.005774203 0.13579777 0.13331163
0.057853784 0.1610581 0.15683216 -0.039763723 -0.07523632 -0.043626834 -0.055696335 0.20144945
0.017912041 0.08869673 0.015995162 -0.008509471 0.08904719 -0.026698828 0.004203291 0.007764102
-0.044042923 0.14372735 0.14792904 -0.09930232 -0.056563806 0.15780674 0.025308799 0.10296079
-0.053417996 -0.095393434 -0.18429495 -0.02287084 -0.050123397 -0.062520616 -0.13382843 0.010219112
0.080435455 0.14821419 0.13620383 -0.0249249 -0.049174555 0.21678558 0.122287914 -0.0028652842
0.013637735 0.11395443 0.024467148 0.05052811 0.20421997 -0.030433923 -0.020485535 -0.024933955
0.089020595 0.07982538 0.004339138 0.107249364 -0.014021139 -0.012079955 -0.03535272 0.1811486
0.23215677 0.010790937 -0.054292057 -0.07677434 0.032151148 -0.052071884 -0.010522853 -0.11559509
-0.03180786 0.0852562 -0.06456846 -0.006499729 -0.048118327 0.07168682 -0.03633136 0.106853984
-0.027733486 0.047785256 -0.008927534 -0.0037445566 0.17515826 0.059269432 0.0244941 0.1381726
0.018496484 0.140463 0.13843627 0.05470519 0.052554626 0.065676734 -0.06211764 -0.12618084
0.03395796 0.078551166 -0.13281476 -0.017706625 -0.1222702 -0.12885387 -0.09930935 -0.010686272
-0.003944867 0.04377356 0.010242188 0.008550588 0.0205649 0.04397643 -0.022143696 0.084898636
0.12829651 -0.026618376 0.1404525 0.06506838 -0.105005495 0.10478461 0.035674147 -0.008887903
-0.007466217 0.010263484 -0.07798269 -0.16160281 0.014277268 0.051669024 0.037177056 -0.015676977
-0.03646235 0.029310279 -0.105415106 0.04102162 -0.050471358 -0.04363057 -0.10217143 0.14814648
0.21969497 0.06038968 0.042334814 0.112445466 -0.07190517 0.045677915 0.15013233 0.030503796
-0.01011339 0.0770546 0.006201971 -0.010783936 -0.20843756 -0.12649208 -0.074334614 -0.08260509
-0.06298008 0.17852977 0.1178073 0.03791196 0.06475022 -0.0489461 -0.0637078 0.060718466
0.07995677 0.03238994 0.17596096 0.13715674 -0.040411226 -0.09443258 -0.12046299 0.07714958
-0.015057092 -0.06061624 -0.05085883 -0.14531386 -0.12857503 0.071752444 -0.012031908 0.15148278
-0.08769671 0.08807688 -0.03116906 0.1572394 -0.10942912 -0.104325995 0.00925246 0.018692717
-0.19192116 0.028131219 0.023345463 0.11009868 -0.0811334 0.10171962 0.042799193 0.055286426
-0.007053574 0.11213326 -0.008100756 -0.025652995 -0.03407297 0.025905022 0.08012718 0.0089102015
0.0027418663 -0.15048635 -0.030148113 0.02154451 0.07921285 -0.018062266 0.0314809 0.106006674
00000000: 2add bcbd 53a5 65bc 068d a03a 8965 a2bd
00000010: ef1d 2b3e 83cb 213d 15b8 5b3d 1af5 b73d
00000020: d08f 333c bd44 12be 41a2 1bbd 5e66 9b3d
00000030: 6849 5b3d 9c9e 023e c485 a8bd bc5b 103e
00000040: bbf8 5f3e c65f 88bd 14be 7a3d 051a 5b3c
00000050: 4eb6 25bd 1a1a 1ebe 5eb3 14be a6ee 903d
00000060: d9c6 d8bc a48b e3bd 7dd0 f1bd aebe a9bd
00000070: b14f 4fbe 619a 4c3d 0600 adbb 21b5 cbbc
00000080: b8d9 543d 1764 a83b 470d 06bd b997 403d
00000090: 7c30 8fbd 1925 52bd b3a7 9fbd 6950 9b3d
000000a0: 12e8 ca3d 541e e2bc 88b1 71bd 26c3 a13d
000000b0: b2a3 853d 0d5b 363d 60af f23c 1b29 343c
000000c0: c758 083d 5d39 69bd ecfb 113d 308e 1bbe
000000d0: b044 c0bd 8735 bd3b 920e 0b3e d882 083e
000000e0: 17f8 6c3d 6aec 243e 9c98 203e 49df 22bd
000000f0: 8015 9abd 0db2 32bd d721 64bd c448 4e3e
00000100: 46bc 923c a2a6 b53d 4908 833c 4f6b 0bbc
00000110: 605e b63d 80b7 dabc c3bb 893b 026a fe3b
00000120: 5a66 34bd 432d 133e b67a 173e 045f cbbd
00000130: 73af 67bd 1798 213e 6654 cf3c 1bdd d23d
00000140: d4cc 5abd a25d c3bd d1b7 3cbe a15b bbbc
00000150: 314e 4dbd cf0a 80bd 520a 09be 106e 273c
00000160: 58bb a43d 76c5 173e 0479 0b3e 4e2f ccbc
00000170: 426b 49bd 0afd 5d3e 1672 fa3d 7ec7 3bbb
00000180: ce70 5f3c f160 e93d 546f c83c 90f6 4e3d
00000190: 0a1f 513e 9050 f9bc 48d1 a7bc 4b42 ccbc
000001a0: 6e50 b63d 7d7b a33d 542f 8e3b 8ea5 db3d
000001b0: ebb8 65bc 01eb 45bc 04ce 10bd 057f 393e
000001c0: 81ba 6d3e 78cc 303c 5961 5ebd dd3b 9dbd
000001d0: ecb0 033d 5449 55bd 0b68 2cbc 1ebd ecbd
000001e0: f548 02bd cd9a ae3d 783c 84bd aefb d4bb
000001f0: b917 45bd 8ad0 923d 31d0 14bd 43d6 da3d
00000200: 5631 e3bc 79ba 433d cb44 12bc 3c67 75bb
00000210: b05c 333e 81c4 723d daa7 c83c 1e7d 0d3e
00000220: f085 973c 88d5 0f3e 3dc2 0d3e 8d12 603d
00000230: 8543 573d 8681 863d 116f 7ebd 8d35 01be
00000240: 8017 0b3d 6fdf a03d 9800 08be 7c0d 91bc
00000250: cc68 fabd 45f2 03be b362 cbbd 7915 2fbc
00000260: f143 81bb e84b 333d dace 273c c417 0c3c
00000270: b977 a83c a120 343d b266 b5bc 56df ad3d
00000280: 2960 033e c80e dabc c8d2 0f3e 9242 853d
00000290: 1f0d d7bd 5099 d63d 0e1f 123d 919e 11bc
000002a0: 2ba7 f4bb 2c28 283c 63b5 9fbd 357b 25be
000002b0: 34eb 693c e6a2 533d f846 183d 016d 80bc
000002c0: 8c59 15bd 1c1c f03c e0e3 d7bd 4906 283d
000002d0: 0ebb 4ebd f8b5 32bd 413f d1bd b6b3 173e
000002e0: b8f7 603e 2b5b 773d 4567 2d3d cf49 e63d
000002f0: 0543 93bd c418 3b3d 4abc 193e 19e3 f93c
00000300: a2b2 25bc cdce 9d3d e739 cb3b 1baf 30bc
00000310: a870 55be 2487 01be bf3c 98bd dc2c a9bd
00000320: b3fb 80bd 82d0 363e f444 f13d 9249 1b3d
00000330: c39b 843d b57b 48bd 3c79 82bd edb3 783d
00000340: 60c0 a33d 50ab 043d 1c2f 343e d172 0c3e
00000350: 3e86 25bd de65 c1bd 4db5 f6bd 9900 9e3d
00000360: 05b2 76bc bc48 78bd 5951 50bd 28cd 14be
00000370: 2ca9 03be f2f2 923d 7b21 45bc 4d1e 1b3e
00000380: 559a b3bd a761 b43d 4256 ffbc 5e03 213e
00000390: 601c e0bd dea8 d5bd a197 173c 7821 993c
000003a0: fb86 44be 7173 e63c fc3e bf3c 6b7b e13d
000003b0: 4529 a6bd 6052 d03d 354e 2f3d 0574 623d
000003c0: ab21 e7bb 1fa6 e53d 09b9 04bc 3b26 d2bc
000003d0: 1990 0bbd c536 d43c b819 a43d 18fc 113c
000003e0: e2b0 333b 1819 1abe 2df9 f6bc 1d7e b03c
000003f0: 593a a23d 51f7 93bc 1ef2 003d 071a d93d

weight_hh f4 [240, 12]
-0.0005378613 -0.12633163 -0.10067891 0.11817019 0.06150967 -0.0485174 0.027683198 0.027580353
0.02207835 -0.012238922 0.12150237 0.016266443 0.08820159 -0.050355308 0.084598936 -0.072492436
0.10181125 0.031071177 -0.03628756 -0.002370219 -0.021499306 0.1050876 0.04083019 -0.0549654
0.14443065 -0.15620537 -0.009191163 -0.042777654 -0.0829756 0.07987372 0.10855804 -0.07990722
0.101268694 0.075020716 0.12806335 0.03892704 0.0810416 -0.08745264 0.15687871 -0.14022526
-0.07671326 0.004975055 0.06396031 -0.08974656 0.04537769 0.03575445 0.118289694 0.09286335
0.047285013 -0.13045092 -0.029840844 -0.06603587 -0.026429946 -0.0447554 -0.116988614 0.042428087
-0.10696106 0.11244337 -0.122679934 0.062350817 0.019547056 -0.03448023 0.01724495 -0.10481697
-0.007335691 -0.079952404 0.028021429 -0.06722313 -0.003726006 0.0059340955 0.0719357 0.006583411
0.067731805 0.03370384 -0.079670236 -0.069389716 -0.10852175 -0.04623553 0.017703438 0.107601315
0.01856351 -0.100805156 0.08485756 0.12130921 0.13341905 0.05626241 0.15383168 -0.17899555
0.10776226 0.11351498 -0.0021534085 0.019255957 0.059877172 0.09584953 0.064007506 0.1649208
0.15098867 -0.0026463522 0.16963668 -0.15465462 -0.06323534 -0.05369564 0.11057619 0.0015778542
0.12002824 0.14833371 0.14355348 0.055352975 0.023342073 0.039411537 -0.04884626 -0.040976387
0.034589082 0.10688383 0.05339119 -0.12587444 -0.10885265 -0.10163524 -0.07927441 -0.09411312
0.1492621 -0.04426364 0.14171566 -0.14160143 0.058535445 0.17205821 -0.075731926 0.071016386
0.06626771 -0.07187908 0.015729116 0.13092998 0.12197259 0.10258793 0.015146379 -0.068886235
0.098024905 0.029080864 0.13571164 -0.05206019 0.04058021 0.11672667 -0.058113225 0.13868769
-0.03420871 -0.012466626 -0.15616788 0.06423981 -0.16500632 -0.047008287 0.15479793 -0.016840847
0.16530997 0.17070928 0.18101342 -0.06195455 0.109306365 0.05777932 -0.040118985 -0.019574888
0.0329658 0.005614734 0.059282552 -0.08888019 -0.057469483 -0.02973804 -0.0872324 0.14626987
-0.08825171 -0.1389069 -0.09473208 0.08644013 -0.054045018 0.025431784 -0.06651953 -0.05387248
0.059741244 0.0864065 0.12718183 -0.06833333 0.18010247 -0.012131365 -0.06722808 0.024503713
0.011555859 0.14884947 0.07887934 -0.103559 -0.03614557 0.018636 0.13441728 -0.029137459
-0.03310638 0.018661812 -0.11884356 -0.03268121 -0.047289345 -0.07137755 -0.10623904 -0.021277277
-0.1179348 0.0075726807 -0.043661926 0.08104815 -0.023583304 0.004651985 0.11180737 0.057627536
-0.08478447 0.13449988 0.07922403 -0.071802944 0.04387367 0.051148728 0.05742969 0.19803797
0.101142116 -0.021557013 -0.14378352 0.020573169 0.08620182 0.13813435 0.06687059 -0.014428217
-0.023335468 -0.07899111 0.17309843 0.080093645 0.12157519 0.052078355 0.21935236 -0.004341009
-0.07533137 0.10418754 0.12502466 0.076180615 -0.050522458 0.0487275 -0.056643013 0.07988049
-0.08378315 -0.106427774 0.20014338 -0.0049241525 0.05283137 0.098906875 0.090820305 0.10110792
-0.08453714 -0.07141215 0.09656781 -0.054429874 0.0932351 -0.0507403 -0.081502706 0.041123018
00000000: 43ff 0cba 145d 01be bf30 cebd 3603 f23d
00000010: 90f1 7b3d 2eba 46bd e0c7 e23c 31f0 e13c
00000020: a8dd b43c c285 48bc 3cd6 f83d 3441 853c
00000030: 09a3 b43d 5e41 4ebd 3542 ad3d ea76 94bd
00000040: 6b82 d03d fb88 fe3c 44a2 14bd ad55 1bbb
00000050: 501f b0bc 2b38 d73d 8f3d 273d 6623 61bd
00000060: a1e5 133e 4df4 1fbe 8896 16bc 9f37 2fbd
00000070: 1def a9bd d594 a33d ad53 de3d 66a6 a3bd
00000080: f665 cf3d 76a4 993d 0a23 033e f671 1f3d
00000090: 23f9 a53d 5f1a b3bd d0a4 203e 3697 0fbe
000000a0: d71b 9dbd c905 a33b 9ffd 823d 0bcd b7bd
000000b0: f5dd 393d 4273 123d de41 f23d 242f be3d
000000c0: eead 413d ed94 05be c974 f4bc d03d 87bd
000000d0: 9d83 d8bc 7051 37bd ba97 efbd 13c9 2d3d
000000e0: 660e dbbd b648 e63d 9e3f fbbd 9263 7f3d
000000f0: 2621 a03c 243b 0dbd 4845 8d3c 48aa d6bd
00000100: 3c60 f0bb 16be a3bd 328d e53c 48ac 89bd
00000110: 0230 74bb cd72 c23b 0653 933d a7b9 d73b
00000120: f9b6 8a3d 0a0d 0a3d 262a a3bd 321c 8ebd
00000130: a740 debd 7861 3dbd cd06 913c 145e dc3d
00000140: 8112 983c ef72 cebd cdc9 ad3d f770 f83d
00000150: 019f 083e 6a73 663d 0d86 1d3e 9c4a 37be
00000160: 76b2 dc3d 8b7a e83d 3320 0dbb abbe 9d3c
00000170: c441 753d c24c c43d 5e16 833d 00e1 283e
00000180: c69c 1a3e 6c6e 2dbb 3db5 2d3e c85d 1ebe
00000190: 8881 81bd f6ef 5bbd c575 e23d 00d0 ce3a
000001a0: 5ed1 f53d cbe4 173e afff 123e cdb9 623d
000001b0: e037 bf3c fe6d 213d 0413 48bd dbd6 27bd
000001c0: 48ad 0d3d e9e5 da3d b8b0 5a3d 3be5 00be
000001d0: 23ee debd 2326 d0bd 9f5a a2bd 61be c0bd
000001e0: 2ad8 183e ca4d 35bd e91d 113e f7ff 10be
000001f0: ddc2 6f3d 0730 303e 5719 9bbd 0a71 913d
00000200: 5db7 873d 5735 93bd 59da 803c 8212 063e
00000210: c4cc f93d 9f19 d23d 8528 783c 3a14 8dbd
00000220: 48c1 c83d fe3a ee3c fef7 0a3e 113d 55bd
00000230: 6f37 263d 640e ef3d 2208 6ebd 2504 0e3e
00000240: 6f1e 0cbd d240 4cbc 79ea 1fbe 2990 833d
00000250: 6bf7 28be c38b 40bd 5983 1e3e d1f5 89bc
00000260: 0447 293e 6ace 2e3e 955b 393e 0ec4 7dbd
00000270: 04dc df3d 02aa 6c3d ce53 24bd 845b a0bc
00000280: 2607 073d cdfb b73b 43d2 723d d106 b6bd
00000290: 1f65 6bbd 319d f3bc e7a6 b2bd c5c7 153e
000002a0: 50bd b4bd 9c3d 0ebe e502 c2bd 8607 b13d
000002b0: 4f5e 5dbd 5156 d03c 643b 88bd 64a9 5cbd
000002c0: 3cb3 743d e4f5 b03d f43b 023e 58f2 8bbd
000002d0: c86c 383e a2c2 46bc e0ae 89bd 03bc c83c
000002e0: c954 3d3c ff6b 183e 7e8b a13d be16 d4bd
000002f0: 610d 14bd 86aa 983c afa4 093e aeb1 eebc
00000300: 8e9a 07bd a8e0 983c 4164 f3bd bcdc 05bd
00000310: 79b2 41bd 652e 92bd db93 d9bd af4d aebc
00000320: cd87 f1bd 4024 f83b d9d6 32bd 93fc a53d
00000330: c631 c1bc ae6f 983b 43fb e43d da0a 6c3d
00000340: 7ba3 adbd 56ba 093e 3540 a23d 6c0d 93bd
00000350: e1b4 333d 5481 513d 653b 6b3d 77ca 4a3e
00000360: 9923 cf3d 5598 b0bc fd3b 13be 1089 a83c
00000370: 948a b03d 1773 0d3e 73f3 883d 5464 6cbc
00000380: 062a bfbc 17c6 a1bd b740 313e 2308 a43d
00000390: 6afc f83d 1d50 553d e89d 603e 063f 8ebb
000003a0: 5547 9abd 4760 d53d 7706 003e 9504 9c3d
000003b0: a3f0 4ebd 7d96 473d 8102 68bd 6298 a33d
000003c0: 8096 abbd cef6 d9bd 63f2 4c3e c95a a1bb
000003d0: b565 583d b08f ca3d ffff b93d ab11 cf3d
000003e0: cf21 adbd 8940 92bd 58c5 c53d dcf1 5ebd
000003f0: 0bf2 be3d 10d5 4fbd e4ea a6bd 9c70 283d

proj f4 [12, 60]
-0.11461998 0.15109813 0.0038592322 -0.12455192 0.0060517425 0.044392016 0.07608343 0.04036852
0.104333356 -0.16206624 -0.13608432 -0.16885523 -0.06818498 0.09984953 -0.1028977 -0.09134371
0.124277435 -0.011063795 -0.048194468 -0.10938083 -0.0670675 -0.037803724 -0.13659704 -0.05478032
0.11712741 0.027377313 -0.024758963 0.0047124103 -0.102850385 0.17258707 -0.15182121 0.11533936
0.10509601 -0.072335795 -0.0118486965 0.12178472 -0.035506323 0.12185633 0.09972642 0.0029413758
-0.020479046 -0.015724512 -0.116684414 -0.03796414 -0.087532476 -0.06398484 -0.16052188 -0.13825576
-0.09751405 0.10921158 0.123008944 -0.0976222 -0.1119115 -0.0938617 0.12280421 -0.15065168
0.047147993 -0.14954574 0.015852617 0.11415529 -0.047147818 -0.12095891 0.07046249 -0.078502975
-0.08873159 0.072329596 -0.013937018 0.026689922 -0.025359137 0.14902312 -0.04980213 0.14103675
0.08260703 -0.039759308 -0.0019537348 0.0331033 -0.06532983 0.13500695 -0.08076701 -0.044257835
-0.05953075 -0.13902144 0.08917731 -0.05328896 0.019308757 -0.07937889 -0.15153576 0.13487867
0.0628088 -0.1111429 -0.045090683 0.08938289 0.067932986 0.09064498 0.09264103 -0.07275025
-0.1297052 0.07997557 -0.032108482 0.05614473 0.012900607 -0.123394474 0.06024873 0.016341737
-0.058563903 -0.051435698 0.13347116 0.113932095 0.15698548 0.0782995 0.07621166 0.118894316
0.0016019427 0.09540932 -0.13656485 -0.09772925 0.119987905 0.054328065 -0.07099507 0.009995016
-0.037540995 0.050292674 -0.07342641 -0.0632336 0.06943078 -0.09516218 0.0007209859 -0.045826133
-0.096573114 0.020679036 0.012673003 -0.06845767 -0.1429236 -0.0012405716 -0.082563914 -0.08474451
-0.03179218 0.08053398 -0.024036331 0.07204243 -0.057357036 -0.009783453 0.0251072 -0.09866497
0.030258551 0.010797217 -0.018037397 0.022433966 -0.026297351 0.04786099 0.10963489 0.073055856
0.07629602 -0.017726926 0.12976575 -0.04149504 0.04932401 0.15204683 -0.015203051 0.10375852
0.09678217 0.028312085 -0.03540984 0.09185349 -0.10285757 0.08820991 0.0019787916 -0.088313356
-0.072448775 -0.06055527 -0.005525495 0.0997746 -0.04575935 0.08027457 -0.08194513 -0.04534578
0.08040536 -0.011179554 0.0030373128 0.12101024 0.09630836 0.06746251 0.056278385 -0.093741216
-0.06430355 -0.09356861 0.09462225 -0.07053867 0.07404491 0.019440133 -0.044883646 0.04554474
0.036896043 0.09710806 0.0819184 -0.059989326 -0.08604739 -0.18656495 -0.07966077 0.055314824
0.01519086 0.1051519 -0.13305558 0.08094221 -0.07511579 -0.0017837674 -0.1133788 -0.04564842
-0.1354138 0.09277775 -0.11880666 0.08752491 0.016624235 0.03666576 -0.10421384 -0.10782881
0.013234103 0.058847092 0.05693726 -0.013321818 -0.047693077 0.052100405 -0.09068546 -0.04610441
0.11267162 -0.032783423 0.061065763 0.10473039 0.03125388 -0.0681054 0.013857156 0.022055939
-0.10128591 0.09936147 0.10300965 0.05539261 0.05997319 0.030219687 0.10772985 -0.12664114
0.09462547 0.05176155 -0.10953341 -0.04638571 0.087302595 0.018728515 0.02107188 -0.08081791
0.075843714 0.06382303 0.06404345 -0.10987952 -0.20702443 0.093844354 0.01877672 0.06684312
00000000: e1bd eabd 78b9 1a3e 2ceb 7c3b 1415 ffbd
00000010: b24d c63b 67d4 353d a1d1 9b3d 7659 253d
00000020: baac d53d b1f4 25be b059 0bbe 63e8 2cbe
00000030: 91a4 8bbd e97d cc3d 08bc d2bd 6912 bbbd
00000040: 2b85 fe3d eb44 35bc 9067 45bd 0e03 e0bd
00000050: af5a 89bd 14d8 1abd 18e0 0bbe 5461 60bd
00000060: 7fe0 ef3d 6346 e03c 4fd3 cabc 906a 9a3b
00000070: 39a3 d2bd aaba 303e 0577 1bbe 0b37 ec3d
00000080: 943c d73d ca24 94bd 0921 42bc 446a f93d
00000090: 146f 11bd d08f f93d 5e3d cc3d 19c4 403b
000000a0: acc3 a7bc b1d0 80bc 3df8 eebd 4980 1bbd
000000b0: 3a44 b3bd 7c0a 83bd d95f 24be eb92 0dbe
000000c0: 72b5 c7bd 52aa df3d 1dec fb3d 26ee c7bd
000000d0: db31 e5bd 903a c0bd c680 fb3d 6f44 1abe
000000e0: 411e 413d 8522 19be 59dd 813c 40ca e93d
000000f0: 121e 41bd 4eb9 f7bd a34e 903d 2bc6 a0bd
00000100: e8b8 b5bd 8a21 943d 1758 64bc d3a4 da3c
00000110: f7bd cfbc 8499 183e 51fd 4bbd f06b 103e
00000120: e02d a93d a8da 22bd 3b0a 00bb 5397 073d
00000130: a5cb 85bd 433f 0a3e 2d69 a5bd b447 35bd
00000140: 84d6 73bd a35b 0ebe 98a2 b63d 8645 5abd
00000150: 662d 9e3c 6691 a2bd 312c 1bbe a21d 0a3e
00000160: e6a1 803d e49e e3bd 02b1 38bd 600e b73d
00000170: 7320 8b3d 13a4 b93d 95ba bd3d 15fe 94bd
00000180: 71d1 04be 3bca a33d 2f84 03bd 04f8 653d
00000190: 115d 533c 3eb6 fcbd 5fc7 763d 1bdf 853c
000001a0: b4e0 6fbd 3dae 52bd aaac 083e 3b55 e93d
000001b0: cdc0 203e 7d5b a03d dc14 9c3d dd7e f33d
000001c0: 47f8 d13a f665 c33d a8d7 0bbe 4626 c8bd
000001d0: 38bc f53d 1b87 5e3d dd65 91bd 23c2 233c
000001e0: 96c4 19bd b1ff 4d3d 9660 96bd 9e80 81bd
000001f0: ba31 8e3d 64e4 c2bd 8b00 3d3a 2fb4 3bbd
00000200: 20c8 c5bd 1567 a93c 6da2 4f3c 8933 8cbd
00000210: 905a 12be ad9a a2ba 4517 a9bd 888e adbd
00000220: 8438 02bd 00ef a43d d7e7 c4bc fb8a 933d
00000230: 36ef 6abd c74a 20bc 9dad cd3c dc10 cabd
00000240: c8e0 f73c cfe6 303c 2ac3 93bc 70c7 b73c
00000250: 8b6d d7bc e309 443d 4288 e03d 4f9e 953d
00000260: 1641 9c3d 0f38 91bc 50e1 043e b4f6 29bd
00000270: f907 4a3d 2ab2 1b3e 3816 79bc 597f d43d
00000280: bb35 c63d bfee e73c e909 11bd af1d bc3d
00000290: fda6 d2bd 66a7 b43d 9dae 013b a2dd b4bd
000002a0: 0660 94bd ce08 78bd 360f b5bb a056 cc3d
000002b0: 286e 3bbd fe66 a43d d9d2 a7bd 7fbc 39bd
000002c0: 91ab a43d 732a 37bc a70d 473b 37d4 f73d
000002d0: 513d c53d c929 8a3d 2a84 663d 65fb bfbd
000002e0: 94b1 83bd e6a0 bfbd 4fc9 c13d 9476 90bd
000002f0: dca4 973d ea40 9f3c ead7 37bd 1f8d 3a3d
00000300: 4e20 173d 97e0 c63d d6c4 a73d 5eb7 75bd
00000310: 9d39 b0bd e20a 3fbe 3025 a3bd cc91 623d
00000320: 16e3 783c e159 d73d b93f 08be 08c5 a53d
00000330: 4fd6 99bd 4dcd e9ba 2533 e8bd d6f9 3abd
00000340: eaa9 0abe 4302 be3d e850 f3bd 4340 b33d
00000350: 8c2f 883c d62e 163d 116e d5bd 5ad5 dcbd
00000360: dad3 583c a609 713d 0b37 693d c143 5abc
00000370: d159 43bd 3c67 553d 4cb9 b9bd fad7 3cbd
00000380: 61c0 e63d e947 06bd 1820 7a3d e37c d63d
00000390: 1204 003d d87a 8bbd 2009 633c a8ae b43c
000003a0: fd6e cfbd 077e cb3d b9f6 d23d 5de3 623d
000003b0: 73a6 753d 478f f73c 78a1 dc3d 37ae 01be
000003c0: 00cb c13d eb03 543d 0d53 e0bd f1fe 3dbd
000003d0: b4cb b23d 8b6c 993c ef9e ac3c dc83 a5bd
000003e0: f353 9b3d a6b5 823d 3629 833d 8408 e1bd
000003f0: 36fe 53be 7831 c03d a3d1 993c 0ce5 883d

bias_ih f4 [240]
0.057862435 0.07496802 0.09833575 -0.054506257 -0.020447204 -0.057712067 -0.09063803 0.16427654
0.034529615 0.014129394 0.0040052165 -0.00516749 0.03587952 0.0029646305 -0.08204212 0.07636218
-0.09307568 0.040559128 -0.018214654 -0.022591518 0.046931434 -0.031742267 0.14155743 0.08208445
0.082296714 -0.04843885 0.11805561 0.12348687 0.059870396 0.014163505 0.13889252 0.14465983
0.021358883 -0.041467007 0.14555126 0.05387782 -0.08910689 -0.09456091 0.012779369 0.030459456
-0.04782332 -0.018089121 -0.04483017 0.08259613 0.13760579 0.123404615 -0.013065954 -0.057801794
0.15818027 -0.062211607 0.14071412 -0.046465088 -0.009993144 -0.026467314 0.10812925 0.12647066
0.09264497 0.030061139 0.12747882 0.05924949 0.00023805044 -0.004755332 -0.067767926 -0.021854063
-0.05122442 0.122069456 0.12826818 0.0025844374 -0.07274371 -0.08423078 0.04947425 0.052092142
0.03142384 -0.048210237 0.053339552 -0.045057982 -0.004538122 -0.040192053 -0.01488848 -0.086985245
0.059644967 -0.015186977 0.008962015 0.021034952 -0.10545123 -0.038136203 0.072373085 0.13447483
-0.101540826 0.13660702 -0.06379282 -0.041223492 0.14110567 -0.0038472088 -0.060639918 -0.0018774281
0.025145516 -0.0765564 0.08438402 0.12533596 -0.09337775 0.06443098 -0.02198281 0.055193238
0.09905221 0.13813642 0.12078103 0.11871979 -0.0012026783 -0.0015673443 0.044062193 0.12526187
-0.038818695 0.123173185 0.12708244 0.11515089 0.01531438 0.059781313 -0.014886741 0.004417141
-0.054654676 -0.05046832 -0.021303028 0.020570328 0.07550963 -0.16210993 -0.07165572 0.08973994
-0.073053084 -0.11225333 -0.12384362 0.058415294 0.089502506 0.027326848 -0.061637837 -0.039852817
0.121488534 0.036274627 0.107322514 -0.14540625 -0.08545131 0.07961394 -0.12471593 -0.12919977
-0.05421892 0.07899687 -8.607922e-05 -0.11632969 -0.0056960704 0.059881754 -0.1099292 0.08775539
0.03870446 -0.1787644 0.10028263 0.14000049 0.1358898 0.092001356 0.0718691 -0.033084735
0.031438656 0.08743873 -0.08985776 -0.17962405 -0.044541724 0.1476252 -0.08167013 -0.07538967
-0.12084528 0.023469122 0.124838896 -0.07542187 -0.13577235 -0.06317069 0.11184844 -0.13477708
-0.015893 -0.10669543 0.05794094 0.12667236 0.109189644 -0.055988226 0.13953933 0.016690487
-0.07885826 0.09077391 -0.008815312 0.028073115 0.058061905 0.110012546 0.034612343 0.08685347
0.12291172 -0.054434847 0.030708656 0.08922898 -0.016489536 0.014234261 0.028753597 0.056044966
0.055949878 0.024537046 0.16963422 -0.080679685 0.067590356 -0.101090394 0.10303021 0.13181128
-0.08111091 0.05588018 0.04125496 0.11504343 0.023599274 0.071422525 0.021922832 -0.054393332
-0.001024774 0.067502886 0.10010634 0.05021183 -0.04735162 0.08852853 0.017790494 0.03349013
-0.0870176 0.06257884 0.14904457 -0.052173976 -0.07638311 -0.04626035 0.16799253 0.15901354
0.15892427 0.1718057 0.1147801 -0.04428218 -0.13662326 -0.013178562 0.046554945 0.12197333
00000000: 2901 6d3d d588 993d 4164 c93d f441 5fbd
00000010: e580 a7bc 7d63 6cbd 6ea0 b9bd 1c38 283e
00000020: ed6e 0d3d f97e 673c 313e 833b 0c54 a9bb
00000030: 67f6 123d 3f4a 423b b305 a8bd c663 9c3d
00000040: 769e bebd 5421 263d e636 95bc d911 b9bc
00000050: 2d3b 403d 2e04 02bd 6ef4 103e e41b a83d
00000060: 2e8b a83d d167 46bd 24c7 f13d afe6 fc3d
00000070: a93a 753d 0c0e 683c d739 0e3e b521 143e
00000080: d3f8 ae3c 4fd9 29bd 640b 153e fdae 5c3d
00000090: ac7d b6bd 26a9 c1bd 8f60 513c 1c86 f93c
000000a0: 63e2 43bd a32f 94bc d79f 37bd 2928 a93d
000000b0: 88e8 0c3e 8fbb fc3d 9512 56bc 93c1 6cbd
000000c0: 02fa 213e 99d1 7ebd 5d17 103e 2d52 3ebd
000000d0: 49ba 23bc fbd1 d8bc de72 dd3d 8681 013e
000000e0: a5bc bd3d c742 f63c cf89 023e 98af 723d
000000f0: 2e9d 7939 9ed2 9bbb e9c9 8abd 4b07 b3bc
00000100: b3d0 51bd 8dff f93d bc58 033e aa5f 293b
00000110: a7fa 94bd 3081 acbd 83a5 4a3d 925e 553d
00000120: 49b6 003d 1978 45bd 937a 5a3d b88e 38bd
00000130: 87b4 94bb 6ca0 24bd d0ee 73bc 5225 b2bd
00000140: 484e 743d ccd2 78bc 6ad5 123c 7e51 ac3c
00000150: d1f6 d7bd b534 1cbd 5738 943d c5b3 093e
00000160: a3f4 cfbd b6e2 0b3e cfa5 82bd f7d9 28bd
00000170: 017e 103e 7421 7cbb 9061 78bd 0914 f6ba
00000180: f8fd cd3c 9ac9 9cbd 87d1 ac3d 1258 003e
00000190: d53c bfbd 64f4 833d 4b15 b4bc 4e12 623d
000001a0: e3db ca3d a273 0d3e 0b5c f73d 5c23 f33d
000001b0: 30a3 9dba 596f cdba 8f7a 343d a644 003e
000001c0: 5a00 1fbd 3942 fc3d e621 023e 3bd4 eb3d
000001d0: 2ae9 7a3c 40dd 743d 84e7 73bc aabd 903b
000001e0: 95dd 5fbd deb7 4ebd b083 aebc 1b83 a83c
000001f0: cba4 9a3d 2500 26be 3cc0 92bd 93c9 b73d
00000200: db9c 95bd 13e5 e5bd b9a1 fdbd e044 6f3d
00000210: 174d b73d 8edc df3c f577 7cbd b53c 23bd
00000220: fbce f83d b494 143d e8cb db3d 60e5 14be
00000230: 1901 afbd a20c a33d 116b ffbd f24c 04be
00000240: a914 5ebd 1cc9 a13d 6e85 b4b8 433e eebd
00000250: 1aa6 babb 9246 753d 8f22 e1bd 19b9 b33d
00000260: 9188 1e3d 040e 37be fb60 cd3d 4a5c 0f3e
00000270: b226 0b3e 356b bc3d 1b30 933d dc83 07bd
00000280: d2c5 003d 1413 b33d 5807 b8bd 5eef 37be
00000290: 6271 36bd 0f2b 173e ab42 a7bd e665 9abd
000002a0: bb7d f7bd 5142 c03c 89ab ff3d c876 9abd
000002b0: e807 0bbe a25f 81bd cb10 e53d 0103 0abe
000002c0: 0932 82bc 2283 dabd 7b53 6d3d 66b6 013e
000002d0: d29e df3d e953 65bd 66e3 0e3e 7dba 883c
000002e0: 7080 a1bd ace7 b93d 196e 10bc 97f9 e53c
000002f0: 52d2 6d3d 424e e13d acc5 0d3d 3be0 b13d
00000300: 24b9 fb3d 13f7 5ebd b890 fb3c afbd b63d
00000310: 1015 87bc d136 693c aa8c eb3c 688f 653d
00000320: b32b 653d ea01 c93c 98b4 2d3e 643b a5bd
00000330: d06c 8a3d 7b08 cfbd 8101 d33d 89f9 063e
00000340: 7a1d a6bd 9ee2 643d f6fa 283d e49b eb3d
00000350: 4453 c13c f945 923d 8397 b33c 8bcb 5ebd
00000360: b651 86ba f43e 8a3d 8e04 cd3d ebaa 4d3d
00000370: c6f3 41bd 724e b53d 5fbd 913c f22c 093d
00000380: 4936 b2bd 5629 803d 249f 183e 61b4 55bd
00000390: bf6e 9cbd 7e7b 3dbd 3c06 2c3e 72d4 223e
000003a0: 0bbd 223e d5ed 2f3e d411 eb3d 3b61 35bd
000003b0: f8e6 0bbe e5ea 57bc 66b0 3e3d 27cd f93d

bias_hh f4 [240]
-0.026192648 0.05114176 -0.010319441 0.078050874 0.13064727 -0.07176309 -0.0671765 -0.05090836
0.082170986 0.08602435 0.11621813 0.11598417 -0.039293002 0.05807415 -0.06011353 0.18105125
0.101130456 0.08607272 0.1018711 0.07024424 -0.09389547 -0.022707842 0.089687794 0.05353358
0.116871044 -0.07936049 0.12402937 -0.04309598 -0.10324241 -0.06251108 0.08297727 0.045240138
0.01662186 0.097900085 0.02758205 0.0014427057 -0.097516276 -0.102505274 0.02209125 0.026927387
0.0070160604 0.013825588 -0.047208924 0.033869334 0.08376872 0.099143006 -0.03085761 -0.02641117
-0.042203154 -0.024701461 0.031229401 -0.06252984 0.05177396 0.057599027 0.1375296 -0.035618756
-0.044303715 0.08998087 -0.023089422 0.02474863 0.087798074 -0.021483472 0.08140059 -0.121230595
-0.05736086 0.021946596 0.114912935 0.04288419 -0.06784604 -0.07711377 0.12555772 -0.014955089
0.116483994 -0.0023138528 0.074021794 -0.016531823 -0.107859544 0.041365616 -0.017190812 0.10618249
-0.018019654 0.038934603 -0.031355556 0.08113183 0.13365167 -0.12414402 0.15592338 0.060262807
0.041509125 -0.002973567 0.0073476178 0.084403716 0.105089456 0.1744127 -0.10042786 -0.049781058
0.030245494 -0.063291594 0.10216261 -0.010140702 0.07056232 -0.06483205 -0.05092384 0.0137720695
0.06557166 0.13600783 0.1413847 -0.008321141 0.1561835 -0.07332582 0.037117347 -0.06020014
-0.07574775 -0.064933404 0.09131592 -0.02335173 -0.14748049 0.0004425291 0.13289535 0.053078804
0.02638666 0.10599155 0.039957236 0.0897622 -0.08251733 -0.03132968 -0.12226264 0.1676847
0.14231323 -0.052888438 -0.01485719 -0.089526966 -0.071688816 0.14113326 0.07476809 -0.13112333
-0.06258256 0.015428076 0.1675501 0.0679429 0.01395868 0.13484085 -0.017623242 -0.055143144
0.1294864 0.057498243 0.1668563 -0.1461934 -0.05597619 0.11603124 -0.0053976965 0.14607263
0.123752594 0.008923849 -0.095344596 0.081464656 -0.07552593 -0.019942347 -0.0659141 -0.077513196
0.11582508 -0.06063337 0.008641381 -0.08548279 -0.06464835 -0.04731705 -0.006083057 -0.14979567
0.042515166 0.09714539 0.1437575 -0.07920478 -0.117650874 -0.12356966 -0.007978238 0.06499579
-0.092138484 -0.13674036 -0.03515305 -0.08188982 0.075000875 0.17044383 0.01487056 0.008519341
-0.05990999 0.12540342 0.093413986 0.050002247 -0.053163372 -0.1119978 0.09480696 -0.064439505
-0.013450513 -0.08732273 0.10122523 0.13441557 -0.04649136 -0.0076892623 0.16382164 0.06908759
-0.04452124 -0.04028541 0.054860346 -0.1027657 -0.03774305 0.03978402 0.08556846 0.10402942
-0.019559493 -0.063487224 0.0008177996 0.17610544 -0.01948316 0.15894726 -0.027362376 0.06933805
-0.05201181 0.03075186 0.06909405 0.007403368 0.14515346 -0.08662246 -0.07903131 -0.0019835818
0.101812944 0.12375224 0.14587073 0.07175484 0.04676201 -0.09241093 0.1665663 -0.028925441
0.14652362 0.024462054 0.12767792 0.12865949 0.032205883 0.036563575 -0.052605756 0.0592502
00000000: f791 d6bc 067a 513d df12 29bc 23d9 9f3d
00000010: 66c8 053e 87f8 92bd d593 89bd 4985 50bd
00000020: 4349 a83d 892d b03d c503 ee3d 1c89 ed3d
00000030: b3f1 20bd 29df 6d3d 9b39 76bd 8065 393e
00000040: 7c1d cf3d e546 b03d cca1 d03d 36dc 8f3d
00000050: 454c c0bd cc05 babc 3cae b73d 0746 5b3d
00000060: 165a ef3d c187 a2bd 1c03 fe3d 6985 30bd
00000070: c270 d3bd cf05 80bd fdef a93d b94d 393d
00000080: 912a 883c d77f c83d c0f3 e13c 2c19 bd3a
00000090: 9db6 c7bd 49ee d1bd b6f8 b43c d396 dc3c
000000a0: fbe6 e53b b884 623c 255e 41bd 92ba 0a3d
000000b0: ef8e ab3d 7d0b cb3d 19c9 fcbc 3d5c d8bc
000000c0: 37dd 2cbd b85a cabc cdd4 ff3c a50f 80bd
000000d0: ef10 543d f5ec 6b3d 8fd4 0c3e f9e4 11bd
000000e0: d077 35bd e447 b83d 0726 bdbc a4bd ca3c
000000f0: 7acf b33d 1bfe afbc 5ab5 a63d bf47 f8bd
00000100: 39f3 6abd 59c9 b33c 7957 eb3d 55a7 2f3d
00000110: ddf2 8abd d3ed 9dbd 3492 003e 3106 75bc
00000120: 298f ee3d 02a4 17bb bd98 973d bf6d 87bc
00000130: 77e5 dcbd fe6e 293d bfd3 8cbc 3576 d93d
00000140: f49d 93bc e479 1f3d af6e 00bd 7228 a63d
00000150: fcdb 083e 383f febd 61aa 1f3e 22d6 763d
00000160: 7905 2a3d 2de0 42bb 49c4 f03b dbdb ac3d
00000170: 2439 d73d 3e99 323e 1fad cdbd 39e7 4bbd
00000180: 66c5 f73c 069f 81bd a13a d13d 3025 26bc
00000190: fa82 903d aac6 84bd 8495 50bd 3fa4 613c
000001a0: 6f4a 863d a345 0b3e 27c7 103e 6555 08bc
000001b0: 91ee 1f3e d92b 96bd 5c08 183d 6c94 76bd
000001c0: a321 9bbd cefb 84bd d703 bb3d 214c bfbc
000001d0: 2005 17be 4003 e839 b815 083e 2969 593d
000001e0: d628 d83c 1912 d93d 33aa 233d 3fd5 b73d
000001f0: d9fe a8bd 8d53 00bd d664 fabd 8ab5 2b3e
00000200: 8fba 113e 8ca1 58bd 926b 73bc ea59 b7bd
00000210: 96d1 92bd 3d85 103e 0320 993d 3245 06be
00000220: 492b 80bd 0ac6 7c3c 4192 2b3e a625 8b3d
00000230: f3b2 643c b813 0a3e 9e5e 90bc c7dd 61bd
00000240: 1598 043e 4783 6b3d 61dc 2a3e b9b3 15be
00000250: 4a47 65bd c9a1 ed3d 29df b0bb 1094 153e
00000260: 0072 fd3d 5635 123c 0744 c3bd f1d6 a63d
00000270: 57ad 9abd 225e a3bc f9fd 86bd 3dbf 9ebd
00000280: b335 ed3d b25a 78bd 9494 0d3c 9a11 afbd
00000290: 5b66 84bd 86cf 41bd 6154 c7bb 0964 19be
000002a0: 6224 2e3d 2af4 c63d 2b35 133e 1e36 a2bd
000002b0: f1f2 f0bd 1712 fdbd 28b7 02bc 831c 853d
000002c0: 1ab3 bcbd aa05 0cbe a5fc 0fbd dab5 a7bd
000002d0: 0f9a 993d d488 2e3e a6a3 733c b594 0b3c
000002e0: 2d64 75bd c169 003e d54f bf3d 28cf 4c3d
000002f0: d6c1 59bd 1a5f e5bd 272a c23d dcf8 83bd
00000300: 8a5f 5cbc 42d6 b2bd 2c4f cf3d 3ca4 093e
00000310: b96d 3ebd 35f6 fbbb dcc0 273e cb7d 8d3d
00000320: e75b 36bd 5002 25bd 3eb5 603d d376 d2bd
00000330: 7598 1abd 92f4 223d 843e af3d 600d d53d
00000340: 3b3b a0bc 9705 82bd 9a61 563a fc54 343e
00000350: 269b 9fbc 12c3 223e 1027 e0bc 1c01 8e3d
00000360: 560a 55bd 53eb fb3c 2e81 8d3d f497 f23b
00000370: 1ca3 143e 1e67 b1bd 2bdb a1bd fbfe 01bb
00000380: 4e83 d03d d071 fd3d 235f 153e 34f4 923d
00000390: 8589 3f3d f141 bdbd 5b90 2a3e 0cf5 ecbc
000003a0: 4a0a 163e a564 c83c 00be 023e 50bf 033e
000003b0: 51ea 033d b0c3 153d 2279 57bd 56b0 723d

weight f4 [3, 12]
0.1855428 0.0074946135 0.38509417 -0.12194082 0.30434042 0.2556193 0.19207843 -0.20826651
0.26826984 0.3116881 -0.23604281 0.21975678 -0.041736312 -0.21664754 0.018672464 -0.12872842
0.29641697 0.18100332 -0.23851568 -0.17663424 0.10334655 0.093298525 0.21343568 0.02074929
0.0756713 -0.1084082 -0.24051146 0.08145721 -0.24110895 0.010572132 0.12154402 0.047621783
-0.019446211 -0.09277362 0.32754338 -0.10150168
00000000: effe 3d3e 6095 f53b 102b c53e 1cbc f9bd
00000010: 82d2 9b3e 88e0 823e 35b0 443e d143 55be
00000020: aa5a 893e 9595 9f3e 35b5 71be ec07 613e
00000030: b2f3 2abd dad8 5dbe fff6 983c 62d1 03be
00000040: f7c3 973e ef58 393e 743d 74be 9bdf 34be
00000050: 5ba7 d33d 4c13 bf3d e28e 5a3e 6afa a93c
00000060: 8ef9 9a3d 1e05 debd a348 76be 0ad3 a63d
00000070: 44e5 76be bc36 2d3c 12ec f83d 0f0f 433d
00000080: a94d 9fbc 1800 bebd c4b3 a73e 1de0 cfbd

bias f4 [3]
0.21756387 -0.077944875 -0.13073319
00000000: 10c9 5e3e 90a1 9fbd ecde 05be
