models/paramsearch_1e-05_0.99999_0.42242204746782663_31.pt (torch, 31894 bytes, 7 tensors)

weight_ih f4 [240, 6]
00000000: 237d 803c 791f 8cbd c33c 0abe 5315 d43b
00000010: b91d 09be 268b 18bd b33a 423d 3fa7 03bc
00000020: d93a 74bc d4eb 033e ad2c abbd 7619 173e
00000030: b1ee daba 1568 db3c 0e10 aabc 8cff e33c
00000040: e17e f5bc 5ec6 fdbd 96ea eb3c 0947 c33d
00000050: ba5e bbbd 725c 123e 922c 53bd d5be 023d
00000060: 955c 05be 8c90 1e3d 4d3c f8bc 85c7 c4bd
00000070: 8913 993d 12dd c8bd 64bb 40be 433a 883c
00000080: 60e4 84be c98b 44bd d6fa e6bd f5a9 febd
00000090: d37c 143d 3f8c 9d3d 3736 8f3d 43b4 083d
000000a0: a605 acbc 8065 d63d 1ab5 8ebd 5f04 d2bd
000000b0: dfb9 483c da40 11be 8753 b7bd 68b7 2cbe
000000c0: 66bc 833d 22ff cc3d c407 7bbb afcc b4bd
000000d0: 2456 833c 34ec fabc 7296 ed3c def9 c93d
000000e0: 2cf0 40bd 25f9 2bbd be9d eb3d a7cd 683d
000000f0: 4223 8a3d 3eda abbd 17fe 8a3d f41a 09be
00000100: 7456 d5bd e844 053d e456 b7bc 1830 a3bc
00000110: 4ae6 923c 74a2 073e b89c 25bd e3b2 49bd
00000120: bb8a b13d 097f 84bd c120 28bd 3244 1b3e
00000130: 7e20 22bd 4103 823d ab23 ab3d 837b 8abd
00000140: 152b 0e3e ea9e a53d b8b1 ca3c c2a5 3bbc
00000150: 186b 3dbe d5d1 8a3c 2ac2 efbd 9ad5 42be
00000160: f8c4 a5be 2282 94be 92b1 c8bd d808 a43d
00000170: 3661 e3bd 4cda 413d 44a8 473d 2a4a 86bd
00000180: 8c43 bbbd a29a 123d 1d2f 0cbb d1b5 38bd
00000190: 7deb f23c 712c 103e 1e6c d03d 1c6e 0a3e
000001a0: 3ba7 f8bc 4055 d83d 20b3 6dbd ff46 89bc
000001b0: 5400 63be 0862 923c 649d 53be 12f2 82bd
000001c0: 55b1 153c 2834 71be e192 bc3c eb0d debd
000001d0: fdac cfbc fef8 9f3d 469a 3ebd 3180 333d
000001e0: abe4 14bd 9176 033e e7a4 7e3d ca3f 083e
000001f0: d508 aabd 5481 9ebd 0564 f4bd f07a 83bd
00000200: d067 81be 51fb 12bd 0699 16bd 0c16 c4be
00000210: 0b34 14bd a45f df3d 1c06 66bc 7c9a c2bb
00000220: bdec d63d cf0a a0bd c905 94bd e254 eb3d
00000230: 7a88 6abb e745 77bd 3896 2ebc 8d5e 883d
00000240: ffb3 11be e83d 74bd 2acc eabc ce27 8e3d
00000250: 2d5a 13bc b4f8 a23d 4f20 8f3d e982 e73d
00000260: 8ce6 ccbc e6e2 9b3d 92ba c7bd f52c 1dbe
00000270: 799a b03c 8f8e 44bd cf98 843d f6fa cb3b
00000280: 8f24 c63d fbde 043e 07aa d73d 0e6b 013e
00000290: 8d9e 07bd c75f 3c3c 891f a2bd 5884 0d3e
000002a0: c680 093e 34f3 5b3d 6da6 a43d ee49 753b
000002b0: 4ad9 2a3d e7c0 913d 5d0f f63d a2cc 153e
000002c0: d796 6e39 7873 d93d 440a d3bc d608 0ebc
000002d0: dbb5 f43c 4c3c 9d3d be34 883a 5213 02bd
000002e0: 5e7b c3bb c9ae c73d 40ca 0cbd c39b fbbb
000002f0: 1fca 6bbe c92f fabc 07bc bebd 2a66 84be
00000300: 510d cc3d f7c4 493d 7c20 89bb 3bd9 de3d
00000310: 3997 babd d21b d0bd 70bd cb3d b18a 243c
00000320: 45b7 873d dddc 143e c832 b6bd 8bfd 2dbc
00000330: dee7 b5bd 0ba3 613d 0633 1ebe e003 8cbd
00000340: 0782 23be 3122 6cbe a503 f7bd 8f79 11be
00000350: c7d6 5ebe a741 54be 6d59 d8bc 2c7e 64be
00000360: a3d7 59be 3223 1d3d f218 83be c9ec 78bd
00000370: bf6d 58be 1bd9 b7be 991a 98bd 928f 8f39
00000380: e05b f23c 8df4 d7bd ffa4 ccbd 681f f9bd
00000390: cb66 5abd bed7 d03d 8d4c f93c 6732 9dbc
000003a0: c835 ac3d 776d ddbb 65dd 43be 1d71 88bc
000003b0: 3ea2 a5bd 5d3c 11be 3d5e 2cbe e156 76be
000003c0: aa54 bebd e5b8 babd 317e 4f3d faf9 44bd
000003d0: 9eca fabd 0230 6b3d 398e 053e 0bea 0b3c
000003e0: ae00 ad3d 5c3b 7a3d 8dd5 35bd 65cf 883d
000003f0: fb86 a7bc 7f12 53bd 13e9 03bd 7468 703d
0.01568467 -0.068419404 -0.13499741 0.0064722686 -0.13390245 -0.037242077 0.04741926 -0.00803548
-0.0149066085 0.1288293 -0.083581306 0.14755806 -0.0016703216 0.026783029 -0.020759609 0.027831815
-0.029967727 -0.12391351 0.028798383 0.09535033 -0.09148927 0.14293078 -0.051556177 0.031920273
-0.13023598 0.03871207 -0.030302191 -0.09608368 0.07474429 -0.09807791 -0.18821484 0.016629344
-0.25955486 -0.047984872 -0.11278312 -0.124347605 0.036251854 0.076927654 0.069927625 0.033375036
-0.020998787 0.10468578 -0.06968136 -0.1025474 0.012251346 -0.14184895 -0.089514785 -0.16866839
0.064324185 0.100096 -0.003830419 -0.08828103 0.016032286 -0.030630209 0.029002402 0.098621115
-0.047104046 -0.04198565 0.11504696 0.05683675 0.06745006 -0.08391236 0.06786745 -0.13389188
-0.1041688 0.032536417 -0.0223803 -0.019920394 0.017932076 0.13245565 -0.04043266 -0.049242865
0.08669039 -0.064695425 -0.04104686 0.15162733 -0.03958177 0.06348277 0.083564125 -0.06761839
0.13883622 0.08086951 0.024742946 -0.011453094 -0.18497884 0.016945759 -0.11706956 -0.19026795
-0.32376838 -0.29005533 -0.09799494 0.08009499 -0.11102526 0.047327325 0.048744455 -0.065571144
-0.09143743 0.035792 -0.0021390386 -0.04509527 0.029653305 0.14079453 0.10176872 0.13518566
-0.03035318 0.10563135 -0.058032155 -0.016757486 -0.22168094 0.01786901 -0.20665509 -0.063938275
0.0091365175 -0.23555052 0.023019256 -0.108424984 -0.025351042 0.07811163 -0.046533845 0.043823425
-0.036350887 0.12838198 0.062168982 0.13305584 -0.08302466 -0.07739511 -0.1193314 -0.06419933
-0.25274515 -0.035884205 -0.03676703 -0.3829807 -0.036182445 0.10906914 -0.0140395425 -0.005938826
0.10494373 -0.078145616 -0.07227666 0.114907995 -0.0035786913 -0.0603694 -0.010655932 0.06658659
-0.1422882 -0.05962935 -0.028661806 0.06941186 -0.008993668 0.079575926 0.06988584 0.11304266
-0.025012277 0.07611637 -0.09752382 -0.15349181 0.021558033 -0.047987517 0.064744584 0.0062249852
0.09674942 0.12975685 0.10530477 0.12638494 -0.03311019 0.0114974445 -0.07916171 0.13820016
0.1342803 0.053698733 0.08039556 0.0037428099 0.04171113 0.07116871 0.12014649 0.14628842
0.00022753641 0.10617727 -0.025761731 -0.008669099 0.029871872 0.07677516 0.0010391695 -0.031756707
-0.0059656342 0.097501345 -0.034372568 -0.0076784804 -0.23026322 -0.030540364 -0.09313207 -0.25859195
0.099634774 0.049260106 -0.0041847806 0.10881277 -0.09110875 -0.10161556 0.09948242 0.010042832
0.06626753 0.14537378 -0.088964045 -0.010619531 -0.08882116 0.05508713 -0.15449151 -0.068366766
-0.1596757 -0.23059918 -0.12061242 -0.14206527 -0.21761619 -0.2072817 -0.026409829 -0.22313756
-0.21273665 0.038363643 -0.2560497 -0.06077269 -0.21135615 -0.35907826 -0.07426948 0.00027382054
0.029584825 -0.10544691 -0.09992408 -0.121641934 -0.053320687 0.101973996 0.03043201 -0.019189073
0.084086955 -0.006757434 -0.19127424 -0.0166555 -0.08087586 -0.14183183 -0.16832824 -0.24056579
-0.09293492 -0.09117297 0.050657455 -0.04808996 -0.122456774 0.05741883 0.13042535 0.008539687
0.08447395 0.061091766 -0.04439311 0.06680182 -0.020450106 -0.05153131 -0.0322047 0.058693364

weight_hh f4 [240, 12]
00000000: 2d0d 1abb f765 c13c d4be 27bd 8c0e c63d
00000010: 14c8 9cbd cef9 6cbe b608 8ebc 5fb4 24be
00000020: ac16 243e f852 8abd 24ad ac3d 0a55 a63d
00000030: ccd7 013e 1756 833d 8f62 d8bd db50 9c3d
00000040: 04c2 62bd e2b2 0ebd a18f 2cbd 903e a6bc
00000050: 8f71 753d 87ba cf3d 5481 643d cd82 6cbb
00000060: f65b 5bbd 448c 593d b698 ac3d f56b 5c3d
00000070: 675a 163d aa28 06be 7c36 90bc 83b5 a5bc
00000080: 0949 8bbd bbcf 5fbc cd57 873c db18 bfbd
00000090: ba9a e33d 2806 fd3d 4744 6cbd 0686 5cbd
000000a0: 9790 f43d ea57 983d 61a2 1abe 0775 a63d
000000b0: f717 68bc a6cd 193d a4bf e5bd ac0f 8bbc
000000c0: 357e 673d 327c 1bbe 4620 8ebd 50bd 8fbd
000000d0: 9751 db3d e110 81bd 1d22 013e 9f02 ebbd
000000e0: 065c 1ebd d8e5 aebd c5fa 123e 9426 85bd
000000f0: 916d 58be 17a8 643c 067d 0f3e 51af 48bd
00000100: 7e71 1fbe 3ce6 01be e2b9 b73d 91f7 30be
00000110: 9324 e33d d576 0abe 020c 353d 08f2 5cbd
00000120: e13a 0cbc be0b bcbd 158b 71bb d749 d73c
00000130: 10e9 88bb 8da6 fc3d 7169 9d3d 8c28 c63d
00000140: 8aa8 9e3d b125 463c 1897 c53d a9bd bb3c
00000150: ff80 0cbd c817 f13d 3ee5 2dbd d060 22be
00000160: f6d7 653d 81a2 29be 16c7 27bd c2cb 483d
00000170: f6fb e3bd d3fa 9bbd 76f9 283d 1d2f e73b
00000180: 42a3 c6bd 4f5e ccbc 9561 8cbd bf50 20be
00000190: cb47 02be dc76 21be b7b2 023e e4dd 933d
000001a0: 29c4 b93d b63f 803d 71c9 d03a ff11 f73a
000001b0: 5641 17bd f58c 013e 2a93 2c3d 0bf0 aebd
000001c0: 9e9f cbbd 8344 183e 39c3 4a3d f494 cf3d
000001d0: de8b e83d f5b6 093e 0a10 91bd 02fc 4d3d
000001e0: e475 2dbc 4786 44be a9b5 823d 83b0 7dbd
000001f0: 70f8 8bbd 6ce1 f23b d60b a0bc e43f 2cbe
00000200: bd3c c63c fbc5 c9bd aaa1 813c 1265 c2bd
00000210: 0d0b cebd e0e2 ac3d 7b50 07be 593f df3c
00000220: f3f7 8dbd b7df 3dbc 50e8 7a3c 363c 333d
00000230: 7baa 53bd 05ea 87bb d4fb 5bbd d125 0cbd
00000240: 1f28 1f3d 21b9 c03d 6061 14be 7946 643b
00000250: 516b 3dbd 2ca0 88bd e3fc 17be 3a0e f23d
00000260: 96a2 863c 09ed a4bd 650c 3f3c f621 8a3d
00000270: 5915 183e a09a e13b 278a 22bd 2674 113e
00000280: f5b0 8fbd 2a43 823d 3ee9 7e3c 1f1b 0a3e
00000290: ee7e d93b f8e1 1c3e 1810 e23c 055a 9e3d
000002a0: 72a0 97be bcf4 523d 072c 593e a552 02be
000002b0: 9860 67bd ce14 91bd 0960 813e 0ef1 8abd
000002c0: e7a4 80bd 6806 40be f064 833d 1e81 a93d
000002d0: 4d7c 8cbc 5690 1cbe 0a53 8cbd ca68 03bd
000002e0: d06c f2bd 2f88 40be 510c e0bb fae3 0cbe
000002f0: 1003 8d3e 96f5 fa3c 67c3 74bd ce5e f6bd
00000300: 5aca 0d3d 227a 443b 2589 12be 9011 4abc
00000310: 5b19 35bc 82a8 f23d fd96 8e3c 6a2e 05bb
00000320: 983a b73d 91db 493d 96a8 a43d 036d 693c
00000330: 52db dabd 5d29 f23c e983 88bc af67 e8bd
00000340: d5ec 50bd 0b18 993d 5090 ca3d 2471 f3bd
00000350: ac4a f13d feba b93d aee1 bcbd b8ce c5bd
00000360: d0ae 89bd ae1c cdbc 4782 283e e426 41be
00000370: 24e6 083d a560 90be 42e9 913d 88f3 25bd
00000380: 3d41 1d3d c447 cabd b5b9 b53d f234 02bc
00000390: bed4 0abe de09 52bb 2eef a9bd 1c65 e4ba
000003a0: 2f75 c03d 5c4f 2dbe d36a a63d 0464 d13c
000003b0: 757e 7fbc 8d51 833d 1a08 c4bc ae7e acbc
000003c0: baea eabb 30c4 d3bd 55c5 073c 5847 75bd
000003d0: 189f 97bd 760a 63bd c64d 6b3d c227 3bbd
000003e0: 1487 2a3c 522e bb3d a01d 8f3c dff8 c03c
000003f0: ccd0 84be e5cf a6bd fe5d 403e 36ab 4cbe
-0.0023506389 0.023608191 -0.040953472 0.09670743 -0.076553494 -0.23142168 -0.017338138 -0.16084431
0.16024274 -0.06754106 0.084314615 0.08121689 0.12679976 0.06412905 -0.105656736 0.076326095
-0.05536081 -0.034838565 -0.042129163 -0.020293504 0.05992275 0.10142999 0.0557874 -0.0036088706
-0.053554498 0.053112283 0.08427565 0.053813893 0.03670731 -0.1310145 -0.017604105 -0.020228153
-0.0680104 -0.013660367 0.016521359 -0.09330913 0.11113496 0.1235469 -0.0576823 -0.053838752
0.11941641 0.07438643 -0.15101005 0.0812779 -0.01416587 0.037549637 -0.11218193 -0.016975246
0.056516845 -0.15184096 -0.069397494 -0.0701853 0.107089214 -0.063020475 0.1261067 -0.11475109
-0.03866198 -0.08539933 0.14353473 -0.06501499 -0.21135546 0.013956091 0.14012536 -0.04899532
-0.15570638 -0.12685484 0.08971001 -0.17281939 0.1109096 -0.13521893 0.044200905 -0.053941756
-0.00855896 -0.09181927 -0.003685658 0.026280327 -0.004178174 0.123364545 0.07686127 0.096757025
0.0774699 0.012093947 0.096479595 0.022917585 -0.034302708 0.11772114 -0.04245495 -0.15857244
0.05611416 -0.16565897 -0.040961348 0.049022444 -0.11132042 -0.076162 0.04125353 0.007055177
-0.09699108 -0.024947314 -0.0685455 -0.15655802 -0.127227 -0.15767998 0.12763487 0.07220057
0.09070618 0.06262152 0.0015929175 0.0018849968 -0.036927544 0.12651427 0.042132534 -0.08541878
-0.09942554 0.14869885 0.049502585 0.101358324 0.113548025 0.13448699 -0.07083137 0.05028916
-0.010587189 -0.19191848 0.06382305 -0.061935913 -0.06834495 0.0074121263 -0.019536894 -0.16821247
0.024198884 -0.09852215 0.015824158 -0.09491934 -0.100607015 0.084417105 -0.13214295 0.027251886
-0.06932058 -0.011588982 0.015314177 0.043758593 -0.051676255 -0.0041477703 -0.05370696 -0.034215752
0.03885662 0.094103105 -0.1449027 0.0034832044 -0.046244923 -0.06671175 -0.14842562 0.1181912
0.016434949 -0.08053023 0.01166067 0.06744759 0.14851893 0.006884888 -0.039682534 0.14204463
-0.07016174 0.06360467 0.015558539 0.13486908 0.0066374457 0.15320575 0.027595565 0.077320136
-0.29614598 0.05150293 0.21208201 -0.12726839 -0.056488603 -0.07084046 0.25268582 -0.06784259
-0.062814526 -0.18752444 0.06415737 0.0827658 -0.017149115 -0.15289435 -0.06851776 -0.032082357
-0.118371606 -0.1880195 -0.0068374057 -0.13758841 0.275414 0.030634683 -0.059756663 -0.12029801
0.034616806 0.0029980023 -0.14310129 -0.012333289 -0.0110534085 0.118485466 0.017405981 -0.0020321854
0.08946723 0.04928166 0.08039968 0.014247182 -0.10686363 0.02956074 -0.016664462 -0.11347901
-0.05100711 0.07475289 0.09890807 -0.11886814 0.11781821 0.09068869 -0.092227325 -0.09658569
-0.06722796 -0.02503809 0.16455947 -0.18862492 0.033422604 -0.28198734 0.071245685 -0.040515453
0.038392294 -0.098769695 0.088733114 -0.007947193 -0.13557717 -0.0032049338 -0.08297573 -0.0017425152
0.09397351 -0.16924804 0.08125844 0.025560386 -0.015594115 0.06412039 -0.023929644 -0.0210565
-0.007169095 -0.10340154 0.008286794 -0.05988249 -0.074033916 -0.0554299 0.057447217 -0.045692213
0.010408182 0.09139694 0.017470181 0.023556171 -0.2594055 -0.081451215 0.18785855 -0.19987187

proj f4 [12, 60]
00000000: d8a9 873d 0937 91bd 31e3 cf3c 90d3 a6bb
00000010: be80 febc 5f7b d6bf 4e6f 053e 4be6 acbf
00000020: 36c5 d2bd bbb2 043b 4d74 ee3c d518 143e
00000030: afe5 023e 5ed8 293e 5af4 293e 9083 8abe
00000040: b8c9 25be e7e1 9b3d 9ca7 963d 3d17 66be
00000050: 8fc4 883d de47 41c0 05fa 2b3e bf4e cdbd
00000060: 27fd cfbd 3103 563d 8012 34bc fb87 08be
00000070: 39e0 903d d047 993d 3193 b33d f2de 2ebf
00000080: 87d9 593b 2ef3 273d ea1e 72c0 4ba6 f6be
00000090: 7420 edbe bb9e 22bf 2409 cb3b 23ea 16bd
000000a0: 51f8 f7bc 2d2d 37be 3548 82bd 1f81 81bd
000000b0: 31dc f93c c312 2d3e e24a 2d3e fd86 19be
000000c0: 29bf 383d f5b0 17bf 02dd 653f 2c0d 193c
000000d0: 8b9d 29be 5599 55bd c86b 67bd 2a9d 553d
000000e0: 6773 a1bd 159e 143e 33d9 03be 979e 30bd
000000f0: 887f e7bd 5cfd 163d 76a2 54bd c76a 02bd
00000100: dc03 913d f096 ad3e 78d1 c1bc eb8c 6c3e
00000110: 8a3e a0bd b8c0 03bd 707b ffbc d2fa c8bd
00000120: dfd1 af3d 7f92 88bd 938a c93c fef0 a8bc
00000130: d9c8 173d dc90 33bd 0384 163d a221 d63d
00000140: 4a68 713c 7791 d53e ecb9 51bd 47a3 8a3d
00000150: 808f 403d 959b ac3d 1c56 3cbc 6ab2 eb3d
00000160: a4fc fb3c 00c5 6ebc fb36 213d 7994 323e
00000170: 654f 11be 2a5f 213d ccac 483f fbc3 443e
00000180: f0bd 0cbc 1d0e b1bc 2f8d 3338 9fe0 0f3c
00000190: debe fdbc 7b28 823c d38b 0cbd e9ea 3ebd
000001a0: 8d20 e8bd 8471 6a3d 5559 90bd f2fb a43d
000001b0: c979 cebc f26d 673e a8d4 80be 8805 62bd
000001c0: bbfa 063d 2819 143e 891e babc c9fd 6abd
000001d0: cac2 cf3c 16b6 6ebc 2403 053e 7593 a1bd
000001e0: b77f 08be 677c 163e 4772 423d 898d edbc
000001f0: d2e0 9dbd ce59 363f a836 39bc 45bc 0f3f
00000200: 371d e0bd 6d3d 0dbe 725d 64bd e17b 11be
00000210: bddf c0bd efac 1dbb 88ab 3b3d fd1d df3d
00000220: 095d 02bb fd31 42bd d350 fdbd 4de0 28bc
00000230: 6b18 8abd 77f4 ee3f f595 43bd e575 b33c
00000240: 3966 223e 8afe 8e3d 089b 483d cc50 293d
00000250: 7546 183d 4248 ce3d 4c2a 063e e163 603e
00000260: 71ba 9bbd 949a b9bd 286d d63f f0c9 493d
00000270: 6890 373e dfe5 f23e cf1f ce3c cdca d0bc
00000280: 8665 0e3c db87 493d 7c88 483d c01d 10bd
00000290: 62bd e2bd 83e0 18be ff35 a8bd 55da c1bc
000002a0: d967 10be c8eb 853e f6ea 2cbe 2e9e 1b3b
000002b0: cd82 e63c 4591 c7bc c7f2 36bd 9060 ad3d
000002c0: 581c 373d 0570 85bd 8ed5 95bd 5e92 a5bd
000002d0: 964e fe3d be6f 2fbe a870 76bc 3f78 213e
000002e0: 6d62 24bd 24f0 c3bf ac43 2b3e 3d08 bcbf
000002f0: 68dc 3dbc df46 713d 1335 273d 342a 523d
00000300: c9a3 b13d 03c9 ec3d 368e 363c f0c4 3cbe
00000310: d64b fcbd 47a1 3f3c e9da 4a3d 4fd3 c2bd
00000320: a2cf 3a3e c60f 8ac0 8539 2f3e 99f4 953c
00000330: 3083 e4bd fcbf f7bc c2a0 1bbe 5459 21be
00000340: eea4 033d 7f54 353e 29e3 cf3b 164b d7be
00000350: 35f2 773d b6ab 303e d08e 73c0 f86c 14bf
00000360: 7644 acbe 8cb3 8ebf 2f70 10be 8090 69bc
00000370: 4d3e a0bd eb8e 20be c7e9 0e3d e6c4 a2bd
00000380: f349 0f3e dd00 ff3d eb4d a03c 9adf d3bd
00000390: 9a3f cf3a 5be1 2bbf 6b01 3c3f dbb2 ae3c
000003a0: 143c 4dbe 3b43 18be cb2c 293d f785 513e
000003b0: 7236 d73d 120f 133d fb88 2bbc bc7e 7dbd
000003c0: 743b 6bbb a955 09be f811 78bd 40c0 1f3e
000003d0: c9e1 003c 4d13 85bf f349 873d 969d 19bf
000003e0: 062e 86bd b592 08bd 5cce 9d3b 53c9 1c3e
000003f0: c0d6 5fb9 f4e7 1c3e b2c0 39bd ccc9 e5bd
0.06624192 -0.07090575 0.025376888 -0.005091138 -0.031067248 -1.67564 0.1303074 -1.350778
-0.10291521 0.0020248133 0.02910819 0.14462598 0.1278293 0.16586444 0.16597119 -0.270535
-0.16190231 0.07611447 0.07356188 -0.22469802 0.066781156 -3.0200114 0.16794594 -0.10024785
-0.10155707 0.052249137 -0.010990739 -0.13333122 0.07074017 0.074844 0.08768309 -0.6830894
0.0033241229 0.0410034 -3.7831368 -0.48173746 -0.46313822 -0.63523453 0.006196158 -0.036844384
-0.030269774 -0.17888327 -0.06361429 -0.06323456 0.030500503 0.16901688 0.16923097 -0.149929
0.04510418 -0.5925439 0.89790356 0.009341519 -0.16564004 -0.052148182 -0.056499273 0.052151836
-0.078833394 0.14513429 -0.12875824 -0.043119993 -0.113036215 0.036862716 -0.051912747 -0.031840112
0.07080814 0.3390422 -0.023659453 0.23100631 -0.078244284 -0.032166213 -0.03118679 -0.09813465
0.085849516 -0.06668567 0.02460221 -0.020622727 0.037056778 -0.04383932 0.03674699 0.10455634
0.014734337 0.41712543 -0.0512027 0.06769424 0.047011852 0.084281124 -0.011495139 0.11508639
0.030760117 -0.014573336 0.039359074 0.1743945 -0.14190443 0.039397396 0.7838867 0.19215386
-0.0085902065 -0.021613175 4.2808413e-05 0.008781581 -0.030974802 0.015888443 -0.034313034 -0.046610747
-0.113343336 0.057237163 -0.07048289 0.08055867 -0.025204556 0.22600535 -0.25162244 -0.055181056
0.03295396 0.14462721 -0.022719638 -0.057370935 0.025361437 -0.01456978 0.1298948 -0.07889453
-0.1332997 0.14695893 0.047472265 -0.028998153 -0.07708897 0.7123078 -0.011304535 0.5614665
-0.10943072 -0.13792963 -0.05575318 -0.14207412 -0.09417675 -0.0024059375 0.04581788 0.10894392
-0.001989188 -0.047410954 -0.123689316 -0.010307384 -0.067429386 1.8668355 -0.047750432 0.021906802
0.15859307 0.06982143 0.048975974 0.04133682 0.037176568 0.10072376 0.13102072 0.21913101
-0.0760392 -0.090626866 1.6752062 0.04926485 0.1792618 0.47441003 0.025161652 -0.025487328
0.008691197 0.049201827 0.048958287 -0.03518462 -0.11071278 -0.14929394 -0.08213424 -0.02366368
-0.14102115 0.2615645 -0.16886505 0.0023745405 0.028138543 -0.024361262 -0.044665124 0.084656835
0.044704765 -0.06515507 -0.07316123 -0.08084558 0.12417333 -0.1713247 -0.015041508 0.15768526
-0.04013293 -1.530766 0.16725034 -1.4690014 -0.0115881935 0.05890548 0.0408221 0.05130978
0.08673818 0.115617774 0.011142304 -0.184345 -0.12319152 0.011696166 0.049525175 -0.0951296
0.18243268 -4.3144255 0.17111786 0.01830511 -0.111578345 -0.030242912 -0.15198043 -0.15756732
0.03213971 0.17708014 0.0063442183 -0.42049474 0.06053372 0.17253003 -3.8055916 -0.57978773
-0.33645982 -1.1148543 -0.14105295 -0.014255643 -0.07824383 -0.15679519 0.034890916 -0.07947712
0.13993053 0.124513365 0.019568404 -0.10345383 0.0015811801 -0.6714074 0.73439664 0.02132552
-0.20042449 -0.14869396 0.041302484 0.2046126 0.105084315 0.035903044 -0.01046967 -0.06188844
-0.003589359 -0.13411583 -0.06056401 0.15600681 0.007866331 -1.0396515 0.066059016 -0.6000608
-0.06551747 -0.033343036 0.0048158597 0.15311174 -0.00021346938 0.15322858 -0.045349784 -0.1122013

bias_ih f4 [240]
00000000: b771 3f3c 9b94 b33d b45f c0bd b79e ac3b
00000010: cffc 2bbe 9003 26be be86 523d 4bd6 04be
00000020: e14f 21be 7c20 263d f8e1 33bc bc92 7c3d
00000030: 8ab8 b6bc 2d0d e03c 5aa5 e9be 5b49 19bb
00000040: 98f7 32bd 8a2d 0f3d 3ade 70be 8d58 b6bd
00000050: 6db9 253e 076b b8be 4bc5 d23d ebd4 a2bd
00000060: 25f3 9abd 5196 b13d ee7b 1b3e 2799 913d
00000070: 56fd aabc 7d16 8cbc bbee dc3c 8df2 73bd
00000080: 060d 8cbd eedc 243e 8331 78be c473 82be
00000090: 4ed2 b8be 8629 02be ee55 f5bb 41d2 56be
000000a0: 64e4 93bd 6f14 fe3d 865b 743d c3a4 d4bc
000000b0: b98b 773d 7ab1 47bc 5af6 2b3d 503c 9cbe
000000c0: bce1 10be 8a97 52be 3a2d e8bd 942b ac3d
000000d0: 2166 f5bd 3607 4ebc 41cd 93be d948 cdbd
000000e0: 1e81 65bd 3074 c83d f57a 023e 8cfa 883c
000000f0: e099 76bd ebb9 8a3d 6479 713c 89e4 52bc
00000100: ce53 1ebe 74a8 85be cf2c 7c3d 2749 08be
00000110: c871 87bc 36fe 15bb 9b24 eabb 9af7 cb3d
00000120: 825c 34ba 0a82 713d eb1e 81bf a828 e7bb
00000130: b2bb e63d ee10 943b a215 8dbe 481a 18bc
00000140: e8fe 103c e959 a8be bfdd f93c fc52 703c
00000150: 9358 e93c 3393 babd 2c0c 973d b5e2 793c
00000160: 8ea8 953d b534 dfbc fa47 b6bc 8b0e 5bbe
00000170: e749 403d 0da2 e03d 641c 80bf 405d 7cbe
00000180: 58cc ffbe 202c 21be 93f5 c43d f766 8dbe
00000190: ab50 6fbd 1923 0f3e 165e 7cbd 0731 bb3d
000001a0: 9afc 153e 33f8 da3d b808 febc 1ab3 8fbe
000001b0: dcc3 2abd 6697 79be 38f5 92bd 6506 b83d
000001c0: c2e1 78bd 1ab4 973d ea9c 11be 8153 b73d
000001d0: 1050 32be 7c0b c13d 164c 9dbd cebc 203d
000001e0: cdb8 c03d f534 04be e775 bf3c af19 203e
000001f0: 84be a93c 5b0d 79bd 17d4 413d 496c 63bd
00000200: b61c e0bb 774a be3d 2fad 8544 da34 c23d
00000210: 3cb4 d03d 8d29 283e 19ef 34c4 92de 71bd
00000220: 655d 27be 3213 c23d 61bc 94bd 29e6 70bd
00000230: 3787 9d3d 8d33 9cbc d25d c93d 9047 abbd
00000240: 4cb5 65bd befa afbd d072 aa3c df60 a3bd
00000250: e83e 86bc 5a41 213e ef51 b0bd d7e7 ddbc
00000260: 18b1 00bd cf54 293e 3f97 0a3c 878c 6a3d
00000270: a2ca 5cbd b3e3 863a f541 8bbd 1ab8 8fc5
00000280: 5d2e 3e3d 0698 83bd cc00 11bd 9b05 e4bd
00000290: 4555 183e 674b d83d e5d2 e03d 7cef 283e
000002a0: 999e 84bb 1a9c 9abd 9999 733d bbfe 273e
000002b0: c252 98bd 542a 4cbc e85d 3d3d 7f31 153e
000002c0: 5b85 593e e8c7 1c3e 84e7 a1bd 4445 d5bb
000002d0: 12c4 20be a682 88bd 2e99 e13d 0fcf 833d
000002e0: 2cae 2abe 784d 75be 237b f2bc ab6a a1bd
000002f0: cc4e 3cbe 9ade b4bd 5fd4 343d 6568 17bd
00000300: fa41 eabc 7291 083e 3f42 f7be 165d 2fbd
00000310: 09ab e43b 4b87 f73d f764 8cbe eb84 ec3c
00000320: b2a1 bc3c f9db d7bd 2d9e a5bd 9cc3 0b3d
00000330: 31dd 7c3d 4ac7 a83d 1252 053e 4328 693b
00000340: 2313 cabd e9dc 293d 4053 82bd a879 3bbd
00000350: 3c9e eabc 40e9 bbbd 9534 29be f886 30be
00000360: f64f 2bbe c5ee c1bd e087 7e3c 158b 4cbe
00000370: e102 ebbd d403 cf3d 7754 85bd 92dc 103d
00000380: 5545 eaba 8694 0bbe dd75 47bd 281c 8bbe
00000390: 3eab 07be 5b8f b9bd fa7d 82bd be8c b2bb
000003a0: c10a 103b 7b93 8bbd b5f5 a5bd f5f8 af3d
000003b0: a437 48bd 8a6a 1a3e deb1 23bd e1cf 8ebd
0.011684827 0.087685786 -0.09393254 0.0052679437 -0.16795658 -0.16212296 0.05139803 -0.12972371
-0.15753128 0.040558323 -0.010979168 0.061663374 -0.022304792 0.027350033 -0.45633966 -0.002338967
-0.043693155 0.03495554 -0.23522273 -0.089036085 0.16184016 -0.36019155 0.10291537 -0.07950767
-0.075659074 0.08671249 0.15183994 0.071092896 -0.020872753 -0.017100567 0.026969304 -0.059557486
-0.068384215 0.16099903 -0.24237637 -0.25478947 -0.3609795 -0.12711152 -0.0074870503 -0.20978643
-0.072212964 0.12406241 0.059657596 -0.02595747 0.060435984 -0.01218831 0.041982986 -0.30514765
-0.14148611 -0.2056562 -0.11336751 0.08406749 -0.1198237 -0.012574961 -0.28867534 -0.1002366
-0.05603134 0.09787786 0.12742217 0.016721033 -0.06020534 0.06773742 0.014738414 -0.01287187
-0.15461656 -0.26105082 0.06156617 -0.13309155 -0.016533747 -0.0022887117 -0.007145477 0.099593356
-0.000688024 0.058961906 -1.008756 -0.007054407 0.11266269 0.0045186197 -0.27555567 -0.00928361
0.008849837 -0.32881096 0.030501245 0.0146682225 0.028484618 -0.09110107 0.073753685 0.015251805
0.0730754 -0.027246812 -0.022251118 -0.21392266 0.04694548 0.10968409 -1.0008664 -0.24644947
-0.4996059 -0.15739489 0.09617152 -0.27617618 -0.05842654 0.13978232 -0.061613165 0.091402106
0.14647141 0.106918715 -0.031010017 -0.2806633 -0.041690692 -0.2437416 -0.07175678 0.08985595
-0.060762174 0.074073985 -0.14220014 0.08951474 -0.17413354 0.094260186 -0.07680528 0.03924256
0.09410248 -0.12910827 0.02337165 0.15634798 0.020720728 -0.060803752 0.047321405 -0.05552319
-0.00683936 0.09291547 1069.412 0.09482737 0.10190627 0.164221 -723.7359 -0.05905015
-0.16344221 0.094763175 -0.07262493 -0.058813248 0.07691806 -0.01906755 0.09832348 -0.08363259
-0.0560811 -0.08592747 0.0208067 -0.07977461 -0.016387418 0.15747586 -0.086093776 -0.027088089
-0.03141889 0.16536258 0.008458911 0.057262924 -0.053904183 0.0010291248 -0.0679969 -4599.0127
0.046430934 -0.064254805 -0.03540115 -0.11133882 0.14876278 0.10561257 0.10977725 0.16497606
-0.0040472266 -0.07549305 0.059472654 0.16405766 -0.0743766 -0.012461264 0.046232134 0.14569663
0.21242277 0.15310633 -0.07905486 -0.0065085012 -0.15699795 -0.06665544 0.11015545 0.06435978
-0.16668004 -0.23955333 -0.029599732 -0.078816734 -0.18389434 -0.088315204 0.044147845 -0.036964793
-0.028595913 0.13336733 -0.4829273 -0.042813383 0.006978397 0.12086352 -0.2742078 0.028871974
0.023026321 -0.10540003 -0.0808681 0.034122095 0.061734382 0.08241136 0.13019589 0.0035576976
-0.09866931 0.041470442 -0.06363535 -0.045770317 -0.028639905 -0.09175348 -0.16523965 -0.17238986
-0.16729721 -0.0946937 0.015535325 -0.1997493 -0.114751585 0.10108152 -0.06510251 0.035366602
-0.0017873446 -0.13630876 -0.048696388 -0.2716992 -0.13248917 -0.09060546 -0.06371684 -0.0054489067
0.0021979066 -0.06815239 -0.081035055 0.08592407 -0.048881188 0.15079704 -0.03996455 -0.069732435

bias_hh f4 [240]
00000000: e2b6 10be f42f d93d 9e24 8c3c 3885 b83d
00000010: 27cd 4abd e207 27be 65eb 023e cdee 4abe
00000020: 3ccf dfbd cb5a cc3d 3e1e 033d c19b 82bd
00000030: cc13 023e e74a 6c3d db1e f3be ac01 3abe
00000040: 6a6a fc3d b06f a43d d645 ffbd 7647 5cbd
00000050: 15c1 cb3d 97c2 87be 907d 6ebd 8c89 023d
00000060: f25c e6bd 719f 82bc 03ee 76bc 552f ef3c
00000070: d102 b3bd c8f8 88bd fd54 02be 763d bbbc
00000080: 3bec 313c 0c30 5bbc 8b7f 94be da5d 61ba
00000090: 3b81 56be 524f d6bd f542 df3d 4784 b7bd
000000a0: 27ae 883d 074d 283e e5a1 b5bd 9ce8 183e
000000b0: d9b9 f3bb 1d90 6cbd 9feb babc 0658 8cbe
000000c0: b4c5 b43d ec63 96bd 744b 30be 2c31 043d
000000d0: c6f6 7e3b 94b0 1a3d 834f f4bd 0a42 163b
000000e0: d71b 9a3d 72bc cbbc c136 8d3d f7a7 a5bd
000000f0: 9588 f3bd 7c15 223e 0753 b43d 24ad bdbd
00000100: 0fae 473c 899d 84be 8a99 0d3e 2c5a 15be
00000110: a2b4 0dbe fdec 64bd 9791 94bd 70a2 423d
00000120: 5397 193d b48a acbd 5bd4 76bf cfce ecbc
00000130: 08de 0f39 6c15 ba3d 4866 aabe 445c 743d
00000140: dd79 87bd e2d7 f1be 174a 74bc 00d1 a83d
00000150: 16ae d6bd 0580 493d 538d b43d f20f 583c
00000160: 34c7 fb3d 41fd a43d 80b2 32bd 437c 7dbe
00000170: 9e4b 993d 0594 34bc 2ef0 62bf 08c4 6fbe
00000180: ad2b 0fbf a69b afbd 2030 203e 67b3 8dbe
00000190: 13f7 fcbc e060 e93d 1914 f53d 6522 cc3d
000001a0: f3e3 7b3c 6302 d4bd 8be3 443d 8997 2ebe
000001b0: ab14 dcbd dc32 81be c771 20bd 248f 103e
000001c0: a91f 333c 0b5b 0b3d 2bc7 72be 92c6 77bd
000001d0: 8cd2 b1bd ceb9 653c a774 b43c d05e 9b3d
000001e0: 247f 8ebd 6b06 90bd d054 05be 4cea 7f3d
000001f0: 6f65 423e d59e 11ba e2d8 f73d 4ce2 34bd
00000200: 42fc 82bd e785 123d 42b1 8544 f26a ac3a
00000210: 2381 9a3c 9954 df3d 11eb 34c4 584d a9bb
00000220: e70f 1d3c a3d6 50bd c618 eebd 7882 77bd
00000230: c583 d63d 52c4 eebc 247a 5e3d 447a eebc
00000240: c064 b5bc 884e 9bbc f170 24be 5f4b d0bd
00000250: a0e3 083e 4abc bd3d 4b93 f73c dc54 49bd
00000260: a55c b73d d2a6 bdbc 9893 4ebd a7f7 23bd
00000270: 2069 083e 8ad3 cebb 3b38 cfbd dfb9 8fc5
00000280: 1716 d3bc 3908 03be bebc 17bc e7de 9eba
00000290: a8dc ed3d a569 fe3d 8d69 d33d 755e ac3c
000002a0: 52a2 a03d 0058 8d3d 75fa 00bd 5a49 cc3d
000002b0: 69bd 233c b6e0 e4bd 3e74 a3bd 7595 ff3d
000002c0: ee2f dc3d 7b25 1cbd d70b 233d 7a1f fa3d
000002d0: 2438 13be 549f df3b 522d cbbd 3e7f 3a3d
000002e0: 1a1e 3abe 0a65 0abe 1e6c f4bc ecc6 2cbe
000002f0: 5ea6 83bd 602f 623d 65f1 073c a2ba 2fbd
00000300: 08b8 95bd d9e6 9fbd 5f4d 6fbe 017e 86bb
00000310: 9189 933d 5301 0c3e 2a08 e5bd 17fe 1dbd
00000320: 4ff1 673d 9458 04be f13a 98bd 990d 0d3e
00000330: 42dc 07be c516 d7bd 8f75 6f3d 53bd a73c
00000340: dc3a c6bd 67cd 103d 28ac 583d cc8b 03be
00000350: e5d7 473d 46e2 aa3c c24a c9bd 0d07 80be
00000360: 47ac 12be 71a7 efbd 7bbd aabb 8407 1bbe
00000370: 33fb 803d 9a7b f53d 8e94 6abb ca1c 58bd
00000380: d747 6b3c 9c85 c0bb f5ab e43d d0e8 a6be
00000390: 85d0 cbbd a84e cc3c 661a 24bd a587 023e
000003a0: 2049 363d fcdf 19bd e8ec 27be 8719 5ebd
000003b0: a0de b93d 3873 093e fd49 b0bd 1d0f ac3d
-0.14132264 0.106048495 0.017107304 0.090097845 -0.049512055 -0.16311601 0.12785108 -0.19817658
-0.10928199 0.09978255 0.032011263 -0.06377364 0.12702864 0.05768862 -0.47484478 -0.181647
0.12324984 0.08029115 -0.12464492 -0.053779088 0.09948937 -0.26515648 -0.058225214 0.031869456
-0.11248197 -0.015945168 -0.015071395 0.029197374 -0.087407716 -0.06688076 -0.12727733 -0.022856455
0.010859544 -0.0133781545 -0.29003558 -0.0008597054 -0.20947735 -0.10464348 0.10901443 -0.08960777
0.06673842 0.16435634 -0.088687696 0.14932483 -0.0074379263 -0.057754625 -0.022817431 -0.27410907
0.088267714 -0.07343277 -0.17216283 0.032273456 0.0038904413 0.037766054 -0.11929228 0.0022927546
0.07524841 -0.024870131 0.06895209 -0.080886774 -0.11891285 0.15828508 0.08804899 -0.092615396
0.012187495 -0.2590144 0.13828102 -0.14585179 -0.13838437 -0.055890072 -0.072543316 0.047518194
0.03749783 -0.08424893 -0.9641778 -0.028907208 0.00013720256 0.09086117 -0.3328116 0.059658304
-0.066150405 -0.47235018 -0.0149102425 0.082429886 -0.10482423 0.049194355 0.08816018 0.013187395
0.12293854 0.08056117 -0.043627262 -0.24754433 0.07485126 -0.011021619 -0.88647735 -0.23414624
-0.5592602 -0.085746095 0.15643358 -0.27675936 -0.030879533 0.113954306 0.11966724 0.09967498
0.015374172 -0.10352018 0.048068564 -0.17049994 -0.107461296 -0.25234115 -0.039171007 0.14117104
0.010932841 0.034022372 -0.23708789 -0.060492106 -0.08682737 0.01402135 0.02202828 0.075864434
-0.06957844 -0.07032474 -0.13020635 0.062479302 0.18984006 -0.0005554979 0.12101914 -0.044161126
-0.063957706 0.03577223 1069.5393 0.0013154431 0.018860405 0.109048076 -723.6729 -0.005166691
0.009586311 -0.050985944 -0.11625819 -0.06042716 0.10474352 -0.029146347 0.0543157 -0.029111035
-0.022142768 -0.018958345 -0.16058709 -0.10170626 0.13368082 0.09264429 0.030221602 -0.049153194
0.089532174 -0.023150835 -0.050433725 -0.0400311 0.13321352 -0.0063118385 -0.10118147 -4599.234
-0.02576737 -0.12796105 -0.009261308 -0.0012120873 0.116143525 0.12422494 0.103228666 0.021041134
0.0784346 0.0690155 -0.031488854 0.09974928 0.009993889 -0.11175673 -0.07981156 0.124796785
0.10751329 -0.03812168 0.039806213 0.12213035 -0.14376885 0.0068244133 -0.099207535 0.045531504
-0.18175545 -0.13515106 -0.02983671 -0.16872758 -0.064282164 0.05522096 0.008297299 -0.042902596
-0.07310492 -0.078077026 -0.23369358 -0.0041043763 0.07203973 0.1367238 -0.11183198 -0.038572397
0.056626614 -0.12924415 -0.07433117 0.13774718 -0.13267615 -0.1050239 0.058461722 0.020476019
-0.09679195 0.035352137 0.052898556 -0.12846297 0.048789877 0.020859849 -0.09828712 -0.2500538
-0.14323531 -0.11701859 -0.005210576 -0.15139586 0.062979124 0.11986466 -0.0035794112 -0.05276183
0.01436039 -0.0058753025 0.11165611 -0.32599497 -0.09951881 0.02493985 -0.040064238 0.12747057
0.04450333 -0.037567124 -0.16398966 -0.054223564 0.090756655 0.13422859 -0.08607862 0.0840132

weight f4 [3, 12]
00000000: 6140 6e3d b185 a1bd 59bf 38bd 1480 3c3e
00000010: c29e 9a3e c079 afbd 522d b9bd e472 79be
00000020: 6da6 1d3d dc32 b83c 2dbc 2dbe 563a 02bd
00000030: 7d36 223e 10d6 54be bf0b 423e 96bb be3d
00000040: cf29 623e f953 963e eec3 853e b61c 12be
00000050: 682c 2d3e 6a97 613d f3f6 ebbd 397e 2abe
00000060: 2adb 0d3e 9edf 8c3e 0d7f 40bd 5941 963e
00000070: fde0 bc3d 7558 86bd 1877 03be 9c21 c6bd
00000080: 5217 67bd 3c37 313e a898 fe3a 4788 cabd
0.058166865 -0.07886828 -0.04510436 0.18408233 0.30199248 -0.08568144 -0.09041847 -0.24360234
0.038488794 0.02248519 -0.16966315 -0.031793915 0.15841098 -0.20784783 0.18949793 0.09313123
0.22086261 0.2936094 0.26126045 -0.14268765 0.16911471 0.05507604 -0.11521711 -0.16649713
0.13853136 0.27514356 -0.046996165 0.2934673 0.092226006 -0.065598406 -0.128384 -0.09674379
-0.056418724 0.17306226 0.0019424157 -0.09889274

bias f4 [3]
00000000: 89b6 ba3d 1b0a cb3c dfd3 343e
0.09116847 0.024785092 0.17658947
