models/paramsearch_0.005444942907988415_0.24847630120815406_0.5179495929526554_37.pt (torch, 33130 bytes, 7 tensors)

weight_ih f4 [240, 6]
000000 a3 2d 00 bf 64 1a b0 3f ff 15 9f ba 09 bd 05 c0
       -0.50069636 1.3758054 -0.0012137293 -2.0896628
000010 01 22 ea bf 63 dc 26 3f 42 92 1b 3e 23 68 e5 3f
       -1.8291627 0.65180033 0.15192512 1.7922405
000020 a6 87 d4 be 8a e9 0d 40 39 10 22 be b5 c1 9c 3e
       -0.41509742 2.217379 -0.15826501 0.30616537
000030 75 a2 86 be 64 aa 2e 3f 2e 8b a3 3e 3c 1e 6e c0
       -0.2629582 0.68228745 0.31942123 -3.7205954
000040 fe 85 94 c0 6d 42 47 3e cf 2b bd be 28 73 f8 3e
       -4.6413565 0.19458933 -0.36947486 0.48525357
000050 7d d0 68 be 7f c3 81 3f 0c 38 c4 bf 9b 2f 11 be
       -0.22735782 1.0137786 -1.5329604 -0.14178316
000060 80 14 a9 3e 6e 4f e2 3f 19 1f 01 3f 25 aa 34 3f
       0.33023453 1.768049 0.50438076 0.7057212
000070 80 0b 26 c0 2a 48 09 3f ee 2e 83 3d 7e 07 cb 3f
       -2.594452 0.5362574 0.064054355 1.5861661
000080 33 d0 a8 be 78 ff 37 40 c5 81 ad 3e 0f ab 2d be
       -0.32971343 2.8749676 0.3388807 -0.16959785
000090 71 37 71 3e 48 13 cd 3e 47 d0 77 be 87 45 90 bf
       0.23556305 0.40053773 -0.24200545 -1.1271218
0000a0 b2 41 3b c0 d4 d1 78 3e b4 ab a1 3e 18 17 0f bf
       -2.9258847 0.24298793 0.31576312 -0.55894613
0000b0 fc 46 33 be 17 20 b3 bf 5b 91 18 bf 56 41 be 3d
       -0.17507547 -1.3994168 -0.59596795 0.092898056
0000c0 5d 30 24 3e 31 d7 25 40 b1 1a d7 bf 30 07 d4 3f
       0.16034074 2.5912592 -1.680502 1.6564693
0000d0 30 e3 2d 3e d7 ea 3f bc ad 12 96 be d1 f6 6b bf
       0.16981196 -0.011713705 -0.29311123 -0.92173487
0000e0 69 b7 8c 3f 9e 81 b9 3e 3b 0c 97 be 5b e9 0f bf
       1.0993472 0.36231703 -0.2950152 -0.5621545
0000f0 ad f6 1c bc 6a 31 47 bf 61 d5 80 be e9 cd 4b 3f
       -0.009580296 -0.77809775 -0.25162795 0.7961107
000100 a3 b4 a2 3f ce 3a 50 be 71 83 fc 3d 04 4c f7 be
       1.2711376 -0.20334932 0.12329758 -0.48300183
000110 c9 74 60 be f4 f4 fa 3f ad 09 5e 3e 38 88 01 bc
       -0.2191955 1.9606004 0.21683379 -0.007906012
000120 f0 98 36 bf 20 4e 02 c0 02 31 70 3e 3a 6d f9 bf
       -0.71327114 -2.0360184 0.23456195 -1.9486458
000130 f2 53 64 3f 6f 5a 42 bf 39 be d5 bd d3 ae f4 3f
       0.8919059 -0.7591924 -0.10436673 1.9115852
000140 41 0a 01 bf 2e d4 bf bd 20 1e 9e 3e bd 76 3a 3e
       -0.5040627 -0.09366642 0.3088236 0.18209358
000150 d1 a8 2d bf 6f 8d 68 3f b1 de 3d be 1d 1d ea bf
       -0.6783572 0.9084081 -0.18541981 -1.8290135
000160 42 2f 0a c0 56 5b 27 be 34 b9 95 3e 6d 06 08 bf
       -2.1591344 -0.16343436 0.2924286 -0.53134805
000170 e2 80 0b be 71 d6 93 3f 70 7a 06 3f 23 c1 35 be
       -0.13623384 1.1549817 0.52530575 -0.17749457
000180 bb 32 b9 be 97 19 a3 be f7 86 d9 bf 3f 4e c5 3f
       -0.36171517 -0.3185546 -1.6994313 1.5414504
000190 fc 9e 28 bf 18 1c d7 be 85 47 63 be 6f 83 d8 3d
       -0.6586759 -0.4201362 -0.22195251 0.10571944
0001a0 40 7c 1b 3f 10 b8 e1 be 0e aa bd bf 72 f8 12 3f
       0.60736465 -0.4408574 -1.4817522 0.5741035
0001b0 29 53 2a 3e b7 8a 03 bf 9d e0 8e be c2 bd 04 3f
       0.16633286 -0.5138354 -0.2790574 0.5185205
0001c0 e1 f2 3e 3f 2d 95 e6 3d 1e be 40 be 66 97 b3 3f
       0.74589354 0.11258922 -0.18822524 1.4030578
0001d0 01 af 66 be 9d ae 96 40 c1 c0 5c 3f 4a 98 3c 3e
       -0.22527696 4.708815 0.8623162 0.18417469
0001e0 3c 7d a7 be d9 00 8f 3d 3e ea da bf 32 18 9d bf
       -0.32712734 0.069825836 -1.7102735 -1.2273009
0001f0 b2 f9 7b bf 98 cb 95 bf 33 25 ba 3d eb 4b b3 3f
       -0.9842788 -1.1702757 0.090891264 1.4007543
000200 fa 62 9d bd 15 14 ae bf 3f 3e cf bf 91 2c da 3e
       -0.07684894 -1.3599879 -1.6190871 0.42612126
000210 0b 5e 85 bc 78 cd dc 3f 04 8e 1a be 76 50 07 40
       -0.016280195 1.7250204 -0.15093237 2.114286
000220 15 19 8c 3e 9e 48 3d 3e 8f a5 98 3e 89 06 82 be
       0.27362886 0.18484733 0.2981381 -0.2539561
000230 07 17 3d 3d 0d 24 90 be 3e d7 1b 3f c2 92 21 3e
       0.04616454 -0.28152505 0.6087531 0.1577864
000240 82 81 62 bf 54 45 47 bf 42 50 dc bf fa 48 87 bf
       -0.88478863 -0.7784016 -1.7211993 -1.0569146
000250 86 1c 8e bf ea f9 ee bd 7a 50 eb bd 3c 36 6a bf
       -1.1102455 -0.11668761 -0.11489959 -0.91489005
000260 72 80 95 bf 96 5f 50 c0 25 8e c3 3e d9 83 a6 be
       -1.1679823 -3.255834 0.38194385 -0.32522467
000270 83 aa ba 3d fc 51 de bf 84 85 b6 be a8 22 1d 3f
       0.09114554 -1.736877 -0.3564874 0.61381006
000280 84 ee 3f 3e db 3c 8b bd 54 af bf 3e 89 3b 02 3e
       0.1874333 -0.06798717 0.37438452 0.12718023
000290 75 d6 88 3d 6b 7c 19 40 2a ad 40 3f 2f b9 d6 be
       0.066815294 2.3982189 0.7526423 -0.4193816
0002a0 0a 5b 33 bf 14 b0 10 c0 df 32 cd bf 3b 0d 33 40
       -0.7006079 -2.260747 -1.603115 2.7976825
0002b0 05 f7 a2 be 39 d4 6e be 16 32 a3 3e 70 18 14 40
       -0.31829086 -0.23323144 0.3187415 2.3139915
0002c0 9e 79 2f 3f 05 b8 fa 3f 3f 7d 02 3f ea 84 a5 3e
       0.6854495 1.9587408 0.5097236 0.32327968
0002d0 43 26 9f be ce c3 50 3d b2 4b fb 3e a3 c6 d2 bf
       -0.3108388 0.050967984 0.49081188 -1.6466869
0002e0 a3 64 b0 bf a9 ae f0 be 8a 54 60 3b ba b0 65 be
       -1.3780712 -0.47008255 0.0034230077 -0.22430697
0002f0 20 d9 60 be 58 98 82 c0 0b ef fa bf 1a 62 8c be
       -0.21957827 -4.0810966 -1.96042 -0.27418596
000300 5b 0c 0a be 4e dc 55 be 55 65 d3 bf d4 25 60 3e
       -0.13481276 -0.20884821 -1.6515299 0.2188943
000310 7c a5 0f bf c8 39 2e be bb 7f 59 be 4c 27 12 40
       -0.56111884 -0.1701423 -0.21240132 2.2836485
000320 9b a5 13 3f cd d1 ab 3e e5 ca 48 3e 66 05 50 be
       0.5767457 0.33558503 0.19608648 -0.2031456
000330 73 42 84 3e b4 07 e5 3f a4 2e 8c bf 75 f5 40 40
       0.25831947 1.7892976 -1.0951734 3.0149815
000340 39 0e ea 3e 26 02 5d be 73 63 1f 3f 1f 78 29 40
       0.45713976 -0.21582851 0.6226112 2.6479566
000350 1c 22 9d be bd c7 17 40 51 48 66 3f 5d 55 2a 3e
       -0.30690086 2.371566 0.89954096 0.16634126
000360 8d ac 20 bf 56 d0 ee 3d 43 42 a4 be 69 ad b5 bf
       -0.6276329 0.11660831 -0.32081804 -1.4193546
000370 39 ff c4 bf 95 fd 61 bd 61 8a b9 bd b7 9a 9a bf
       -1.5390388 -0.055173475 -0.09059597 -1.2078465
000380 6e 4e e1 be 4b cd 17 c0 60 86 2e bf 3e 12 30 bf
       -0.4400515 -2.371905 -0.6817379 -0.68777835
000390 4f df 3f bf c6 a6 31 bf f0 3e 03 3f da a9 31 c0
       -0.74950117 -0.693951 0.5126791 -2.775992
0003a0 20 a3 9c be 71 b2 7a bf 40 41 88 bf 5c ce 6d 3f
       -0.30593204 -0.9792853 -1.0644913 0.92893004
0003b0 3b c6 a3 be 76 fb 06 c0 a7 e9 0a c0 14 e7 f2 bd
       -0.31987175 -2.109098 -2.170511 -0.11860481
0003c0 83 a1 95 3d c2 b6 b1 3f 65 98 82 bf 35 cd c8 3f
       0.073061965 1.3883898 -1.0202757 1.5687624
0003d0 cf 5b 27 3f 54 7d 29 be 41 de 0d bf f3 8f 70 bf
       0.65374464 -0.16551715 -0.5541726 -0.9396965
0003e0 77 0b 45 be 2b 60 34 3f 87 3a ae 3e ed 99 76 be
       -0.19242655 0.7045924 0.34029028 -0.24082156
0003f0 74 bb a6 be a2 c6 e1 be a5 85 06 3f 10 de 75 bf
       -0.3256489 -0.44096857 0.52547675 -0.96041965

weight_hh f4 [240, 12]
000000 63 8a 46 be 69 a7 a1 be fe 3b fb be 68 71 52 3f
       -0.19388728 -0.31573036 -0.49069208 0.82204294
000010 e2 14 06 be 55 3a 46 3e c9 ce c1 3d 69 f2 54 bf
       -0.13093904 0.1935819 0.09463269 -0.8318239
000020 e7 32 db bd 17 bc a0 be d8 ae fa be 22 14 33 bf
       -0.10703068 -0.313935 -0.4896152 -0.69952595
000030 01 a1 7c bf eb 46 03 bf 27 ca bc be 09 46 3e 3f
       -0.9868317 -0.5128009 -0.3687298 0.74325615
000040 72 7c 66 3d f4 15 ad 3d 88 a4 c8 3d f3 c6 35 3d
       0.056271024 0.08451453 0.09797007 0.044379186
000050 03 e4 6e bd 89 e6 e2 be b1 04 bf 3d d6 07 0f bf
       -0.058322918 -0.4431651 0.09327067 -0.5587133
000060 f8 0d 84 be 77 26 a1 3c 7e 6a 97 3e 6a 70 b8 be
       -0.25791907 0.019671662 0.29573435 -0.36023265
000070 8a 7e 54 3f 5c dd ce 3d 58 85 b9 bd f8 0c f6 be
       0.83005583 0.10100815 -0.090586364 -0.4805677
000080 29 0b 18 3e 1c cc 84 bd 9f 4f 6f 3e 5d 25 c5 be
       0.14848007 -0.06484243 0.23370217 -0.38505068
000090 df f7 00 bf 3d a3 26 bf 09 4c 24 bf ae bf 00 3f
       -0.5037822 -0.6509283 -0.6417852 0.5029248
0000a0 5a 88 ce 3d 12 7d 0e 3f 31 6b 77 3f b2 96 c7 bd
       0.10084601 0.5565959 0.96647936 -0.0974554
0000b0 a6 c1 61 bf 1e 36 52 bf f9 7c 4a 3c 86 46 b6 be
       -0.8818611 -0.82113826 0.012358897 -0.3560068
0000c0 9a 99 8d be f7 7f 93 3e 01 4c f6 3d 63 cb b7 bd
       -0.2765625 0.28808567 0.12026215 -0.0897434
0000d0 32 53 36 3f 42 ee 08 bf c8 0f 58 3f f8 a8 16 3d
       0.71220696 -0.5348855 0.8439908 0.036782235
0000e0 8f 2c ef be 8a 2a ca be c6 24 a6 3e 1b 2d 4f bf
       -0.46713683 -0.3948558 0.3244993 -0.809282
0000f0 be 84 71 be 92 f7 26 bf 3b d6 c5 be 73 e8 46 3f
       -0.23585793 -0.6522151 -0.38640007 0.7769844
000100 70 ce 11 be 84 2b e0 bd 55 d6 39 bc 32 74 13 bf
       -0.14238906 -0.109458 -0.011342605 -0.57599175
000110 7e 3c cc 3e d7 27 7c 3d ad e6 70 be 38 46 e4 be
       0.39889902 0.06156143 -0.23525496 -0.44584823
000120 d8 e3 42 bf 93 7e fa bd 09 4b fe 3d 1f 6c a2 3f
       -0.7612891 -0.12231173 0.124166556 1.2689246
000130 02 fd 89 be 43 c4 e9 bd 4a e7 82 be bc 21 2f bf
       -0.26950842 -0.11414387 -0.25567085 -0.6841085
000140 af 48 d4 be a8 dc 8f 3e a4 be fd be 1a 87 1c bf
       -0.41461703 0.28098035 -0.4955951 -0.6114365
000150 d7 35 34 bf f4 c0 a9 bd 8c 8b 14 3f 67 f6 d8 be
       -0.70394653 -0.08288756 0.5802543 -0.4237549
000160 07 54 8b 3e 86 86 c2 bd 22 07 41 3f 42 7f 9b 3d
       0.27212545 -0.094983146 0.7540151 0.07592632
000170 38 34 b2 3e 4b 6b 36 bf c9 f0 e9 bc 99 7d 34 bd
       0.34805465 -0.71257466 -0.028557198 -0.04406509
000180 b2 e6 b7 3e 83 9f 3f bf bc e6 57 bf 8e 58 8a be
       0.35918194 -0.7485277 -0.8433645 -0.27020687
000190 fe ab cc be 1c be 0d 3f 46 85 a9 be 7a 84 97 3e
       -0.3997497 0.5536821 -0.33109492 0.2959326
0001a0 3b c9 09 3f 02 30 b8 be a2 47 8e be ca 41 ec bd
       0.5382268 -0.35974127 -0.27789026 -0.11535986
0001b0 d8 3f 32 bd 71 4c c1 3e c5 9d f3 be 11 63 a8 bd
       -0.043517917 0.37753633 -0.47581306 -0.082220204
0001c0 85 fd 9e 3f 8d d0 d7 3d 3a fc 35 bf 25 ea 4e bf
       1.2421118 0.10537825 -0.7108799 -0.80826026
0001d0 69 e4 79 3f e8 97 3c 3f 89 9d 7d 3f 28 29 a0 3e
       0.9761415 0.7366929 0.99068505 0.312814
0001e0 8c 00 e4 be 9d 18 6d be 93 f1 ee 3e 34 45 ff 3e
       -0.44531667 -0.2315392 0.46668682 0.49857485
0001f0 cc 20 67 3d 4f 06 ca be 11 ea 4e 3e 71 c5 4f be
       0.056427762 -0.39457938 0.20206477 -0.20290162
000200 9a c4 22 3f 43 90 9e bd c5 02 8d 3e b6 ef 14 be
       0.6358124 -0.077423595 0.27541175 -0.14544567
000210 89 6c e4 be ea 23 86 bf b6 8f 01 be 24 84 c3 bc
       -0.44614056 -1.047971 -0.12652478 -0.02386672
000220 50 0e 4d be 08 0f 86 3e 0e 0f 92 be c3 d2 0f bf
       -0.20024991 0.26183343 -0.2852711 -0.5618097
000230 fb 68 8c 3f 5b 03 00 be 7e b4 53 be f6 bb da 3e
       1.0969537 -0.1250128 -0.20674321 0.42721528
000240 4f c9 0c bf c3 e3 67 bd bc ed d1 be 48 35 16 be
       -0.5499467 -0.056613695 -0.4100169 -0.14668763
000250 6f 76 1c 3f 1c 9c b5 3e be 89 18 bf c4 46 14 be
       0.61118215 0.35470665 -0.5958518 -0.1448012
000260 d3 a1 62 3f ff e1 68 3f 9f c0 09 3f a4 94 25 3f
       0.88528174 0.9096984 0.5380954 0.6467993
000270 16 13 fe be c0 e1 3e bf c4 9d 66 be fe 66 06 3f
       -0.49623936 -0.7456322 -0.2252112 0.52500904
000280 d7 80 d9 be 89 f7 ba 3e e5 95 c8 3d e6 18 0f be
       -0.4248111 0.3651698 0.09794215 -0.13974342
000290 65 8a 9b 3e 56 48 84 3e 13 19 55 bd e9 3f 4a 3b
       0.30379024 0.25836438 -0.052025866 0.0030860847
0002a0 eb 23 98 3e 10 30 97 3e 1d a9 f0 bd ab 99 d5 3e
       0.29714903 0.29528856 -0.11751006 0.41718802
0002b0 a8 05 8d be 93 79 04 be 38 8c 2d bd 41 fa 85 bd
       -0.27543378 -0.12937002 -0.04237005 -0.06541873
0002c0 27 e5 da bc d8 54 7d 3f 52 e4 c2 bd 79 e6 08 be
       -0.026720596 0.98957586 -0.09516205 -0.13369168
0002d0 73 3b 63 bf b5 08 27 bf bb 64 70 3f 59 25 96 3e
       -0.8876259 -0.6524766 0.939037 0.2932537
0002e0 4b 20 fb 3e 8a fd 07 3e 2e 55 52 bf 57 ff 54 bf
       0.49048075 0.13280311 -0.82161224 -0.8320212
0002f0 de bf a1 3f d8 a8 b0 bd 5a 0f e7 3e 5a d4 0e 3f
       1.2636678 -0.086259544 0.451289 0.5579277
000300 d0 b6 f6 3e af 02 50 bf a0 3d a5 bf b5 ef 8a 3e
       0.4818635 -0.81254095 -1.2909431 0.27136007
000310 ce b1 de bf f3 a6 28 3f 61 ec 9b bd 82 3b 8d 3f
       -1.7398012 0.65879744 -0.07613445 1.1033785
000320 1d 9c 1f bf 0b 01 a1 3d 02 68 61 bf ae 3d 5a bf
       -0.62347585 0.07861527 -0.8804933 -0.85250366
000330 87 8c 93 3e d0 d8 5a 3f 2c 19 d3 be ea e9 4e 3f
       0.2881815 0.8548708 -0.41230142 0.80825675
000340 b6 ef 50 be 76 0d d8 3c 29 40 d1 3d 31 05 cc bd
       -0.20403942 0.026373606 0.10217316 -0.09961928
000350 3f 65 fc be 75 f3 77 be 9b 8b 60 bd 8b 4a 1d bf
       -0.49295995 -0.24213965 -0.05482064 -0.6144187
000360 52 28 dd be 4f 4d 2c 3d 29 1e 3f 3c 44 83 44 3f
       -0.43194824 0.042065915 0.011664906 0.76762795
000370 bf 52 44 bf 7e fb 77 bf 87 c0 e2 3e e8 f2 9f be
       -0.7668876 -0.9686812 0.44287512 -0.3124001
000380 6f 37 90 3d 3b 5e 00 bf 26 58 c4 be 48 cd 53 bd
       0.07041823 -0.50143784 -0.38348502 -0.051709443
000390 10 32 d4 bd a1 07 cb be 34 71 09 3e 28 63 8e be
       -0.10361111 -0.39654258 0.1342209 -0.27810025
0003a0 d0 84 d3 be 5b de 18 3e c0 9a a0 3d 3d 15 77 3d
       -0.41312265 0.14928572 0.07842016 0.06032299
0003b0 2b 92 ff bb 61 aa dc 3d ef 2d c7 be eb ff 31 bf
       -0.007799407 0.10774685 -0.38902232 -0.69531125
0003c0 42 5c dd 3d 60 0d 7f bf 3c e2 c6 3e bb e7 be 3e
       0.108086124 -0.99629784 0.38844478 0.3728617
0003d0 55 f2 8c bf 06 eb a7 bd 34 b6 1e 3f fb c4 5c 3f
       -1.1011454 -0.08199124 0.6199677 0.8623807
0003e0 44 a5 70 bf 81 9f 89 be 12 bf 92 bf f5 3c 8d be
       -0.94002175 -0.26879504 -1.146456 -0.2758557
0003f0 62 fc 13 bf 87 02 23 3e 56 58 47 be a9 f8 e4 3e
       -0.5780698 0.15918933 -0.19467291 0.44720963

proj f4 [12, 60]
000000 dd 1c 51 3e 2b 48 15 bf 83 76 a2 be c4 1d 8c bc
       0.20421167 -0.58313245 -0.31731042 -0.017104037
000010 33 2d 65 3e c6 d4 db 3e 0a 9d d1 3e 85 02 5f 3e
       0.22380523 0.4293577 0.40940124 0.21778305
000020 ce db 72 3e 93 14 5c bf 94 1a 4d be 39 f8 b4 be
       0.23716661 -0.85968894 -0.2002967 -0.3534563
000030 e4 8a b6 be e5 c2 81 be 9d 2f 89 3d 86 c6 7a 3e
       -0.3565284 -0.25344005 0.06698535 0.24489793
000040 a4 dd 37 be 41 8c 86 bc 49 16 aa be a9 5e 15 bf
       -0.17955643 -0.0164243 -0.33220127 -0.58347565
000050 80 ed 5f be 23 4d 93 bc 44 7a 8b be b8 88 e4 3d
       -0.21867943 -0.017981118 -0.2724172 0.111588895
000060 21 6f 85 be dc 73 6f 3e 64 92 2c be 5f 6c 9e 3e
       -0.26061347 0.2338404 -0.16852719 0.30942056
000070 16 a9 2e bf 30 fe 5b be de ac c0 bd cf 12 05 bf
       -0.68226755 -0.21483684 -0.09407972 -0.51981825
000080 ee e9 b4 3e 2c 5b 83 bd ce c7 f9 3e 0a fc 26 3f
       0.35334724 -0.06413874 0.4878525 0.6522833
000090 16 bd a1 3e f1 49 cf bd 5b 41 cd 3d 20 b1 87 3e
       0.31589574 -0.10121525 0.10022231 0.26502323
0000a0 d3 3d 6a 3a 96 87 b4 b7 46 b2 a1 3e d3 19 89 3e
       0.0008935604 -2.152081e-05 0.31581324 0.26777515
0000b0 d4 92 cd 3e 98 84 10 bf 2d 82 39 3e d3 25 0b 3f
       0.40151083 -0.5645232 0.18116064 0.5435459
0000c0 81 76 d3 be 6e 38 0a 3d 9c 3b 81 bd 18 d5 a4 be
       -0.4130135 0.03374522 -0.06310198 -0.32193828
0000d0 d1 8a c5 be cb bd fd 3d e4 48 aa bd c0 26 9b be
       -0.3858247 0.12389716 -0.08314684 -0.30303
0000e0 3b b8 29 bd b5 cf f8 be cd da 22 3e 2f 64 ae bd
       -0.04143546 -0.48595968 0.15903778 -0.08515202
0000f0 7a c3 99 be 77 07 a6 3b 26 bc bb 3e a8 da 4b be
       -0.3003195 0.005066808 0.36666983 -0.1990763
000100 08 81 f3 be 74 36 2e be 2d 5f 4d be 2a a0 c0 bd
       -0.4755938 -0.1701296 -0.20055838 -0.09405549
000110 04 b5 9b 3e 45 06 04 be 66 c4 c8 3d b4 e3 75 3e
       0.3041154 -0.12893017 0.09803085 0.24012643
000120 10 aa 92 3d a3 f6 12 be cd c8 08 3e 67 5b d8 3c
       0.07161343 -0.14351897 0.1335785 0.026410772
000130 70 fa 61 be e3 91 06 be 16 4a f6 bc ae 98 46 3d
       -0.2206819 -0.13141589 -0.030064624 0.04848545
000140 3f 07 1d bf fc 60 10 be 51 ac 27 3e cc 46 dc bd
       -0.6133918 -0.14099497 0.16374327 -0.10755691
000150 c7 7c a2 3d 89 7e 14 3b 8d c5 1d 3e fd fb 18 be
       0.07933956 0.0022658429 0.15407391 -0.14939876
000160 b4 00 b0 bd 33 da 8b 3d a5 55 bc bd 21 77 b1 3e
       -0.08593884 0.068287276 -0.09196023 0.346612
000170 bd a7 9c 3c 67 c0 4a 3b 65 ef 91 bd 8f 8e ca be
       0.019122953 0.0030937435 -0.07125739 -0.3956189
000180 2c 98 8a 3e 43 a7 85 3e f1 18 4d ba dd ad 83 be
       0.27069223 0.26104173 -0.0007823846 -0.25718585
000190 cc e8 4f be 32 e4 6e 3b 52 c9 6a be b7 a1 4d bd
       -0.20303649 0.0036451933 -0.2292836 -0.05020305
0001a0 f2 de 9e 3c af 18 9e 3d f0 6c 17 be 2e 9e 92 bd
       0.019393418 0.07719552 -0.1478765 -0.07159077
0001b0 d7 aa 7a be 06 d6 3c be 3f 9a 03 3e 2f fe 02 3c
       -0.24479233 -0.18441018 0.12851809 0.007995172
0001c0 45 04 02 bf ec 3d ca 3e 8a bc a9 bd a0 3e d6 3d
       -0.50787765 0.39500368 -0.08287914 0.104611635
0001d0 8a 6a 26 3e 43 fd 22 3f b0 b9 97 be 98 9c 25 3e
       0.16251579 0.63667697 -0.29633856 0.16173017
0001e0 ed 59 5c be 02 66 ae 3e 54 8a 57 3e 9f 80 dd bd
       -0.21518679 0.340622 0.21048862 -0.10815548
0001f0 d8 ba b6 bd a2 97 09 bf e1 a5 44 3e e6 9c c0 bc
       -0.08922356 -0.53747 0.19203903 -0.023512315
000200 6b 03 90 bf e9 d2 fd 3c 39 76 8b be d8 c9 44 3f
       -1.1251043 0.030984359 -0.27238634 0.7687049
000210 b9 bf 91 3e ef f3 b9 3e 39 49 95 3d 15 f8 28 be
       0.28466585 0.3631892 0.07289357 -0.16500886
000220 8a fa e6 3e 46 b0 78 be 19 cc a9 3e 65 ec 24 3d
       0.4511302 -0.24285993 0.33163527 0.040264506
000230 5d f4 87 3d d7 b3 b9 3d 77 4e 2f 3b ad 79 40 bd
       0.066384055 0.09067505 0.002674965 -0.04699104
000240 6a ce b8 3e d8 b3 03 bc 8d b5 09 3f f6 c4 04 bf
       0.3609498 -0.008038484 0.5379265 -0.5186304
000250 c0 22 b9 3e b4 6c 05 3f 51 a4 c3 bd 00 69 0b 3f
       0.36159325 0.5211899 -0.09552825 0.5445709
000260 98 35 27 be 41 ef c6 3e 29 24 6f bf 13 0c 7e bf
       -0.16329038 0.3885441 -0.9341455 -0.99237174
000270 cc 96 30 3f b2 51 25 3e 32 90 0c be 5e a7 90 bd
       0.689801 0.16144446 -0.13726881 -0.07063173
000280 56 f6 30 3f 2e 9f 0f 3e 0b c7 5f be 82 1b 87 3e
       0.6912588 0.14025566 -0.21853273 0.26388174
000290 34 14 3a be 6e 95 3b bf 1d db fc bd 71 e7 af be
       -0.1817177 -0.73274887 -0.1234648 -0.34356263
0002a0 29 1a 0c 3f bf 3b 83 3e 2e 3e 03 3e b1 47 23 3e
       0.5472742 0.2563152 0.12816688 0.15945317
0002b0 39 db 73 3e 7f 93 4c 3d 99 aa c7 be be 0f 42 be
       0.23814096 0.04994535 -0.38997343 -0.18951318
0002c0 07 5c 38 bd 65 ef 50 bd 67 ee db 3d e3 ae 87 be
       -0.04500964 -0.051009554 0.10738831 -0.26500615
0002d0 3a 7e 20 3f 0b c2 03 bf ca 48 84 3e 72 54 1e 3c
       0.62692606 -0.5146796 0.25836784 0.009663688
0002e0 d3 34 19 bf 5f 3c f9 3d bf 5e 93 be 68 1c 91 3e
       -0.5984623 0.12169718 -0.28783223 0.28341985
0002f0 14 4b d4 3e 98 91 11 3f b5 9e 0a 3e f5 17 4a be
       0.4146353 0.56862783 0.13537104 -0.19735701
000300 3d 9e 1f bf 48 60 28 bf 9d 2e 11 be 1d b8 c1 3c
       -0.6235083 -0.65771914 -0.14177938 0.023647362
000310 34 95 ef bc 5f 8e 68 be 65 71 94 3e 44 fc 4f bd
       -0.02924595 -0.2271056 0.28992763 -0.05077769
000320 8c 50 46 3e cb 4a 85 be f0 cd f1 3d c3 f8 51 be
       0.19366664 -0.26033625 0.118068576 -0.20505051
000330 79 74 11 bb 66 11 f7 be 94 f4 a5 be 27 fe 94 3e
       -0.0022194667 -0.4825546 -0.3241316 0.29100153
000340 b5 2e 5a be b0 c2 3c bf 90 87 09 bf c1 55 5b be
       -0.2130688 -0.7373457 -0.53722477 -0.21419431
000350 f0 9b 63 3c ed 1e 21 bd 9e 13 a5 3e 67 a2 26 3f
       0.013892159 -0.039336134 0.3224153 0.65091556
000360 17 53 1e 3d fc a5 be 3d 2a e3 03 3f 74 bf 10 3e
       0.03865346 0.09309003 0.515185 0.14135534
000370 53 13 ef be a3 1d 6d 3d de 6f 0d 3f d4 70 4d be
       -0.4669443 0.057889592 0.5524882 -0.20062572
000380 b2 0e e7 be b9 f2 af 3d e6 ee 06 be e0 2a 29 3f
       -0.451284 0.085912175 -0.1317707 0.6608105
000390 42 02 7e 3d 6d 35 ee be 2c 03 ff bc 3e 79 3f 3c
       0.062013872 -0.46525136 -0.031129442 0.011686621
0003a0 79 ba e5 3d bd 65 19 3f a2 b7 9e be 4c 3c 34 3e
       0.112172075 0.59920865 -0.30999476 0.17601126
0003b0 62 16 1f 3f 08 4e b0 3d 05 32 4d be 09 0f 4b 3e
       0.6214353 0.08608633 -0.20038612 0.19829954
0003c0 32 66 ff 3d a9 ba 8b 3d eb 0d 26 3f 62 fc 94 3e
       0.12470664 0.06822712 0.6486499 0.29098803
0003d0 96 f7 12 bf 3f fd 09 bf 8a c5 5d bf f2 60 4e 3e
       -0.57409036 -0.5390205 -0.86629546 0.20154169
0003e0 67 d2 e5 bd 77 70 15 bc d7 9e a5 3d 56 b9 9c 3e
       -0.11221772 -0.009121052 0.08086937 0.3061015
0003f0 6c 80 15 3e 0a 77 b8 3e ce 6e da bc 5e 27 d1 be
       0.1459977 0.3602832 -0.026664164 -0.40850347

bias_ih f4 [240]
000000 78 5b 56 3e 45 8f 3a 3e 34 c9 c7 3d 90 59 c1 be
       0.2093333 0.18218715 0.09755173 -0.37763643
000010 d6 f0 8e 3e 85 3a 35 be 5a 46 ab bd 71 f7 1b 3e
       0.27918118 -0.17698105 -0.08363028 0.1523111
000020 1e d8 b7 ba 76 5a 25 be 0a a4 6a bd bb 34 55 3e
       -0.00140262 -0.1614779 -0.057285346 0.20820896
000030 c3 a5 d1 be cc c8 93 3d eb 9d d4 be 47 59 82 be
       -0.4094678 0.07216033 -0.41526732 -0.25458738
000040 4b f0 12 bf a0 31 79 3d 19 8b 64 bb 52 56 43 bd
       -0.5739791 0.06083834 -0.0034872948 -0.047689743
000050 53 30 0d bf 9c 0b 4b 3d 6b de 01 3e 74 c1 18 3d
       -0.5515186 0.04957162 0.12682502 0.037293866
000060 73 e1 da be f7 79 b8 be 46 2b 72 bc 18 72 cc 3d
       -0.4275013 -0.36030552 -0.014780825 0.09982699
000070 6c e0 94 be 97 4b 3a 3e 60 a7 6e bd 6b 96 ab 3d
       -0.2907747 0.18192898 -0.05826509 0.08378299
000080 6e 59 b4 3d 08 82 de bd e9 c9 c5 3d 24 eb 9c 3e
       0.0880612 -0.10864645 0.09657652 0.30648148
000090 79 47 de bd 50 fc a4 be bb 72 27 be df aa 67 be
       -0.10853476 -0.3222375 -0.1635236 -0.22623776
0000a0 eb bf c7 bd 03 6c bc be 0b 7c b5 be 4f e9 2a 3d
       -0.09753402 -0.36801156 -0.354462 0.041726407
0000b0 05 00 3f bd c3 11 a3 be d1 3e 63 3e c5 3e e8 bc
       -0.046630878 -0.3184949 0.22191931 -0.028350243
0000c0 ef 2f c3 3d 66 03 8c 3d 3f 2f 29 be 03 85 48 3c
       0.09530627 0.06836586 -0.16521929 0.012238744
0000d0 26 58 80 be 93 49 60 3e 0c 09 ef bd 17 2c 89 bd
       -0.25067252 0.21903066 -0.116716474 -0.066978626
0000e0 3a 15 98 be 8a d0 66 bd ea 70 2d 3e 08 5e b5 3d
       -0.29703695 -0.056351222 0.16937605 0.08855826
0000f0 c5 b3 c6 3e 36 b0 d6 bc 02 9d 0d 3e 43 28 3f 3e
       0.38809028 -0.02620707 0.13829425 0.18667702
000100 57 55 84 bd e5 5b 26 be 76 1d 15 3f 62 21 a7 3e
       -0.0646159 -0.16245992 0.5824808 0.32642657
000110 90 b0 1a bd 29 e8 fc 3d 85 f3 0f 3e 97 f7 ba bc
       -0.03776604 0.123489685 0.14057739 -0.022823138
000120 84 e6 4f be d0 ce 4e bd 0f 60 4e be 95 a0 8e 3d
       -0.20302778 -0.0504902 -0.20153831 0.06964222
000130 48 81 88 3f 1e a9 34 3e c6 09 f0 3e 22 c5 a7 3e
       1.0664454 0.17642638 0.46882457 0.32767588
000140 a9 4b 54 3f 95 e5 5c bd c5 63 13 3e 61 18 2c 3e
       0.8292795 -0.053929884 0.14393528 0.16806175
000150 67 60 6e be ad 57 1b 3f 99 75 96 be 07 8d 9e be
       -0.23278962 0.6068066 -0.29386595 -0.3096697
000160 99 ff 67 3f d3 d4 a5 bd 85 d2 c6 3e 16 bc fe bd
       0.90624386 -0.080972336 0.3883249 -0.12438218
000170 35 f4 c2 be 61 c9 c4 3d 3d 51 cc bd 15 64 eb 3d
       -0.3807694 0.096087225 -0.099764325 0.114936985
000180 2e f5 52 be fd f5 1a 3e 19 55 04 be d8 2b 76 bd
       -0.20601341 0.151329 -0.12923087 -0.060100406
000190 62 bf f3 3c 68 c7 40 3e 75 9a a8 bd 1f b9 02 3f
       0.029754344 0.18826067 -0.08232585 0.5106372
0001a0 26 8a b1 3e 0a e0 91 3e 7d 0f 64 3e 7c 6e cf 3c
       0.3467571 0.2849124 0.22271533 0.025321238
0001b0 fb f1 26 be 3a 19 9f 3c 4e 63 9e 3e ec 8e dd 3e
       -0.16303246 0.019421209 0.30935138 0.43273103
0001c0 bb 6d 1e 3e c9 11 31 3e 82 ad c2 3d 5f 4f 06 3d
       0.15471546 0.17291941 0.0950575 0.032790538
0001d0 1b af 02 bf 35 8d 37 3e a7 9f e4 3d ab 4d 30 be
       -0.5104844 0.1792496 0.11163264 -0.17217128
0001e0 3d 3e b2 be a4 1c 60 3e ac 07 a8 be f4 9a 50 be
       -0.3481311 0.21885926 -0.32818353 -0.2037161
0001f0 d9 af 36 bd 92 10 47 bd 17 81 70 3e 51 98 7b be
       -0.044601295 -0.048599787 0.23486744 -0.24569823
000200 be 23 5c bd 95 4d a1 bc de 1a 14 3e 07 c2 d0 ba
       -0.053745024 -0.019690314 0.14463374 -0.0015926965
000210 3d f8 dc bd 47 a7 e5 3d 8e b8 c8 3c 61 88 0d 3d
       -0.10789535 0.11213546 0.024502065 0.03455389
000220 70 15 1f 3b 70 a6 2a be 57 a4 19 3e e4 07 5c 3e
       0.0024274252 -0.16665053 0.15004097 0.21487385
000230 80 96 a2 3c 91 6e 93 3b 79 30 dc 3d 80 41 9e 3b
       0.019847155 0.0044992645 0.10751433 0.0048295856
000240 f3 ec cd 3d 76 6a fd bd 47 f3 ba 3d 44 92 e4 bd
       0.1005496 -0.123738214 0.09128433 -0.111607105
000250 57 99 dc bc f2 45 1f 3d da 8f 4b be cb e1 14 be
       -0.026928587 0.038885064 -0.19879094 -0.14539258
000260 bb f0 b6 3d f6 07 82 3e b2 a3 de bd 88 ac 1b be
       0.089326344 0.253967 -0.10871066 -0.15202534
000270 ed 99 f3 ba 03 36 25 3e 43 86 12 bd b5 8d 7e 3e
       -0.0018585302 0.16133885 -0.035772573 0.24858744
000280 9d 50 ec 3b e7 d8 fe 3d 4c 6b 0a 3e cf c3 8d 3e
       0.0072117583 0.124437146 0.13517493 0.27688453
000290 45 c6 89 be e9 ac 55 3e 91 ab b9 bd 59 f8 54 bd
       -0.2690908 0.20866741 -0.09065927 -0.051994655
0002a0 a9 9a e8 bc c3 f1 9b 3e a1 68 6d 3e e5 ec b7 bd
       -0.02839406 0.30457887 0.23184444 -0.08980731
0002b0 1c 41 2b 3d 35 8a b3 bd 6a 77 1c be fe 96 98 be
       0.04181014 -0.08766595 -0.15279928 -0.29802698
0002c0 b6 76 83 3e e2 30 0c 3d 44 e3 fe bd 2f 86 42 be
       0.25676507 0.034226306 -0.12445691 -0.189965
0002d0 ec 6b 61 3e 3d 28 29 3e 61 39 76 3e bb 0c af be
       0.22013825 0.16519256 0.24045326 -0.341894
0002e0 9e 86 8f 3e 74 5c 9f bd 23 32 db 3e 35 8a 5a 3e
       0.28032392 -0.07781306 0.4281169 0.21341784
0002f0 43 2b 07 bd 74 14 33 bd 32 ae 55 be 7c 27 61 3d
       -0.033000242 -0.043720677 -0.20867231 0.054969296
000300 d2 3f 5b be 00 7b 27 bc 5e c1 bf be 3f 70 d9 bd
       -0.21411064 -0.010222197 -0.37452215 -0.10617112
000310 44 b7 41 3e 2d 2f cc 3c 94 a6 61 bd b6 41 1f bd
       0.18917567 0.024924839 -0.055090502 -0.038881026
000320 94 be 0a 3d a8 6f 7d 3e 54 1f a1 bd 57 1f fb bd
       0.033873156 0.24749625 -0.078673035 -0.12261837
000330 b0 58 e5 be db b5 3f bd 37 df 65 be d4 22 4a 3c
       -0.44794226 -0.04680429 -0.22448431 0.012337405
000340 72 c6 0d 3f 1d 25 a1 3e 08 52 ee bd cf 8f 85 3d
       0.5538093 0.31473628 -0.1163674 0.0652157
000350 6a 4c 42 3d 64 91 1b bd 40 bd 7c bd 58 2e 0c 3f
       0.047436155 -0.037980452 -0.06170392 0.54758215
000360 dc d7 a5 bd 78 8f 88 be 08 5f 2e be 2f 26 63 be
       -0.080978125 -0.26671958 -0.17028439 -0.22182535
000370 7a 2f 15 3e 49 b4 da be a3 90 dd be 1b bc 44 3e
       0.14568892 -0.42715672 -0.43274412 0.19212382
000380 94 fb fc bd fb 7a 9e 3d ab 43 0e 3e 28 0a 05 be
       -0.12352672 0.077383004 0.13893001 -0.12992156
000390 f2 fb 26 3e 9f 9d 54 be 8d 2d 31 be 12 d5 39 bd
       0.16307047 -0.20763253 -0.17302532 -0.045369215
0003a0 73 56 7c 3d 6b 2e 5d 3d d4 98 eb bd b0 cb 10 bd
       0.061605882 0.053999346 -0.11503759 -0.0353505
0003b0 6d 5c 2c be a8 34 36 3e 6c 41 14 3e 9c f8 14 bd
       -0.16832133 0.17793524 0.14478081 -0.036369905

bias_hh f4 [240]
000000 0d d8 25 3e 8c e6 43 3e ea d9 be bc 17 3c b1 be
       0.16195698 0.19130915 -0.023297269 -0.34616157
000010 8d ec 47 3e cc 5b 18 be 15 c4 1d 3d 4e 83 33 3e
       0.1952383 -0.14878768 0.038517077 0.17530558
000020 2c 11 49 bd 91 40 3c be f4 dd 75 3d e1 a0 32 3e
       -0.049088642 -0.18384005 0.060026124 0.17444183
000030 29 6d 8f be 0d c7 83 3d ae 2e c2 be d9 ae 85 be
       -0.2801297 0.0643445 -0.3792624 -0.2610996
000040 cc f9 11 bf 4b 75 b1 bd 39 5a 1b bd 1c 29 ed 3c
       -0.57021785 -0.0866495 -0.03792784 0.028950267
000050 cb b8 e3 be f5 e1 40 3d d3 1b c9 3d 2f c9 86 bc
       -0.44476923 0.04709049 0.0981976 -0.016453354
000060 77 5b ad be f2 8c e4 be e7 f2 0c be 81 b8 0a be
       -0.33858845 -0.44638783 -0.13764535 -0.13546945
000070 ae 6e 97 be 62 49 dc 3e 0f 0b df bd b4 0e b5 bc
       -0.2957663 0.43024737 -0.10890781 -0.022101738
000080 86 c0 f5 3b 02 4b cc bd 69 97 b5 3d 12 b5 b7 3d
       0.007499757 -0.09975244 0.0886677 0.08970083
000090 ca 46 e3 bd df 9b 7d be 5c c9 48 be 0b 0f 42 bd
       -0.11097486 -0.24766491 -0.19608063 -0.047377627
0000a0 d3 9d cd 3d f3 bd f4 be f1 85 c5 be fa ff 0a be
       0.10039868 -0.4780117 -0.38578752 -0.1357421
0000b0 ca 3a 53 bd eb c5 53 be c6 11 b6 3e 08 71 af bd
       -0.051569737 -0.20680968 0.35560435 -0.08566481
0000c0 b9 03 27 3e 49 34 5c 3d 4d eb f4 bd bc 51 c2 3d
       0.16310014 0.0537608 -0.119589426 0.09488246
0000d0 11 e1 5e bd dd 72 ea 3c 9d 96 f2 3d c6 eb f7 bc
       -0.05441386 0.028619224 0.118451335 -0.030263793
0000e0 17 47 fd bd 1d 31 ec bd c7 9b 99 3d 26 a8 6b 3c
       -0.12367075 -0.11532805 0.07500415 0.014383351
0000f0 fa 74 dd 3e 5e 83 1d bd 62 71 2c 3e 92 24 3b 3e
       0.4325331 -0.03845536 0.16840127 0.18275669
000100 bd 0c 01 bd 61 f0 ae be f8 df 1e 3f 62 33 a6 3e
       -0.03150629 -0.3416777 0.620605 0.32461077
000110 db c5 15 be 41 7c 64 3e f4 96 94 3e 5d 67 24 3d
       -0.14626257 0.22313024 0.29021418 0.040137637
000120 58 d1 43 be ba 73 fc bc d8 8e 69 be b3 73 98 bd
       -0.19122827 -0.030816901 -0.22808397 -0.07443943
000130 c3 2e 6b 3f 6c ae a9 3e 18 4f 15 3f 1c 3a 38 3e
       0.9186823 0.33140886 0.5832381 0.17990917
000140 4e bb 3a 3f f4 7c 09 be 6c 78 5e 3e 5f c4 6f 3e
       0.72942054 -0.13426572 0.21725625 0.23414753
000150 90 af 21 be 98 d7 22 3f 91 71 80 be 6e 1b 87 be
       -0.15789628 0.6361022 -0.25086644 -0.26388115
000160 e4 55 85 3f 50 33 05 be 94 cc 20 3f 23 8b 1b bb
       1.0416837 -0.13007855 0.6281216 -0.0023734055
000170 d9 bc ec be 26 a7 20 bd 20 33 df bd f4 07 bd 3d
       -0.4623783 -0.039221905 -0.10898423 0.092300326
000180 1e 0b 25 be 26 60 28 3e d6 77 5b be 4d da 20 bc
       -0.16117522 0.16442928 -0.21432433 -0.009817672
000190 e2 20 8b 3c 01 71 2f 3e bb f0 0d be ac bb 0a 3f
       0.016983453 0.17132951 -0.13861363 0.54192615
0001a0 c4 34 9b 3e 4e 83 9b 3e e3 0e a5 3e 0e e3 8d 3d
       0.30313694 0.30373615 0.3223792 0.06928073
0001b0 29 4b f8 bb 1b 4c 98 3c 9d b7 b5 3e 38 f0 f2 3e
       -0.007577319 0.018590977 0.35491648 0.47448897
0001c0 f1 08 60 3e 48 da 79 3d 1b 91 29 3e 68 aa fb 3d
       0.21878411 0.060999185 0.1655926 0.12288362
0001d0 0d 51 bc be 36 51 c6 3e be 8f 17 3e f7 ee 78 be
       -0.36780587 0.38733834 0.14800927 -0.24309908
0001e0 15 b7 9e be 72 3a 09 3e 18 19 4c be f3 5b 24 be
       -0.30999056 0.13401201 -0.19931448 -0.16050701
0001f0 31 bd 94 3d 64 ef 9d 3c ba 52 2d 3e f1 43 c4 be
       0.07262648 0.01927919 0.16926089 -0.38333085
000200 b3 ac 1e bd 01 13 1f be cc 3e d3 3c 2c f1 19 3e
       -0.038738918 -0.15534593 0.02578678 0.15033406
000210 8b 71 be bc 16 40 71 3e af fb 28 3e d3 7f 0d bd
       -0.0232475 0.23559603 0.1650226 -0.03454573
000220 94 b6 0d bd c3 3b af be 7d 4c dd 3d ae 70 36 3e
       -0.03459795 -0.34225282 0.108056046 0.17816421
000230 04 2d e5 3c 36 9c 03 3e 30 56 64 3d a7 f0 ec bc
       0.027975567 0.12852558 0.055746257 -0.028923346
000240 bc 96 dd 3d 60 b1 92 3d 94 55 34 3e 58 79 4a be
       0.10819766 0.07162738 0.1761077 -0.19772851
000250 03 51 e5 3d 27 48 ff 39 04 20 b4 be 9d 69 e5 bc
       0.111970924 0.00048691148 -0.35180676 -0.028004462
000260 92 9f 70 3e 19 bb 32 3e c7 43 24 3d 39 da 03 be
       0.23498371 0.17454185 0.0401037 -0.12876214
000270 b7 fc fa bc dc bf 3d 3e 3e 21 60 be 10 2e 88 3e
       -0.030638082 0.1853022 -0.21887681 0.26597643
000280 cd 2b f4 3d 60 c0 df 3d 85 62 a1 bc c6 19 61 3e
       0.11922417 0.109253645 -0.019700298 0.21982488
000290 43 f9 be be f8 e4 11 bd b2 a6 11 be b7 c0 9f bd
       -0.37299547 -0.035618752 -0.14223745 -0.07800429
0002a0 ca d5 d6 3d 8a 32 12 3e 06 bb 6f 3e 1b 14 26 be
       0.10489996 0.14277092 0.23411188 -0.16218607
0002b0 27 f9 5a 3d 58 25 45 bd ce 7a a4 be d4 cd 90 be
       0.053460266 -0.048131317 -0.32124943 -0.28282034
0002c0 29 5b b3 3e 13 97 4e 3e 1e 83 fc bd e7 72 02 be
       0.35030487 0.20174818 -0.12329696 -0.12739144
0002d0 a9 94 5f 3e b4 9b c5 3d e1 3b 2b 3d 64 07 b5 be
       0.21834053 0.09648839 0.04180515 -0.353572
0002e0 09 f5 b0 3e 1c 28 0b be a9 d3 d8 3e f7 01 ba 3d
       0.34561947 -0.1358952 0.42348984 0.09082406
0002f0 67 cb d6 3d 22 e1 a1 3d 20 30 92 bb 6d dd 26 3e
       0.10488015 0.07904269 -0.0044613034 0.16295405
000300 92 2a 9c be 4b 75 27 3e 65 44 a0 be 83 ac 34 3c
       -0.3050123 0.16353337 -0.3130218 0.011027458
000310 ff e1 51 3e 88 81 d4 bd c2 4e 05 be a6 87 0b be
       0.20496367 -0.103762686 -0.13018325 -0.13625965
000320 6e ea 0d 3e 87 9e 8a 3d 22 90 3b bd c2 19 00 be
       0.13858959 0.06768518 -0.045791753 -0.12509826
000330 a7 e5 1e bf d1 37 2c bd a6 c7 5b be 02 6e ac bd
       -0.6206917 -0.04204542 -0.21462879 -0.0841942
000340 a1 09 2f 3f 0c 8d c7 3e 97 27 99 be 82 8d 4d 3d
       0.6837407 0.38974798 -0.29913017 0.05018378
000350 0b 25 e8 3d c3 2b fa 3b dd 99 ca bd 3d 3c db 3e
       0.113351904 0.0076346113 -0.09892628 0.42819396
000360 fe b8 51 bd cb 3c a1 be a2 bf 91 bc 2d bf 50 be
       -0.051201813 -0.31491694 -0.017791573 -0.20385428
000370 40 50 25 3e d1 2a 0c bf 2b eb eb be 10 ad 88 3d
       0.16143894 -0.5475283 -0.46077856 0.06673634
000380 52 31 83 bd d7 9e 9b 3d 5b 68 66 3e 19 07 45 be
       -0.064058915 0.07598656 0.22500746 -0.19240989
000390 b0 52 58 3e 38 ad aa be 5f be c7 bd 6c 00 52 bd
       0.21125293 -0.3333528 -0.09753107 -0.051269934
0003a0 54 ec ac 3b 43 a0 86 3e 24 fe e6 bb 65 b8 dd 3c
       0.005277196 0.26294145 -0.007049339 0.027065465
0003b0 5b d3 81 be 5e 1c d0 3d 11 9a 38 bd ec f6 7f 3c
       -0.25356564 0.101616606 -0.045068804 0.015622836

weight f4 [3, 12]
000000 19 7d a3 be fb 87 0b 3f f7 28 90 3d 89 dc e0 3e
       -0.3193138 0.54504365 0.070390634 0.43918255
000010 cc 05 47 3e 77 29 25 bf 1e 34 f4 3e 74 52 5c bd
       0.19435805 -0.64516395 0.47696012 -0.05378957
000020 50 1a e4 be 9c f9 d6 be de 6c 83 3e 76 8b d6 be
       -0.44551325 -0.41987312 0.25668997 -0.41903275
000030 d7 2a 01 be 86 e2 92 3e 55 c0 0a be f7 3f 42 3e
       -0.12613998 0.2868845 -0.13549931 0.18969713
000040 0e 78 75 3e e9 0b b9 bd 1b e3 77 bc 4d b1 13 be
       0.23971578 -0.09035475 -0.01512983 -0.14423104
000050 06 a2 98 be 73 40 28 bd a8 4d 81 be 1f 3d 52 3d
       -0.29811114 -0.04107709 -0.2525456 0.05132782
000060 d3 9d 9b 3d 43 42 96 3d 88 18 a3 bc cd 3c 94 3b
       0.07598462 0.07336857 -0.019909158 0.0045238496
000070 d6 e6 8c 3d eb 39 89 bc 12 c5 35 3e d0 65 3f bd
       0.06879966 -0.01675125 0.17750958 -0.046727955
000080 83 ea 87 bb a9 96 62 be 90 94 63 3e ce 76 a2 3e
       -0.004147829 -0.22127785 0.22224641 0.31731266

bias f4 [3]
000000 c1 c7 cb 3e 6a ca a8 bd e7 00 81 bb
       0.39800838 -0.082417324 -0.003936875
