models/paramsearch_0.0013414524670869257_0.3477286214521341_0.6331299224414304_29.pt (torch, 33130 bytes, 7 tensors)

weight_ih f4 [240, 6]
-0.0073978524 1.3482662 -0.0075542154 1.4321969 0.36482254 0.080081746 0.14950678 1.0218114
-0.3582091 1.3062518 0.17168012 0.07528586 -0.01011756 -0.14023593 0.06944979 -0.4911323
-0.2466538 0.018122979 0.26188764 0.12601706 0.07479999 -0.50177485 -0.7389702 0.12013842
0.041502297 -0.086375445 0.02201651 -0.63803166 0.033935577 -0.17621702 -0.028078888 0.40867594
0.12240502 -0.45485514 -0.1402668 -0.31368187 -0.009876552 0.79371285 -0.12144243 -0.07615895
-0.3557475 0.065570444 -0.23181069 0.03665783 0.098996714 -0.9676321 -1.0479571 -0.117898166
-0.06965947 0.37710625 0.09741602 0.8380122 -0.74472415 -0.19292504 0.39127678 -0.09299486
0.3902683 -0.38709113 -0.4207672 0.11818371 -0.009673698 0.6913893 -0.28449962 1.2176917
0.1482223 0.067813836 0.26524502 -0.30920008 0.049561195 0.11016329 -0.13439642 0.16869394
0.20097199 0.2906255 -0.04895816 -1.0159922 -0.018897325 0.010695818 0.091385 0.6455431
0.30736446 1.3565689 0.49026683 0.09273509 0.40063834 0.53580654 0.0053053563 -0.97603685
-0.70146775 0.042515237 -0.0910514 0.067489654 0.07829643 1.0204351 0.023982992 -0.07930835
0.024559155 0.24723454 0.21149932 0.495592 0.48717505 -0.09085104 -0.073999316 0.6826564
-0.038837954 -0.040268105 -0.72040284 -0.059758518 -0.121442154 -0.32712445 0.30876842 -0.7366396
-0.13767509 0.01569729 0.041122697 0.44277686 0.06610881 0.077164955 -0.9448243 0.22345117
0.11657128 0.35393485 0.25029364 0.81896275 -0.40260968 0.27484894 0.41360578 0.098484404
0.23382996 -0.3371376 -0.9081214 0.37464526 0.13379686 0.81366843 -0.31971642 1.2355078
0.38377076 -0.028936196 0.2112771 -0.29491234 -0.094505176 -1.1890628 -0.9958627 0.17578278
0.14134863 -0.24492048 0.15309127 0.86318874 -0.2819812 0.03105298 -0.022476317 0.30171278
-0.118923075 -0.7909976 -0.32707256 -0.049184743 0.0927473 0.89949334 -0.4095871 0.9111855
-0.030402506 -0.14075904 0.3005837 0.9178661 -0.28335825 -1.6972353 -0.5322798 -0.056758437
0.0723751 -0.43580303 -0.27417517 -0.76292104 -0.4032067 -0.098839544 0.18282636 1.6341835
-0.21894711 1.7563372 0.37800372 0.04249096 0.29590943 0.3310674 0.024755051 -0.31661758
0.05615004 0.017647836 0.15771638 -0.22821377 -0.108314045 -0.9708279 -0.49938306 0.064878635
-0.03230045 0.8499691 -0.26168007 -0.23040062 -0.4293952 0.04720116 -0.21234632 0.2814558
0.1169329 0.047864884 -0.45465767 0.05600151 0.035605926 -0.28730026 0.06856527 -0.9695465
-0.5370044 -0.13003187 0.2610621 0.33940667 0.11558585 -0.1433303 -0.47205463 0.11278702
-0.029837107 -0.20398177 0.27997994 1.5678904 0.48815 0.1244362 0.27350706 -0.046395637
-0.08426195 -0.3309062 0.020973261 0.1167983 -0.02033221 -0.2800689 -0.5314867 0.34366697
-0.59558505 0.06058737 -0.08119325 0.52473694 0.0066836085 1.370462 0.49096307 0.17334257
0.15299325 0.09750336 -0.18160564 -0.25704923 -0.4411207 -0.008531048 0.08543134 -0.32063088
-0.06787226 -0.8267222 -0.41742453 -0.045644768 -0.07598153 0.47968993 -0.089620054 -0.24826829
00000000: af69 f2bb fd93 ac3f 5a89 f7bb 3a52 b73f
00000010: 05ca ba3e e601 a43d 4e18 193e b7ca 823f
00000020: 2f67 b7be 4233 a73f eacc 2f3e 792f 9a3d
00000030: 1fc4 25bc 029a 0fbe b13b 8e3d b175 fbbe
00000040: d092 7cbe a476 943c 2316 863e 9e0a 013e
00000050: bd30 993d 5174 00bf 272d 3dbf 220b f63d
00000060: 50fe 293d 9ce5 b0bd f85b b43c 0b56 23bf
00000070: 0800 0b3d 3c72 34be b205 e6bc f93d d13e
00000080: 7caf fa3d c6e2 e8be 1aa2 0fbe e99a a0be
00000090: 43d1 21bc c430 4b3f cfb6 f8bd 39f9 9bbd
000000a0: 8924 b6be cc49 863d c85f 6dbe 8526 163d
000000b0: cabe ca3d bdb6 77bf 7523 86bf 9874 f1bd
000000c0: a0a9 8ebd 1214 c13e 0d82 c73d f887 563f
000000d0: 3ea6 3ebf 248e 45be 6e55 c83e 1774 bebd
000000e0: 3fd1 c73e cf30 c6be cc6e d7be 4d0a f23d
000000f0: 6e7e 1ebc e4fe 303f efa9 91be 52dd 9b3f
00000100: 96c7 173e fbe1 8a3d 32ce 873e 794f 9ebe
00000110: ae00 4b3d 4a9d e13d 379f 09be 1bbe 2c3e
00000120: 9acb 4d3e decc 943e 5a88 48bd 080c 82bf
00000130: 90ce 9abc 833d 2f3c 0f28 bb3d 5042 253f
00000140: e05e 9d3e 0da4 ad3f 4104 fb3e e5eb bd3d
00000150: 7820 cd3e 9e2a 093f 8ed8 ad3b 8ddd 79bf
00000160: 6493 33bf 7524 2e3d 2879 babd 0438 8a3d
00000170: e159 a03d 9e9d 823f fb77 c43c 6b6c a2bd
00000180: 4830 c93c 0d2b 7d3e 4793 583e 3cbe fd3e
00000190: 026f f93e 1c10 babd f48c 97bd 92c2 2e3f
000001a0: 8c14 1fbd 2bf0 24bd 526c 38bf 59c5 74bd
000001b0: aab6 f8bd db7c a7be e516 9e3e 6a94 3cbf
000001c0: b3fa 0cbe 9a97 803c 4670 283d a6b3 e23e
000001d0: 0e64 873d a908 9e3d 01e0 71bf 62d0 643e
000001e0: ecbc ee3d f336 b53e 7d26 803e 8ba7 513f
000001f0: db22 cebe 00b9 8c3e 23c4 d33e 31b2 c93d
00000200: 1f71 6f3e 4d9d acbe a57a 68bf 81d1 bf3e
00000210: 0b02 093e 934c 503f dfb1 a3be 1f25 9e3f
00000220: 9a7d c43e 9a0b edbc 0659 583e c0fe 96be
00000230: ee8b c1bd 3633 98bf dcf0 7ebf 6700 343e
00000240: b2bd 103e 6fcc 7abe f5c3 1c3e f0f9 5c3f
00000250: d75f 90be d262 fe3c 4120 b8bc 197a 9a3e
00000260: f18d f3bd d27e 4abf 0e76 a7be f175 49bd
00000270: 4cf2 bd3d 3245 663f 66b5 d1be 7443 693f
00000280: ad0e f9bc 2323 10be 1be6 993e 46f9 6a3f
00000290: 5514 91be 023f d9bf 7d43 08bf 897b 68bd
000002a0: 6539 943d 9321 dfbe b060 8cbe cb4e 43bf
000002b0: 1c71 cebe 636c cabd d536 3b3e ed2c d13f
000002c0: ac33 60be a8cf e03f b489 c13e 000b 2e3d
000002d0: 7181 973e ab81 a93e 1bcb ca3c b31b a2be
000002e0: 96fd 653d 3292 903c 6780 213e dfb0 69be
000002f0: c1d3 ddbd 2d88 78bf 23af ffbe 17df 843d
00000300: 7a4d 04bd 9397 593f eefa 85be 24ee 6bbe
00000310: b0d9 dbbe 0156 413d 5071 59be fa1a 903e
00000320: 847a ef3d f80d 443d e4c8 e8be d761 653d
00000330: 85d7 113d 0519 93be f36b 8c3d 3334 78bf
00000340: 1f79 09bf 1327 05be eea9 853e b6c6 ad3e
00000350: 46b8 ec3d 2ec5 12be 25b1 f1be e2fc e63d
00000360: f36c f4bc 99e0 50be 8859 8f3e a2b0 c83f
00000370: ccee f93e 68d8 fe3d 1e09 8c3e 5a09 3ebd
00000380: 8791 acbd 8a6c a9be 1ed0 ab3c f233 ef3d
00000390: bc8f a6bc 3165 8fbe 830f 08bf 1ef5 af3e
000003a0: 4378 18bf 762a 783d a648 a6bd 2955 063f
000003b0: 2c02 db3b 4c6b af3f 835f fb3e b780 313e
000003c0: 43aa 1c3e d7af c73d d4f6 39be f59b 83be
000003d0: 93da e1be cfc5 0bbc a0f6 ae3d bb29 a4be
000003e0: 9d00 8bbd 11a4 53bf abb8 d5be 02f6 3abd
000003f0: 349c 9bbd eb99 f53e b88a b7bd 0b3a 7ebe

weight_hh f4 [240, 12]
-0.4073195 0.10904191 0.1689663 -0.22872056 0.24438575 -0.1990359 0.03979504 -0.31231642
0.09507428 -0.38993564 -0.05666056 0.29091752 -0.07182883 0.03797099 0.20812282 -0.026038107
0.114575155 -0.0059665996 -0.009524934 -0.22606911 0.028125834 0.0031739785 0.040820543 0.11640393
-0.100489505 0.0909808 -0.15804064 -0.14885543 0.056137156 -0.13770843 0.21477272 0.27700007
-0.2582337 -0.24110544 0.19306757 -0.17330885 -0.13465534 0.46535823 0.013034133 -0.4775165
0.009609149 -0.34155723 -0.22932945 -0.19368874 0.19649348 -0.2871411 -0.18153027 -0.10208603
0.035695095 0.0009162204 0.07673922 -0.015208313 0.16980302 0.04778545 0.106516704 0.12733804
-0.042235646 0.09238068 0.334145 0.07089029 -0.09388123 -0.017280955 0.09138 0.05131044
-0.27677464 0.039748553 0.115625784 -0.07238157 -0.30546427 -0.05804731 0.031330537 -0.15342334
-0.0907797 0.0797687 0.13277203 -0.14703809 0.3203932 -0.16737084 -0.32691354 0.032662258
0.41268045 0.085387886 -0.39586306 -0.2124892 -0.18280566 -0.24782126 0.056608733 0.19349024
-0.1949467 -0.0042161276 0.096098855 -0.0024815705 -0.077765755 0.11895506 -0.14557068 0.07993304
-0.26610988 -0.17681147 0.05075293 -0.045766156 -0.26983422 -0.08281414 -0.016828315 -0.0056520295
-0.10680327 -0.057702675 -0.40994784 -0.0074655395 -0.12789164 0.4104628 0.021733256 -0.042406403
0.19886242 -0.52065694 -0.40605265 0.15334316 0.45243078 -0.3111858 -0.36017814 -0.07028633
0.17401455 -0.10109051 0.08374722 0.09917522 -0.06257386 0.064962685 0.11898788 0.06632866
-0.042001475 0.05735833 0.11302212 0.088160016 -0.19906057 0.37369826 -0.4551527 -0.18712841
0.13975067 -0.41174814 -0.15241687 0.23118697 0.056227345 -0.42323774 0.12213054 -0.30485463
0.08298117 0.13438013 -0.25592974 -0.09358073 0.28296238 -0.16734074 -0.14825933 0.038959015
0.121612564 -0.07224144 0.16217172 -0.028690819 0.06225462 0.0727389 0.18334335 0.07879114
0.2515011 0.029765794 -0.20390937 0.43003213 0.16127554 0.18466833 -0.25849065 0.034165762
-0.51092833 0.26166844 -0.21768863 -0.5188064 -0.01022091 -0.40730554 -0.091850765 0.010528926
0.19508405 -0.42291257 0.03334556 -0.23134716 0.33944103 -0.32025042 0.1554682 0.08976501
0.10125005 0.27888894 0.078401506 -0.0003161946 -0.034458917 0.31574744 0.03533948 0.26797357
0.020301552 -0.13739845 0.06975604 -0.10866947 0.049235746 0.09681095 -0.009036762 0.31590277
0.119083256 -0.04559734 -0.08792374 0.11993516 -0.07549157 0.06877474 0.15379488 0.03521879
0.17821907 0.06445516 -0.204766 0.06866553 0.34065437 -0.0021812273 -0.08532517 -0.23226173
0.062085174 0.074820094 1.0792315 -0.010866442 -0.15219143 -0.025098894 -0.11431161 0.09745013
0.09711795 0.16022676 -0.2197677 -0.017843468 0.118533365 0.012443871 -0.36357915 0.059929967
0.1738686 -0.059094153 -0.21450491 0.3210824 0.108593546 -0.040402748 0.08342823 -0.38037556
0.052376155 0.19323617 -0.009250947 -0.1357604 0.3930678 -0.1167714 -0.1814745 0.29280832
0.300991 0.13760667 -0.04978776 0.39520365 -0.1634977 0.18034263 -0.13625357 -0.12210553
00000000: 2e8c d0be 5d51 df3d 8005 2d3e b935 6abe
00000010: 4240 7a3e 11d0 4bbe 2000 233d f0e7 9fbe
00000020: 4eb6 c23d a5a5 c7be e714 68bd 24f3 943e
00000030: fe1a 93bd 7887 1b3d 261e 553e de4d d5bc
00000040: 61a6 ea3d 7783 c3bb 780e 1cbc a97e 67be
00000050: 2668 e63c 8602 503b 7133 273d 2f65 ee3d
00000060: 71cd cdbd 2454 ba3d 68d5 21be 8f6d 18be
00000070: 13f0 653d 7003 0dbe 61ed 5b3e f4d2 8d3e
00000080: 3537 84be 58e4 76be 81b3 453e e077 31be
00000090: 17e3 09be 6f43 ee3e 1e8d 553c 0b7d f4be
000000a0: b16f 1d3c 97e0 aebe 57d5 6abe 5756 46be
000000b0: 9635 493e 2904 93be 12e3 39be 7b12 d1bd
000000c0: 0535 123d 832e 703a 7429 9d3d 4a2c 79bc
000000d0: d8e0 2d3e adba 433d 6e25 da3d e764 023e
000000e0: 49ff 2cbd 1532 bd3d 0e15 ab3e ee2e 913d
000000f0: cd44 c0bd ca90 8dbc 7025 bb3d e52a 523d
00000100: 68b5 8dbe 61cf 223d 36cd ec3d ca3c 94bd
00000110: d065 9cbe 04c3 6dbd 7354 003d 021b 1dbe
00000120: b5ea b9bd c65d a33d 64f5 073e 2791 16be
00000130: 940a a43e 4363 2bbe 3661 a7be dcc8 053d
00000140: da4a d33e d8df ae3d 90ae cabe c596 59be
00000150: 6831 3bbe dbc4 7dbe 8fde 673d 4e22 463e
00000160: 1ca0 47be 7127 8abb 7acf c43d d8a1 22bb
00000170: a743 9fbd b69e f33d 7b10 15be efb3 a33d
00000180: 8e3f 88be 110e 35be 4ee2 4f3d 4b75 3bbd
00000190: b627 8abe 769a a9bd 89db 89bc a934 b9bb
000001a0: acbb dabd a459 6cbd afe4 d1be 7ca1 f4bb
000001b0: 07f6 02be 2e28 d23e f109 b23c 56b2 2dbd
000001c0: 97a2 4b3e c649 05bf 22e6 cfbe fd05 1d3e
000001d0: 02a5 e73e bf53 9fbe 4569 b8be 48f2 8fbd
000001e0: df30 323e 8b08 cfbd aa83 ab3d 611c cb3d
000001f0: b926 80bd 280b 853d ebaf f33d 52d7 873d
00000200: bd09 2cbd 91f0 6a3d 2478 e73d 3d8d b43d
00000210: 89d6 4bbe 6155 bf3e c609 e9be 979e 3fbe
00000220: cd1a 0f3e a7d0 d2be 2b13 1cbe 47bc 6c3e
00000230: a54e 663d 9eb2 d8be 941f fa3d e815 9cbe
00000240: 08f2 a93d f29a 093e 3909 83be 41a7 bfbd
00000250: 72e0 903e 5f5b 2bbe 4bd1 17be 7d93 1f3d
00000260: 0210 f93d 52f3 93bd 5810 263e 0209 ebbc
00000270: b3fe 7e3d 22f8 943d 5cbe 3b3e 405d a13d
00000280: c1c4 803e 65d7 f33c 9ecd 50be 2c2d dc3e
00000290: 6a25 253e b219 3d3e e358 84be 66f1 0b3d
000002a0: 33cc 02bf 68f9 853e c5e9 5ebe 7fd0 04bf
000002b0: 9b75 27bc 5a8a d0be 411c bcbd 8481 2c3c
000002c0: 1dc4 473e ff87 d8be 5b95 083d 45e6 6cbe
000002d0: 37cb ad3e ddf7 a3be 0e33 1f3e b8d6 b73d
000002e0: 305c cf3d 88ca 8e3e f890 a03d ecc6 a5b9
000002f0: cb24 0dbd a6a9 a13e 21c0 103d d533 893e
00000300: 714f a63c 2eb2 0cbe 41dc 8e3d 198e debd
00000310: 6cab 493d d244 c63d ed0e 14bc 02be a13e
00000320: ece1 f33d 47c4 3abd 5d11 b4bd 91a0 f53d
00000330: 539b 9abd c5d9 8c3d 687c 1d3e 9441 103d
00000340: 0f7f 363e 1101 843d 2eae 51be 83a0 8c3d
00000350: 406a ae3e ecf2 0ebb f6be aebd 05d6 6dbe
00000360: 064d 7e3d 473b 993d 4224 8a3f 2909 32bc
00000370: 12d8 1bbe 329c cdbc 351c eabd ef93 c73d
00000380: c7e5 c63d 7c12 243e c90a 61be 772c 92bc
00000390: 9fc1 f23d 61e1 4b3c 0c27 babe 2079 753d
000003a0: 9c0a 323e b60c 72bd 2da7 5bbe ea64 a43e
000003b0: 4b66 de3d 5a7d 25bd 6bdc aa3d 96c0 c2be
000003c0: 6188 563d b4df 453e 4991 17bc c604 0bbe
000003d0: 2f40 c93e d825 efbd 74d4 39be f9ea 953e
000003e0: 7e1b 9a3e c3e8 0c3e 40ee 4bbd 2258 ca3e
000003f0: f16b 27be bdab 383e 0e86 0bbe 7712 fabd

proj f4 [12, 60]
-0.26774067 0.010440977 -0.0084201675 -0.032256257 0.123103015 -0.18860799 0.21246661 -0.13055244
0.063165046 0.054032397 0.067785546 -0.10397271 0.022340192 0.07176769 -0.030352397 -0.14101371
0.025121553 0.025645219 0.15195595 -0.041923847 0.038265884 0.32133207 -0.067142375 0.049042575
0.11754794 -0.037193757 -0.18577504 0.09728492 -0.18137819 0.01352088 -0.01719569 0.10477075
0.111212075 -0.092946365 0.112829156 0.02886724 0.04134185 -0.0122809615 0.06555247 0.07553212
0.008947313 -0.055182643 -0.10177112 0.1754457 0.17296042 0.19456045 -0.1295293 0.07199373
-0.06642529 0.31212226 0.07067578 -0.013612326 -0.07315909 -0.013226435 -0.19806492 0.0965384
-0.059967242 -0.050340116 -0.049573533 -0.03468048 0.1477045 -0.043285236 0.104053624 0.14818856
-0.0039970265 0.20544738 0.17729864 0.19179462 -0.16981307 -0.024673905 0.16794296 0.17279373
-0.08617809 0.08642567 -0.025357034 0.07990777 0.06936277 0.029121216 0.018428653 0.0276902
-0.052238412 -0.10540911 -0.11744135 -0.20018694 0.026754877 -0.15113924 0.010811873 0.1526058
0.24183485 -0.13615946 -0.111171134 -0.0436725 0.0014071802 0.02942578 -0.048827596 0.05012192
-0.19778085 -0.10282913 -0.05831403 -0.07218398 0.023681866 -0.04894893 -0.055972107 0.046908967
0.024481598 -0.10676738 0.095334865 -0.12552756 -0.064601816 -0.23026367 -0.08825298 -0.13890074
-0.060607385 0.011161278 0.27879092 0.09623437 -0.05987488 0.019022046 -0.07566438 0.0061476105
-0.11471651 0.059023473 -0.065088704 0.12819046 -0.07419105 -0.014491635 -0.26221558 -0.18918908
-0.18354028 -0.0043991157 0.0076902853 -0.039286416 0.25867027 0.09537506 0.3868198 -0.21876028
0.083846085 -0.03102163 -0.085460156 -0.16793762 -0.28934476 0.1596844 -0.14870474 0.2766995
0.24217355 0.15054582 -0.026422264 -0.26227945 0.18357082 0.04191497 -0.030512003 0.1833135
0.31374598 0.0051805065 0.17795135 -0.28176093 0.016659586 0.23265606 -0.051153302 -0.05681886
0.023573784 -0.28512236 0.27616817 -0.29033267 0.11449798 0.026982518 0.05521393 -0.0009614251
0.123429835 0.013284773 0.055855338 -0.13726862 -0.1740106 0.31764677 0.021407811 0.16791576
-0.2629403 0.16782068 0.1405306 -0.17244244 0.110572614 0.087136045 -0.1432557 0.10077533
0.06725416 -0.05639326 0.025441576 -0.061628442 -0.04975609 -0.12919618 -0.08233723 -0.038947724
-0.0039608926 -0.116041526 -0.02143388 -0.080573365 0.15741466 -0.0613623 -0.03748778 0.038332533
-0.12027267 -0.100142315 0.12583855 -0.027845837 0.03476405 -0.06817378 -0.10091732 0.016225016
-0.09644619 0.06556274 0.13245104 0.015959827 0.00031160386 -0.09422874 0.0040416378 0.0519302
-0.2473232 -0.055269923 0.07378063 -0.0063460255 0.11431914 -0.13810305 -0.06810207 0.017063627
-0.12977411 0.12758005 0.07263188 0.12903856 0.07129462 0.32289273 -0.011906179 -0.02272778
0.122964025 0.005911128 -0.042821046 0.019064097 0.080849 -0.06534881 0.016179144 -0.12485447
-0.23824976 -0.12171831 0.067691706 -0.20167686 -0.08517148 -0.08885203 0.13242589 0.018263571
0.19818233 0.3276859 0.14814287 0.110985674 -0.17674544 0.11679007 0.084597416 0.077223554
00000000: 4e15 89be a210 2b3c bef4 09bc 231f 04bd
00000010: 6f1d fc3d 7422 41be d990 593e 8aaf 05be
00000020: ad5c 813d 1351 5d3d 26d3 8a3d a5ef d4bd
00000030: c702 b73c f0fa 923d 97a5 f8bc e665 10be
00000040: b7cb cd3c ec15 d23c 579a 1b3e 57b8 2bbd
00000050: b0bc 1c3d a385 a43e f181 89bd dee0 483d
00000060: f9bc f03d 7b58 18bd d03b 3ebe 513d c73d
00000070: 34bb 39be ae86 5d3c fadd 8cbc 0c92 d63d
00000080: 28c3 e33d aa5a bebd f912 e73d fd7a ec3c
00000090: 1256 293d 1636 49bc 6040 863d 96b0 9a3d
000000a0: c097 123c 3207 62bd 616d d0bd 0aa8 333e
000000b0: 891c 313e db3a 473e 54a3 04be 7371 933d
000000c0: fc09 88bd 7dce 9f3e 77be 903d 3c06 5fbc
000000d0: 6fd4 95bd b0b3 58bc 88d1 4abe edb5 c53d
000000e0: 36a0 75bd 7031 4ebd 9e0d 4bbd 1e0d 0ebd
000000f0: d93f 173e dc4b 31bd 111a d53d bebe 173e
00000100: 7df9 82bb cc60 523e c68d 353e cf65 443e
00000110: 7ae3 2dbe ee20 cabc 3df9 2b3e d7f0 303e
00000120: 237e b0bd f1ff b03d 8eb9 cfbc afa6 a33d
00000130: 110e 8e3d 9e8f ee3c b0f7 963c 8fd6 e23c
00000140: f2f7 55bd bbe0 d7bd 1785 f0bd cefd 4cbe
00000150: 0b2d db3c 3fc4 1abe 4824 313c b244 1c3e
00000160: 8ea3 773e 636d 0bbe b1ad e3bd efe1 32bd
00000170: 2271 b83a 550e f13c 72ff 47bd a44c 4d3d
00000180: 1087 4abe 1498 d2bd b1da 6ebd 32d5 93bd
00000190: 7900 c23c ac7e 48bd 0243 65bd 9e23 403d
000001a0: a28d c83c dba8 dabd ed3e c33d 4c8a 00be
000001b0: f54d 84bd 3dca 6bbe fabd b4bd ff3b 0ebe
000001c0: 733f 78bd cbdd 363c afbd 8e3e 8616 c53d
000001d0: 5d3f 75bd 1fd4 9b3c edf5 9abd e571 c93b
000001e0: 7df0 eabd 99c2 713d 3a4d 85bd 5c44 033e
000001f0: 7af1 97bd 536e 6dbc 1f41 86be c8ba 41be
00000200: fcf1 3bbe 7526 90bb cafe fb3b cbea 20bd
00000210: 6e70 843e 0054 c33d 3f0d c63e b202 60be
00000220: 7fb7 ab3d 1321 febc bc05 afbd d7f7 2bbe
00000230: ff24 94be 4f84 233e 0e46 18be 8fab 8d3e
00000240: 58fc 773e af28 1a3e 8173 d8bc 7e49 86be
00000250: fdf9 3b3e 08af 2b3d 4ff4 f9bc 89b6 3b3e
00000260: 50a3 a03e 3dc1 a93b e138 363e f842 90be
00000270: af79 883c 643d 6e3e 2086 51bd e5ba 68bd
00000280: cf1d c13c 8ffb 91be ea65 8d3e 7ca6 94be
00000290: eb7d ea3d 710a dd3c 0028 623d 2508 7cba
000002a0: c8c8 fc3d 60a8 593c 91c8 643d 2590 0cbe
000002b0: d62f 32be 99a2 a23e 6f5f af3c 1cf2 2b3e
000002c0: 1ca0 86be 2fd9 2b3e 41e7 0f3e c094 30be
000002d0: e573 e23d 6274 b23d 9fb1 12be 4c63 ce3d
000002e0: 8dbc 893d 9efc 66bd da6a d03c 1b6e 7cbd
000002f0: 0bcd 4bbd 014c 04be 6ca0 a8bd a687 1fbd
00000300: 60ca 81bb 2ea7 edbd 1b96 afbc a603 a5bd
00000310: 4f31 213e 0957 7bbd c98c 19bd 9302 1d3d
00000320: 8551 f6bd 6a17 cdbd d2db 003e f41c e4bc
00000330: c064 0e3d b29e 8bbd bdad cebd 53ea 843c
00000340: 9485 c5bd c245 863d 3fa1 073e 2fbe 823c
00000350: c35e a339 fffa c0bd b76f 843b c3b4 543d
00000360: 4b42 7dbe b762 62bd 4d1a 973d 52f2 cfbb
00000370: 2720 ea3d e36a 0dbe 1979 8bbd 05c9 8b3c
00000380: 81e3 04be 58a4 023e 06c0 943d af22 043e
00000390: ea02 923d 3252 a53e 2212 43bc 9c2f babc
000003a0: 90d4 fb3d 23b2 c13b 1f65 2fbd 4f2c 9c3c
000003b0: 2994 a53d 99d5 85bd 208a 843c b3b3 ffbd
000003c0: bff7 73be 7347 f9bd f3a1 8a3d 6184 4ebe
000003d0: 636e aebd 0ef8 b5bd a79a 073e 7c9d 953c
000003e0: 4ff0 4a3e 72c6 a73e c4b2 173e 754c e33d
000003f0: c2fc 34be a22f ef3d 6941 ad3d 6227 9e3d

bias_ih f4 [240]
0.27927318 0.16125107 -0.03570949 0.34207112 -0.07585276 0.032596353 0.017621065 0.055382304
-0.057090923 0.27226165 -0.053129636 0.20230101 0.12567098 0.15300216 0.23976365 0.07866176
-0.032222666 0.0023271933 0.23638242 0.0759927 0.026642269 0.23707438 0.11765495 0.26264322
0.06855163 -0.17963958 -0.054245718 0.067381166 -0.02507413 0.03517194 0.154134 0.009812473
-0.04993337 0.08514632 0.06498413 0.27606237 0.06637824 0.12475617 -0.10027549 0.19031346
0.047562424 -0.013833152 -0.020292595 0.0047931504 0.100954846 -0.010548615 -0.11576087 -0.22068183
0.1602334 0.108953774 0.048369978 0.46686643 0.11143249 -0.025983375 0.21166728 -0.12021384
0.092850246 0.2709236 0.012682287 0.013151864 0.15351138 0.18095888 0.16176009 0.12689875
0.1405899 0.17413074 0.29974183 -0.024963014 -0.017253518 -0.10618213 -0.03269758 0.25254148
-0.052597288 0.20829774 -0.08991154 0.076336056 -0.009659002 -0.029176973 0.22026338 -0.1265621
-0.023024336 0.040391654 -0.057623863 0.031437248 -0.025398113 -0.03276588 0.091839164 0.271225
0.2116151 0.014940435 -0.18637902 0.12945862 0.15339477 -0.102736294 -0.139565 -0.04418394
0.13762967 0.39737037 -0.058447164 -0.0009408805 0.16915129 0.16926178 0.0706441 0.058126707
0.19763856 0.111565955 0.09713683 0.07958178 -0.0057484247 0.43281975 -0.06291333 0.37810108
-0.040080637 0.23131791 -0.09287496 -0.051821217 -0.044278003 0.053346727 -0.026694277 0.09466701
0.018468495 -0.10292713 0.07141088 0.2109661 -0.08254878 -0.005395804 0.04501434 0.14360905
-0.08850772 0.005903142 0.030469121 0.091743045 -0.1068615 0.10675515 -0.071441635 0.042761125
-0.093717754 0.035918523 -0.1347125 -0.08305844 -0.09316487 -0.0980691 0.09176514 -0.010181231
0.05809792 0.032471567 0.004504731 0.012329031 0.12925956 0.046197493 -0.055764787 -0.10518455
-0.13221507 -0.094519846 0.035059635 -0.07613717 0.13220933 0.048729338 -0.020903189 0.002290088
-0.06040458 0.13851728 -0.15358143 -0.034093224 0.045140095 -0.047870494 0.07796721 -0.0485846
-0.11752599 -0.05464849 -0.13945131 0.0207164 -0.18956357 -0.0039579435 -0.004058822 0.06569595
0.0693791 0.030409086 -0.10191106 0.13146193 0.1385135 0.17204349 0.11141139 0.21314764
0.04884356 0.0046758973 0.13208221 -0.15747137 0.0067223683 0.29251358 0.03491687 0.1127808
-0.050373487 0.1913104 0.20536475 -0.017127719 -0.042201232 -0.026689474 0.05262477 -0.12550959
0.0057976823 0.29836777 0.07074823 -0.013858275 0.14780469 -0.1437135 0.054162964 0.08338597
0.1749917 0.15073545 0.21780923 0.04864601 -0.07414726 0.08185533 -0.16154456 0.2607613
0.16346645 0.20478354 -0.0042153653 0.1937323 0.10798405 0.12110677 -0.015164038 0.003126974
0.17818539 0.036818445 -0.0028067818 -0.1721145 0.122432366 0.21073756 0.03660318 0.5553022
0.19449995 0.16346215 0.080878146 -0.14758897 0.13147452 0.18206039 -0.0047922563 0.09578216
00000000: e5fc 8e3e 001f 253e 1d44 12bd f223 af3e
00000010: b158 9bbd c183 053d 0d5a 903c 8ed8 623d
00000020: 2cd8 69bd e165 8b3e 769e 59bd ff27 4f3e
00000030: e5af 003e 99ac 1c3e 9a84 753e 6b19 a13d
00000040: eafb 03bd d383 183b 3c0e 723e 10a2 9b3d
00000050: e340 da3c a0c3 723e 14f5 f03d 2c79 863e
00000060: cc64 8c3d 70f3 37be c230 5ebd 23ff 893d
00000070: 4368 cdbc 7410 103d 4ed5 1d3e 7fc4 203c
00000080: ef86 4cbd 3261 ae3d 6616 853d 0c58 8d3e
00000090: 51f1 873d 2a80 ff3d 3c5d cdbd 88e1 423e
000000a0: d1d0 423d 72a4 62bc a83c a6bc dc0f 9d3b
000000b0: 6ac1 ce3d 19d4 2cbc 0914 edbd 6bfa 61be
000000c0: 3914 243e 2823 df3d 991f 463d 1e09 ef3e
000000d0: b836 e43d 16db d4bc 4fbf 583e ac32 f6bd
000000e0: 4528 be3d 80b6 8a3e 5ec9 4f3c ea7a 573c
000000f0: 1632 1d3e 494d 393e 70a4 253e bff1 013e
00000100: ccf6 0f3e 544f 323e c377 993e 3c7f ccbc
00000110: 4057 8dbc 0476 d9bd e6ed 05bd 1e4d 813e
00000120: 4170 57bd 014c 553e 8b23 b8bd 1456 9c3d
00000130: ca40 1ebc 8c04 efbc b98c 613e 7f99 01be
00000140: 889d bcbc b871 253d 0007 6cbd 58c4 003d
00000150: b40f d0bc 8435 06bd 2c16 bc3d 01de 8a3e
00000160: a1b1 583e bac8 743c 24da 3ebe cd90 043e
00000170: 8513 1d3e 6867 d2bd 21ea 0ebe 38fa 34bd
00000180: cbee 0c3e 2174 cb3e 4b66 6fbd 6ca5 76ba
00000190: ff35 2d3e f652 2d3e dbad 903d 4516 6e3d
000001a0: c361 4a3e b17c e43d adef c63d c6fb a23d
000001b0: 485d bcbb 8d9a dd3e b4d8 80bd 7796 c13e
000001c0: 982b 24bd 9ade 6c3e 3a35 bebd 7c42 54bd
000001d0: da5c 35bd 1982 5a3d f5ad dabc c7e0 c13d
000001e0: 3e4b 973c 76cb d2bd de3f 923d 7f07 583e
000001f0: 560f a9bd 49cf b0bb f560 383d 400e 133e
00000200: 8943 b5bd 256f c13b 619a f93c c7e3 bb3d
00000210: 34da dabd 72a2 da3d fe4f 92bd 4a26 2f3d
00000220: 18ef bfbd 4d1f 133d 13f2 09be 8b1a aabd
00000230: 39cd bebd 74d8 c8bd 5def bb3d 2ecf 26bc
00000240: 16f8 6d3d e800 053d 6c9c 933b b4ff 493c
00000250: 9e5c 043e 9539 3d3d 9e69 64bd ff6a d7bd
00000260: 6363 07be 9f93 c1bd b19a 0f3d ceed 9bbd
00000270: e261 073e 6a98 473d 2a3d abbc 4d15 163b
00000280: cb6a 77bd 79d7 0d3e 7344 1dbe 56a5 0bbd
00000290: d2e4 383d da13 44bd 46ad 9f3d a500 47bd
000002a0: 77b1 f0bd 18d7 5fbd 53cc 0ebe 71b5 a93c
000002b0: f41c 42be a3b1 81bb deff 84bb 998b 863d
000002c0: a116 8e3d 7a1c f93c bfb6 d0bd f59d 063e
000002d0: 7cd6 0d3e 2b2c 303e a82b e43d 6043 5a3e
000002e0: 2f10 483d 4538 993b 8f40 073e 2d40 21be
000002f0: 5047 dc3b 57c4 953e fe04 0f3d 9ff9 e63d
00000300: 6e54 4ebd e0e6 433e 234b 523e 6e4f 8cbc
00000310: 33db 2cbd e2a3 dabc 128d 573d 9685 00be
00000320: 7cfa bd3b a9c3 983e 73e4 903d d10d 63bc
00000330: 1d5a 173e a229 13be fcd9 5d3d 43c6 aa3d
00000340: 0631 333e 655a 1a3e 6209 5f3e 0a41 473d
00000350: 85da 97bd c4a3 a73d f06b 25be 8182 853e
00000360: c063 273e c7b2 513e 0c21 8abb c361 463e
00000370: be26 dd3d d406 f83d 9672 78bc ebed 4c3b
00000380: 3b76 363e f0ce 163d fcf1 37bb c93e 30be
00000390: d2bd fa3d 96cb 573e 37ed 153d 4928 0e3f
000003a0: ff2a 473e 9f62 273e 71a3 a53d 9021 17be
000003b0: 42a1 063e 0a6e 3a3e 5c08 9dbb 7029 c43d

bias_hh f4 [240]
0.29918572 0.012357875 0.14684755 0.14228615 -0.073969916 -0.12115945 0.055057045 0.055202425
-0.012128947 0.21593994 -0.078852154 0.23511055 0.076158136 0.032078758 0.18409598 0.16244842
0.02215059 -0.061064854 0.05477175 0.01215408 0.101915985 0.2764372 -0.013019196 0.13676897
0.14101984 0.030794956 -0.02539604 -0.029385915 0.14074981 -0.01839956 0.29095426 0.13663048
-0.05151727 0.09132011 -0.05897512 0.17220838 0.034208424 0.18093057 0.035562668 0.04879543
0.12240796 -0.024805957 0.01283735 -0.04634137 0.16220553 0.064597905 -0.1361441 -0.018542243
0.09368807 0.096854486 -0.08542957 0.5638868 0.013007292 0.2001247 0.23319615 0.06976842
0.049174536 0.21005821 -0.04874255 0.07391505 0.20220341 0.04604822 0.11444575 0.16653489
0.06118825 0.14175378 0.23873897 -0.11078853 0.03276431 0.13558483 -0.0056320154 0.2549194
-0.03115581 -0.005784324 0.07351831 0.00028125927 -0.039864074 -0.101597324 0.12572508 0.091016866
0.104285605 0.14040962 0.07392004 0.10623977 0.067186624 -0.016010432 -0.08116857 0.33412635
0.17677566 0.15560879 -0.013769812 0.07165326 -0.045423303 -0.03167073 -0.068434514 0.07717541
0.17565338 0.28338957 -0.17949031 0.2355625 0.19819817 0.042143404 0.17332576 0.1391285
0.1685068 0.100496106 -0.14490809 -0.075492345 -0.097337484 0.36288112 -0.04310792 0.3513991
0.043507885 0.24469379 0.11467683 0.12016378 0.010309299 -0.18675637 0.16744761 0.080401465
-0.15788688 -0.029156402 0.11982972 0.0055328705 -0.0778028 0.1193087 -0.13196123 0.06502524
-0.043694787 -0.04939927 -0.029203031 0.034167945 0.07231044 0.10504442 -0.034566514 -0.117273755
-0.09449071 0.08633964 -0.11733467 0.11502112 -0.044797923 -0.095864914 0.026457451 -0.2079022
0.031518362 -0.07560506 0.03294536 0.06993838 0.030521145 0.0014597642 -0.11990825 -0.08784184
-0.011012342 0.13535193 0.010975166 0.027937923 -0.046941657 0.061944667 -0.028342733 -0.15335447
0.121177666 0.09233992 0.07099029 0.043949418 0.17949489 -0.025242073 -0.044805255 -0.08514579
0.018645287 -0.06269858 0.070574574 -0.037618794 -0.057416398 0.028102629 0.032283302 0.06573433
-0.016996795 0.039259803 -0.099678874 -0.09300235 0.1271166 0.07871271 0.03673468 0.28969103
-0.09062819 -0.0939385 0.2699755 -0.039753314 -6.8938396e-05 0.20513915 -0.069528505 0.21224417
-0.09496061 0.016427286 0.12278514 -0.053381834 -0.12031003 0.048601776 0.054828744 0.108611554
0.14923795 0.20990351 -0.05073931 0.09445529 0.20063537 -0.003021822 -0.072573476 0.15254875
8.447872e-05 0.12689717 0.3059491 -0.019642882 -0.056187984 0.0621671 0.032574378 0.090979695
0.061156288 0.09476529 -0.089618735 -0.04193667 0.0745151 0.008493575 -0.13115454 -0.014025115
0.19482319 0.03918986 0.01633015 0.030781567 0.2047574 0.2264296 0.03368537 0.46097916
-0.023871763 0.07797527 0.1772265 -0.13564487 0.05779559 0.10111094 -0.033174332 0.0070235413
00000000: df2e 993e af78 4a3c 345f 163e 76b3 113e
00000010: 8a7d 97bd 7222 f8bd 7f83 613d f01b 623d
00000020: 7eb8 46bc 5c1f 5d3e 3d7d a1bd d2c0 703e
00000030: ccf8 9b3d 0465 033d a883 3c3e e158 263e
00000040: 2775 b53c 241f 7abd 5858 603d e821 473c
00000050: 54b9 d03d 2d89 8d3e 774e 55bc 2a0d 0c3e
00000060: 8167 103e b445 fc3c 5b0b d0bc bbba f0bc
00000070: b820 103e adba 96bc f5f7 943e dce8 0b3e
00000080: c603 53bd 0a06 bb3d e58f 71bd 6557 303e
00000090: 221e 0c3d dd45 393e 29aa 113d b8dd 473d
000000a0: 06b1 fa3d dd35 cbbc c053 523c 73d0 3dbd
000000b0: 3519 263e e84b 843d 5c69 0bbe e7e5 97bc
000000c0: 88df bf3d a55b c63d b3f5 aebd e35a 103f
000000d0: 891c 553c 7ded 4c3e f9ca 6e3e bfe2 8e3d
000000e0: 3d6b 493d 8019 573e 45a6 47bd c660 973d
000000f0: 690e 4f3e 0f9d 3c3d 8962 ea3d 1f88 2a3e
00000100: 88a0 7a3d e727 113e fd77 743e 19e5 e2bd
00000110: de33 063d c0d6 0a3e c58c b8bb cc84 823e
00000120: 783a ffbc 6d8a bdbb c590 963d fb75 9339
00000130: 8348 23bd 4212 d0bd 13be 003e 0d67 ba3d
00000140: b193 d53d 8ac7 0f3e 6463 973d 3d94 d93d
00000150: 2499 893d 4f28 83bc b53b a6bd 9c12 ab3e
00000160: ae04 353e e957 1f3e c79a 61bc f2be 923d
00000170: c90d 3abd 2bb9 01bd 6527 8cbd 240e 9e3d
00000180: 7bde 333e 7018 913e 4fcc 37be 4c37 713e
00000190: 76f4 4a3e 909e 2c3d 4f7c 313e b477 0e3e
000001a0: 0c8d 2c3e e7d0 cd3d c962 14be bb9b 9abd
000001b0: e058 c7bd 8ecb b93e ee91 30bd 95ea b33e
000001c0: 5335 323d 0291 7a3e b0db ea3d 6e18 f63d
000001d0: 56e8 283c 103d 3fbe 6377 2b3e 86a9 a43d
000001e0: 19ad 21be 68d9 eebc 4969 f53d 154d b53b
000001f0: 1357 9fbd 1f58 f43d d820 07be f42b 853d
00000200: 4ef9 32bd e456 4abd 323b efbc b0f3 0b3d
00000210: 7f17 943d 8721 d73d 9e95 0dbd 392d f0bd
00000220: 5884 c1bd d6d2 b03d 294d f0bd 3190 eb3d
00000230: 077e 37bd d354 c4bd 4cbd d83c 50e4 54be
00000240: 6619 013d d3d6 9abd b7f1 063d da3b 8f3d
00000250: 7b07 fa3c 8f55 bf3a 7592 f5bd 6ce6 b3bd
00000260: 1c6d 34bc b299 0a3e 2fd1 333c 12de e43c
00000270: e545 40bd b1b9 7d3d 052f e8bc f408 1dbe
00000280: ff2b f83d b61c bd3d 5b63 913d 4e04 343d
00000290: 82cd 373e 77c8 cebc b785 37bd ea60 aebd
000002a0: 00be 983c 1d68 80bd 6789 903d 2a16 1abd
000002b0: 752d 6bbd 7c37 e63c 7f3b 043d b89f 863d
000002c0: dd3c 8bbc e3ce 203d 7024 ccbd 0478 bebd
000002d0: db2a 023e 2134 a13d 1b77 163d 6252 943e
000002e0: 469b b9bd d462 c0bd 3b3a 8a3e 5fd4 22bd
000002f0: 0593 90b8 ff0f 523e f664 8ebd 8956 593e
00000300: b57a c2bd 8492 863c c776 fb3d e9a6 5abd
00000310: 1b65 f6bd a812 473d 1b94 603d bc6f de3d
00000320: d5d1 183e f2f0 563e 06d4 4fbd c671 c13d
00000330: 5c73 4d3e c309 46bb 67a1 94bd bd35 1c3e
00000340: 2b2a b138 55f1 013e 5ca5 9c3e 1cea a0bc
00000350: 5f25 66bd eea2 7e3d b66c 053d 9053 ba3d
00000360: 047f 7a3d 4e14 c23d 078a b7bd c9c5 2bbd
00000370: 5f9b 983d a328 0b3c 604d 06be 99c9 65bc
00000380: bb7f 473e 8c85 203d cfc6 853c a029 fc3c
00000390: edab 513e 29dd 673e acf9 093d 7605 ec3e
000003a0: b78e c3bc 80b1 9f3d dd7a 353e 7de6 0abe
000003b0: 12bb 6c3d 4113 cf3d cfe1 07bd bc25 e63b

weight f4 [3, 12]
-0.068042 0.4997497 -0.08763507 -0.3268907 0.25602573 -0.5801374 -0.25323573 0.14257373
0.41197386 -0.39904162 -0.3466435 -0.18376598 -0.02921413 0.22117046 0.12953952 0.10177372
-0.006350485 0.2067021 -0.14776167 0.116705395 -0.27656338 -0.16245465 0.17498386 -0.05289887
0.009976043 0.29964587 0.38726288 -0.21432623 0.38070378 0.3473343 -0.22187316 0.20163684
0.0578356 0.014222404 -0.22253016 -0.025667857
00000000: 9b59 8bbd 31df ff3e 047a b3bd 385e a7be
00000010: ce15 833e e283 14bf 1da8 81be d9fe 113e
00000020: 3dee d23e 2f4f ccbe 427b b1be 262d 3cbe
00000030: 7952 efbc 827a 623e 02a6 043e bd6e d03d
00000040: bb17 d0bb b7a9 533e d64e 17be 3d03 ef3d
00000050: b799 8dbe 835a 26be f82e 333e 7cac 58bd
00000060: 8f72 233c 2f6b 993e 5247 c63e 5678 5bbe
00000070: 9beb c23e cdd5 b13e b832 63be e379 4e3e
00000080: 06e5 6c3d 1605 693c f2de 63be 6645 d2bc

bias f4 [3]
0.15375978 0.1436072 0.13064127
00000000: 3473 1d3e c40d 133e d3c6 053e
