models/paramsearch_0.0010396358241649849_0.9186534028264177_0.99999_46.pt (torch, 32484 bytes, 7 tensors)

weight_ih f4 [240, 6]
0	0x3d8931de	0.066989645
1	0x3e7e177f	0.2481365
2	0x3c79c87a	0.015245551
3	0x3f1a9014	0.60376096
4	0x3ee06d15	0.43833223
5	0xbd99c167	-0.07507592
6	0x39f08659	0.00045876464
7	0xbdb332f2	-0.087499514
8	0xbe23f9ee	-0.1601331
9	0xbd3fc8bf	-0.046822306
10	0x3c537b7f	0.012907862
11	0xbd8a39fd	-0.06749342
12	0x3e0b8b7e	0.13627431
13	0xbe728044	-0.23681742
14	0xbbcd1d13	-0.0062595694
15	0xbef548d0	-0.47907114
16	0xbc964875	-0.018345097
17	0x3deb1870	0.114792705
18	0xbe03c3af	-0.12867616
19	0x3d6349f8	0.055490464
20	0x3c2b40a6	0.010452425
21	0x3f0f4a34	0.559726
22	0x3f4aae50	0.7917223
23	0xbc59bb49	-0.013289281
24	0x3e020dd0	0.12700582
25	0xbe081e01	-0.13292696
26	0xbdeb99ca	-0.11503942
27	0x3e3b0b2c	0.1826598
28	0x3e496bc2	0.19670013
29	0x39a82bca	0.00032076082
30	0x3e130767	0.14358293
31	0x3e1a1145	0.1504565
32	0xbe7f6adf	-0.24943112
33	0x3f35fa11	0.71084696
34	0x3e82d4c2	0.25552946
35	0xbd35199b	-0.044213872
36	0x3d2bb378	0.0419192
37	0xbe2afdd8	-0.16698396
38	0xbe2eb92d	-0.17062826
39	0xbe0636f1	-0.13106896
40	0xbdb62e58	-0.08895558
41	0xbd5f2d75	-0.05448671
42	0xbd80c905	-0.062883414
43	0x3e8e37fe	0.27777094
44	0x3e2176c8	0.15767968
45	0x3f0e489c	0.55579543
46	0x3f98ba7b	1.1931909
47	0x3ed4abbf	0.41537282
48	0xbddcd7db	-0.10783359
49	0xbd2e35f6	-0.04253193
50	0xbe053708	-0.13009274
51	0x3edfe195	0.43726793
52	0x3e1a8aa3	0.15091948
53	0xbe492c29	-0.19645752
54	0x3da23ce0	0.07921767
55	0xbea74858	-0.3267238
56	0xbea2e2ca	-0.3181365
57	0xbe93acf9	-0.28842905
58	0x3d4b11d9	0.049577568
59	0xbc605fdd	-0.013694731
60	0x3de7017f	0.11279582
61	0xbec58e92	-0.38585335
62	0xbd9fa3b9	-0.077948995
63	0xbe920c50	-0.2852502
64	0xbe1539f2	-0.14572886
65	0x3cbf5b50	0.02335897
66	0x3e346c88	0.17619526
67	0xbe1b9d53	-0.15196733
68	0xbd5989c2	-0.05310989
69	0xbe949dfa	-0.29026777
70	0xbbd372b5	-0.006452883
71	0x3e286ece	0.16448519
72	0x3dec46ad	0.11536918
73	0x3d053a01	0.03252602
74	0x3e387192	0.18012074
75	0x3f154589	0.5830923
76	0x3f233c3e	0.637638
77	0xbdcc344a	-0.09970911
78	0xba98fe30	-0.0011672433
79	0xbe83c006	-0.2573244
80	0x3c8fb4ce	0.01754227
81	0xbe734539	-0.23756875
82	0x3b790c3d	0.003800168
83	0xbd207089	-0.039169822
84	0xbd0f1b15	-0.034937937
85	0xbebba9d9	-0.3665302
86	0x3cd7d881	0.026348354
87	0xbed2b37f	-0.4115257
88	0x3bbe4403	0.0058064475
89	0xbcaa6966	-0.020802211
90	0x3d8bafee	0.06820665
91	0xbe8af7e4	-0.2714225
92	0xbe09a601	-0.13442232
93	0xbe2206d7	-0.15822922
94	0x3e0f8342	0.14014915
95	0x3c80fe21	0.015746178
96	0xbd2296d4	-0.039694622
97	0x3e8dff92	0.27734047
98	0x3f8b7f19	1.0898162
99	0xbf94a308	-1.1612253
100	0x3d7e2114	0.062043265
101	0x3e9dff5d	0.3085889
102	0xbd923a4b	-0.07140025
103	0xbecbe736	-0.39824837
104	0xbd8ac211	-0.067752965
105	0x3ebd4dda	0.3697346
106	0x3cdb89cc	0.026799105
107	0xbdf4e43a	-0.11957593
108	0xbda95ff3	-0.08270254
109	0x3e164e93	0.14678411
110	0x3da4f7c5	0.08055071
111	0x3eea27a0	0.45733356
112	0x3db4d8cc	0.08830413
113	0x3d94edfe	0.07271956
114	0xbd958193	-0.07300105
115	0x3e3810a8	0.17975104
116	0xbb5c60e1	-0.003362708
117	0xbd1d0689	-0.03833631
118	0xbe269736	-0.1626862
119	0xbc990673	-0.018679833
120	0x3ddf391c	0.108995646
121	0xbe519c98	-0.20469892
122	0xbd80581a	-0.06266804
123	0xbea7665b	-0.3269528
124	0x3d100c42	0.03516794
125	0x3c46da69	0.012137034
126	0x3dc0cb0f	0.0941373
127	0xbde312d2	-0.11087574
128	0xbdbc9b59	-0.09209318
129	0xbd7bf518	-0.061513036
130	0x3d2af380	0.041736126
131	0x3d6394a9	0.055561695
132	0x3e04f71c	0.1298489
133	0x3eb60920	0.35553837
134	0xbe0f7972	-0.14011171
135	0x3f71110e	0.9416665
136	0x3d51e6dc	0.051245555
137	0xbd5a4daf	-0.05329674
138	0x3dcbd767	0.09953194
139	0x3ec59677	0.38591358
140	0x3ddb59cc	0.10710487
141	0x3f93993b	1.1531137
142	0x3efdffea	0.4960931
143	0xbd463d06	-0.04839804
144	0x3eaca41e	0.3371896
145	0x3e89f78d	0.2694668
146	0xbf751fe3	-0.9575178
147	0xbea7e071	-0.32788423
148	0x3e4dfddc	0.20116371
149	0x3ec8c8b1	0.39215615
150	0x3d75efc9	0.06004313
151	0xbe91924f	-0.28431937
152	0xbe684396	-0.22682032
153	0xbdcd12c1	-0.10013343
154	0x3d1c2380	0.038119793
155	0x3d87ce85	0.06631187
156	0x3e07a0ca	0.1324493
157	0xbe847107	-0.25867483
158	0x3c09797d	0.0083907815
159	0xbeca9fba	-0.39574987
160	0x3d1255b5	0.035726268
161	0xbaf4f3fc	-0.0018688436
162	0xbd16ed64	-0.036847487
163	0xbe533bc5	-0.20628269
164	0xbdfb657f	-0.12275218
165	0xbe394a24	-0.18094689
166	0x3e11e2fe	0.14246747
167	0xbd192932	-0.037392803
168	0x3d043632	0.032278247
169	0x3dcfedf1	0.101528056
170	0xbe190253	-0.14942293
171	0xbd51ce31	-0.05122203
172	0x3eb81f7e	0.35961527
173	0x3c02dcf7	0.007987252
174	0xbe153406	-0.14570627
175	0x3ddf9352	0.10916771
176	0x3c927836	0.017879587
177	0xbed6ec82	-0.41977316
178	0xbddb1ce8	-0.10698873
179	0xbe194b6e	-0.1497018
180	0xb9c841b0	-0.00038195914
181	0xbe75b765	-0.2399574
182	0x3de11285	0.109898604
183	0x3dd31179	0.10306067
184	0x3da522ff	0.080633156
185	0x3d8a06a5	0.067395486
186	0x3cf6f0d8	0.03014414
187	0xbc993b98	-0.018705174
188	0xbe64c73d	-0.22341628
189	0xbd6b4e98	-0.057448
190	0x3ec88211	0.39161733
191	0xbe05bdb2	-0.13060644
192	0x3ce9d18e	0.028542306
193	0xbeca5f14	-0.39525664
194	0xbc7c7827	-0.015409506
195	0xbe37db07	-0.17954646
196	0x3de177bb	0.11009165
197	0x3d757137	0.059922423
198	0x3db458f2	0.088060275
199	0xbeb4bb7a	-0.35299283
200	0xbe1f5153	-0.15558366
201	0xbeb32204	-0.3498689
202	0x3e486e7a	0.19573393
203	0xbdb9a265	-0.090641774
204	0xbd8e4d43	-0.0694833
205	0xbe99943e	-0.29995912
206	0xbb8c8f09	-0.004289512
207	0x3eefbbb6	0.468229
208	0x3ea7592e	0.32685226
209	0xbdce328d	-0.100682355
210	0xbd638df1	-0.055555288
211	0x3eb67714	0.35637724
212	0x3a7e0c32	0.00096911483
213	0x3ed7578d	0.42058983
214	0x3e6479b9	0.22312059
215	0xbc8f050a	-0.017458457
216	0x3d211945	0.03933074
217	0xbba8a4d0	-0.0051466003
218	0xbd49a70a	-0.049231566
219	0x3e1e5828	0.15463316
220	0x3cc5f8cf	0.024166493
221	0x3d8ff9db	0.07030078
222	0x3d59b117	0.0531474
223	0x3f10e5d4	0.5660069
224	0xbe8b0493	-0.27151927
225	0x3e5b9bb6	0.21446118
226	0xbbe82449	-0.0070844037
227	0xbd3a672a	-0.04550854
228	0x3e098920	0.13431215
229	0xbe43b537	-0.19112097
230	0xbe148da6	-0.1450716
231	0xbeaea65c	-0.34111297
232	0x3d045341	0.03230596
233	0xbdd7e121	-0.10540987
234	0xbd75861c	-0.05994235
235	0xbd84b07c	-0.06478974
236	0x3e37b68f	0.17940734
237	0x3f0de07c	0.5542066
238	0x3fa48089	1.2851726
239	0x3dc1bb60	0.09459567
240	0x3e523c57	0.2053083
241	0xbea7ebd3	-0.32797107
242	0x3da9d8de	0.08293317
243	0xbda32dd8	-0.079677284
244	0x3d7f1560	0.062276244
245	0xbd88450c	-0.06653795
246	0x393c4007	0.00017952929
247	0xbe74a37d	-0.23890491
248	0xbe3309e7	-0.17484246
249	0xbe30f6de	-0.17281672
250	0xbd32e38b	-0.043674033
251	0xbcc0c88c	-0.023533128
252	0x3d0ed2cd	0.034869004
253	0xbea21716	-0.31658238
254	0xbdb67c43	-0.0891042
255	0xbe938f4b	-0.2882026

weight_hh f4 [240, 12]
0	0xbe18f34e	-0.14936563
1	0xbd382b95	-0.044963438
2	0xbe39d0c9	-0.18146051
3	0x3d2b1caa	0.041775383
4	0x3cbaba2a	0.022793848
5	0x3def8b78	0.116965234
6	0xbe04f349	-0.12983431
7	0x3b03b8c3	0.002009914
8	0x3e8e68b2	0.2781425
9	0xbe431283	-0.1905003
10	0x3dd2bc8e	0.1028987
11	0xbdd4ba4c	-0.10387096
12	0xbde471e0	-0.111545324
13	0x3e0c025d	0.13672777
14	0x3d853d2c	0.06505808
15	0x3d8a2005	0.067443885
16	0x3d364183	0.04449607
17	0xbd68cc2d	-0.056835342
18	0xbcd53b86	-0.02602936
19	0x3cafa2bc	0.021439902
20	0xbc97238f	-0.018449573
21	0x3d7b8b3e	0.06141209
22	0x3d9f3e80	0.07775593
23	0xbd3ebfea	-0.046569742
24	0xbe0766a5	-0.1322275
25	0xbdae031c	-0.08496687
26	0x3a2bbadc	0.00065509765
27	0xbc535aca	-0.012900064
28	0x3d65c277	0.05609366
29	0x3c61cd59	0.013781869
30	0x3d287267	0.041124728
31	0x3bf57c02	0.0074915895
32	0x3cea75ac	0.028620563
33	0xbd8bd195	-0.06827084
34	0xbd6bd2cb	-0.057574075
35	0xbd977c7e	-0.07396792
36	0xbd2ee6a0	-0.04270041
37	0xbe1e69a5	-0.15469988
38	0x3dda06f1	0.10645855
39	0xbd569260	-0.052385688
40	0xbe080455	-0.13282903
41	0xbe12bd92	-0.14330128
42	0xbddbdd2f	-0.10735547
43	0x3de4b6b5	0.11167661
44	0x3e748e5e	0.23882434
45	0x3dae208a	0.085023
46	0xbe299fa5	-0.16564806
47	0xbd4af63b	-0.04955123
48	0x3d988e64	0.07449034
49	0xbd50cd5a	-0.05097709
50	0xbcfb2016	-0.030654948
51	0xbcf4e6aa	-0.029895145
52	0x3c995d52	0.018721256
53	0x3ce81df3	0.028334593
54	0x3dca5123	0.09878757
55	0xbc37622a	-0.011192838
56	0x3cf5b22e	0.02999219
57	0xbb408864	-0.002937817
58	0x3e07969b	0.13241045
59	0x3d964b88	0.07338625
60	0xbb536df9	-0.0032261594
61	0xbe07e694	-0.13271552
62	0x3d7ca405	0.06167986
63	0x3d7ccf35	0.061721046
64	0xbd592a94	-0.05301912
65	0x3cb65137	0.022255523
66	0x3c620881	0.013795973
67	0xbd383c82	-0.04497958
68	0xba0f3d01	-0.00054641074
69	0x3dafa741	0.08576823
70	0x3dbb7de0	0.09154868
71	0x3d14de77	0.03634497
72	0xbc68afdd	-0.014202085
73	0xbcfb0645	-0.030642638
74	0xbdc65b88	-0.09685427
75	0xbc34da8c	-0.011038434
76	0x3de11863	0.109909795
77	0x3d2eac25	0.04264464
78	0x3dbf40ef	0.09338557
79	0xbdc766e8	-0.09736425
80	0xbddfb8d1	-0.10923923
81	0x3d15fd93	0.03661878
82	0xbd89ce9f	-0.06728863
83	0x3cf69d5b	0.03010433
84	0xbf2ac949	-0.66713387
85	0xbf12c473	-0.5733101
86	0x3d8ab3d0	0.06772578
87	0xbe531853	-0.20614748
88	0x3cc6d47b	0.02427124
89	0xbdbe10b4	-0.092805296
90	0xbe896c69	-0.26840523
91	0xbe0921cc	-0.13391799
92	0x3f22f03a	0.63647807
93	0xbc03e029	-0.008049049
94	0xbe8b50bc	-0.27210033
95	0x3ea59bb8	0.32345366
96	0xbce39495	-0.02778081
97	0xbceba846	-0.028766762
98	0xbd8b04e2	-0.06788041
99	0xbd205334	-0.03914185
100	0x3c958559	0.018252062
101	0x3d77a8fc	0.06046389
102	0x3e0d17e4	0.13778645
103	0x3dc52fb4	0.09628239
104	0xbd9a8af1	-0.07546032
105	0x3b860d09	0.0040909094
106	0xbd71b607	-0.059011485
107	0x3c8b6c1a	0.01701932
108	0x3e7c5ccb	0.24644773
109	0x3de8aa75	0.11360637
110	0x3d3aa9d5	0.04557212
111	0xbd870be6	-0.06594066
112	0x3e2b3f1f	0.16723298
113	0x3d8c1724	0.06840351
114	0xbc6133fa	-0.013745302
115	0xbdbdf7f8	-0.09275812
116	0xbeaa9df8	-0.33323646
117	0x3dd248b3	0.102677725
118	0xbcc65a14	-0.024212874
119	0xbcf76192	-0.030197892
120	0xbd1fef50	-0.039046586
121	0x3c2b94f8	0.010472529
122	0xbcd0e37e	-0.025499102
123	0xbd2b774e	-0.041861825
124	0xbd40917d	-0.04701375
125	0x3d81c114	0.06335655
126	0x3c83ba89	0.016080158
127	0xbda8278c	-0.08210668
128	0xbc4cb729	-0.012494841
129	0x3cabacf5	0.020956496
130	0xbd3803f4	-0.044925645
131	0x3cd0e505	0.02549983
132	0xbcea74b5	-0.028620103
133	0x3dd1b23c	0.10239074
134	0xbe2693a6	-0.16267261
135	0x3d6bdd7a	0.057584263
136	0xbd470026	-0.048584126
137	0x3d9ae409	0.075630255
138	0xbdf6030e	-0.120123014
139	0xbdb4b61c	-0.08823797
140	0xbe49e655	-0.19716771
141	0xbe3815fa	-0.17977133
142	0x3df2ef5d	0.11862061
143	0xbdd1a358	-0.102362335
144	0xbe502782	-0.20327571
145	0xbd903866	-0.07042007
146	0x3e0f9afa	0.14023963
147	0xbd0c568d	-0.03426223
148	0xbc948856	-0.018131416
149	0x3d4afa5e	0.049555175
150	0xbd8b2f7f	-0.067961685
151	0xbe35b863	-0.17746119
152	0x3e3c2f09	0.18377317
153	0x3d6d08ba	0.05786965
154	0x3e314fbe	0.17315575
155	0x3e04192c	0.12900227
156	0xbc7a0e20	-0.015262157
157	0xbd9938a7	-0.07481509
158	0xbd2c6c9f	-0.042095777
159	0x3d940195	0.07226864
160	0x3e0569a9	0.13028587
161	0xbc8b6f38	-0.017020807
162	0x3dcedd02	0.10100748
163	0xbd9b8127	-0.07592993
164	0x3d1622b2	0.03665418
165	0xbd53c3bd	-0.051700342
166	0xbada805a	-0.0016670332
167	0x3b9222ae	0.0044597005
168	0x3d8387a6	0.06422357
169	0xbe02a316	-0.12757525
170	0xbdea8b4f	-0.11452352
171	0xbde244f8	-0.11048311
172	0xbd8175a8	-0.06321269
173	0xbdcb65ef	-0.09931552
174	0xbc00d8c0	-0.007864177
175	0x3c981a5c	0.018567257
176	0xbd725dbb	-0.05917142
177	0xbda4f7a2	-0.08055045
178	0xbdc04b28	-0.09389335
179	0x3d9203b8	0.071296155
180	0xbd602ed4	-0.05473216
181	0xbd6d9227	-0.05800071
182	0xbdc764a4	-0.097359926
183	0xbdba0321	-0.09082628
184	0x3d90c443	0.07068684
185	0x3d8245d1	0.06360973
186	0x3c0b5eae	0.00850646
187	0xbdc5e0a8	-0.096619904
188	0x3db14ce7	0.08657246
189	0xbd881b1c	-0.06645796
190	0x3b176ae3	0.002310448
191	0xbbe632b8	-0.007025089
192	0xbeed73b7	-0.46377346
193	0xbf7a6497	-0.9780974
194	0x3ec68f8f	0.38781402
195	0xbf4585d5	-0.77157336
196	0x3e76a688	0.24086964
197	0xbdfec035	-0.12439004
198	0xbf02cf98	-0.5109801
199	0xbea03c15	-0.3129584
200	0x3fa8bd65	1.3182799
201	0x3f1c4195	0.6103757
202	0x3de1a2c9	0.11017377
203	0x3f37ea98	0.71842337
204	0xbe2f7aff	-0.17136763
205	0x3de5bd09	0.11217696
206	0xbd2a6eee	-0.041609697
207	0xbc97353c	-0.018458001
208	0xbe080ba8	-0.13285697
209	0xbdc90c37	-0.09816783
210	0x3e42a44d	0.19007988
211	0x3dec5031	0.11538733
212	0x3dbf937c	0.09354302
213	0x3d847738	0.06468052
214	0xbddbf5c9	-0.10740239
215	0xb9bbbad5	-0.0003580662
216	0xbe1227ce	-0.14272997
217	0xbd98cca5	-0.07460908
218	0xbc671cff	-0.014106034
219	0x3d439edf	0.047758933
220	0xbe328301	-0.17432787
221	0xbdbe5196	-0.09292905
222	0x3d3dffb2	0.04638643
223	0xbd6bc245	-0.057558317
224	0x3ded7623	0.115947984
225	0x3ceb066f	0.028689591
226	0x3c124cf4	0.00892948
227	0x3d98700f	0.074432485
228	0xbd6b68ce	-0.057472996
229	0xbd86aa63	-0.065754674
230	0x3d698f4a	0.057021417
231	0x3dc5c521	0.0965674
232	0xbdc33570	-0.09531677
233	0x3dc8a1d1	0.09796489
234	0xbd9b684e	-0.07588254
235	0x3cbee192	0.02330092
236	0xbd53e366	-0.051730536
237	0xbd54ec1f	-0.051982995
238	0x3d9a4394	0.07532421
239	0xbdcaebf7	-0.09908288
240	0xbd1f3900	-0.03887272
241	0xbdc732e8	-0.097265065
242	0x3dc5fd40	0.09667444
243	0xbe17aa8e	-0.14811155
244	0xbdb9e7f6	-0.09077446
245	0x3db51fa9	0.08843929
246	0xbdeca13f	-0.11554193
247	0x3dd04280	0.10168934
248	0xbdd593c2	-0.10428573
249	0xbd24dbbb	-0.040248614
250	0x3db0be99	0.086301036
251	0xbdc5a0cb	-0.096498094
252	0xbdae7155	-0.0851771
253	0xbdd7f99e	-0.105456576
254	0x3d844420	0.06458306
255	0x3d9d376b	0.07676586

proj f4 [12, 60]
0	0xbe2f348c	-0.17109889
1	0xbcbf813f	-0.023377059
2	0xbda0ebf1	-0.07857502
3	0x3d630119	0.05542097
4	0xbd131f9d	-0.03591882
5	0xbc858fb8	-0.016303882
6	0xbe0a82be	-0.13526437
7	0x3e46a33b	0.19398205
8	0x3d4dd255	0.050249416
9	0x3dd2d66f	0.10294806
10	0x3db30b84	0.08742431
11	0xbdb6e2fe	-0.08930014
12	0xbe180406	-0.14845285
13	0x3c8413b3	0.016122675
14	0xbc08f9c9	-0.008360335
15	0x3dc94fc2	0.09829666
16	0x3c6f79cd	0.014616442
17	0xbdaaabf5	-0.083335795
18	0xbe1c5f6e	-0.15270779
19	0x3dab9495	0.08377949
20	0x3c1327aa	0.008981625
21	0xbe259776	-0.16171059
22	0xbdc1b494	-0.09458271
23	0xbe001e9d	-0.12511678
24	0x3cdab995	0.02669982
25	0xbd20426e	-0.039125852
26	0x3d296ede	0.041365497
27	0xbdba9c31	-0.091118224
28	0x3dadce4c	0.08486614
29	0xbdba07cf	-0.090835206
30	0xbdf6a599	-0.12043304
31	0x3c3dda2f	0.011587664
32	0x3d90f537	0.07078021
33	0xbcc679e4	-0.024228044
34	0xbde94ed3	-0.11391988
35	0xbd9803ec	-0.07422623
36	0x3be7d0dd	0.007074459
37	0x3ddfe02b	0.109314285
38	0xbd0e022c	-0.03467004
39	0x3e3a523b	0.18195431
40	0xbdf19e06	-0.11797719
41	0xbcdba9b7	-0.026814325
42	0xbcf81e0d	-0.030287767
43	0x3d749898	0.059715837
44	0xbde34485	-0.110970534
45	0xbdca63e3	-0.09882333
46	0x3e3c383e	0.1838083
47	0xbdb3509c	-0.087556094
48	0x3e754202	0.23950961
49	0x3e1d3a4c	0.1535427
50	0x3d0f7a8b	0.035028975
51	0xbd58918f	-0.05287319
52	0xbe27ee13	-0.16399412
53	0xbd11c35a	-0.035586692
54	0x3e7d5e54	0.24743015
55	0x3c191fa9	0.009345927
56	0xbd80c726	-0.062879845
57	0xbdce64e4	-0.10077837
58	0x3db6d559	0.089274116
59	0xbbde2bc8	-0.0067801215
60	0x3d00a169	0.031403933
61	0x3dd8a20c	0.10577783
62	0xbd6df851	-0.05809814
63	0x3d91eebc	0.07125613
64	0xbd28409a	-0.041077234
65	0x3df58bad	0.11989532
66	0xbc91f031	-0.017814728
67	0x3d7d535f	0.061847087
68	0x3da0daec	0.07854256
69	0xbd56dc57	-0.052456226
70	0x3d37bf17	0.04485997
71	0x3af17258	0.0018420918
72	0xbe55a6a8	-0.20864356
73	0xbcb74162	-0.022370044
74	0x3ded9c04	0.11602023
75	0xbded5112	-0.115877286
76	0xbb9cc5b0	-0.0047843084
77	0xbe1187a3	-0.14211898
78	0xbd91a2ab	-0.071111046
79	0x3dc027c7	0.09382587
80	0xbd2c3936	-0.042046748
81	0x3c93f8af	0.018062918
82	0x3d4fe921	0.05075944
83	0xbe1f6ec1	-0.15569593
84	0x3d2a9292	0.041643687
85	0x3d485b1d	0.048915017
86	0x3d5ada9d	0.053431142
87	0xbc130749	-0.008973905
88	0x3e29d5b0	0.16585422
89	0x3d3048ce	0.043038182
90	0x3e1ebfe2	0.15502885
91	0x3e0b2bbc	0.13590902
92	0xbc32808f	-0.010894909
93	0xbd734962	-0.059396155
94	0x3d1beda7	0.03806844
95	0xbdbce4b9	-0.09223313
96	0xbccbbb3e	-0.024869557
97	0xbddaf760	-0.10691714
98	0xbd730e11	-0.059339587
99	0x3c9f2f2e	0.019431677
100	0x3e14686e	0.14492962
101	0x3cd4e97e	0.025990244
102	0xbcd51efd	-0.026015753
103	0x3d90b2b9	0.07065339
104	0x3d95f063	0.07321241
105	0xbbf78229	-0.007553358
106	0xbcf0c20b	-0.029389402
107	0x3d943f42	0.07238628
108	0x3e7b8e9f	0.24566124
109	0x3e599bd5	0.21250851
110	0x3d7e8b1d	0.062144388
111	0x3dc39ae4	0.095510274
112	0xbe08360c	-0.13301867
113	0xbe07ae7a	-0.13250151
114	0x3e9668e1	0.2937689
115	0x3e385fa7	0.18005238
116	0xbe05e5fc	-0.13076013
117	0xbe3414b8	-0.17586029
118	0x3d13188f	0.035912093
119	0x3dbab79d	0.09117053
120	0x3cb0faa1	0.021603884
121	0xbd52ee7a	-0.05149696
122	0x3e78f8ee	0.24313709
123	0xbaadb3a0	-0.0013252385
124	0x3da13d7e	0.07873057
125	0x3de0e63c	0.10981414
126	0xbd77a6a1	-0.060461644
127	0xbe096ec9	-0.13421167
128	0xbe309743	-0.17245202
129	0xbdc4e5da	-0.09614153
130	0xbe104500	-0.14088821
131	0xbe6daad5	-0.23209698
132	0x3e314eaf	0.17315172
133	0x3e2859d1	0.16440512
134	0xbe2f45d7	-0.17116486
135	0xbd8222f0	-0.0635432
136	0xbf29b533	-0.66292113
137	0x3d8a8387	0.06763368
138	0x3e24020f	0.1601641
139	0xbda2395e	-0.07921098
140	0xbdb156f6	-0.086591646
141	0xbc03d66b	-0.008046727
142	0xbda0933b	-0.07840582
143	0x3e821d89	0.2541316
144	0x3f118531	0.5684386
145	0xbd11b4e6	-0.03557291
146	0xbd991c7b	-0.07476135
147	0xbddcf016	-0.1078798
148	0xbd6102c6	-0.054934286
149	0xbd8848e5	-0.066545285
150	0xbcdf6898	-0.027271554
151	0x3cf29591	0.029612334
152	0xbd5c2f93	-0.053756308
153	0xbe3ea3ab	-0.18617122
154	0xbdd63afe	-0.104604706
155	0xbc221a2f	-0.009893938
156	0xbe01f3cc	-0.12690657
157	0xbc26196d	-0.010137898
158	0x3d62ae28	0.05534187
159	0x3d8840df	0.06652998
160	0x3e0c09cf	0.13675617
161	0x3dcbee67	0.09957581
162	0x3d29a4a2	0.04141677
163	0xbda6b1dc	-0.08139393
164	0xbcef6230	-0.029221624
165	0xbcaedba8	-0.021344975
166	0x3e162679	0.14663114
167	0xbc95cd2d	-0.018286312
168	0xbd26102d	-0.04054277
169	0x3e5e127b	0.21686737
170	0xbd32c07f	-0.04364061
171	0x3d4d7383	0.05015899
172	0x3d150899	0.036385152
173	0x3cc04e96	0.023474973
174	0x3d2992a3	0.04139961
175	0x3d479060	0.04872167
176	0x3d0b0f88	0.03395036
177	0x3e8cc197	0.27491447
178	0xbd5c5e15	-0.05380066
179	0xbda47360	-0.080298185
180	0xbde88210	-0.113529325
181	0x3e423eb5	0.18969233
182	0x3d3cc219	0.046083543
183	0x3d907ba5	0.07054833
184	0x3d23ae2d	0.03996103
185	0x3e1ef082	0.15521434
186	0x3dbbd231	0.0917095
187	0xbd8392ed	-0.06424508
188	0xbda381f7	-0.07983773
189	0xbe3b82f3	-0.18311672
190	0xbd811bf7	-0.06304162
191	0x3d405872	0.046959348
192	0xbd9283cd	-0.07154045
193	0x3ca37c3a	0.019956697
194	0xbda4e760	-0.08051944
195	0xbdb7f67d	-0.08982561
196	0xbe4ab137	-0.19794165
197	0xbd917808	-0.07102972
198	0x3c640d8f	0.013919248
199	0xbe188bec	-0.14897126
200	0xbdf57efd	-0.11987112
201	0x3da44c9f	0.08022427
202	0x3e14a6d7	0.1451677
203	0xbe27bedb	-0.163814
204	0x3cf2f998	0.029660031
205	0xbd283eb7	-0.041075435
206	0x3e0d2fda	0.13787785
207	0x3d40a112	0.04702861
208	0x3e386c85	0.18010147
209	0xbdcc50d5	-0.09976355
210	0x3e3d2fba	0.18475237
211	0x3e2dc57d	0.16969867
212	0xbdbecf0f	-0.09316837
213	0xbe2d8e09	-0.16948713
214	0x3e35161c	0.17684215
215	0xbde778c9	-0.11302335
216	0xbdf96a93	-0.121785305
217	0xbe064b25	-0.13114603
218	0x3dd58098	0.10424918
219	0x3e0c835c	0.13721985
220	0xbda6fbd0	-0.08153498
221	0xbcb4895c	-0.022038154
222	0x3e34f103	0.17670064
223	0xbd3f6496	-0.046726786
224	0x3c33a967	0.010965682
225	0x3e13c1aa	0.14429346
226	0x39fe0315	0.00048448952
227	0xbd6b0626	-0.05737891
228	0x3f02cd97	0.51094955
229	0x3e60c2c3	0.21949296
230	0xbdb3817d	-0.08764932
231	0x3c63a07c	0.013893243
232	0xbc74af45	-0.014934366
233	0xbb449cd7	-0.003000071
234	0x3e326699	0.1742195
235	0x3da48ba2	0.08034445
236	0x3dde9e6d	0.10870061
237	0x3c90118f	0.017586498
238	0x3e1171ff	0.14203642
239	0x3da988e1	0.08278061
240	0x3de045a5	0.10950784
241	0x3d1659b4	0.03670664
242	0xbc70358a	-0.014661202
243	0xbd94118f	-0.072299115
244	0x3db188fa	0.08668704
245	0xbcd9d010	-0.02658847
246	0xbd3c314b	-0.045945447
247	0x3bc0fe9c	0.005889727
248	0xbc30959a	-0.010777855
249	0x3d679e09	0.0565472
250	0x3e251872	0.16122606
251	0x3e54f580	0.20796776
252	0xbe18f2eb	-0.14936416
253	0xbe0c0deb	-0.13677184
254	0x3d84b0f7	0.06479066
255	0xbd21ba48	-0.039484292

bias_ih f4 [240]
0	0xbd5f652c	-0.054539844
1	0xbce58ab8	-0.028020248
2	0x3dec2fa2	0.11532523
3	0x3e1b8c33	0.151902
4	0x3d5f96f2	0.054587312
5	0x3e4300d0	0.19043279
6	0xbd5bc51d	-0.05365478
7	0x3b5dede5	0.003386372
8	0xbd7de34b	-0.06198434
9	0xbafbebf9	-0.0019220106
10	0xbc4d2cc1	-0.012522877
11	0x3d6f60da	0.058441974
12	0x3c1bc030	0.00950627
13	0xbd280d4a	-0.0410283
14	0xbd283bec	-0.04107277
15	0xbd45f65f	-0.04833066
16	0x3de2237e	0.11041926
17	0x3ce4cd8c	0.027930044
18	0x3de097b0	0.10966432
19	0xbdff873b	-0.12476965
20	0xbd9195a7	-0.07108622
21	0xbd85056f	-0.06495177
22	0x3d64e5b6	0.055883132
23	0x3e2c3240	0.16816044
24	0x3ea62589	0.32450512
25	0xbd7f8e32	-0.062391467
26	0x3ca53d08	0.020170704
27	0xbdb55537	-0.08854144
28	0x3e36e570	0.17860961
29	0x3dd0b2ff	0.10190391
30	0x3e0cfb2f	0.13767694
31	0xbd10080e	-0.03516393
32	0x3da099df	0.078418486
33	0x3de48ae9	0.111593075
34	0x3d6df130	0.058091342
35	0xbd78173a	-0.060569026
36	0xbd34f81c	-0.044181928
37	0x3e2b81be	0.16748711
38	0xbd5eb433	-0.05437107
39	0x3e2617a0	0.1621995
40	0x3e2d131c	0.16901821
41	0x3db6f9a1	0.08934332
42	0xbd347dd4	-0.04406531
43	0xbde1047e	-0.10987185
44	0x3d126c50	0.035747826
45	0xbdc0531e	-0.09390853
46	0x3d78e949	0.060769353
47	0xbe04b509	-0.12959684
48	0x3dd01fef	0.10162341
49	0x3e0aa340	0.13538837
50	0x3d4960ed	0.0491647
51	0x3d89225a	0.06696005
52	0x3ded8a2e	0.11598621
53	0xbcfbdda6	-0.030745339
54	0xbd4bfd1e	-0.04980194
55	0x3e0dc387	0.13844119
56	0xbe25a079	-0.16174497
57	0x3e83fa51	0.25776914
58	0x3dc8e240	0.09808779
59	0xbdb80af9	-0.08986468
60	0xbd821881	-0.0635233
61	0xbce6beff	-0.028167246
62	0x3dc219f9	0.0947761
63	0x3d987bfc	0.07445523
64	0x3ba4006a	0.005004932
65	0x3dda931a	0.10672589
66	0xbda70dc0	-0.081569195
67	0xbda6fda4	-0.08153847
68	0xbe08f651	-0.13375212
69	0xbc392a07	-0.011301524
70	0x3d29339b	0.04130898
71	0xbdf909e6	-0.12160091
72	0x3d9f55d3	0.077800415
73	0x3d067af5	0.032832105
74	0xbdbd3bc5	-0.09239916
75	0x3d9ecebf	0.077542774
76	0x3dca0304	0.098638564
77	0xbe0bce84	-0.13652998
78	0xbcf67353	-0.030084288
79	0xbc8818fd	-0.016613478
80	0xbd0656d4	-0.03279765
81	0xbc8b7b31	-0.017026516
82	0x3ddb82ef	0.10718333
83	0xbdc2abf2	-0.09505452
84	0x3ec36581	0.3816338
85	0x3d90ee8d	0.0707675
86	0x3dcc8a20	0.09987283
87	0xbd8e6401	-0.06952668
88	0x3c1d0beb	0.009585361
89	0xbd854ac2	-0.065083995
90	0xbc80ea0e	-0.015736606
91	0x3e01e44e	0.12684748
92	0x3da48181	0.080325134
93	0xbc61d238	-0.01378303
94	0xbdca82d5	-0.098882355
95	0x3d84b76f	0.064803
96	0xbd32a12f	-0.043610748
97	0x3e20fad4	0.15720683
98	0x3dc4bc0c	0.096061796
99	0xbd6393ee	-0.055561
100	0x3e603188	0.21893895
101	0xbdeb9a57	-0.11504047
102	0x3c699003	0.0142555265
103	0x3da3b10a	0.07992752
104	0x3cae1ace	0.021253016
105	0x3dcf1f53	0.101133965
106	0x3dd4b920	0.10386872
107	0x3ceef277	0.02916835
108	0xbc226925	-0.009912764
109	0x3e601896	0.21884379
110	0x3e14530c	0.14484805
111	0x3e0c4253	0.13697176
112	0x3e693fff	0.22778319
113	0xbe1575a5	-0.14595659
114	0x3e092be2	0.13395646
115	0xba7d3d60	-0.00096603297
116	0x3dbdb8d4	0.09263769
117	0xbdfc6724	-0.1232436
118	0x3ba1712a	0.0049268203
119	0x3d920ddb	0.07131549
120	0x3d0de1ca	0.034639157
121	0xbe0b563f	-0.13607119
122	0xbcd2e58c	-0.025744222
123	0xbc8b743d	-0.0170232
124	0x3e15e3bd	0.14637657
125	0xbe5ebab4	-0.21750909
126	0xbe201608	-0.15633404
127	0x3d07756d	0.03307097
128	0xbdae8389	-0.08521182
129	0x3cab6929	0.020924168
130	0x3de3604c	0.111023515
131	0x3d7854c0	0.0606277
132	0xbc98a4ef	-0.018633334
133	0xbd9d4f3f	-0.076811306
134	0x3dec32c3	0.115331195
135	0x3d78fd0b	0.060788196
136	0xbd84b89e	-0.064805254
137	0x3d8a8873	0.06764307
138	0xbdc243a7	-0.0948556
139	0x3d274779	0.040839646
140	0x3da1bbe7	0.07897168
141	0xbde72804	-0.11286929
142	0x3ca4257f	0.02003741
143	0xbc9b4611	-0.018954309
144	0x3e02b722	0.12765172
145	0xbd0c0530	-0.034184635
146	0xbe050bc2	-0.12992766
147	0x3e0c8c4b	0.13725393
148	0xbd161d46	-0.03664901
149	0x3d9aaba5	0.0755227
150	0xbdacdffb	-0.084411584
151	0xbde5f4a9	-0.11228306
152	0x3e174577	0.14772592
153	0x3d1aff7b	0.0378413
154	0xbe2cf447	-0.1689006
155	0x3d8985d7	0.06714981
156	0x3dedac1b	0.11605092
157	0x3d0e5a55	0.034754116
158	0xbde5305e	-0.11190866
159	0xbd6ac394	-0.057315424
160	0xbe06869b	-0.13137285
161	0xbd2f1df1	-0.042753164
162	0xbe0c5035	-0.13702472
163	0x3d36c3f3	0.044620465
164	0x3c01649c	0.007897522
165	0x3d47b99a	0.048760988
166	0x3dae4a2a	0.085102394
167	0x3dbdb2c9	0.09262616
168	0xbdaaad90	-0.08333886
169	0xbc0ab6d8	-0.008466445
170	0x3df848c8	0.12123257
171	0x3ce87dae	0.028380241
172	0x3b689abd	0.0035492622
173	0x3d223b4a	0.039607324
174	0xbd01aaa0	-0.03165686
175	0xbdbdc9f4	-0.09267035
176	0x3cfb27c7	0.030658616
177	0x3d03ff8f	0.03222614
178	0xbd528203	-0.05139352
179	0xbe3bc40e	-0.18336508
180	0x3e1973a1	0.14985515
181	0x3bd5bd9a	0.0065228464
182	0x3e032a4d	0.12809105
183	0x3ca6a069	0.020340161
184	0xbda3617d	-0.07977579
185	0x3dc46a0a	0.09590538
186	0x3c20fcc6	0.009825891
187	0x3e405d9c	0.18785709
188	0xbd09d86a	-0.033653654
189	0x3d96791f	0.07347321
190	0xbc49bc59	-0.012312972
191	0x3d32628f	0.043551024
192	0x3e0c0232	0.13672712
193	0x3d8f4a80	0.069966316
194	0x3deb42b4	0.11487332
195	0x3de19ef5	0.11016647
196	0x3eb878ba	0.36029607
197	0xbd21cf01	-0.039504055
198	0xbd033cfc	-0.03204058
199	0xbe0aa3fa	-0.13539115
200	0x3e0a8007	0.13525401
201	0x3e1aba6e	0.1511018
202	0x3d02c421	0.031925324
203	0x3d9a1512	0.0752355
204	0x3ed02161	0.40650466
205	0x3bcf7313	0.0063308566
206	0x3cbc53e4	0.02298922
207	0x3d8ec28c	0.069707006
208	0xbd491f64	-0.049102202
209	0xbcd558e3	-0.026043361
210	0x3e1e2f36	0.15447697
211	0x3d8a45cd	0.06751595
212	0xbd3fa77c	-0.046790585
213	0xbcdddbf4	-0.02708242
214	0xbd9d5c27	-0.07683592
215	0x3d2f5646	0.042806886
216	0x3e106919	0.14102592
217	0x3dd7794c	0.105211824
218	0xbda0305d	-0.078217246
219	0x3cdb5807	0.026775373
220	0x3de0d8b8	0.10978836
221	0xbdc376ab	-0.095441185
222	0x3ddf5072	0.109040156
223	0x3dc4c7ac	0.09608397
224	0xbdb019a3	-0.0859864
225	0xbdc872d8	-0.0978753
226	0x3cd72472	0.026262496
227	0xbd59184e	-0.053001694
228	0xbd3ff104	-0.04686071
229	0x3e139713	0.14413099
230	0xbc48228d	-0.012215269
231	0xbd4d30d9	-0.050095413
232	0x3e0ea030	0.13928294
233	0xbe36ca07	-0.17850505
234	0x3e2a6925	0.16641672
235	0xbd3a5d75	-0.045499284
236	0x3befdc4a	0.0073199617
237	0x3e9d003c	0.3066424
238	0x3d97cd01	0.07412148
239	0x3d7302c3	0.059328806

bias_hh f4 [240]
0	0xbc8fdf4e	-0.017562535
1	0xbc78a561	-0.015176148
2	0xbd96b93a	-0.07359548
3	0xbc7e5342	-0.01552278
4	0x3e04427a	0.12915984
5	0xbc7d0232	-0.015442418
6	0x3e0a0160	0.13477087
7	0x3e0e8369	0.13917316
8	0x3cc3b87d	0.023891682
9	0x3d0c9125	0.034318108
10	0x3e232fc8	0.15936196
11	0x3e2cfcc4	0.16893297
12	0x3cc4bfe6	0.024017286
13	0x3e094831	0.13406445
14	0xbd74e5fb	-0.05978964
15	0x3d230502	0.039799698
16	0x3e47fa51	0.19529082
17	0xbc9c2dae	-0.01906475
18	0x3dbe67c0	0.092971325
19	0x3c345a9d	0.011007932
20	0x3dc79605	0.09745411
21	0x3db43dfe	0.088008866
22	0x3e12c19b	0.14331667
23	0x3c828a45	0.015935073
24	0x3e13430a	0.14381042
25	0x3dc4470e	0.09583865
26	0xbd710fe6	-0.058853053
27	0x3bdf8686	0.0068214564
28	0x3b0a6d5b	0.002112231
29	0xbe06efdc	-0.13177437
30	0xbd9adbaf	-0.075614326
31	0x3e25550d	0.16145726
32	0x3e0f122f	0.1397178
33	0x3e219174	0.15778142
34	0x3da3aece	0.07992326
35	0x3e02a922	0.12759832
36	0xbc7f02f4	-0.015564669
37	0x3e28d883	0.16488843
38	0x3dd3b72a	0.1033767
39	0x3d97dbb8	0.07414955
40	0x3e405db1	0.1878574
41	0xbd107052	-0.035263367
42	0xbdbaa7a2	-0.09114005
43	0xbdeef677	-0.11668103
44	0x3d9b6fe1	0.075896986
45	0x3dea40af	0.11438119
46	0xbe2439bb	-0.16037647
47	0xbe2b2655	-0.16713841
48	0x3da5d187	0.08096605
49	0x3e36363c	0.17794126
50	0xbd536561	-0.051610354
51	0x3e15b57f	0.14620017
52	0x3d911632	0.070843115
53	0xbd1ed54b	-0.03877763
54	0x3d2a5e5a	0.041593887
55	0xbd36943d	-0.044574965
56	0x3bde965d	0.006792827
57	0x3e7e76d3	0.24850015
58	0x3d420b83	0.04737426
59	0x3daa5563	0.083170675
60	0x3cef9eef	0.02925059
61	0xbd23e19f	-0.04001009
62	0x3e0e13e2	0.13874772
63	0x3d381817	0.04494485
64	0xbb88ecef	-0.0041786353
65	0x3c90f43d	0.017694587
66	0x3de8c076	0.11364834
67	0x3decc053	0.115601204
68	0x3d1cc377	0.038272347
69	0xbdb0e28a	-0.08636959
70	0x3d38acbe	0.045086615
71	0xbd89698c	-0.067095846
72	0x3cf14a0a	0.02945425
73	0x3dcbb9b4	0.099475294
74	0x3d6828af	0.056679424
75	0x3e21407f	0.1574726
76	0x3e544554	0.20729572
77	0xbd9d82a6	-0.07690935
78	0x3bd255ac	0.0064189043
79	0x3dc470c1	0.095918186
80	0xbcd64119	-0.026154088
81	0x3e14dde3	0.14537768
82	0x3d93cc47	0.07216697
83	0xbd854737	-0.06507724
84	0x3edf3020	0.43591404
85	0xbdb7f4ec	-0.08982262
86	0x3d3bc28c	0.04583983
87	0xbc9435e2	-0.0180921
88	0x3dca3c06	0.0987473
89	0xbdeb2dfa	-0.11483379
90	0x3a3c04b1	0.000717233
91	0xbbfa4e18	-0.007638704
92	0x3ca580c2	0.020202998
93	0xbce4f6e3	-0.027949756
94	0x3dc1a2fa	0.094549134
95	0x3c9a0edb	0.018805912
96	0x3e0a5223	0.13507895
97	0x3dde3a39	0.10850949
98	0xbd72bc1c	-0.059261426
99	0xbd091d01	-0.033474926
100	0x3e2fd9c2	0.17172912
101	0x3de1c16e	0.11023222
102	0x3dab7a77	0.08372968
103	0x3dcd5e04	0.10027698
104	0x3bcd9705	0.0062741064
105	0x3b64a101	0.0034886005
106	0x3d6a5ea2	0.057219155
107	0xbd97c1a2	-0.074099794
108	0x3dbee87f	0.09321689
109	0x3dfed71d	0.12443373
110	0xbd72a26d	-0.059236933
111	0x3d1275e9	0.03575698
112	0x3e6f0ca5	0.23344667
113	0xbd8bad0b	-0.06820115
114	0x3db5aec8	0.088712275
115	0xbd71f636	-0.059072696
116	0xbd3a01a0	-0.045411706
117	0x3dcd116e	0.1001309
118	0xbded5960	-0.115893126
119	0x3e1a7d59	0.15086879
120	0x3caaa8d6	0.02083246
121	0xbd1e331e	-0.038622968
122	0x3be3053c	0.006928114
123	0xbd839baa	-0.06426175
124	0x3e1e9850	0.1548779
125	0xbc442eda	-0.011974061
126	0x399dfd0b	0.00030133905
127	0xbd6785ca	-0.056524076
128	0x3cfaf977	0.030636532
129	0x3d1f2cec	0.0388612
130	0xbbcfeae7	-0.006345141
131	0xbd6b325c	-0.057421073
132	0x3de16af3	0.11006727
133	0xbdf27b8d	-0.11839972
134	0xbd312ffc	-0.043258652
135	0x3e00fe8b	0.125971
136	0xbdb9e3df	-0.09076666
137	0x3c853df7	0.016264899
138	0xbce38cdc	-0.027777128
139	0xbc30d437	-0.010792783
140	0x3da3bd57	0.07995098
141	0xbd2ea359	-0.04263625
142	0xbdb7e395	-0.08978955
143	0xbc66f059	-0.014095389
144	0xbdec41c7	-0.115359835
145	0xbe246bae	-0.16056702
146	0x3d9b327d	0.07577989
147	0x3db742c7	0.08948284
148	0xbdbac603	-0.09119799
149	0x3de5f40f	0.11228191
150	0xbdea0fc8	-0.11428791
151	0xbc23de4e	-0.010001732
152	0x3e280ef6	0.16411957
153	0x3e14fd1c	0.14549679
154	0xbdc20d85	-0.09475235
155	0x3dfd14f5	0.12357513
156	0x3d10e5b7	0.035375323
157	0x3e0ab378	0.13545024
158	0xbe33ec68	-0.1757065
159	0x3dcbb039	0.09945721
160	0xbe134ffe	-0.14385983
161	0xbd799e57	-0.06094202
162	0xbcab3994	-0.020901479
163	0x3c70872a	0.014680663
164	0xbdad1a58	-0.0845229
165	0xbe171d61	-0.14757301
166	0x3db84b82	0.08998777
167	0xbb5d2410	-0.0033743419
168	0x3d346e2f	0.04405039
169	0xbd75174a	-0.059836663
170	0x3db74288	0.08948237
171	0x3e076716	0.13222918
172	0xbd60cf1e	-0.054885022
173	0x3d26eb1b	0.040751558
174	0xbda806cd	-0.08204422
175	0xbd8a0d56	-0.06740825
176	0xbd5a0500	-0.053227425
177	0x3d0936af	0.033499416
178	0xbc9bc636	-0.019015413
179	0xbd689171	-0.05677933
180	0x3d9d421f	0.07678627
181	0xbc8f1ccb	-0.017469784
182	0xbbbe9e86	-0.0058172373
183	0x3dce67d3	0.10078397
184	0x3df45f5e	0.11932252
185	0xbd854bb0	-0.06508577
186	0x3e00232c	0.12513417
187	0x3e1a97b1	0.15096928
188	0xbd4c6e6c	-0.049909994
189	0x3d5c98ec	0.053856775
190	0x3da4f638	0.08054775
191	0xbc2fab95	-0.010722061
192	0x3c10a1cb	0.008827637
193	0x3d9cfa70	0.07664955
194	0x3cbdc059	0.023163008
195	0xbcee56d4	-0.029094137
196	0x3ead284f	0.33819816
197	0xbe0530b2	-0.13006857
198	0x3cc7036c	0.024293624
199	0x3d7262ed	0.059176374
200	0x3de27f75	0.11059467
201	0x3d6f7b21	0.058467034
202	0x3da67861	0.08128429
203	0x3e30330e	0.17206976
204	0x3e8d6a9e	0.27620405
205	0xbdba5652	-0.090984955
206	0x3dc0e365	0.09418372
207	0x3d479524	0.048726216
208	0x3e0facc6	0.14030752
209	0x3ce9cd05	0.028540144
210	0x3dd40f5d	0.10354493
211	0x3d6c7ffb	0.05773924
212	0xbd0c7ff0	-0.0343017
213	0xbcbd43b9	-0.023103582
214	0x3bff5d7f	0.007793128
215	0xbd53f6bb	-0.051748972
216	0x3e06a756	0.13149771
217	0x3bb71812	0.005587586
218	0xbd6227a3	-0.05521358
219	0x3e16b3f2	0.14717081
220	0x3d553343	0.05205084
221	0xbdd8af76	-0.105803415
222	0x3dc52fee	0.096282825
223	0xbd3b7de3	-0.04577435
224	0xbdb67305	-0.08908657
225	0x3dd5f580	0.10447216
226	0xbdbfde73	-0.09368601
227	0x3d0ac627	0.03388038
228	0x3de0c06c	0.109742016
229	0x3d0b84f8	0.034062356
230	0x3dd51eca	0.10406263
231	0x3dc14346	0.094366595
232	0x3d4566cc	0.048193738
233	0xbdaace53	-0.083401345
234	0x3e734533	0.23756866
235	0xbcbcaae4	-0.023030706
236	0x3d52fc8e	0.051510386
237	0x3e5a5291	0.21320559
238	0xbd1b66f5	-0.037939984
239	0x3e21f923	0.15817694

weight f4 [3, 12]
0	0x3ea1c670	0.31596708
1	0xbce0e2a6	-0.027451824
2	0xbdd5b4a0	-0.10434842
3	0xbe445b24	-0.19175392
4	0x3e928313	0.28615627
5	0x3e564d59	0.20927943
6	0xbe5e0ca9	-0.21684517
7	0xbe30d2b8	-0.17267883
8	0xbe1c10f7	-0.15240847
9	0xbcbf3db0	-0.023344845
10	0x3eb823ad	0.35964718
11	0xbe8ff17f	-0.28113934
12	0xbda5aef0	-0.08090007
13	0x3d074b2a	0.033030666
14	0xbe34da13	-0.17661314
15	0xbe0a6aa3	-0.13517241
16	0x3e25c229	0.16187347
17	0xbe1b57cf	-0.15170215
18	0x3dd67677	0.10471814
19	0x3df20b14	0.11818519
20	0x3e270751	0.16311385
21	0xbe1a04fb	-0.15040962
22	0x3d38998b	0.045068305
23	0xbd7a8ca1	-0.06116927
24	0xbe94b96b	-0.29047713
25	0xbe9b1ff2	-0.3029781
26	0xbd666cef	-0.05625623
27	0xbe5ccdf5	-0.21562941
28	0x3e9298f2	0.28632313
29	0x3daed22e	0.08536182
30	0xbe903522	-0.28165537
31	0xbe35cd86	-0.17754182
32	0x3e20b54c	0.1569416
33	0xbe1c5549	-0.15266909
34	0xbe094c82	-0.13408092
35	0x3dec0655	0.11524645

bias f4 [3]
0	0x3d8e51c9	0.06949193
1	0x3d24968f	0.040182646
2	0xbe35ed8b	-0.17766397
