models/paramsearch_0.00027428247507002286_0.2429051993407309_0.6249736634355784_11.pt (torch, 33148 bytes, 7 tensors)

weight_ih f4 [240, 6]
000000 c3 ee 63 3d 03 5d f0 3d 9d ac fe 3d 96 e8 4c be
       0.055647623 0.117364906 0.12435267 -0.200106
000010 b9 63 6f be 7f 1f df 3c 9e c7 ee 3c 01 94 4c 3d
       -0.23377885 0.027236698 0.02914792 0.049945835
000020 fc 8a e5 3d 6a c6 7b be b7 33 1c bd 2c 0c e3 bd
       0.1120815 -0.24587408 -0.038135257 -0.11086306
000030 12 bd e3 3d 6b 49 86 be f1 5a 29 3c 30 1e b1 be
       0.11120047 -0.26227888 0.0103366235 -0.34593344
000040 63 15 5d bd b8 48 10 bd 52 79 04 3e 9b 90 d1 be
       -0.053975474 -0.0352256 0.12936905 -0.40930638
000050 82 40 07 3e 9f 93 fb be 90 b6 ae be 30 7d 35 bd
       0.13208202 -0.49136063 -0.3412366 -0.04430884
000060 90 93 2e bd a9 19 a3 be 94 91 2b 3d 7d 1c 9d be
       -0.042621195 -0.31855515 0.04188688 -0.30685797
000070 71 6f 44 be 24 01 b9 bd 2f c1 fc 3d 1d dd 91 3c
       -0.19183137 -0.09033421 0.12341534 0.01780563
000080 6d 47 f2 3d 9a 19 30 3f 20 de b0 3e cc 70 e6 3c
       0.1183003 0.68789065 0.34544468 0.028129958
000090 bd 79 e9 3c ea ea b6 be f2 46 af 3d 0d ac 3a be
       0.028500432 -0.357261 0.085584536 -0.18229695
0000a0 a2 66 b9 3d 61 88 2b 3d ec 19 c6 bd 7b e9 69 bf
       0.09052779 0.041878108 -0.09672913 -0.9137189
0000b0 79 ae 1e 3e 9b 49 99 3e 88 5e 07 3e 2c 8d f3 3d
       0.15496244 0.2993897 0.13219655 0.11892161
0000c0 51 04 f3 bc 23 4d 4f be 0f 6e fc bd dd 60 a2 be
       -0.029665144 -0.20244269 -0.123256795 -0.31714526
0000d0 60 0f 2c bd 83 cc 9b bd 8d b3 b8 3d f1 44 1b be
       -0.04200685 -0.07607367 0.090186216 -0.15163018
0000e0 a0 4b b3 3c 2e 27 d1 be 03 83 35 be c1 04 9d 3d
       0.021886647 -0.40850204 -0.17725758 0.07666922
0000f0 f7 a6 2a 3e 4f ba c3 bd 2a 74 da bb 58 75 65 be
       0.16665255 -0.0955702 -0.00666668 -0.22408044
000100 f6 1b 85 bd 84 41 04 be d6 43 38 3e 39 c1 c0 be
       -0.06499474 -0.12915617 0.17994627 -0.37647417
000110 e5 6e 6b 3d b1 e6 58 be 12 7c 89 be f1 92 67 3d
       0.057478804 -0.21181752 -0.2685247 0.05653662
000120 79 b0 f4 bd ab 3a 31 3e 4b db 02 3e 59 50 08 3f
       -0.11947722 0.17307536 0.12778966 0.532476
000130 0d 31 fe 3d 34 64 52 bd 8b a9 10 bc 97 fa 22 be
       0.124116994 -0.051365092 -0.008829485 -0.15915905
000140 2b 18 d5 bd 6a a3 63 bf f8 78 0d bf b5 55 42 3e
       -0.10405 -0.88921225 -0.5526271 0.18978007
000150 98 d4 da 3b a7 3c 91 be 00 44 ef bd d0 37 ab be
       0.006678175 -0.28366587 -0.11682892 -0.3344102
000160 07 41 4a be 52 b0 9a 3c 91 90 95 bd 2d 9d 05 bf
       -0.19751368 0.018882904 -0.073029645 -0.52192956
000170 b0 f6 71 3d 71 0c 67 3f 8a ab d9 3e 9e 25 a3 bd
       0.05907315 0.9025336 0.42513686 -0.07966159
000180 e6 b2 9b bd 6b 23 75 be a9 1c 13 3e ec 75 fe be
       -0.076024815 -0.23939292 0.14366402 -0.49699342
000190 27 a2 13 bd 65 54 cb bc 58 9f 7f 3d 60 7f bc be
       -0.036043312 -0.024820516 0.06240782 -0.3681593
0001a0 1c 59 f7 3c e5 9a 73 be da ad 81 be c3 67 b8 3d
       0.030193858 -0.23789556 -0.2532795 0.09004166
0001b0 5c 1b f9 3b df 8a 45 bf 59 56 27 3e 81 bf 8d 3d
       0.0076021384 -0.77165025 0.16341533 0.06921292
0001c0 b6 b7 ce 3e a8 07 40 3e c5 c7 d2 3d 9e e0 50 3e
       0.40374535 0.1875292 0.10292009 0.20398185
0001d0 46 46 c0 3e ca eb 00 bf 8f 31 e0 be eb 6d db 3d
       0.37553614 -0.50359786 -0.4378781 0.107143246
0001e0 98 6e 29 bd 17 e3 5a 3d 06 84 21 3d 85 09 a3 3e
       -0.041365236 0.053439226 0.039432548 0.318432
0001f0 29 06 42 3e 6c 61 90 3d 39 70 20 3c 95 1b 84 be
       0.18947662 0.07049832 0.009792381 -0.25802293
000200 99 48 2e bc da d2 8e be c2 7f 9a be 4f f0 95 bc
       -0.010637426 -0.27895242 -0.30175596 -0.018303065
000210 d0 fa 06 be 6f 4e 3b 3e ea 7d 64 3e 6b 53 2b 3f
       -0.13181615 0.18291639 0.22313657 0.6692416
000220 82 6f 13 3e 84 bd fa 3d 16 9f 19 3c 54 75 05 bd
       0.14398006 0.122431785 0.009376308 -0.032582596
000230 8f d4 a7 bb d5 39 1f 3f 82 e6 c7 3e 90 e6 a2 3d
       -0.0051217745 0.6219762 0.3904305 0.079541326
000240 fe f4 77 3e 5c 9a f8 bd 0b da d1 3d e5 af 14 bd
       0.24214551 -0.12138817 0.102466665 -0.03630056
000250 fc df 37 bd d7 93 a2 3d a5 dd 81 3d 32 59 83 be
       -0.044891343 0.079383545 0.063411035 -0.25653988
000260 08 79 ff bc 8e 4b 8c be 52 e2 81 bd e5 d8 50 bd
       -0.031185642 -0.27401394 -0.06341995 -0.050988097
000270 5c b1 37 3e 41 12 c0 be 1e 55 73 3d c7 9c a8 be
       0.17938751 -0.37513927 0.059407346 -0.32932112
000280 4a dc 4d be 6d 2d e1 3d cb 84 01 3e 39 f9 78 be
       -0.20103565 0.109949924 0.12648313 -0.24313821
000290 0e 2c ab 3d 7c 1a 80 be c8 55 d7 bd a8 76 0f 3e
       0.08358012 -0.25020206 -0.10514408 0.14010108
0002a0 13 4a 19 3c bd 31 48 bf a0 1c 32 bc 0e 21 96 be
       0.00935604 -0.78200895 -0.010871083 -0.29322094
0002b0 d2 d2 a0 bd 97 47 45 3e 76 23 cc 3d 20 6c 8c be
       -0.07852711 0.1926559 0.09967701 -0.27426243
0002c0 7a fa 01 3b fb 03 92 be 08 f5 34 be b0 8d cb 3d
       0.0019833134 -0.28518662 -0.17671597 0.09939134
0002d0 97 89 34 3e aa 74 01 3d a2 f5 06 be 15 ad 16 bf
       0.17630611 0.0316054 -0.13179639 -0.5885785
0002e0 ed 38 3c be ab cc 93 bd d1 69 21 3e d5 5d c2 be
       -0.1838109 -0.07216772 0.15763022 -0.37962213
0002f0 9f de 07 bd 0f c1 20 be aa f3 0b 3e 28 32 d3 3d
       -0.033171292 -0.15698646 0.13667169 0.10312301
000300 1f 0b 26 3e 4c 8b 5c bd 3b 17 8b bd 97 19 0e be
       0.1621518 -0.05384378 -0.0679154 -0.13876949
000310 e5 5e ac bd 3c 1b 1d be b9 86 b4 3e 71 a9 81 3d
       -0.08416537 -0.1534242 0.35259035 0.063311465
000320 89 04 d7 3d 7a 02 56 3e 67 a3 c4 3c f9 9c 9f 3e
       0.10498912 0.20899382 0.024003698 0.31174448
000330 ca 14 2a 3e d7 ba 1e 3e 5c 5f 8b bd 5c 52 bf be
       0.16609493 0.15500961 -0.06805298 -0.37367523
000340 51 40 3f be 91 5a 07 3e ee 6f 1a 3d 3f 6a b4 be
       -0.18676879 0.13218142 0.0377044 -0.3523731
000350 33 10 95 3d fd 15 91 be 50 22 a8 bd 38 73 42 bd
       0.072784804 -0.28337088 -0.082096696 -0.047473162
000360 8d 15 40 bb 46 9e d6 be 38 56 22 be 31 ca 02 bf
       -0.002930972 -0.41917628 -0.15853202 -0.5108977
000370 8b 86 27 be 55 05 b7 bc 39 a3 19 3e 9f 27 38 3d
       -0.16359918 -0.02234141 0.15003671 0.04495966
000380 61 5e af 3d d4 7d b0 bd c1 59 3b 3d cc 77 f3 bd
       0.08562923 -0.0861775 0.045739893 -0.11888084
000390 3c da c3 3d 25 cc b6 be 0e e9 4f 3c 2e ea 38 3c
       0.09563109 -0.35702625 0.012689842 0.011286302
0003a0 e8 1d c3 3c af a5 11 be 0f 3b 15 3e 4e be b2 be
       0.023817971 -0.1422336 0.1457331 -0.34910816
0003b0 77 7c 0d be 5d 68 e9 bd e9 93 10 3e 7e b9 13 bd
       -0.13817011 -0.11396859 0.14118923 -0.03606557
0003c0 80 f6 45 3e 83 c2 69 be 4f 62 f3 3d 76 7f 89 bc
       0.19332314 -0.22828107 0.11883985 -0.01678441
0003d0 5c 0d 4e bd 05 d1 b4 bd 4e 11 33 3e e4 e5 14 bf
       -0.05030571 -0.0882893 0.1748707 -0.58163285
0003e0 59 12 80 b9 a2 fe 5d bd 57 0b 42 3e 7b df 67 3c
       -0.00024427733 -0.054197915 0.18949638 0.014152403
0003f0 e0 67 80 3c 36 32 35 be e4 3f 8c 3d eb 94 88 bf
       0.015674531 -0.17694935 0.06848124 -1.0670446

weight_hh f4 [240, 12]
000000 c5 3e 8d 3d 9d 50 27 3d 4d 1f 92 3a db c3 ad 3d
       0.06896738 0.040848363 0.0011148244 0.08484622
000010 bf 61 c7 3d 55 5a a5 ba a3 36 01 3c 2f 34 31 bd
       0.097354405 -0.0012615422 0.007886562 -0.043262657
000020 8c 20 16 be 54 13 80 3d f0 95 8c bd 77 dc 81 3c
       -0.14660853 0.062536865 -0.06864536 0.015852196
000030 31 b6 0a 3e b9 9e 92 3b 31 d9 92 bb 1a 7c 04 3e
       0.13546063 0.0044744876 -0.0044814576 0.12937966
000040 38 62 86 3d 24 ed ff 3d a1 85 cf 3d 20 93 c1 3d
       0.065617025 0.12496403 0.101329096 0.0945189
000050 c3 55 59 3d b4 8e b0 bd 1a 34 65 bd 54 c6 b1 bd
       0.053060304 -0.086209685 -0.05595789 -0.08680406
000060 a7 aa ed 3c fb 78 cb bd 40 78 8b 3d c9 3f 82 bc
       0.029012037 -0.099351846 0.06810045 -0.015899556
000070 d9 bf 1a 3d d8 7f 8a 3d 89 4a 07 be 0a 3c 53 bd
       0.037780616 0.067626655 -0.13212027 -0.05157093
000080 da 01 5f 3d cb 39 8e bd 8a 2d 3a bd d9 8d a1 bd
       0.054445125 -0.06944617 -0.045453586 -0.078883834
000090 bd 69 f5 3c 64 f0 01 be aa 40 15 bd 9b 7d 68 3d
       0.029957647 -0.12689358 -0.03643862 0.05676041
0000a0 31 3f e9 3d f8 34 8c bd 3c cd c6 bd 30 de e2 bd
       0.11389006 -0.068460405 -0.09707114 -0.11077535
0000b0 32 14 dc 3d c7 fc b3 3d a5 f8 4b 3d 57 4c 80 ba
       0.107460395 0.08788448 0.049797673 -0.0009788376
0000c0 db 34 48 bd 7f 15 4f bd 98 9a 2a bd ed 9a 1e 3d
       -0.048878532 -0.05055761 -0.04165134 0.038721967
0000d0 ef 67 8d bd 80 bd 1c 3e ea 52 13 bd 63 77 b6 3d
       -0.069045894 0.15306664 -0.035967745 0.0890949
0000e0 0f 97 1e be f5 ec 2c be 9b 51 91 bd da fd c5 bc
       -0.15487312 -0.16887267 -0.07095643 -0.024168897
0000f0 f2 65 f8 3d 37 32 98 bd c3 f4 72 3d 5f e7 fd 3a
       0.121288195 -0.07431453 0.059315454 0.0019371322
000100 e9 6f 81 3b 2c 75 c9 bc 8c 62 35 be b0 2a 82 bd
       0.0039501083 -0.024592005 -0.17713374 -0.06355798
000110 70 b9 ff bb f9 46 6a 3d 3d db fd 3c e0 c8 db 3c
       -0.0078040883 0.05719659 0.03098833 0.026829183
000120 ec 49 c2 3d db f6 87 bd f1 d6 56 3d 2d 23 14 3e
       0.09486756 -0.06638881 0.052451078 0.14466543
000130 c4 2c 36 bb 28 05 1e 3d c9 1a 83 bd da 9e e2 3d
       -0.0027797678 0.038579136 -0.06401593 0.11065455
000140 21 86 98 bc 6d 93 9d bd 98 f9 8b 3c 6a 62 1f 3d
       -0.018618645 -0.07694135 0.017086789 0.038912214
000150 84 e2 e3 39 cd cd 03 3e b0 b1 a6 bd 6b 10 12 3d
       0.0004346558 0.12871476 -0.0813936 0.03566019
000160 ba b0 d8 3c 2e a1 d1 bd f5 2d cd bd a2 51 17 3d
       0.026451457 -0.10235821 -0.10018531 0.036943085
000170 5f df bb 3c 3a 46 2d bd 78 7b 00 3d a0 bd db bd
       0.02293366 -0.0423033 0.03136775 -0.107295275
000180 b3 b6 47 3d 0e cd aa 3d b5 7a 2d bb a1 a1 21 3e
       0.04875822 0.08339892 -0.0026470844 0.15784313
000190 3d 18 92 3d 7f e0 05 bd de 8b 37 be 0a 26 dc 3d
       0.07133529 -0.0326848 -0.17924449 0.10749443
0001a0 d8 e5 a1 bc 34 85 92 3d ce b1 ef bd db a2 81 3d
       -0.019762918 0.07154313 -0.117038354 0.0632989
0001b0 55 a6 3d bd 71 22 c4 3d 3c 27 79 3d 05 1b cc bc
       -0.046301205 0.09576882 0.060828432 -0.024915228
0001c0 55 92 25 bc b8 92 2f 3e 10 43 80 bb 10 0e f8 3c
       -0.010105689 0.17145813 -0.0039142445 0.030280143
0001d0 b2 9b 12 bb 1d ff 42 bd 13 0b 96 bd 3e 4b 8b 3d
       -0.0022370634 -0.047606576 -0.07326331 0.06801461
0001e0 0f fc 1d 3e a3 fb 84 3d f2 99 86 bc 61 5f 72 3d
       0.15428184 0.064933084 -0.016430829 0.05917299
0001f0 79 0f d5 bd e4 4a d9 3d 15 c4 3a be a0 a7 9a bd
       -0.10403342 0.106099874 -0.18238862 -0.07551503
000200 46 84 75 3d 55 ba d6 bd 7e 9f c1 bd a1 c0 0a 3e
       0.0599406 -0.10484759 -0.09454249 0.13550045
000210 24 41 1d bd 8f 12 19 be 95 46 82 3d 69 5a 48 3e
       -0.0383922 -0.14948486 0.06361119 0.19565739
000220 a0 63 63 3c 6f d5 06 3e 8a 1d 35 be a1 6c 4d 3e
       0.013878733 0.13167356 -0.1768705 0.2006097
000230 33 a2 e2 3c fd 96 d5 3c c4 45 e5 bd a1 68 f3 bc
       0.027665233 0.026072973 -0.11194947 -0.029712977
000240 60 0e ab bd 92 a7 13 be b3 9d 0c 3d 01 a8 9f 3d
       -0.08352351 -0.14419392 0.03433008 0.07795716
000250 cf 71 02 3e d1 50 e7 3c 1f b3 0d be 1b 9a 0a be
       0.12738727 0.028236778 -0.1383786 -0.13535349
000260 88 26 01 be a0 1b b5 3d f7 d0 81 3d 39 d9 e0 3d
       -0.12612355 0.0884316 0.06338685 0.10978932
000270 a9 99 89 3d 22 8b a6 bd 88 ee 49 bd 74 a6 e3 bd
       0.067187615 -0.08132006 -0.049299747 -0.11115733
000280 dd df 30 be 89 c2 03 bd e9 81 5a bd eb b8 51 3d
       -0.17272897 -0.032167945 -0.05334655 0.051201742
000290 57 2e dc bd b8 51 7e 3d b9 8d fd bd 46 70 e4 bc
       -0.10751026 0.06208965 -0.12380547 -0.027885567
0002a0 f7 63 88 bc 60 16 ba 3d 5a 54 d0 3d 8f 65 11 bd
       -0.01664923 0.09086299 0.10172339 -0.035497244
0002b0 96 32 93 bd de a5 9c 3d a2 1d c5 bd 21 96 ed 3d
       -0.07187383 0.07648824 -0.09624793 0.116009004
0002c0 ce 33 1b bd a1 67 9f 3d 65 89 d4 bd 3b 18 eb 3d
       -0.0378912 0.077834375 -0.103777684 0.11479231
0002d0 48 0a d6 3c 26 f5 f0 3c b6 55 9e 3c 93 c2 46 be
       0.02612795 0.02941377 0.01932798 -0.19410162
0002e0 33 8c 37 3d 8c b1 b7 bd c3 c7 a2 bd a6 de 2c be
       0.04481144 -0.08969411 -0.07948258 -0.16881809
0002f0 55 9c e2 bc 38 26 ec bd 2a 8c 1c 3e e7 cc e1 bb
       -0.027662436 -0.11530727 0.15287843 -0.0068908813
000300 cf 03 0f 3e 26 3d 26 3d 84 34 a5 bb 40 25 1f 3e
       0.13966297 0.04058566 -0.0050416607 0.15541553
000310 1d 82 0a be 26 f0 f3 3d d7 48 3e be 94 66 c4 bc
       -0.13526197 0.11911039 -0.18582474 -0.023974694
000320 e2 21 f1 bd fd b4 a8 bd 4c 65 dd 3c 48 ac 85 3d
       -0.11774041 -0.08237646 0.027025841 0.06527001
000330 dd 89 94 bc c5 78 8e 3d 11 02 30 bc 36 d6 81 bd
       -0.018132145 0.06956629 -0.01074268 -0.063396856
000340 5c 27 08 be a8 aa aa 3d 9b f8 16 be e2 53 0e 3e
       -0.13296264 0.08333331 -0.14743273 0.13899186
000350 cf 2d 7e bd c0 b3 16 be 91 fb 9f bd de c9 8c 3c
       -0.062055405 -0.14717007 -0.07811654 0.017186102
000360 d8 df df 3d d8 e9 05 be 8d 82 75 3c c2 53 25 3e
       0.10931367 -0.13077486 0.014984739 0.16145232
000370 1d 2f d1 bd 29 bb bb 3b a7 21 78 be b2 c4 a2 3c
       -0.10214064 0.0057290983 -0.24231587 0.019869182
000380 b0 56 82 bd 50 60 41 bd 52 86 e0 3d 30 f5 27 bd
       -0.063641906 -0.04721099 0.109631196 -0.041005313
000390 39 82 bb bd 4c f5 1d be 51 b0 d0 3e 49 d6 46 3d
       -0.091556974 -0.15425605 0.4075952 0.048544202
0003a0 f6 d8 da 3d e5 68 f6 3d 0f 36 7a be b5 0b 8b 3c
       0.10685913 0.12031726 -0.24434684 0.016973356
0003b0 76 b4 ea be 6d b2 bf bd d1 42 d6 3d 85 cc cd 3d
       -0.45840806 -0.09360204 0.10461963 0.10048775
0003c0 07 4b e6 3d d6 c4 8b 3d 7c 9d 36 3e 27 b7 7b 3d
       0.11244779 0.06824653 0.17833513 0.061453965
0003d0 4a 7e 9b bb 96 8a 81 3d 4d 8f 37 be 43 f7 08 3b
       -0.0047452794 0.06325261 -0.17925759 0.0020899333
0003e0 50 69 9e bc b5 93 86 bd b7 63 e4 bc 13 b0 af 3d
       -0.019337326 -0.06571142 -0.027879579 0.08578505
0003f0 03 8d 2e 3d 99 ce 27 3d 34 cf 03 3e 62 96 3a 3c
       0.042614948 0.04096851 0.1287201 0.011388393

proj f4 [12, 60]
000000 a5 ca f2 3c df 1b 88 3d e8 ad 8a bd 0e 7f a9 bd
       0.029637644 0.06645941 -0.06771451 -0.08276187
000010 b0 ce 45 bd 93 c4 9c 3d f5 ef b9 bd f4 88 7f 3d
       -0.048292816 0.07654681 -0.09078971 0.062386468
000020 4a f5 e3 3d 54 81 1d be 70 14 92 3c 57 50 e1 3c
       0.111307696 -0.15381366 0.017832011 0.02750413
000030 a0 96 1d be 40 6c 84 bd c1 d3 09 be 50 87 4a 3d
       -0.1538949 -0.064659595 -0.13459684 0.04944545
000040 3b a5 52 3d cb 7b 73 3d 0e d3 03 3e 45 a5 26 bd
       0.051427107 0.05944423 0.1287348 -0.040684957
000050 d8 ce f7 3d af 8d 14 be 63 e6 95 3d 29 77 0e be
       0.12099999 -0.14507173 0.073193334 -0.13912643
000060 67 7b 29 bd 16 96 58 bc b6 76 e4 3d 15 0f 6d be
       -0.04137745 -0.013219377 0.11155455 -0.23150285
000070 ef 97 ab bd 26 0a ca 3d 50 ed 5c 3d 51 bb 58 3d
       -0.083785884 0.09865217 0.053937256 0.052913014
000080 67 a1 93 3d 27 50 d4 3d b7 71 67 3b ad d7 90 3d
       0.072085194 0.1036685 0.0035315582 0.07072387
000090 23 dd 0b be 56 e5 b8 3b 0a 2b a0 3c 05 88 17 3e
       -0.13658576 0.0056425733 0.019551773 0.14797981
0000a0 e6 0c ec 3c 54 1f ae bd ac b1 84 bd 8b 71 0e 3e
       0.028814744 -0.08502069 -0.06479201 0.139105
0000b0 ca b9 2d be a3 4b 44 3d 88 ed b0 3d 55 5f 03 bd
       -0.16965404 0.047923695 0.086390555 -0.032073338
0000c0 ce 3a da bd 98 29 5b 3d 67 39 38 3e 73 29 ca 3d
       -0.10655747 0.053506464 0.17990647 0.09871187
0000d0 27 f5 07 be 9f 28 1e be 41 f8 b0 3c c8 35 09 be
       -0.13277112 -0.15445183 0.021602752 -0.13399422
0000e0 17 25 fe 3d 70 d0 87 3c 7a a7 03 be 7a 43 81 bd
       0.12409418 0.016578883 -0.12856856 -0.06311698
0000f0 b4 1b ac 3d e9 45 47 3d 29 2e 26 3e 2f 3a 58 bd
       0.084037215 0.048650656 0.16228546 -0.052789863
000100 0b d8 a7 3c d4 9a 97 3d b5 5e 1e 3e 57 bb 55 be
       0.02048876 0.07402578 0.15465815 -0.20872246
000110 4b 5e a5 bc ac e6 bc 3d 57 e5 a7 bd a3 30 94 3d
       -0.020186564 0.09223685 -0.0819804 0.07235839
000120 5e 66 38 bd c5 6c 91 3d 52 b5 33 b9 79 d1 90 bd
       -0.0450195 0.07100824 -0.00017138317 -0.07071204
000130 82 3c 96 3d 88 04 c5 bd db 55 4c be 1a ee a3 bd
       0.0733576 -0.09620005 -0.19954626 -0.08004399
000140 0e 69 01 be 62 8a 56 bd f8 ae b2 3d 63 6e 9c bd
       -0.12637731 -0.052378066 0.08724779 -0.07638242
000150 dc fa fc 3d 33 48 f7 3d 62 2f 0f 3c 34 a5 0c 3e
       0.12352535 0.12074318 0.008739324 0.13734895
000160 82 a7 9b bd 11 cc 96 bd d8 1c 04 3c 55 73 39 3d
       -0.07600309 -0.07363141 0.0080635175 0.045276005
000170 9a e5 96 bb a1 fa aa 3d 29 d1 11 3d 37 70 15 be
       -0.0046050074 0.08348585 0.03559986 -0.14593588
000180 48 94 d9 3c ac e8 03 be 28 55 f3 3c 79 3d 4d be
       0.026559964 -0.12881726 0.029703692 -0.20042981
000190 2b 1c 3c bd a4 cf 1e 3e 66 c5 a4 3d c6 5c 53 be
       -0.0459253 0.15508896 0.08045463 -0.20640859
0001a0 d4 97 09 3e 4a 89 e8 bd ba d3 41 3c fb 5d 02 be
       0.13436824 -0.11354311 0.011830265 -0.12731163
0001b0 e1 6f fe 3d ac 48 8d 3e be 3c e1 bc 94 f3 3b bd
       0.12423683 0.27594507 -0.027494784 -0.04588659
0001c0 a5 2e 06 bd ee b4 25 3e 49 df 39 bc 58 88 d7 3c
       -0.032759327 0.161823 -0.011344739 0.026310131
0001d0 83 5e 09 3d fd 8c 5f 3d ae 1c bf bd 3b 9e 68 bd
       0.0335374 0.054577816 -0.09331642 -0.056791525
0001e0 9b 6c bd 3d 48 ad 73 3d da c9 e3 ba 13 08 ec bd
       0.092492305 0.059491426 -0.0017378882 -0.115249775
0001f0 b9 9d 1e bd 77 49 d5 bd 59 03 10 be 77 88 c3 3d
       -0.038724635 -0.10414403 -0.14063777 0.09547513
000200 87 f9 b0 3d 43 71 bd 3d c4 b9 b7 bd bd d8 99 bc
       0.086413436 0.092501186 -0.08970979 -0.018780107
000210 50 09 12 3e e4 0c dc bd da 2e 44 3c 68 8c 0a 3e
       0.14261365 -0.10744646 0.011974061 0.13530123
000220 c1 38 72 3d 88 3c d9 bd 81 c0 7d 3d 13 17 e5 3d
       0.059136156 -0.106072485 0.061951164 0.11186042
000230 36 8d 0a be 2a 5f 7f 3d 3e c7 10 3e d6 30 1e 3e
       -0.1353043 0.062346615 0.14138505 0.15448317
000240 cb 8b d1 bd f7 a9 37 bd 74 22 0a 3e 48 9f 98 3c
       -0.102317415 -0.044839825 0.13489705 0.018630639
000250 0e 0a 13 3e 59 0c fa bd 21 f9 e5 3d c0 53 ac bc
       0.14359304 -0.122093864 0.11229158 -0.021036029
000260 1a b8 59 bc 98 9b 3d be 17 55 48 be 21 bc 1b 3e
       -0.013288522 -0.18516386 -0.19563709 0.15208484
000270 21 b8 05 3d 25 58 cd bd c2 ba 62 bd df 93 36 3e
       0.032646302 -0.10026578 -0.055353887 0.17829846
000280 eb ab 86 3d b7 b1 92 bd 73 92 a6 3d c4 75 10 3e
       0.065757595 -0.07162803 0.08133402 0.14107424
000290 55 5a 30 bd 7f 37 f2 bd a6 16 84 3d b9 a7 15 3e
       -0.043054897 -0.11826991 0.06449632 0.14614762
0002a0 a0 1d 90 bc 61 fd aa be 62 55 8c bd 5a 86 4e 3d
       -0.017592251 -0.33396438 -0.06852223 0.050421096
0002b0 4a 3e 45 bd c7 71 aa 3c d8 bb 14 be 1f bb 83 bd
       -0.048155107 0.020806206 -0.14524782 -0.06432175
0002c0 6f 2f db bd 84 1e 82 3d cf 78 c0 3c b9 6d e4 ba
       -0.107024066 0.06353477 0.023495106 -0.001742772
0002d0 20 69 46 bd 51 42 ff 3d 0a ac 9e bd 3d 48 66 bd
       -0.0484401 0.12463821 -0.077476576 -0.056221236
0002e0 40 92 8b bd 50 90 50 3d a9 e8 13 3d 52 e2 b5 bd
       -0.06815004 0.050918877 0.036110554 -0.08881058
0002f0 a5 76 df bc 94 a3 00 bd 99 4b ba 3d 98 4d e5 bd
       -0.027278254 -0.031406 0.0909645 -0.111964405
000300 79 a5 48 bd cd 48 f2 3d 6d 8c d0 bd d5 c9 0e bb
       -0.048985932 0.11830292 -0.10183034 -0.0021787782
000310 f6 7c 11 3e 14 d8 ed 3d 74 a1 75 3d c8 38 90 3d
       0.14207825 0.11613479 0.059968427 0.0704208
000320 bf 6f 9f bd 8c 0d c4 bd 30 69 6a 3d b6 32 43 bb
       -0.07784986 -0.09572896 0.05722922 -0.0029784865
000330 88 6c e7 bd fb a1 bc 3d 6f 9d 21 bd 88 0a 56 be
       -0.112999976 0.09210583 -0.03945678 -0.20902455
000340 d8 10 2d bd 00 af bb 3d a1 a8 0a 3d 8b 24 25 bc
       -0.04225239 0.09164238 0.033852223 -0.010079513
000350 62 fc 2c 3e e8 0f 7d 3e 22 f8 39 bd 31 06 1d bc
       0.16893151 0.24713099 -0.045402654 -0.009583996
000360 34 63 a4 3d a5 8c b8 3d 2e ef dd 3c c4 04 be 3d
       0.08026734 0.09011201 0.027091589 0.09278253
000370 00 f3 ce 3d 3e 58 46 bc 8f 10 96 3d 85 4a 21 3e
       0.10104942 -0.0121059995 0.07327377 0.15751083
000380 66 da 2d bd f0 5b 9e bd ae 6e 64 3c 22 fb 8e bd
       -0.04244461 -0.077323794 0.013942404 -0.069814935
000390 7d 75 04 be 3c 0c 48 bd 52 2f a8 ba a1 fb 15 3d
       -0.12935443 -0.048839793 -0.0012831485 0.036616925
0003a0 9e 9f 28 bd 6e 30 88 bd d4 51 2e 3d c5 33 21 bd
       -0.041167848 -0.06649862 0.042558506 -0.039356012
0003b0 63 10 50 3d f6 98 e6 3b 1f c6 c1 bd 29 c9 41 3c
       0.050796878 0.0070372773 -0.09461617 0.0118277455
0003c0 15 dc eb 3d 6a 46 8e bd 14 08 cb 3d bf 91 09 3e
       0.11516587 -0.06947024 0.0991365 0.13434504
0003d0 80 f6 1f 3d 8e aa e1 3d da f1 14 3e 41 63 e0 bd
       0.03905344 0.11018859 0.14545384 -0.10956431
0003e0 5c 43 f6 bd e7 9a 5b 3c 9c 78 cd bc 89 32 70 3c
       -0.120245665 0.013403631 -0.025081925 0.014660486
0003f0 bb 80 04 3e da 97 9b bd e8 bf 1b 3e c6 d5 96 3c
       0.12939732 -0.07597323 0.15209925 0.018412482

bias_ih f4 [240]
000000 f6 a8 8b bd 75 de 7a 3b bd 6d 06 3e b7 a7 2d bd
       -0.06819336 0.0038279567 0.131278 -0.042396273
000010 eb 33 96 bd 19 6a 86 3c 24 fa a2 3d 96 4d c8 3c
       -0.07334121 0.016408013 0.07957867 0.024451058
000020 f8 cd ca 3d 67 eb 33 3d 97 e4 a0 bc 51 34 8b 3d
       0.09902567 0.04392567 -0.01964025 0.06797088
000030 f1 16 14 3e 12 df e4 3c d2 7c a7 3d fb 48 3b 3e
       0.14461876 0.0279384 0.081781045 0.18289559
000040 24 95 c6 3c 03 28 a5 bd 43 b7 04 3d 53 c1 40 3d
       0.024241038 -0.08064272 0.032401334 0.04705937
000050 ba 27 a4 bb b9 d6 e0 3d 38 1a f6 bc 22 d0 7a bd
       -0.0050096186 0.10978455 -0.030041799 -0.061233647
000060 72 d6 d5 3d 5c c3 9f 3d dc e5 b7 3d e1 4a 0b 3d
       0.10441293 0.07800934 0.08979389 0.034006957
000070 1d 84 36 3e 56 ad c8 3c d5 f8 a5 3d fb 02 fb 3d
       0.17823835 0.024496716 0.081041016 0.12256428
000080 4d 00 96 3b 4d f8 0d 3e a4 2e 53 3e 10 e6 15 3e
       0.0045776726 0.1386425 0.2062326 0.14638543
000090 ca 2f d3 bd 3c 62 53 3d c7 14 94 3c da 53 90 bd
       -0.103118494 0.051607355 0.018076314 -0.070472434
0000a0 2d 7d 81 bd dc e4 82 bd 23 69 43 3e e2 d1 11 3e
       -0.063227035 -0.06391308 0.19083075 0.1424022
0000b0 73 e6 51 bd a9 92 9b bc 74 f8 77 3d 20 e9 26 3e
       -0.051245164 -0.018990831 0.060539678 0.16299868
0000c0 d6 20 35 bc 69 7a ce 3d bb 5d 2b 3e dc a1 df bc
       -0.011055192 0.10081942 0.16734974 -0.02729886
0000d0 47 3e 1a 3d f4 f3 cc 3d bc 42 56 bc 85 2a c1 3c
       0.03765705 0.10007468 -0.013077434 0.023579845
0000e0 2c c9 16 3e 2b 9e 9c 3d 4c d4 06 3d 1b ce 95 3d
       0.14725178 0.07647356 0.032917306 0.07314702
0000f0 e8 d1 0b bd ef 20 e6 bd 85 f8 de 3d 2c c6 8b bb
       -0.03413573 -0.1123675 0.10887245 -0.0042655673
000100 94 71 1c 3e 22 f7 7b bc 6c 5a 50 bd 7b d8 23 bd
       0.15277702 -0.015378745 -0.050867483 -0.040001374
000110 90 86 fb 3d 9a e9 86 bc e2 0e 85 3c 22 44 ab 3d
       0.12281525 -0.016468812 0.016242448 0.08362605
000120 f8 11 29 3e 2c 67 0b bc a8 72 22 3b de 96 1f 3e
       0.16510761 -0.008508485 0.0024787579 0.15584895
000130 cc 18 f6 bd 5e f6 61 bd 34 f5 3f 3e 3d 46 37 3c
       -0.120164484 -0.055166595 0.18745881 0.01118618
000140 b8 9e d8 3c cb 2d e1 3d f5 32 b9 3c 04 a1 e3 3d
       0.02644287 0.109950624 0.022607306 0.11114696
000150 11 b7 17 bc c8 34 54 3a 22 a8 83 3d 6c 10 97 3d
       -0.009259955 0.0008095023 0.06428553 0.07376179
000160 e2 25 88 3d e6 fd 9b bd 21 66 ae bc cc 78 51 3c
       0.066478506 -0.07616787 -0.021288933 0.012785148
000170 b7 ca 99 3d e4 65 92 3d 36 b7 10 3e c6 1d 03 3d
       0.07509368 0.0714834 0.1413239 0.032010816
000180 b6 46 c3 bd 90 14 60 3c 43 60 ba bd d1 40 1a 3d
       -0.095349714 0.0136767775 -0.09100392 0.03765947
000190 24 83 3d bd be 47 fa 3d 16 dd df 3d f6 46 1c 3e
       -0.046267644 0.12220715 0.10930841 0.15261444
0001a0 37 c0 17 bd 0d 3d 92 3c 7d f6 dd 3d 77 8e f3 bc
       -0.037048545 0.017851377 0.108380295 -0.029731018
0001b0 ff 36 db bc be 58 17 3e 75 12 4b 3b f0 46 8a 3d
       -0.026759623 0.14779946 0.0030986343 0.067518115
0001c0 65 4b c4 bd 6d 05 e1 3d 66 7f 96 3d e3 c0 ee 3c
       -0.09584693 0.10987363 0.07348518 0.02914471
0001d0 86 24 72 bd 9f 42 eb 3d 72 b2 e3 3d 8d e7 2f bc
       -0.059116863 0.11487316 0.1111802 -0.010736358
0001e0 90 2d 3c 3d 64 e5 13 bd 25 45 1d be 42 ff cb bd
       0.04594189 -0.036107436 -0.15358408 -0.09960796
0001f0 e5 a5 b5 bd 25 73 0d 3d d9 a5 e6 bb 3f 5b 61 3d
       -0.088695325 0.03453364 -0.0070388136 0.05501866
000200 be a9 55 3d 5e c6 aa 3d 85 fa a2 3d f4 9b b5 bd
       0.052163832 0.08338617 0.07957939 -0.08867636
000210 03 ec 1f 39 77 a8 bc 3d 7f cb 8b 3c 4d 08 9a 3d
       0.00015251343 0.092118196 0.017064808 0.075211145
000220 f0 78 aa bc 36 4e e2 3d 40 75 24 3b 00 35 af 3d
       -0.02080962 0.11050074 0.00250943 0.08555031
000230 f9 25 1d 3e 77 aa f0 bd 78 ed ca bd 26 94 45 bc
       0.15346517 -0.117512636 -0.09908575 -0.012059247
000240 46 42 db 3c 49 da 0f bd ec f9 d4 3d a4 57 19 bd
       0.026765 -0.035120282 0.10399231 -0.037437096
000250 07 6a a3 3d 35 f4 0b bd 0a bd d3 bd fb ea e5 bd
       0.079792075 -0.03416844 -0.10338791 -0.112264596
000260 7f 77 b3 bd bc 29 21 bd 21 fe 6d 3c 2c 59 b2 3d
       -0.087630264 -0.03934644 0.014525921 0.087084144
000270 bb f2 93 bd 06 ff dd bd 82 36 b9 bd 8c 53 e7 3d
       -0.072240315 -0.108396575 -0.090436 0.11295232
000280 38 5e 9f bd 76 f2 05 be 02 ee 8b bd 61 78 25 3c
       -0.07781643 -0.13080773 -0.06832506 0.010099501
000290 93 4b be 3d d9 d9 70 3c e1 5b 9e 3d 6b b3 7b bc
       0.092917584 0.014700376 0.07732368 -0.015362601
0002a0 b6 14 0f bd d6 b7 36 be 09 a4 ed 3d d8 36 e8 3c
       -0.03493186 -0.17843565 0.11603553 0.028346464
0002b0 1e 61 b0 bd fd 46 ec 3d e4 a0 b2 bc e4 d1 e8 3b
       -0.08612274 0.115369774 -0.021805234 0.007105099
0002c0 1b b7 0d 3d c2 59 6e bc d3 e6 8d bd ed 60 ef 3d
       0.03459845 -0.014547767 -0.06928792 0.11688409
0002d0 ed 14 a5 bd 8a 47 f7 bb ef af 69 3d 9b 3f d8 bb
       -0.08060632 -0.00754637 0.05705255 -0.0065993792
0002e0 5d 49 96 b9 a3 a7 f1 bc b6 2a b8 3d 80 89 85 bd
       -0.0002866489 -0.02949888 0.089925215 -0.06520367
0002f0 5b fa 37 3d de 69 ab 3d 4d 92 3b bc c8 91 6f bc
       0.044916492 0.08369802 -0.011448455 -0.014622159
000300 14 4b e2 bc 28 34 b4 3b f2 a3 78 bd 5c 2c 89 3d
       -0.02762369 0.0054993816 -0.060703225 0.06697914
000310 01 f2 6b bd 7a 0c e0 3d c8 b9 42 3c 5a 93 bb 3d
       -0.05760384 0.1093988 0.011885114 0.091589645
000320 fc fc d5 bc 82 78 98 bc b6 ba 8d 3d c1 44 68 bd
       -0.026121609 -0.01861215 0.06920378 -0.056706194
000330 3a df 29 3e f0 dd 13 3d 6b d5 b9 bd 50 47 b0 3d
       0.1658906 0.036100328 -0.09073909 0.08607352
000340 f7 cd 0a 3d f5 ef 1f 3e 0a 9f 8d bb 01 af ae 3d
       0.03388783 0.1561888 -0.0043219374 0.08529473
000350 51 9e 39 bc dc 64 77 3e ad 6e 04 3e 16 c3 29 3d
       -0.0113292495 0.24159569 0.12932844 0.041445814
000360 17 f4 b1 3d 78 d0 c9 bd de 29 9d bd fa c3 10 3e
       0.086891346 -0.098542154 -0.07674001 0.14137259
000370 b1 ee 0a 3e ed a6 18 3d 53 c7 93 3d 74 59 04 3e
       0.13567616 0.037268568 0.072157525 0.12924749
000380 41 e9 04 bc e7 36 ec 3d 52 0e 71 bd d1 8d 1e bd
       -0.008112253 0.11533909 -0.058851548 -0.038709465
000390 45 6e bd 3d 64 6f 5d 3e e7 4b 01 3d 6f c8 f5 3d
       0.09249548 0.21624523 0.031566527 0.1200112
0003a0 f7 92 94 3d 7c ff 76 bd d3 19 8e bd b9 f8 8a bd
       0.07254594 -0.060302243 -0.06938519 -0.06785721
0003b0 2b c0 a1 bd a6 5f dd 3d 8b eb 4c bd 75 45 e3 bd
       -0.07897981 0.10809259 -0.05002932 -0.11097232

bias_hh f4 [240]
000000 97 22 82 39 d7 53 a3 3c 4f 65 2e 3d dd fe 57 3d
       0.00024821304 0.019937439 0.042577084 0.05273329
000010 e5 01 b4 3d 6e 51 4e 3c ad a1 95 bc 90 b4 50 3d
       0.08789424 0.012592657 -0.01826557 0.050953448
000020 ee 7a d9 3d 02 78 b5 3d 6e 07 02 bc 56 00 44 3d
       0.1061915 0.0886078 -0.007936342 0.047851883
000030 70 96 a3 3c 47 15 ed 3c 57 40 e5 3d 3c 50 0b 3e
       0.019969195 0.02894081 0.111939125 0.13604826
000040 81 ca 1b 3d f6 f7 d9 3d cb f4 3c 3e 1d c4 fa 3d
       0.03803492 0.10642998 0.18452756 0.12244437
000050 45 28 54 bd 45 25 ac 3d 26 24 4d bd 1e 5b 28 3e
       -0.051796217 0.08405546 -0.050083302 0.16441008
000060 bb 48 80 bd 7c 19 88 3d 8e 62 ca 3d 61 ed 8c 3d
       -0.06263872 0.06645486 0.09882079 0.06881214
000070 d3 da 38 3e 1c 17 8f 3d 1a c9 53 bc 31 b6 d9 bc
       0.18052225 0.0698683 -0.012926364 -0.026576133
000080 b5 d4 0c bd 35 7d 87 3e fb c9 82 3d 39 c4 88 bd
       -0.03438254 0.26462713 0.06386181 -0.066780515
000090 a1 a4 b9 3d 4c 3d 2f 3d 76 a6 e2 3d 80 bf 80 bd
       0.090646036 0.042783067 0.11066906 -0.06286526
0000a0 cf ec 24 3e 76 3c 27 3e 2f d4 d6 bb 6e 95 2b 3e
       0.1610596 0.16331658 -0.006556056 0.16756222
0000b0 bb 32 c5 bc d2 a0 13 3e d7 8e ce 3d 42 7f cb bc
       -0.024072042 0.14416817 0.10085838 -0.024840955
0000c0 55 b1 d5 bc af 28 15 3e f4 4e 54 3d 98 46 4d 3d
       -0.026085535 0.14566301 0.051833108 0.05011615
0000d0 94 67 28 bd df 36 3b 3c a7 e6 69 3d e3 28 6f 3d
       -0.041114405 0.0114266565 0.057104733 0.058388602
0000e0 61 e9 cc bd 1e 80 c3 3c 20 a3 3f 3d d7 33 91 3d
       -0.10005451 0.023864802 0.046786427 0.07089966
0000f0 16 b5 2a 3d 3b e5 3a bd 08 4f 03 3d b6 0d 9a bd
       0.041676603 -0.045628767 0.032057792 -0.075221464
000100 5b 45 f0 3d 20 e3 d3 3b ff cc ce 3d 60 c7 8f 3d
       0.117319785 0.0064662844 0.10097694 0.0702045
000110 32 94 c5 3d a4 66 04 3e bc 91 08 bc a0 7e e4 3c
       0.09647407 0.1292978 -0.008335527 0.02789241
000120 35 91 09 3d 52 64 10 bd 46 d7 07 3e fc 45 14 3d
       0.033585746 -0.035251923 0.13265714 0.036199555
000130 0b 18 e5 3d 2a 96 d8 3d ef 27 a0 3d 55 e6 25 3d
       0.111862265 0.105755165 0.07820117 0.040502865
000140 1f 9f 26 3e ef b8 00 3e ab 19 21 3e 3a 3e 98 bd
       0.16271637 0.12570547 0.15732448 -0.07433744
000150 cb df 2e bd e9 55 0e bd 5c 37 a6 3d 08 b6 2b 3c
       -0.042693894 -0.0347499 0.08116028 0.010480411
000160 4c 88 46 bd af bb f7 bc 4c db 77 bd bf 29 bf 3c
       -0.048469827 -0.030240862 -0.060511872 0.023335336
000170 d5 c6 ce 3c eb 03 a3 3e e8 6a 26 3e 9e f3 97 3b
       0.025241295 0.31838927 0.16251719 0.0046371957
000180 65 78 75 3d 8c f6 12 3e 43 ea 84 3d ea f4 13 3d
       0.05992927 0.14351863 0.064899944 0.03612224
000190 02 37 0d 3e 65 5f 9c 3d 3e d5 51 bd 58 ea 42 3c
       0.13790515 0.076353826 -0.051228754 0.011896692
0001a0 c8 13 75 bc b0 55 fb 3d 10 40 8c 3d 86 c7 f7 3d
       -0.0149583295 0.12272203 0.068481565 0.12098603
0001b0 7f 2f 31 bd 4b 22 94 3d 20 d1 58 bd 03 5d 74 bd
       -0.043258186 0.07233103 -0.052933812 -0.059659015
0001c0 e0 a4 8f 3c 6d 41 f5 bc 9d 73 0d 3e 23 04 04 bd
       0.017534673 -0.029938424 0.13813634 -0.032230508
0001d0 d6 d0 78 bd 71 8e b0 3d 5a 3a e8 3d 5a d4 ed bb
       -0.060746036 0.086209185 0.11339255 -0.0072579803
0001e0 59 39 b4 3d 2d f4 85 bd 3a 52 0d be 10 fa c7 bd
       0.08800001 -0.065407135 -0.13800898 -0.097644925
0001f0 7b 7d d7 bd df e0 ff bd e2 04 eb bd 17 43 47 ba
       -0.105219804 -0.12494063 -0.11475541 -0.0007601245
000200 3c 09 0d 3e c8 61 f0 bd ae 01 d7 3b c8 1a 6c 3d
       0.13773054 -0.117374 0.0065614795 0.057642728
000210 ac 36 ea 3c 8b a7 5b 3d 61 49 14 be ef bc 85 3e
       0.028590523 0.05362658 -0.14481117 0.26120707
000220 0e 3b cc 3a 5a 0c 8b bd 3c e8 05 3e 03 3f cb bd
       0.0015581565 -0.06789465 0.13076872 -0.09924128
000230 03 c4 0d bd 3e 7d 63 3d 93 9a 15 3d 3c 26 05 3d
       -0.03461076 0.055539362 0.036524367 0.032507166
000240 16 f7 a7 bd fb 68 8c bd c4 a5 ad 3d 33 0d a2 3d
       -0.08201425 -0.06855961 0.08478883 0.07912674
000250 1c 95 2e 3e 71 7b c2 3d af 06 e0 bd 2b 54 f3 bd
       0.17049068 0.09496201 -0.10938775 -0.11881288
000260 75 2a 5a 3d a4 f6 3c be 16 94 d7 3d 10 e5 c7 3d
       0.053263146 -0.18453461 0.10526292 0.09760487
000270 a4 e2 c1 bd fc 27 44 bc 38 3f a8 bd 86 76 06 3d
       -0.094670564 -0.011972424 -0.08215183 0.032827877
000280 bd d9 14 3e af d1 a5 bd 3c f0 04 be fe cb f8 3d
       0.14536186 -0.080966346 -0.12982267 0.121482834
000290 17 2e d1 bd 42 a2 4c 3d 9a c2 4b 3c 7b 1b 01 3e
       -0.10213869 0.04995943 0.012436533 0.12608139
0002a0 10 af af bc 98 ae 15 3d 69 3a 66 bd b0 22 fd 3d
       -0.021445781 0.03654346 -0.056208048 0.12360132
0002b0 f2 e2 bc bd 1c de 0e be 60 ce d8 bd 86 10 ee bd
       -0.09222974 -0.13951916 -0.10586238 -0.11624245
0002c0 c4 61 33 3c 54 e2 e1 bd a8 66 23 bd 9a 49 e8 3d
       0.010948602 -0.11029497 -0.039892823 0.113421634
0002d0 75 a5 41 3d eb 24 ce 3d 59 01 21 3e 91 df 36 3d
       0.047276933 0.10065635 0.1572317 0.044646803
0002e0 47 2b 1a 3e 9b 59 30 3e f2 bf aa bc 98 5d b8 bd
       0.15055571 0.17221682 -0.02084348 -0.090022266
0002f0 ba f4 03 ba b2 8e c2 bd e4 c0 93 3d df 52 22 3e
       -0.00050337205 -0.09499873 0.07214525 0.15851925
000300 7e 5d 25 3e 2b c3 06 bd 17 1b 3e bd d1 d1 23 3d
       0.16148946 -0.03290097 -0.046412554 0.03999502
000310 e8 fc 99 3b 7b 4d 2d 3e 6a 32 7e 3d 52 b1 0d 3e
       0.004699338 0.16924088 0.062059797 0.13837174
000320 ce 04 ff 3d f1 be 2d 3c 1f 3c 65 3d d0 9e cb 3d
       0.12452088 0.010604606 0.05596554 0.099424005
000330 a4 63 b0 3d 13 58 be bb 8a 4f 4a 3d 2c f4 71 3d
       0.08612755 -0.005808839 0.04939226 0.05907075
000340 84 7a a3 3c ba b4 0b 3c 3f 31 f6 3d d9 53 1e 3e
       0.019955881 0.008526975 0.12021112 0.15461673
000350 3c e1 83 bd e0 ee 58 3e 84 a0 57 3e 99 4b d5 bd
       -0.064394444 0.21184874 0.21057326 -0.1041481
000360 2d 52 d0 3d 0e 42 86 bd da 85 fe bd 26 98 29 3e
       0.10171924 -0.06555568 -0.12427874 0.16561946
000370 2d be 49 bd 20 dc 39 3d 9c f7 32 3e c7 60 69 3e
       -0.04925363 0.045375943 0.17477268 0.22790824
000380 22 30 13 bd bf f7 5b bc a4 48 3f bc e1 41 10 bc
       -0.035934575 -0.0134257665 -0.011675034 -0.008804769
000390 dc fd d4 3d 2c ef bd 3c c1 b6 a6 3c 86 1b b5 bd
       0.10399982 0.023185335 0.020350816 -0.0884314
0003a0 94 af 9e bd e2 47 94 bc ec 03 40 bc c6 3a 41 bb
       -0.077483326 -0.018100683 -0.011719685 -0.0029484495
0003b0 5b 4b 1a 3e 87 f2 4a 3d f8 60 9c bd 19 9b f6 bc
       0.15067808 0.0495477 -0.07635683 -0.030103253

weight f4 [3, 12]
000000 11 74 6e 3d 7e 68 e9 bd 24 ba a0 bd dd 47 60 3b
       0.05821616 -0.113968834 -0.078480035 0.0034222521
000010 b3 e2 39 be 24 fe 8c 3e 9d 2a 91 bd 1d 91 7c 3e
       -0.18152885 0.27537644 -0.07088206 0.24664731
000020 94 30 22 bc e5 fc a5 bd 05 f6 47 be eb 9f 3b 3e
       -0.009899277 -0.081048764 -0.19527443 0.18322723
000030 0b b2 0c 3e 3d e0 20 3d ff 19 1c be 1b f1 42 bd
       0.13739793 0.03927635 -0.15244292 -0.047593217
000040 f2 ab ea bd be 26 84 3e 05 d0 95 be 6d 3d 7b bc
       -0.11458577 0.25810808 -0.2926027 -0.015334469
000050 cc 7e 3a be 50 c8 39 3e 9d 28 08 be c2 70 f3 bd
       -0.18212432 0.1814282 -0.13296743 -0.11886741
000060 d3 69 97 bc 66 c0 9b be 63 ab 87 3e 6c 77 60 bd
       -0.018483078 -0.30420226 0.26497945 -0.05480139
000070 38 69 8e 3d cf d7 71 3e 61 78 d5 bb 7f 7f 34 be
       0.06953663 0.2361748 -0.0065145944 -0.17626761
000080 b9 1a b0 be 3a f0 94 be 92 ec 85 3e 4a 47 98 bc
       -0.34395388 -0.29089528 0.2615705 -0.01858868

bias f4 [3]
000000 38 d4 35 3d bb 5d 02 be e1 31 5d be
       0.04439184 -0.12731068 -0.21601059
