models/paramsearch_0.009999999999999908_0.6260464002468039_0.7615676918651745_49.pt (torch, 33112 bytes, 7 tensors)

weight_ih f4 [240, 6]
0	0xbef65a80	-0.4811592
1	0xbfba9862	-1.4577754
2	0xbfd1aa7a	-1.638015
3	0xbf8ec6c9	-1.1154414
4	0xc01f4668	-2.4886723
5	0xbf739421	-0.951479
6	0xbcb7c5d5	-0.0224332
7	0xc035dfef	-2.8417928
8	0xbf982f0a	-1.1889355
9	0xc04a7710	-3.163517
10	0xbfada8b0	-1.3567104
11	0xbebad4d9	-0.36490515
12	0xbeaae829	-0.3338025
13	0x3ea1947d	0.315586
14	0x3ebbac1b	0.36654744
15	0x3e31f5e5	0.17378958
16	0xc0ac167b	-5.377744
17	0x3f485756	0.78258264
18	0xbf3cd040	-0.73755264
19	0xbfae73be	-1.3629072
20	0xbd98ce49	-0.07461221
21	0xbccbdf4e	-0.024886753
22	0xbfab7a9c	-1.3396792
23	0xbf619a9c	-0.8812654
24	0xbeb6a9e4	-0.3567649
25	0xbeb54c66	-0.3540985
26	0xc046acc8	-3.1042957
27	0xbe206ad4	-0.15665752
28	0xbf9aa9d9	-1.2083083
29	0xbf6ac5d7	-0.9170813
30	0xbf842891	-1.032488
31	0x3db97b71	0.09056748
32	0xbebc7200	-0.36805725
33	0xbe6d601a	-0.23181191
34	0xc013638b	-2.3029506
35	0xbf9427b6	-1.1574619
36	0xbe49079f	-0.19631813
37	0x3f9ba25f	1.2158927
38	0xbf9332a6	-1.1499832
39	0x3fa3e6ee	1.2804849
40	0xbfe34fa8	-1.7758684
41	0xbf0b2070	-0.5434637
42	0xbee81d97	-0.45335075
43	0xbe87a2c8	-0.2649138
44	0xbf41820b	-0.75589055
45	0xbf0846c0	-0.53232956
46	0xc09a1184	-4.814638
47	0x3e310d87	0.17290317
48	0xbeb97086	-0.3621866
49	0xbf9a89a6	-1.2073257
50	0xbde9372f	-0.113874786
51	0xc0504761	-3.2543566
52	0xbfa1036c	-1.2579169
53	0xbf98e28d	-1.1944138
54	0xbf2467e7	-0.6422104
55	0x3fb53cd0	1.4159184
56	0x3ea42615	0.32060304
57	0xc01040b8	-2.25395
58	0xc0d52d02	-6.661744
59	0x3e7c2a9e	0.24625632
60	0xbd5c5424	-0.05379118
61	0xbe865914	-0.26239836
62	0xbfdb3b96	-1.7127559
63	0xc05361e2	-3.3028493
64	0xc030ca65	-2.7623532
65	0x3e4b2c9c	0.19841236
66	0xbe90a7ff	-0.2825317
67	0x3f83a412	1.0284445
68	0xbf81c988	-1.0139627
69	0x4052e948	3.2954884
70	0x3f1f205a	0.6215874
71	0xbf62c20c	-0.8857734
72	0xbdcf02c8	-0.10107952
73	0xbfafb7b9	-1.3727943
74	0x3d171f25	0.036894936
75	0x3fbaee4f	1.4603976
76	0xbf810e41	-1.0082475
77	0xbf6d306f	-0.9265203
78	0xbed3763e	-0.4130115
79	0x3eb1150c	0.3458637
80	0xbeb0b6b0	-0.3451438
81	0x40067b16	2.1012626
82	0x3e7252c4	0.23664385
83	0x3e69591f	0.22787903
84	0xbeb8b613	-0.36076412
85	0x4041595d	3.0210793
86	0xbfbfb9ee	-1.4978616
87	0x40612754	3.5180254
88	0x3f7f0e23	0.99630946
89	0xbeda2c9d	-0.42612162
90	0xbf65734b	-0.8962905
91	0x3ea18ba4	0.3155185
92	0x3f136abb	0.5758473
93	0x3ed68faf	0.41906497
94	0xbf57987b	-0.8421704
95	0xbe3c33b4	-0.18379098
96	0xbdffbe10	-0.124874234
97	0x3f41c2c0	0.7568779
98	0xc04abc18	-3.1677303
99	0x40706241	3.755997
100	0xbe92680d	-0.2859501
101	0xbe994e84	-0.29942715
102	0xbf18ab88	-0.59636736
103	0xbfcb55ef	-1.58856
104	0x3eb30e2d	0.34971753
105	0xc066237f	-3.5959165
106	0xbf669f5e	-0.90086925
107	0xbf89018d	-1.0703598
108	0xbdc273c2	-0.09494735
109	0x409bd7cb	4.870092
110	0xc020d951	-2.513264
111	0x4071c4ff	3.7776487
112	0x3f1226de	0.57090557
113	0xbe1c6190	-0.15271592
114	0xbe881c8d	-0.26584283
115	0x3f2cd5d1	0.6751376
116	0x3f06d8a3	0.5267431
117	0xbf73805e	-0.9511775
118	0xc08d40d4	-4.4141636
119	0x3ea2be1a	0.3178566
120	0xbf29c208	-0.66311693
121	0xbd4ef1ec	-0.050523683
122	0x3e854de3	0.26035985
123	0xbf954ba2	-1.1663706
124	0xc08347da	-4.102521
125	0xbf85a707	-1.0441598
126	0xbf9444bb	-1.1583475
127	0x4020784a	2.5073419
128	0x3ee102bc	0.439474
129	0xbf7312ee	-0.9495076
130	0xbfe186c0	-1.7619247
131	0xbfc5a6ab	-1.5441488
132	0xbe9ff414	-0.31240904
133	0xbf2b2896	-0.66858804
134	0xbc938e94	-0.018012322
135	0xc00f6562	-2.240563
136	0xc08a5348	-4.322666
137	0xbe992fc2	-0.2991925
138	0xbfa19c07	-1.2625741
139	0x3f2a43f7	0.66509956
140	0xbf4c5f28	-0.79832697
141	0x3ffea159	1.9892989
142	0xbf714c2a	-0.9425684
143	0xbf9a8b6b	-1.2073797
144	0xbf1cabcb	-0.61199635
145	0x3f4819a5	0.7816413
146	0xbdc476d2	-0.09592976
147	0x401d6e35	2.4598515
148	0xbf59f6b3	-0.8514206
149	0xbee560a0	-0.44800282
150	0xbecc450d	-0.39896432
151	0xbf985c1f	-1.1903113
152	0x3ea5da15	0.32392946
153	0xbdfb6e52	-0.12276901
154	0x3eff4b29	0.4986203
155	0xbff81e79	-1.93843
156	0x3b92ab89	0.004476015
157	0x3ed6bac7	0.41939375
158	0xbf373220	-0.7156086
159	0x3f06560c	0.5247505
160	0xbfe982b8	-1.8243017
161	0xbe7e1110	-0.24811196
162	0xbf6e8d9f	-0.93184847
163	0x3fcc7d54	1.5975747
164	0x3da554e1	0.0807283
165	0xbf1cf028	-0.6130395
166	0xbf0e56ca	-0.5560118
167	0xc01d51ea	-2.4581246
168	0xbec8e8b9	-0.39240053
169	0xbd69ece3	-0.05711068
170	0xbf8c2100	-1.0947571
171	0xc07e2c60	-3.9714584
172	0xbfc8ae66	-1.5678222
173	0xbfb08460	-1.3790398
174	0xbeac93a7	-0.337064
175	0x3f872bf8	1.0560293
176	0xc006806a	-2.1015878
177	0xbf2a12d7	-0.66435
178	0xbfd3751a	-1.6520112
179	0xbf442770	-0.76622677
180	0xbf2f54f9	-0.68489033
181	0x3feb1451	1.8365575
182	0xbfc74383	-1.5567478
183	0xbf7ec0b3	-0.99512786
184	0xbf2f28a0	-0.68421364
185	0xbfd58f77	-1.6684407
186	0xbd981b14	-0.0742704
187	0x3eab1862	0.3341704
188	0x3ebf42bf	0.3735561
189	0x3fc0c8a7	1.5061234
190	0xc0bb9b26	-5.862689
191	0xbd267e7b	-0.040647965
192	0xbef81b65	-0.484584
193	0x4016e6d3	2.3578384
194	0xbf466d67	-0.77510685
195	0xbf16d79d	-0.5892275
196	0x3ea20571	0.31644776
197	0xbf921b2c	-1.1414542
198	0xbf5be8a1	-0.8590184
199	0xbedc39de	-0.430129
200	0xbf66b1dd	-0.9011515
201	0x3ea49c90	0.32150698
202	0xbfdb4600	-1.7130737
203	0xbfa07893	-1.2536796
204	0x3f025d77	0.50923866
205	0xbff05352	-1.8775427
206	0xbfd479b2	-1.6599638
207	0x40796e6e	3.897365
208	0x3d86beab	0.06579336
209	0xbf2f648d	-0.68512803
210	0xbe37f855	-0.17965825
211	0xbe9f058e	-0.31058925
212	0x3f03975c	0.5140283
213	0xc05c18a1	-3.4390032
214	0xc09a7b43	-4.8275466
215	0x3eab4c5a	0.3345669
216	0xbeae8b77	-0.34090778
217	0x3dfdfda5	0.124018945
218	0xbf152dd9	-0.5827308
219	0xc07d946a	-3.9621835
220	0xc089bfde	-4.3046713
221	0x3deb99ef	0.1150397
222	0xbf266796	-0.6500181
223	0x40025746	2.0365767
224	0x3f1e5db3	0.61861724
225	0x3edc9e2f	0.43089435
226	0xbf1ea283	-0.61966723
227	0xbfae67a0	-1.3625374
228	0xbfda73b8	-1.7066565
229	0xbe435aff	-0.19077681
230	0x3e9f1cb0	0.31076574
231	0xbe7986ab	-0.24367778
232	0xbf4358fc	-0.76307654
233	0xbfa88eef	-1.316862
234	0xbf2144ca	-0.6299559
235	0xbd192b5f	-0.037394878
236	0xbf50890f	-0.81459135
237	0xc0556018	-3.33399
238	0xbfb1638f	-1.3858508
239	0xbf8adbf8	-1.0848379
240	0xbeab6a65	-0.3347961
241	0x3f1a397f	0.6024398
242	0xbec55258	-0.38539386
243	0xc02f8e76	-2.7430701
244	0xbfcf5696	-1.6198299
245	0xba063677	-0.000511981
246	0xbe8865df	-0.2664022
247	0x3f04341b	0.51642007
248	0xbfb7c80e	-1.4357927
249	0x3f95d0b9	1.1704322
250	0x3f3f4ad0	0.7472353
251	0xbe761c2b	-0.24034183
252	0xbf52ad61	-0.82295805
253	0x3f190019	0.59765774
254	0xbed4425d	-0.4145688
255	0x3eda68ef	0.42658183

weight_hh f4 [240, 12]
0	0x3e1917bb	0.14950459
1	0xbf9754fa	-1.1822808
2	0xbf01ff1f	-0.5077991
3	0xbeca203c	-0.39477718
4	0x3f007dd0	0.50191975
5	0x3f21eae8	0.63249063
6	0x3e88f3f3	0.26748618
7	0xbf605a12	-0.87637436
8	0x3f1bc9ee	0.60854995
9	0x4036dafa	2.8571153
10	0x3f3b7ff6	0.7324213
11	0x3f4e9d00	0.80708313
12	0xbca1bf44	-0.019744523
13	0xbe18567f	-0.14876746
14	0x3dd0e0cc	0.101991266
15	0x3eff81a0	0.49903584
16	0xbe6522ff	-0.22376631
17	0xbeff0332	-0.49807125
18	0x3ef45997	0.47724602
19	0x3f0613e3	0.52374095
20	0x3e85a9b0	0.26106024
21	0xbee7a9d9	-0.4524677
22	0xbf944378	-1.158309
23	0x3f159808	0.58435106
24	0xbe97ff83	-0.29687127
25	0x3efdac2c	0.4954542
26	0x3f351597	0.7073607
27	0x3defb281	0.11703969
28	0xbefbc56e	-0.49174064
29	0xbf5bb86e	-0.8582829
30	0xbea33dfa	-0.31883222
31	0x3eca17bd	0.39471236
32	0xbf3c8603	-0.73641986
33	0x3dca14b9	0.09867234
34	0xbebcdce6	-0.36887282
35	0x3f01ebc7	0.5075039
36	0xbf029a16	-0.51016366
37	0x3d78d8ae	0.060753517
38	0x3f0f893e	0.5606879
39	0x3e7d6acf	0.24747775
40	0xbf2cd197	-0.6750731
41	0xbd4c495c	-0.04987465
42	0x3fd5d023	1.6704143
43	0x3f6586da	0.8965889
44	0xbf033eb3	-0.51267546
45	0xbfa795fe	-1.3092649
46	0xbeac5bbe	-0.33663744
47	0xbeb668c9	-0.3562682
48	0xbd98efc7	-0.07467609
49	0xc01073cc	-2.2570677
50	0xbf7601e3	-0.9609663
51	0x3c9717bb	0.018443933
52	0x3f8fcd2d	1.123449
53	0x4038276d	2.8774064
54	0xbe3876a5	-0.1801401
55	0xc024c1fa	-2.5743394
56	0x4022685a	2.537619
57	0x3f02879e	0.50988185
58	0x3fc1d74b	1.5143827
59	0xbfe03268	-1.7515383
60	0xbeb7d838	-0.3590715
61	0xbe8e8eb9	-0.27843264
62	0xbea80087	-0.32812902
63	0xbec80eb9	-0.39073732
64	0x3e26b815	0.16281159
65	0x3fe7a730	1.8097897
66	0x3e1c8aaf	0.15287279
67	0x3eba67ed	0.36407414
68	0xbf7f108a	-0.9963461
69	0xbeee3010	-0.46521044
70	0x3ef2b3b5	0.4740273
71	0x3e9b25b6	0.3030221
72	0xbf8cf7f7	-1.1013173
73	0x3f01b7e0	0.50671196
74	0x3e77a466	0.24183807
75	0xbf4b019f	-0.7929935
76	0xbfd6a6eb	-1.6769689
77	0xbea3cabe	-0.31990618
78	0x3fbc2f4c	1.4701934
79	0xbee83319	-0.45351484
80	0xbdc3f708	-0.09568602
81	0xbe2cf250	-0.1688931
82	0xbf562cad	-0.8366192
83	0xbc86de76	-0.0164635
84	0xbf039475	-0.513984
85	0xbeea5224	-0.45765793
86	0xbe75f947	-0.24020873
87	0xbddecf0b	-0.10879334
88	0x3e1af0d3	0.1513093
89	0x3f7b77d5	0.98229724
90	0xbf5e2a13	-0.8678295
91	0xbf42c570	-0.76082516
92	0x3f1ab550	0.6043291
93	0x3fb281ac	1.3945823
94	0xbf3efa94	-0.746011
95	0x3f17d339	0.59306675
96	0xbef0b0b2	-0.47009808
97	0x3ee39f11	0.44457296
98	0x3c86ade7	0.016440345
99	0x3e3f6016	0.18688998
100	0xbf1c4d51	-0.61055475
101	0xbf652762	-0.8951322
102	0x3f8b5a5a	1.0886948
103	0x3d5a21dc	0.053254947
104	0xbec98468	-0.3935883
105	0xbfe16ad4	-1.7610726
106	0xbf8286a9	-1.0197345
107	0x3ded26a8	0.11579639
108	0x3e280b11	0.16410471
109	0x3e981480	0.2970314
110	0x3fa3d69b	1.2799867
111	0x3f27ed7c	0.6559675
112	0xbe8d8177	-0.27637836
113	0x3dca83b8	0.098884046
114	0xbe1dc56f	-0.15407346
115	0x3f3f253c	0.7466619
116	0xbfdcf0bd	-1.7260967
117	0x3ddebc7a	0.10875793
118	0x3e373d68	0.17894518
119	0x3fdff007	1.7495126
120	0x3ee804a1	0.45316032
121	0xbf9f7967	-1.2458924
122	0xbf893ac4	-1.0721059
123	0x3f039873	0.51404494
124	0x3fa8d9da	1.3191483
125	0xbe3112d0	-0.17292333
126	0xbf0dc79f	-0.5538272
127	0xbe3677d0	-0.17819142
128	0x3dc3dab8	0.09563202
129	0x3fa2af2d	1.270971
130	0xbf73a83c	-0.9517858
131	0x4009fb86	2.1559768
132	0xbbf175f5	-0.007368798
133	0x3af6a93d	0.0018818747
134	0x3e7948af	0.24344133
135	0x3e291b5f	0.16514347
136	0xbebeee2a	-0.3729108
137	0xbec1a275	-0.37819257
138	0x3fa39904	1.2781072
139	0x3eabc208	0.33546472
140	0xbebdfd9d	-0.37107554
141	0xbf4736c4	-0.7781794
142	0xbf044132	-0.5166198
143	0x3d9c6344	0.07636121
144	0xbfa1f247	-1.2652062
145	0x40061ecc	2.0956297
146	0x3fbaa820	1.4582558
147	0xbf0ea948	-0.5572705
148	0xc0086963	-2.1314323
149	0xbf52c9ef	-0.82339376
150	0x3fa50518	1.289218
151	0x3d63fcc1	0.055660967
152	0x3d9b19e4	0.075732976
153	0x3dc2020b	0.09473046
154	0xbf093727	-0.5359978
155	0x3f23bb30	0.639575
156	0xbf510b46	-0.81657827
157	0xbe00d625	-0.1258169
158	0xbe1694ce	-0.14705202
159	0xbd2b503b	-0.04182456
160	0x3d9245f1	0.071422465
161	0x3f1a0ec8	0.60178804
162	0x3ed28b28	0.41121793
163	0x3dcdb19d	0.10043643
164	0xbee2de39	-0.44310167
165	0xbf4a1b00	-0.7894745
166	0xbdb6784b	-0.08909663
167	0xbefdee65	-0.49595943
168	0x3d56b104	0.05241491
169	0xbd16b4aa	-0.03679339
170	0x3e8b6630	0.272264
171	0x3d28978f	0.041160163
172	0xbeab5cbd	-0.3346919
173	0xbe8f00b7	-0.27930233
174	0x3fb1f326	1.3902328
175	0x3e39bb92	0.18137959
176	0xbf12ea34	-0.57388616
177	0xbf1a29fd	-0.6022032
178	0xbed23e57	-0.41063187
179	0xbe6cc639	-0.23122491
180	0xbf9dc77c	-1.2326503
181	0x3f24d81f	0.64392275
182	0x3f9abf06	1.2089546
183	0x3e4c6e0f	0.19963859
184	0xbf108880	-0.5645828
185	0xbe8429e7	-0.2581322
186	0x3dc19e2a	0.094539955
187	0x3f8c92f7	1.098235
188	0xbfc8b0eb	-1.5678991
189	0xbf93d0a3	-1.1548046
190	0x3e9a2d74	0.30112803
191	0xbc797211	-0.015224949
192	0xbf8f45b9	-1.1193153
193	0x3e4ad3ca	0.19807354
194	0x3ec56a83	0.38557824
195	0xbf3cef27	-0.7380242
196	0xbf09d10d	-0.5383461
197	0x3e463580	0.19356346
198	0x3f8e20e4	1.1103787
199	0xbd0f4574	-0.034978345
200	0xbf8e29f2	-1.1106551
201	0xbfb53b9d	-1.4158818
202	0xbfae9c4b	-1.3641447
203	0xbc121803	-0.008916858
204	0x3fd7d7ed	1.686277
205	0x3ebfdb5c	0.37472045
206	0xbdb63c1a	-0.08898182
207	0x3dedd07e	0.11612032
208	0xbf7b8933	-0.98256224
209	0xbf809577	-1.0045613
210	0x40130140	2.2969513
211	0x3fa842c4	1.3145375
212	0xc00466a5	-2.068765
213	0x3e5e9750	0.21737409
214	0x3ec893f9	0.39175394
215	0x3f81c319	1.0137664
216	0xbca243d7	-0.01980774
217	0x3eee0c0f	0.46493575
218	0x3e995928	0.29950833
219	0xbd86833a	-0.06567998
220	0xbf5bb9ac	-0.8583019
221	0xbf69c1a5	-0.91311103
222	0x40086027	2.1308687
223	0x3f5d5bad	0.8646801
224	0xbf02e464	-0.51129746
225	0xbe87c04b	-0.26513895
226	0xbe058bd8	-0.13041627
227	0x3f222371	0.6333533
228	0xbeff6874	-0.4988438
229	0x3ff4fed8	1.9140272
230	0x3f7ca559	0.986898
231	0xbe578636	-0.21047291
232	0xbf7140dd	-0.942396
233	0xbff9b8f6	-1.9509571
234	0xbc1e1248	-0.009647913
235	0x3e904fca	0.28185874
236	0xbf86b350	-1.0523472
237	0xbfdc3cf9	-1.7206107
238	0xbfc3771a	-1.5270722
239	0x3f3c7b67	0.736258
240	0xbf5aa203	-0.8540346
241	0x3e48f27c	0.1962375
242	0x3f325c7b	0.69672364
243	0x3f0320a3	0.51221675
244	0xbee84ac5	-0.45369545
245	0xbf125188	-0.57155657
246	0xbf0a1cd6	-0.5395025
247	0x3e719706	0.23592767
248	0x3d261399	0.040546034
249	0xbf16080b	-0.5860602
250	0xbebbb63e	-0.36662477
251	0x3d3432b5	0.04399367
252	0x3f5cccb9	0.8624988
253	0x3f35435d	0.70805913
254	0xbd85817f	-0.0651884
255	0x3e2aaea0	0.16668177

proj f4 [12, 60]
0	0x3e3bc5a8	0.18337119
1	0xbf4a10a5	-0.7893165
2	0xbe1c12cb	-0.15241544
3	0x3dea3ee2	0.11437775
4	0xbe3f5131	-0.18683316
5	0xbe4de76f	-0.20107816
6	0xbf4790db	-0.77955407
7	0xbe0ce699	-0.13759841
8	0xbe9ab199	-0.3021362
9	0x3f16154e	0.5862626
10	0xbd7f4804	-0.06232454
11	0xbf3a534f	-0.7278337
12	0x3ec6a327	0.3879635
13	0xbe1ad44a	-0.15120044
14	0x3f5ca42f	0.86188024
15	0xbd0e0a1f	-0.03467762
16	0xbeca9ef1	-0.39574388
17	0x3f0e7ca7	0.55658954
18	0x3f74d4ae	0.95637023
19	0xbd73db6f	-0.05953544
20	0x3eae8614	0.34086668
21	0x3f1f08dc	0.62122893
22	0x3eab4fb2	0.3345924
23	0x3dbef34e	0.093237504
24	0xbdb58024	-0.088623315
25	0xbefb4242	-0.49073988
26	0x3eac3a54	0.3363825
27	0x3f6ae2aa	0.9175211
28	0xbeec6895	-0.4617354
29	0xbeff4e19	-0.4986427
30	0xbf9246b9	-1.1427833
31	0x3d3a152f	0.04543036
32	0xbf2a2669	-0.6646486
33	0xbe8ab663	-0.27092275
34	0x3e38a5ed	0.18032046
35	0xbe9d3b79	-0.30709437
36	0xbea3b895	-0.31976762
37	0x3f7f5b5e	0.9974879
38	0xbf27317d	-0.6530989
39	0xbe7c14d2	-0.24617317
40	0xbdabb99c	-0.083850116
41	0x3e881c5c	0.26584136
42	0xbc82534b	-0.015908858
43	0xbd256f5c	-0.040389404
44	0x3e8de864	0.27716362
45	0xbf13398c	-0.57509685
46	0x3e9f9ac6	0.3117277
47	0xbeb1b2b8	-0.34706664
48	0xbeaa1bfb	-0.33224472
49	0xbde8c3c1	-0.11365462
50	0xbe074846	-0.13211164
51	0xbd466bcf	-0.048442658
52	0xbf2cc57e	-0.6748885
53	0xbef6e723	-0.48223218
54	0x3f2f3a9e	0.6844882
55	0xbe4de2c3	-0.20106034
56	0x3e229322	0.15876439
57	0x3d917f97	0.07104414
58	0xbd311c6c	-0.043239996
59	0xbc8bbe04	-0.01705838
60	0x3f253325	0.64531165
61	0xbef3bc28	-0.4760449
62	0x3f011c43	0.5043375
63	0x3dc79453	0.097450875
64	0x3dae9086	0.085236594
65	0x3e3f1cf1	0.18663384
66	0x3e3652f8	0.17805088
67	0xbdd69512	-0.10477652
68	0xbea7ce08	-0.32774377
69	0x3e9ea843	0.30987749
70	0xbf580ca8	-0.8439431
71	0xbf157cd9	-0.5839363
72	0x3eff950d	0.49918404
73	0xbe309c1e	-0.17247054
74	0x3f52b88e	0.8231286
75	0xbed69bb8	-0.4191568
76	0xbded4cd1	-0.11586917
77	0xbeb37190	-0.3504758
78	0x3e9d6cec	0.30747163
79	0xbe98368e	-0.29729122
80	0xbb2c0e03	-0.0026253469
81	0xbeaba58d	-0.33524743
82	0xbf66afef	-0.90112203
83	0x3ccb148a	0.024790067
84	0xbeed9f6c	-0.46410692
85	0x3df9c174	0.121951014
86	0x3d89d15c	0.06729385
87	0x3cac8772	0.02106068
88	0x3ec2f6be	0.38078874
89	0x3f03c934	0.51478887
90	0xbe511c1c	-0.20420879
91	0xbf164ff3	-0.5871574
92	0xbe6d54af	-0.23176835
93	0xbda7326e	-0.081639156
94	0x3f83a1f3	1.0283798
95	0x3e0f7920	0.1401105
96	0xbe711fc6	-0.23547277
97	0x3e88d873	0.26727638
98	0x3f820436	1.0157535
99	0x3ec6aea9	0.3880513
100	0xbf504c8d	-0.8136681
101	0xbd62b33e	-0.05534672
102	0xbe606f7a	-0.21917525
103	0xbd650313	-0.055911135
104	0x3ddf2ed5	0.108976044
105	0xbd888032	-0.06665076
106	0xbe238e35	-0.15972216
107	0xbd68e160	-0.05685556
108	0x3f4cd0b9	0.80005985
109	0xbdfaceb0	-0.12246454
110	0x3f31ed45	0.6950267
111	0xbe5bb423	-0.21455435
112	0x3f383df2	0.7196952
113	0x3f38ad4d	0.72139436
114	0x3e4cf9f9	0.20017232
115	0xbe05c8cd	-0.1306488
116	0xbe98a882	-0.2981606
117	0x3e9cc63c	0.3061999
118	0x3d70652f	0.058690246
119	0xbf1f292b	-0.6217219
120	0x3e8668c9	0.2625182
121	0xbe29026c	-0.1650483
122	0x3d8532b1	0.06503809
123	0x3ebd755b	0.37003598
124	0x3eb4ce09	0.35313442
125	0xbe829ba6	-0.25509375
126	0xbeefab42	-0.46810347
127	0xbf174003	-0.5908205
128	0xbdaed67e	-0.08537005
129	0x3e77cfe2	0.24200395
130	0xbeaf5bdf	-0.3424978
131	0xbe9f61cf	-0.3112931
132	0x3f1d14ef	0.6136007
133	0x3e03f43a	0.12886134
134	0x3ed424b7	0.4143426
135	0xbed4b2aa	-0.4154256
136	0xbedcb51d	-0.43106928
137	0xbc9f4ae0	-0.019444883
138	0x3f24c695	0.6436551
139	0xbebb8736	-0.36626595
140	0x3e577c4b	0.21043508
141	0xbe73dc32	-0.23814467
142	0xbe472359	-0.19447078
143	0x3e807dbb	0.25095925
144	0xbec70d4e	-0.38877338
145	0xbf5ce240	-0.8628273
146	0xbf15a49e	-0.5845431
147	0xbf090127	-0.53517383
148	0x3ef93eee	0.48680824
149	0x3f105b40	0.56389236
150	0x3eb54168	0.35401464
151	0xbe599cef	-0.21251272
152	0xbea68b14	-0.32527983
153	0xbe7c2aee	-0.24625751
154	0xbcf8c827	-0.030368878
155	0x3c8a7ae2	0.016904298
156	0x3ed47ab7	0.41499874
157	0xbcd4e749	-0.025989192
158	0x3ed8142d	0.42202893
159	0x3dbeee3b	0.093227826
160	0xbe4523c1	-0.1925192
161	0xbd8f5c05	-0.06999973
162	0xbe3f67d6	-0.18691954
163	0x3dd8dd9d	0.105891444
164	0x3e59d85a	0.21273938
165	0x3e931e73	0.28734168
166	0x3e83e35a	0.25759393
167	0x3f8d9578	1.1061239
168	0xbe0cab64	-0.13737255
169	0x3e385dff	0.18004607
170	0xbd32f504	-0.043690696
171	0xbe369575	-0.17830451
172	0x3eda9859	0.42694357
173	0x3e82ba89	0.2553294
174	0xbbb8d7ac	-0.0056409445
175	0x3e8e7e0c	0.2783054
176	0xbeb0f554	-0.3456217
177	0x3e642849	0.22280993
178	0xbea6c721	-0.32573798
179	0x3b2eed52	0.0026691747
180	0xbf102dce	-0.5631989
181	0xbe8260d1	-0.2546449
182	0x3c5353f2	0.012898432
183	0xbe7b2fab	-0.24529903
184	0x3e8cb989	0.27485302
185	0x3e1d1b56	0.15342459
186	0xbe9e7f4c	-0.30956495
187	0xbeb8f2a3	-0.36122617
188	0x3ea57e61	0.32322982
189	0x3e66d31f	0.22541474
190	0xbee34fb9	-0.4439676
191	0x3d6d330c	0.05791001
192	0xbe7a59f9	-0.24448384
193	0xbe9837b2	-0.29729992
194	0x3ebbe9b9	0.36701754
195	0xbe8fb35c	-0.28066528
196	0x3f1c40b0	0.61036205
197	0x3ebfef6a	0.37487346
198	0x3ed08ca4	0.407323
199	0xbf1fb9f3	-0.6239311
200	0xbdc874b0	-0.097878814
201	0x3d11377f	0.035453316
202	0xbe22c7f2	-0.15896586
203	0x3c363e73	0.0111232875
204	0xbea6a496	-0.32547444
205	0xbed4bbda	-0.4154957
206	0xbe60db42	-0.2195864
207	0xbeebaa9e	-0.46028608
208	0xbd0bca1e	-0.0341283
209	0xbf3ab7a4	-0.72936463
210	0xbf0eb1fc	-0.5574033
211	0x3ae31a54	0.0017326572
212	0xbeb5f153	-0.35535678
213	0xbde4cfb1	-0.111724265
214	0xbf327a5c	-0.69717956
215	0xbda34e25	-0.07973889
216	0x3f276837	0.65393394
217	0x3e7a9b38	0.24473274
218	0x3ec17730	0.37786245
219	0xbf019add	-0.5062693
220	0xbe4ea487	-0.2017995
221	0xbe112b4b	-0.14176671
222	0x3eddbf01	0.43309787
223	0xbeda9cf9	-0.42697886
224	0x3d60c7e0	0.054878116
225	0x3e681282	0.2266331
226	0x3ead78c4	0.338812
227	0xbe523422	-0.205277
228	0x3f0827b6	0.53185594
229	0xbec2fdf8	-0.38084388
230	0x3d0fd8fe	0.03511905
231	0x3d56bd4a	0.052426614
232	0xbd95b791	-0.07310403
233	0x3f3c3f77	0.7353434
234	0xbdd99f1c	-0.10626051
235	0xbf4a1085	-0.78931457
236	0xbea5de8a	-0.32396346
237	0x3d6dc10a	0.058045425
238	0xbe9fa112	-0.31177574
239	0xbeb4ccd0	-0.3531251
240	0xbf821034	-1.0161195
241	0x3d02ee0b	0.031965297
242	0xbd122dab	-0.035688084
243	0xbe8c06fe	-0.27349085
244	0x3f06c05f	0.52637285
245	0x3ed63748	0.4183905
246	0x3cb34ded	0.021887744
247	0x3e19e992	0.15030506
248	0x3df8f457	0.12155979
249	0xbe2d88b3	-0.16946678
250	0x3f1c8c19	0.6115127
251	0x3ecf3747	0.4047186
252	0xbeba10b5	-0.3634087
253	0xbe28ad41	-0.16472341
254	0xbea330a1	-0.31873038
255	0x3e3d06c6	0.18459615

bias_ih f4 [240]
0	0xbf4354a3	-0.7630102
1	0xbdbe560d	-0.09293757
2	0xbe2602a0	-0.16211939
3	0xbf1e8848	-0.619267
4	0xbf747100	-0.95484924
5	0xbf754c11	-0.95819193
6	0xbe50de67	-0.2039734
7	0xbebecc2e	-0.37265152
8	0xbdea5bc0	-0.11443281
9	0xbee3a75c	-0.44463623
10	0xbdce0d00	-0.10061073
11	0xbebfece5	-0.37485424
12	0xbe456fef	-0.1928098
13	0xbefbdf9e	-0.49194044
14	0xbdfbbbb9	-0.12291665
15	0xbefff58a	-0.4999202
16	0xbe95ff05	-0.29296127
17	0xbf2d5727	-0.6771111
18	0x3e4868a0	0.19571161
19	0xbdf9dfbe	-0.122008786
20	0xbeb58f36	-0.35460824
21	0xbf11ae11	-0.5690623
22	0xbe1a5e7e	-0.15075108
23	0xbfc7c6f9	-1.5607597
24	0xbf2cc072	-0.6748115
25	0xbeccf483	-0.40030298
26	0xbeb26275	-0.34840742
27	0xbea89e99	-0.329335
28	0xbf0b9db2	-0.545375
29	0xbf207466	-0.6267761
30	0xbf1baba0	-0.60808754
31	0x3d065cd8	0.032803386
32	0xbf11440f	-0.56744474
33	0xbf8727c9	-1.0559016
34	0xbeb1c895	-0.34723344
35	0xbe043f80	-0.12914848
36	0xbf084381	-0.53228
37	0xbea1b147	-0.31580564
38	0xbec00c3f	-0.37509343
39	0xbf852b26	-1.0403793
40	0xbe8468de	-0.25861257
41	0xbeadc677	-0.3394048
42	0xbf4a9256	-0.7912954
43	0xbef54866	-0.47906798
44	0xbf2256c9	-0.63413674
45	0xbf044f3e	-0.51683414
46	0xbda9e387	-0.082953505
47	0xbf187d18	-0.5956588
48	0xbef9b3a6	-0.48769873
49	0xbf440724	-0.76573396
50	0xbc5a4b7c	-0.013323661
51	0xbe9898b9	-0.29804018
52	0xbf5a3634	-0.8523896
53	0xbf487c79	-0.7831493
54	0xbf406c7b	-0.7516553
55	0xbe8f6be5	-0.28012004
56	0xbeee7a2e	-0.4657759
57	0xbecf7e6f	-0.4052615
58	0xbdf2e225	-0.1185954
59	0xbf205ed3	-0.6264469
60	0xbe9922aa	-0.2990926
61	0x3e1f49c7	0.15555488
62	0xbd62072d	-0.055182625
63	0xbe009d52	-0.12560013
64	0x3f983a38	1.1892767
65	0xbcf71226	-0.030160021
66	0x3ebc4c27	0.3677685
67	0xbd1637db	-0.03667436
68	0x3dc3aff4	0.09555045
69	0xbf37d1b6	-0.7180437
70	0xbecb987d	-0.39764777
71	0xbef1d6ca	-0.47234184
72	0x3cb7099f	0.022343455
73	0x3e5acd0d	0.21367283
74	0xbe134a74	-0.1438387
75	0xbf18843f	-0.5957679
76	0x3eaeb33d	0.34121123
77	0x3e6c7701	0.23092271
78	0xbd8078c2	-0.06273033
79	0xbe58bc91	-0.21165682
80	0x3e40b1f3	0.18817882
81	0xbdeeb61c	-0.11655828
82	0xbee09fd2	-0.43871933
83	0xbf120481	-0.5703812
84	0x3f889a1c	1.067203
85	0x3f2d391c	0.67665267
86	0x3ecf3af2	0.4047466
87	0x3e1ea2a5	0.15491731
88	0xbdb17425	-0.08664731
89	0x3face5d5	1.3507639
90	0xbf44ff16	-0.7695173
91	0xbe0f98b9	-0.14023103
92	0xbfc4cee5	-1.5375639
93	0xbf69b5b7	-0.912929
94	0xbe229fdf	-0.15881298
95	0xbe7f27c3	-0.24917512
96	0xbf66c0ff	-0.9013824
97	0x3e983489	0.2972758
98	0xbe0ba02e	-0.13635322
99	0x3ed10902	0.40827185
100	0x3c39c25a	0.011337841
101	0xbc1477db	-0.009061779
102	0x3f1458c8	0.5794797
103	0xbf1858d0	-0.5951052
104	0xbe9e3953	-0.3090311
105	0xbf8d3f14	-1.1034875
106	0x3dc9354f	0.09824621
107	0xbf6ba68b	-0.92051
108	0x3ebca247	0.36842558
109	0xbfca4474	-1.580214
110	0xbea99905	-0.33124557
111	0xbf76a84e	-0.9635056
112	0x3e971b95	0.2951323
113	0xbebdd116	-0.37073582
114	0x3e229387	0.1587659
115	0xbea68328	-0.3252194
116	0x3e0c0166	0.13672408
117	0xbf0dda52	-0.55411255
118	0x3f3e51df	0.74343675
119	0x3fb989e8	1.4495211
120	0x3d5b9514	0.05360897
121	0x3d83e059	0.06439275
122	0xbe484dcc	-0.19560927
123	0x3dedd66f	0.116131656
124	0x3d3d721e	0.04625141
125	0x3cb5edff	0.022208212
126	0xbe37b9dc	-0.17941993
127	0x3daceca8	0.08443576
128	0x3dbd0a93	0.092305325
129	0x3e35f0eb	0.17767684
130	0xbd59cd16	-0.0531741
131	0xbdef30e1	-0.11679245
132	0xbe13701b	-0.14398234
133	0xbcfc7f4a	-0.030822415
134	0x3e8391ab	0.25697073
135	0x3db57aee	0.088613376
136	0xbd4ebc76	-0.0504727
137	0xbd917938	-0.07103199
138	0x3da523eb	0.080634914
139	0x3e1db315	0.15400346
140	0xbe75b482	-0.2399464
141	0x3df9ea10	0.12202847
142	0x3dcf52e9	0.10123236
143	0x3ca47df7	0.020079596
144	0x3e63d5e0	0.22249556
145	0x3e49f07f	0.19720648
146	0x3e741ba5	0.2383867
147	0x3edf5317	0.4361808
148	0xbe6a6b35	-0.22892459
149	0xbe13e5cb	-0.14443128
150	0xbe796acc	-0.24357146
151	0x3e92ac75	0.286472
152	0x3c93b5de	0.018031057
153	0x3dd43f5d	0.10363648
154	0x3bb0cd98	0.0053956024
155	0xbe4acea2	-0.19805387
156	0xbea602e1	-0.3242407
157	0x3ec162c2	0.3777066
158	0xbeb9fa83	-0.36323938
159	0xba13e5c2	-0.00056418416
160	0x3e0985bc	0.13429922
161	0xbcdfe6d7	-0.027331753
162	0x3c3427c1	0.010995806
163	0xbe029407	-0.1275178
164	0xbd8a3d2b	-0.06749948
165	0xbe222e14	-0.1583789
166	0x3e32785f	0.1742873
167	0xbe7176b2	-0.23580435
168	0x3da43158	0.08017224
169	0xbd98def9	-0.07464404
170	0xbddcf6db	-0.107892714
171	0x3d88a660	0.066723585
172	0xbe8ab01a	-0.2708748
173	0xbdcbb900	-0.09947395
174	0xbd191196	-0.037370287
175	0xbd4bb620	-0.049734235
176	0x3e075e72	0.13219622
177	0xbdc5b857	-0.09654301
178	0x3e358103	0.17724995
179	0xbdd067ba	-0.10176034
180	0xbf2b985e	-0.6702937
181	0xbe994482	-0.2993508
182	0xbe204030	-0.15649486
183	0xbf5726ee	-0.84043777
184	0x3e1363b6	0.14393505
185	0xbf1ed92b	-0.6205012
186	0x3e1104b4	0.1416195
187	0xbeea820f	-0.45802352
188	0xbe5af405	-0.21382149
189	0xbf0c5078	-0.54810286
190	0xbd57e046	-0.05270412
191	0xbef8ad26	-0.48569602
192	0xbd4e177e	-0.050315373
193	0xbece11a9	-0.4024785
194	0xbe6dff3e	-0.23241898
195	0xbf3dda1c	-0.74160933
196	0xbed7e9da	-0.42170602
197	0xbebe8f58	-0.37218738
198	0x3e7a6a94	0.24454719
199	0xbe3f0256	-0.18653235
200	0xbef7b1e9	-0.48377922
201	0xbef3853e	-0.47562593
202	0xbd93c185	-0.07214645
203	0xbfbae181	-1.4600068
204	0x3e2a1c29	0.16612305
205	0xbeb9565c	-0.361987
206	0xbea005e8	-0.31254506
207	0xbe542c68	-0.20720065
208	0xbf0b43ce	-0.54400337
209	0x3dc757f2	0.09733571
210	0xbf2741f6	-0.65335023
211	0x3e2245d3	0.15846948
212	0xbf2ff08b	-0.68726414
213	0xbf8f352b	-1.11881
214	0x3e96c872	0.29449803
215	0xbe60ae6e	-0.2194154
216	0xbf043195	-0.51638156
217	0xbef982b5	-0.48732534
218	0xbef58bfd	-0.47958365
219	0xbe50f5eb	-0.2040631
220	0xbecde721	-0.402154
221	0xbebe4b9e	-0.37167066
222	0xbec2cdb1	-0.38047555
223	0xbf15061a	-0.58212435
224	0xbed052b0	-0.40688086
225	0xbefd8a74	-0.49519694
226	0xbdeb4f64	-0.11489752
227	0xbf37da8c	-0.7181785
228	0xbeb55a8e	-0.3542065
229	0xbf4dde7e	-0.8041762
230	0xbbdc9aef	-0.0067323367
231	0xbef51394	-0.478665
232	0xbdf0c87e	-0.11756991
233	0xbee6432b	-0.4497312
234	0xbf1c1280	-0.6096573
235	0x3de5bfda	0.112182334
236	0xbebc8e34	-0.36827242
237	0xbe949579	-0.2902029
238	0x3cb7b24c	0.022423886
239	0xbe550069	-0.20800938

bias_hh f4 [240]
0	0xbf5ccf3f	-0.8625373
1	0xbe2e416b	-0.17017142
2	0xbdfcb672	-0.12339486
3	0xbf2d4572	-0.6768409
4	0xbf760467	-0.9610047
5	0xbf478994	-0.779443
6	0xbd1a94f9	-0.037739728
7	0xbf11d3ee	-0.56964004
8	0xbe4fd939	-0.20297708
9	0xbececcca	-0.40390617
10	0xbe790302	-0.24317554
11	0xbea6f90f	-0.32611892
12	0xbe4c7c71	-0.19969346
13	0xbeaf4192	-0.34229714
14	0xbd7d0333	-0.06177063
15	0xbf2ed10d	-0.68287736
16	0xbe8ca4c3	-0.27469453
17	0xbf4c5612	-0.7981883
18	0x3e8dbd90	0.27683687
19	0x3d4eeae6	0.050516985
20	0xbf096d5c	-0.53682494
21	0xbf07251b	-0.52790993
22	0xbe2ef47f	-0.17085455
23	0xbfc378a8	-1.5271196
24	0xbf42c040	-0.760746
25	0xbee822fc	-0.4533919
26	0xbf090427	-0.5352196
27	0xbea3e864	-0.32013237
28	0xbf247f1f	-0.6425647
29	0xbf28532c	-0.6575191
30	0xbef4bffd	-0.47802725
31	0x3d1fc7f4	0.03900905
32	0xbf26c485	-0.65143615
33	0xbf82e0e5	-1.0224882
34	0xbe6c38e9	-0.23068585
35	0xbe66f1c9	-0.22553171
36	0xbeceb3ba	-0.40371495
37	0xbeb471bc	-0.35243022
38	0xbf11dd94	-0.56978726
39	0xbf89e793	-1.0773796
40	0xbe6f842d	-0.23390265
41	0xbe6bdd9b	-0.23033755
42	0xbf3b63a7	-0.7319893
43	0xbf0dad91	-0.55342966
44	0xbf05c3cf	-0.52251905
45	0xbec7ca5e	-0.3902158
46	0x3c918ccb	0.01776733
47	0xbf0ac874	-0.5421212
48	0xbf095737	-0.53648704
49	0xbf31ab4b	-0.69402
50	0x3e093f3c	0.13403028
51	0xbeada67a	-0.33916074
52	0xbf6cac3f	-0.92450327
53	0xbf534622	-0.8252889
54	0xbf33d9a8	-0.7025399
55	0xbedec408	-0.43508935
56	0xbed45847	-0.414736
57	0xbeed549f	-0.46353623
58	0xbdd4f9e2	-0.10399224
59	0xbf5cfa58	-0.86319494
60	0xbe39e124	-0.1815229
61	0x3e7233fa	0.2365264
62	0xbe3acb0d	-0.1824152
63	0xbeb45fae	-0.35229248
64	0x3f9889e1	1.1917077
65	0x3dfb2679	0.122631975
66	0x3ee9329b	0.4554642
67	0xbe6d59db	-0.23178808
68	0x3e02ee35	0.12786181
69	0xbf0ac4b0	-0.5420637
70	0xbedf5f47	-0.43627378
71	0xbeba1777	-0.36346027
72	0x3e3237cb	0.17404096
73	0x3e6c3c35	0.23069842
74	0xbe69a84a	-0.22818103
75	0xbeeffa05	-0.46870437
76	0x3ec3de1c	0.38255394
77	0x3dd13d30	0.10216749
78	0x3e23300c	0.15936297
79	0xbe91126c	-0.28334367
80	0x3e076acd	0.13224335
81	0xbe438a07	-0.19095622
82	0xbf01b814	-0.50671506
83	0xbf37cc5d	-0.7179621
84	0x3f5bd7ac	0.85875964
85	0x3f1ae6da	0.605085
86	0x3f027df6	0.5097345
87	0x3e494dd6	0.19658598
88	0xbd957e00	-0.07299423
89	0x3fc03fa6	1.5019424
90	0xbf3d92c3	-0.74052066
91	0xbcda358a	-0.026636858
92	0xbfbfd241	-1.4986039
93	0xbf90f74e	-1.1325471
94	0xbd88e929	-0.06685097
95	0xbd09e11a	-0.03366194
96	0xbf80559d	-1.0026127
97	0x3e8ef9fc	0.27925098
98	0xbe8356bf	-0.2565212
99	0x3ec5a076	0.38598984
100	0xbc695119	-0.014240527
101	0x3d9bea80	0.07613087
102	0x3f4378b6	0.76356065
103	0xbee5e1f9	-0.44898966
104	0xbebe088b	-0.37115893
105	0xbf8fe5e5	-1.1242033
106	0x3d964045	0.07336477
107	0xbf45303a	-0.7702671
108	0x3e8de8c7	0.27716658
109	0xbfd939ee	-1.6970804
110	0xbe8771bc	-0.2645396
111	0xbf80c822	-1.0061076
112	0x3e269a64	0.16269833
113	0xbeacabf8	-0.33724952
114	0x3d950e41	0.07278109
115	0xbe972ab8	-0.2952478
116	0x3d8141d9	0.063113876
117	0xbf09a4c7	-0.53767055
118	0x3f4bb8aa	0.7957865
119	0x3fb5913d	1.4184948
120	0x3cb91fb7	0.02259813
121	0x3d90c395	0.07068554
122	0xbdcdda09	-0.100513525
123	0xbcc751fc	-0.024331085
124	0xbd6729f7	-0.056436505
125	0xbd512c04	-0.051067367
126	0xbe0640f3	-0.13110714
127	0x3cefad81	0.029257538
128	0x3d990e7d	0.074734665
129	0x3e17fa9e	0.14841697
130	0x3bc6788e	0.0060568517
131	0xbd85dc0e	-0.06536113
132	0xbe46defb	-0.19420998
133	0xbd91764b	-0.07102641
134	0x3d619f32	0.05508346
135	0x3db34655	0.08753649
136	0xbdec40b6	-0.1153578
137	0xbdbee418	-0.09320849
138	0x3e04a170	0.12952209
139	0x3cf19166	0.029488277
140	0xbe82ba2a	-0.25532657
141	0x3e9be862	0.30450732
142	0xbcbb474f	-0.022861151
143	0x3d2b0fec	0.04176323
144	0x3e1dbb36	0.15403447
145	0x3e8a9a56	0.27070874
146	0x3d9ecd31	0.07753981
147	0x3ee43889	0.44574383
148	0xbe4d72c8	-0.20063317
149	0xbe210464	-0.15724331
150	0xbe639fc5	-0.22228916
151	0x3e46e332	0.19422606
152	0x3cc26154	0.02372805
153	0x3db91d16	0.09038751
154	0x3e58c2cf	0.21168064
155	0xbe6b129f	-0.22956322
156	0xbe859dbe	-0.2609691
157	0x3e3cd27c	0.18439668
158	0xbe475fd3	-0.19470148
159	0xbe7a7590	-0.24458909
160	0x3e74d54b	0.2390949
161	0xbcc988d2	-0.024601374
162	0x3da4ad5b	0.080408774
163	0xbdad35d2	-0.08457531
164	0xbd78cad1	-0.060740296
165	0xbe445d4e	-0.19176218
166	0x3e668341	0.22511007
167	0xbe380544	-0.17970759
168	0x3e56bf63	0.20971446
169	0xbca033f9	-0.019556032
170	0xbe8101c0	-0.25196648
171	0x3e4fcd7e	0.20293233
172	0xbdba13c3	-0.090858005
173	0xbe187527	-0.1488844
174	0x3d8a291f	0.067461245
175	0xbd809fe8	-0.062805
176	0x3dfe7243	0.124241374
177	0xbe4c041a	-0.1992344
178	0x3e57675a	0.21035519
179	0xbe403fba	-0.1877431
180	0xbf2928e9	-0.6607805
181	0xbe6d894c	-0.23196906
182	0xbe76a77b	-0.24087326
183	0xbf546540	-0.82966995
184	0x3e24900d	0.16070576
185	0xbf31499b	-0.6925294
186	0x3de76f0a	0.11300476
187	0xbee7bb21	-0.45259956
188	0xbd92fab0	-0.07176721
189	0xbf063e5b	-0.52438897
190	0xbe3fb626	-0.18721828
191	0xbe91f6d6	-0.28508633
192	0xbe4601d5	-0.19336636
193	0xbea805b3	-0.32816848
194	0xbe0060ba	-0.12536898
195	0xbf29b135	-0.6628602
196	0xbea35bc5	-0.31905952
197	0xbe453e6d	-0.19262095
198	0x3e6b5a95	0.22983773
199	0xbcb1a413	-0.021684682
200	0xbeefeab9	-0.46858767
201	0xbf2780a5	-0.6543067
202	0xbe346b40	-0.17619038
203	0xbfc0aed3	-1.5053352
204	0x3dab023e	0.08350037
205	0xbeab175d	-0.33416262
206	0xbd919a2c	-0.07109484
207	0xbdfcccdb	-0.123437606
208	0xbf060b92	-0.52361405
209	0xbdad66f6	-0.08466904
210	0xbefb4853	-0.49078616
211	0x3dde522e	0.10855518
212	0xbf23f317	-0.640428
213	0xbf768393	-0.96294516
214	0x3eb4502c	0.35217416
215	0xbd7db465	-0.061939616
216	0xbf1ab232	-0.60428154
217	0xbec9130b	-0.3927234
218	0xbec314e6	-0.38101882
219	0xbe231e46	-0.15929517
220	0xbedb9aa1	-0.4289141
221	0xbec3c198	-0.38233638
222	0xbece05b8	-0.40238738
223	0xbee9fe2d	-0.45701733
224	0xbf137446	-0.57599294
225	0xbedb8b9b	-0.42879948
226	0xbde6c86d	-0.11268697
227	0xbf29ed50	-0.66377735
228	0xbef84537	-0.48490307
229	0xbf5d4147	-0.8642773
230	0x3d1dc7a7	0.03852048
231	0xbeac4866	-0.33648986
232	0xbe5e71fe	-0.21723172
233	0xbef4e8dd	-0.4783391
234	0xbf1c1ca4	-0.609812
235	0xbcac32af	-0.021020262
236	0xbeb143f9	-0.34622172
237	0xbeb15474	-0.34634745
238	0x3ca409a4	0.020024128
239	0xbe357082	-0.177187

weight f4 [3, 12]
0	0x3dec6b2c	0.11543879
1	0x3e073b45	0.13206203
2	0xbf149c39	-0.58050877
3	0x3e1a811d	0.15088315
4	0xbebe057e	-0.37113565
5	0xbe8f97ea	-0.2804559
6	0xbed41dff	-0.41429135
7	0xbe0dd69c	-0.13851398
8	0x3e181107	0.14850245
9	0xbe18e84a	-0.14932361
10	0xbe045bb1	-0.12925602
11	0x3ed649dd	0.41853228
12	0xbe249672	-0.16073015
13	0xbcf2f6a0	-0.029658616
14	0x3dff7aa3	0.12474563
15	0xbe7e475d	-0.2483191
16	0x3e3ee6ad	0.18642683
17	0x3e4e0253	0.20118074
18	0xbd5d7b14	-0.054072455
19	0x3d3ea390	0.046542704
20	0x3dd822a9	0.10553486
21	0xbe3102fb	-0.17286293
22	0xbc566a0c	-0.013086807
23	0xbc7e4f64	-0.015521858
24	0x3d504600	0.050848007
25	0xbd6a540e	-0.057209067
26	0x3ed702eb	0.41994414
27	0x3d9f4b2c	0.0777801
28	0x3e348f0f	0.17632698
29	0x3db92e7f	0.090420716
30	0x3ef2b565	0.47404018
31	0x3dc259dc	0.094897956
32	0xbe52c1dd	-0.20581765
33	0x3e981fb0	0.29711676
34	0x3e1fe42b	0.15614383
35	0xbecf72b0	-0.40517187

bias f4 [3]
0	0x3f659529	0.89680725
1	0xbcdb453a	-0.026766408
2	0x3e05353f	0.13008593
