models/paramsearch_0.009999999999996881_0.9483529509473426_0.9999899999999826_10.pt (torch, 33112 bytes, 7 tensors)

weight_ih f4 [240, 6]
000000 93 75 2c bf 03 60 b4 be a4 cc 9c be 20 7c 81 bf
       -0.67366904 -0.352295 -0.30624878 -1.0116005
000010 65 9b e8 bf 36 25 1b bf fa 04 30 bf 75 b2 97 be
       -1.8172423 -0.60603654 -0.68757594 -0.2962834
000020 75 6d 2e bf 57 d2 01 c0 37 91 f9 bf 65 9a 87 bf
       -0.6813577 -2.0284631 -1.9497441 -1.0593992
000030 0b 27 9f be 84 8e 2b 3f d9 a2 de bd f7 b4 a4 c0
       -0.31084475 0.67014337 -0.108709045 -5.1470904
000040 21 24 bc bf 12 38 40 bf c4 76 1f bf ac d7 07 40
       -1.4698526 -0.75085557 -0.62290597 2.1225386
000050 62 f4 09 3f 5a 92 24 3f 6f 90 01 c0 eb 8b 2e bd
       0.53888524 0.64285815 -2.0244405 -0.042613905
000060 e8 a0 60 bf 26 23 bc bf 60 1e 3b bf 29 20 fe 3d
       -0.87745523 -1.4698226 -0.73093224 0.12408478
000070 03 81 22 be 70 bf 4b bf fd 95 52 bf 65 27 b7 3f
       -0.15869527 -0.79588985 -0.82260114 1.4308897
000080 6a 1e 85 3f ac c5 10 c1 66 4d af c0 61 59 d5 3c
       1.0399907 -9.04826 -5.478198 0.026043596
000090 e4 65 42 bf 22 9e 85 3f 4b 19 14 bf ea 15 cb c0
       -0.7593672 1.0438883 -0.57851094 -6.346425
0000a0 57 78 83 c0 0c 55 9e be bc b6 ab bf 39 2d be bf
       -4.10844 -0.3092426 -1.3415141 -1.4857551
0000b0 20 36 a7 3e 40 c0 a4 bf ea a9 e4 3f 5e 85 c4 bf
       0.32658482 -1.287117 1.7864354 -1.53532
0000c0 b1 34 3e bf 7c 47 a6 be 46 d5 4e bf 2c 28 f6 bf
       -0.7429915 -0.32476413 -0.8079418 -1.923101
0000d0 45 2c b0 bd 9d 7b 6b bf 16 e2 c9 be dc c8 14 bf
       -0.08602194 -0.91985494 -0.39430302 -0.5811899
0000e0 61 cf 87 be 76 28 a9 bf f8 48 25 c0 c1 ec 27 bf
       -0.26525405 -1.3215473 -2.5825787 -0.6559563
0000f0 07 96 45 bf 14 4c 7e bf 82 32 eb bd 84 6b 30 c0
       -0.7718205 -0.99334836 -0.11484243 -2.7565622
000100 b3 fa b5 bf f0 e0 30 3b 83 a5 6e bf 93 51 60 be
       -1.4217132 0.0026989542 -0.932213 -0.21906118
000110 ec f9 ec 3d 84 29 bc bf 14 3a 46 c0 dc 6d fe be
       0.11571106 -1.470017 -3.0972948 -0.4969319
000120 55 b5 c6 be 29 18 03 c0 06 ad 97 bf 3d 76 25 40
       -0.3881022 -2.0483496 -1.1849678 2.5853417
000130 06 ea 2f bf 86 82 f7 be f9 b2 24 bf b0 88 15 bf
       -0.68716466 -0.4834177 -0.6433559 -0.58411694
000140 66 02 6e bf 42 48 0a c0 24 2e 56 bf 29 b1 60 bf
       -0.9297241 -2.1606603 -0.83664155 -0.87770325
000150 61 98 10 bf dc 72 82 be d8 3f d9 be 87 f0 6b be
       -0.5648251 -0.25478256 -0.4243152 -0.23040973
000160 1a 84 a9 bf ab be 33 bf c8 48 40 bf 2f 39 2c bf
       -1.3243439 -0.7021281 -0.75111055 -0.67274755
000170 f0 4f 4c 3e 09 2b 05 c0 ff f3 f1 bf e1 a5 ae bf
       0.19952369 -2.0807517 -1.8902587 -1.3644372
000180 57 ee 0d bf d0 d8 4e be f4 d4 af bf 77 18 af bf
       -0.554418 -0.20199895 -1.3736863 -1.3679341
000190 bf 09 12 bf 71 ec 42 bf a7 12 1c bf 8f bb 76 bf
       -0.5704612 -0.7614203 -0.6096596 -0.9637994
0001a0 c9 bf 95 bf be ec 07 c0 5c 33 70 bf f0 bd 3b bf
       -1.1699153 -2.1238246 -0.9382837 -0.73336697
0001b0 cd 83 a0 3e 00 49 a7 c0 5e 06 36 c0 0e 30 9c c0
       0.31350556 -5.227661 -2.8441386 -4.880866
0001c0 a4 e5 4e 3d 82 94 8c bf 4b 5b 4f bf 6d 5d 60 bf
       0.05051197 -1.0982821 -0.80998677 -0.87642556
0001d0 01 99 0a 3f 52 29 66 c0 fb f2 0b c0 7f bc 3b bf
       0.54139715 -3.596272 -2.1867054 -0.733345
0001e0 3e 1b 4d bf c4 e2 a2 3f 5e 8e af 3f c0 2d 4d c1
       -0.80119693 1.2725453 1.3715322 -12.823669
0001f0 72 b8 8d bf 70 35 1e c0 5c 49 29 bf 1b 5d 4d bf
       -1.1071913 -2.4720116 -0.6612756 -0.8022019
000200 b6 52 96 bf 04 8b 18 bf af e1 6c bf b2 77 14 bf
       -1.1743991 -0.5958712 -0.92531866 -0.5799514
000210 0d f3 1f bf 09 10 12 3e 99 c5 39 bf fa be 16 c0
       -0.6248024 0.1426393 -0.72567135 -2.3554063
000220 76 40 07 c0 68 ed 6a bf 9b e4 d3 be 83 62 09 bf
       -2.1133094 -0.91768503 -0.4138535 -0.5366594
000230 e7 86 d8 be 29 f8 9e bf 3f bc 34 c0 11 11 84 bf
       -0.42290422 -1.2419482 -2.8239896 -1.0317708
000240 90 1e 8e bf 2a d7 87 bf a3 35 78 3e 96 96 d5 bf
       -1.1103077 -1.0612538 0.24239211 -1.668658
000250 1c 7f 93 c0 b6 12 89 3e b9 d2 8e 3e bf 43 ae c1
       -4.6092663 0.26772088 0.27895144 -21.78308
000260 c6 bb e2 be de 20 ff bf ec 74 29 c0 77 32 54 be
       -0.44283885 -1.9931905 -2.6477613 -0.20722376
000270 4b 5d 7d bf bb e4 79 be d6 85 d2 be 40 27 17 c0
       -0.9897048 -0.2440366 -0.41117734 -2.3617706
000280 30 cf 01 c0 aa 5b 94 bf 73 ad c7 be e4 f6 c9 bd
       -2.0282707 -1.1590474 -0.3899952 -0.09861544
000290 86 4d 1a bf 28 00 44 c1 68 f4 e8 bf c6 0b 06 bf
       -0.6027454 -12.250038 -1.8199587 -0.52361715
0002a0 b7 96 4e be a7 b1 b2 bf f3 71 d6 bf f6 ff a2 bf
       -0.2017468 -1.3960465 -1.6753525 -1.2734363
0002b0 e4 21 99 bf f2 65 df be 19 c6 12 bf 45 19 5d bf
       -1.1963468 -0.43632466 -0.57333523 -0.86366683
0002c0 15 b5 c1 bf 3f c3 b1 3e d8 bd 54 3d eb 48 4a bf
       -1.5133387 0.34719273 0.05193886 -0.79017514
0002d0 b0 3a e6 be a9 2a b2 be 92 ec 52 3e 04 f5 48 c1
       -0.4496665 -0.34798172 0.20598057 -12.559818
0002e0 09 20 1a bf 4f e6 15 3f 51 28 d7 be 81 98 3f c0
       -0.6020513 0.5855455 -0.42022946 -2.993683
0002f0 21 74 54 be ee a4 0e c0 73 f7 17 c0 c9 61 8d be
       -0.20747425 -2.2288165 -2.374478 -0.27613667
000300 59 96 7d be 2b ea 6a 3d 82 e6 fb 3d fc 5f 1d c0
       -0.24764384 0.057352226 0.12299825 -2.4589834
000310 48 22 4b bf 46 5b 61 3c 7b 13 05 bf e3 5d 9d 3d
       -0.79349184 0.013754671 -0.5198285 0.07683923
000320 05 c6 e8 be 49 2e 64 c0 c3 aa 5a c0 b2 33 0b bf
       -0.45463577 -3.565325 -3.4166725 -0.54375756
000330 88 b3 cb bf 10 84 7b 3f a7 a8 23 bd 30 9c e6 be
       -1.5914164 0.98248386 -0.03995576 -0.45041037
000340 c2 6d 95 c0 1f 7d 10 c0 72 b3 1e bf 07 0f b2 be
       -4.669648 -2.2576368 -0.6199256 -0.3477709
000350 d9 24 27 c0 c5 e1 82 bf 93 0f 76 c0 6c 7c 13 bf
       -2.611624 -1.0225149 -3.8447006 -0.5761173
000360 c3 02 24 bf 7b 11 4d bf 70 08 e8 3d 15 08 41 c0
       -0.64066714 -0.801048 0.11329734 -3.0161183
000370 ef 73 04 c0 a0 01 2a 3c f8 45 0d bf 9b da bd 3e
       -2.069576 0.010376364 -0.5518489 0.37080845
000380 5e 9e 60 bf b4 ad 8a 3f 11 6b d7 bf a0 84 43 bf
       -0.8774165 1.083426 -1.6829549 -0.76374245
000390 ab d5 5e bf 05 cd e7 be e1 33 ee be ea e6 d1 bf
       -0.8704478 -0.45273605 -0.46523955 -1.6398594
0003a0 7c 49 43 bf d9 e5 75 bf cd 23 6a bf 3a 76 6f bf
       -0.76284003 -0.96053845 -0.9146088 -0.93539774
0003b0 c2 c6 e4 be 7c 59 72 c0 4e f6 82 bf d3 b6 8b bf
       -0.4468289 -3.7867117 -1.0231416 -1.0915169
0003c0 1d 42 44 bf 40 cf 43 3f 47 5b 00 3f 09 77 83 3f
       -0.7666338 0.76488113 0.5013928 1.0270702
0003d0 11 b6 06 3f ac 31 ef bf 68 6e 03 bf 7d 13 bd bf
       0.5262156 -1.8687034 -0.5134034 -1.4771572
0003e0 c2 68 42 bf f1 40 c8 bf f8 7d d7 bf 98 31 16 bf
       -0.759411 -1.5644819 -1.6835318 -0.58669424
0003f0 82 3f 2c bf 15 ab 3b bf 3f 34 54 3d 3a 00 2d c0
       -0.67284405 -0.73307925 0.05180764 -2.7031388

weight_hh f4 [240, 12]
000000 9b 51 5d 3d 1a 8b a5 be c5 f3 a1 3e f0 16 af be
       0.054032903 -0.3233269 0.31631294 -0.34197187
000010 5d a8 a3 bc 1d 27 3f 3d f6 c4 a2 bd 9a f7 32 be
       -0.019977743 0.04666816 -0.079477236 -0.17477265
000020 58 40 ea 3e 1f 75 a9 3e de 97 48 3c 8d ff e6 be
       0.45752215 0.3309717 0.012243239 -0.45116845
000030 32 73 3f be bf a3 57 3e 11 26 3e 3e 02 4c b1 bd
       -0.18696287 0.21058558 0.18569209 -0.086570755
000040 cb 9e 08 3e 51 a1 a2 3e 08 ef 98 bd 29 2f d6 be
       0.13341825 0.317637 -0.074674666 -0.41832855
000050 a8 23 f2 be 49 ee 7b 3e 6a 3e 40 be f7 2c 6c bd
       -0.4729283 0.24602617 -0.18773809 -0.05766007
000060 14 b3 04 bf 99 d9 aa 3e a8 cd a9 3c 4b 81 9a 3e
       -0.5183575 0.3336914 0.020727947 0.30176768
000070 4b c8 63 3e 27 79 96 be db 60 97 3e dc 17 28 bf
       0.22244374 -0.29389307 0.29566082 -0.65661407
000080 94 03 94 bf ad 08 da be 86 8a ba be 90 92 2f 3f
       -1.1563592 -0.42584744 -0.3643381 0.6858301
000090 4b 51 91 3e 68 ba 32 c0 cc 87 d8 3e d9 44 24 c0
       0.28382334 -2.7926273 0.42291105 -2.5667021
0000a0 33 d6 32 be e3 95 1c 3f 06 dd 46 bf fe 0f 0b bf
       -0.17464523 0.6116621 -0.77681005 -0.5432128
0000b0 e7 04 b7 3f 3b fb 0f 3f 86 68 db 3f ed 69 9b bf
       1.4298371 0.5624272 1.7141273 -1.2141701
0000c0 56 ba a4 be 59 47 3a be ef b5 cb bd 7b 09 7a bd
       -0.32173413 -0.1819128 -0.099468105 -0.061044198
0000d0 18 72 48 3f a2 c0 c9 be be f3 2a 3e 1e 9f 95 3e
       0.78299093 -0.3940478 0.16694543 0.2922296
0000e0 6a 45 bc 3f fd 68 07 3f aa 6e 85 3f 75 63 7d be
       1.4708683 0.52894574 1.0424397 -0.24744971
0000f0 b9 f8 43 be cf a7 59 be 09 e3 b3 3e 04 da 12 be
       -0.19137849 -0.2125542 0.35134152 -0.14340979
000100 7c d6 9b 3f f4 f9 19 3f e6 4b fe 3d ed d8 a2 bf
       1.217483 0.60147023 0.1241682 -1.272245
000110 9d 8d 37 bf df 11 52 bf 38 41 8d be 1c d8 2d 3f
       -0.7170046 -0.8205852 -0.2758882 0.6790788
000120 ef 17 b4 bf aa 3e ef bc 07 99 b6 3e 9e 32 96 bf
       -1.4069804 -0.029204685 0.35663626 -1.1734197
000130 9b 6f 2e 3f 5c d0 28 be bd 51 30 bc 7a e2 61 c0
       0.68139046 -0.16485733 -0.010761675 -3.529448
000140 3d e4 5e c0 2e 8e 92 bf c8 99 1b be fb 8f b9 bf
       -3.4826806 -1.144964 -0.15195382 -1.4497064
000150 17 24 4a bf 05 7e 8d 3f 17 be 9d 3f 54 48 3b 3e
       -0.7896132 1.1054083 1.2323636 0.1828931
000160 a0 08 95 bc 06 01 94 be 20 a0 30 be ba a1 56 bf
       -0.01819259 -0.2890703 -0.17248583 -0.83840525
000170 7a 7d 37 bf e1 e8 4d 3f 06 b2 cd 3f cb 9d 5c bf
       -0.7167584 0.8043347 1.6069953 -0.8617827
000180 c1 17 4d bf 83 c8 8f 3e 65 41 85 3e 11 9f de 3d
       -0.8011437 0.28082666 0.26026455 0.10870183
000190 ab 88 d0 3e 48 e9 91 3c 61 c0 bf 3d 26 43 d4 be
       0.4072927 0.017811432 0.09362865 -0.4145748
0001a0 d1 a4 e7 be 28 19 ee bd 30 ce 04 bf 31 63 47 3b
       -0.45242932 -0.11625892 -0.5187712 0.0030424113
0001b0 ae f1 21 bf 5e e9 94 be e5 07 8d 3e 06 2b 38 bd
       -0.632594 -0.29084295 0.27545086 -0.044962905
0001c0 2d 9b 45 be f2 28 86 be 29 d8 ee be 96 dc 2d bf
       -0.19297476 -0.26203114 -0.46649292 -0.6791471
0001d0 ab f2 7f be 21 68 c1 3e 51 90 90 bf 83 02 0e 3f
       -0.24994914 0.37774757 -1.1294042 0.5547258
0001e0 21 9c 18 bf 8d 62 d0 bc d1 79 90 3f 2b 6f ae 3e
       -0.59613234 -0.025437618 1.1287175 0.3406919
0001f0 3b 0a 50 3e 86 a9 e9 bd 23 e2 c9 be 70 a6 30 bf
       0.20316403 -0.11409287 -0.3943034 -0.69003963
000200 f6 e9 68 bf 7c ec 2a 3f c2 c4 35 bf b3 f9 92 be
       -0.90981996 0.66767097 -0.71003354 -0.2870613
000210 c0 2d c4 3b fc 02 da be eb 49 28 3e d6 69 91 bf
       0.005986899 -0.42580402 0.16434447 -1.1360424
000220 0e bc 95 be bf 01 0a 3f 92 f3 7e be 49 c6 55 be
       -0.29245037 0.53908914 -0.24897602 -0.20876421
000230 f7 0b 3c bf cc 90 22 bd c4 f8 88 3e 75 92 ea be
       -0.73455757 -0.03968887 0.26752293 -0.45814863
000240 48 28 5e 3f a1 f5 59 be 2d 85 54 3f 14 ac 05 bf
       0.86780214 -0.21285106 0.8301571 -0.52215695
000250 f9 e9 ae bf d9 33 0c 3f 35 5a 2b bf 6d 2e 99 3e
       -1.3665153 0.54766613 -0.6693452 0.29918233
000260 ea 8d 06 bf 91 9a df 3e d5 80 65 be 1a a7 39 bf
       -0.52560294 0.43672612 -0.22412427 -0.725206
000270 f9 f4 30 3e 63 01 02 bf 32 51 d0 3d 2d be 12 bf
       0.1728095 -0.50783366 0.10171737 -0.57321435
000280 82 1f c5 bd 0f b8 c8 bd 6e 7a 83 be a4 e0 f9 3d
       -0.0962515 -0.098007314 -0.25679344 0.1220105
000290 b8 47 a0 be ce 08 62 3e 30 62 48 3d 79 f2 43 3d
       -0.31304717 0.22073671 0.048921764 0.04783866
0002a0 76 2a 68 bd d9 3a 7f bd 3d 57 09 3e e4 15 89 3e
       -0.05668112 -0.06231198 0.13412185 0.26774514
0002b0 a4 c8 e5 3d ac a3 97 bd b8 00 c2 3d 69 14 c0 be
       0.1121991 -0.07404265 0.09472793 -0.37515572
0002c0 8a 20 4d bd fb d5 f7 3d 0b 8b c1 be b0 ad 6b 3e
       -0.05007986 0.121013604 -0.37801394 0.23015475
0002d0 3d 24 60 3d 80 09 1b bf 0b da 19 3e 24 a4 70 bf
       0.05472206 -0.6056137 0.15024583 -0.9400046
0002e0 8f 96 97 bd 22 9d 0e bc 67 08 0d be a7 4b b6 bc
       -0.07401764 -0.008704456 -0.13772736 -0.02225287
0002f0 57 d9 03 3f 0f 70 7b 3d 08 1b 84 3d 92 18 77 3e
       0.5150351 0.061386164 0.06450468 0.24130467
000300 b8 0a bb be 63 81 06 bf f1 0b e3 3e 45 c6 3a bf
       -0.36531615 -0.5254118 0.44345048 -0.72958785
000310 00 7f 41 bd 54 c8 a6 be 7a b8 02 be db ae 85 be
       -0.047240257 -0.32574713 -0.12765685 -0.26109967
000320 f0 81 42 3e 1d e0 a1 3e 2e c1 c8 bd 17 84 e5 be
       0.1899488 0.31616297 -0.09802471 -0.4482734
000330 0d a4 86 bd d6 67 e0 be ad 4d 70 3e cb 55 08 bf
       -0.06574259 -0.4382922 0.23467131 -0.5325591
000340 51 b2 6c 3e 82 40 9c 3e 83 66 23 be 05 d0 2c be
       0.23114897 0.30517966 -0.15957074 -0.16876228
000350 b8 da 9e 3f 77 f7 44 3e a8 b1 a7 3e ad 75 f6 bd
       1.2410498 0.19235025 0.32752728 -0.120341636
000360 49 52 ba bf 39 7f df 3f 5f 62 cf 3f 37 da 24 40
       -1.4556361 1.74607 1.6201895 2.5758188
000370 ec ba 6d 40 bb 76 e2 bf 03 ed 41 40 c4 4c a9 3f
       3.7145338 -1.7692484 3.030091 1.3226552
000380 a4 41 b4 3f b9 93 e2 3f 04 0c 12 3f b7 66 8d bd
       1.4082532 1.7701331 0.57049584 -0.06904357
000390 3c 6d d5 bd 59 9b 70 3e 0b ca b1 3e 32 5a e4 3e
       -0.104212254 0.2349676 0.3472446 0.44600064
0003a0 e9 7a af be 2d 4e ba bd 7d dc 7c bd ee 06 d5 be
       -0.3427346 -0.09096942 -0.06173371 -0.4160685
0003b0 c9 60 d5 be f4 7c b7 3e b5 d0 a1 bd 11 1d fc 3d
       -0.41675404 0.3583752 -0.07901136 0.123102315
0003c0 92 29 d6 bd 7c a6 d9 be 87 46 83 3e 24 90 47 be
       -0.10457148 -0.4250983 0.25639746 -0.19488579
0003d0 8e 01 ee 3d 78 26 47 bf b3 86 cf 3e 4a 9c ae bf
       0.1162139 -0.77793074 0.40532455 -1.3641446
0003e0 38 10 10 c0 ac 24 b4 bf 09 85 de be 88 0b b8 be
       -2.25099 -1.4073691 -0.43460873 -0.35946298
0003f0 e3 ca 29 3e 03 cf d9 be df ce 89 3e 64 74 01 bf
       0.16581301 -0.4254075 0.26915643 -0.50568223

proj f4 [12, 60]
000000 f2 2f ab bd 57 3a 84 3e 8c 58 48 3e e5 cf 0d 3f
       -0.08358754 0.2582576 0.19565028 0.55395347
000010 7e c4 cb be 5b cd 56 3e ba 38 ac bc 58 ce ca be
       -0.3979835 0.20976774 -0.021023143 -0.39610553
000020 84 35 cc be 6f 01 ef bd ce 41 9d bc fc 8f f3 bd
       -0.3988458 -0.11670195 -0.019196417 -0.11892697
000030 e1 33 0f be 84 cf 1a be 6f 13 d3 3d 49 84 30 be
       -0.13984634 -0.15118223 0.10306441 -0.17237963
000040 ef 2e 04 bb bb 58 f4 bc a9 1d 8c 3f 91 ba cb 3e
       -0.0020169576 -0.029827466 1.0946552 0.39790776
000050 7f b7 29 bf a9 fa 26 bd 9d 81 5f 3e 65 f1 7b 3d
       -0.6629562 -0.040766392 0.21826787 0.06150951
000060 fe 36 b0 bd be 70 5f 3f f3 8d 29 be c1 77 38 bf
       -0.08604239 0.87281406 -0.16558056 -0.7205773
000070 55 92 de bc 5e 0a 88 3c dc 9f 02 3f cc 07 41 bc
       -0.027169386 0.016606506 0.51025176 -0.011781644
000080 6d 28 12 bf 85 4d 7b be 3b 5c c9 3f 13 fe 0d 3e
       -0.57092935 -0.2454129 1.5731272 0.13866453
000090 ab e7 07 bf e6 ed aa bd 8e 2c 0a 3e 66 f8 8a 3e
       -0.5308787 -0.08346157 0.13493559 0.27142638
0000a0 a7 96 1e 3e f1 8c d5 bd e2 c3 a5 3e 00 de d8 3e
       0.15487157 -0.10427273 0.3237601 0.42356873
0000b0 ea 8a db 3d 55 a7 ca be 2a 9a 56 bc 7c 43 49 bf
       0.10719855 -0.3958079 -0.013098279 -0.786186
0000c0 f0 26 81 bd 84 bb f6 3e b1 e5 b0 3c 5c 7e 62 3e
       -0.06306255 0.48189938 0.0215939 0.22118515
0000d0 31 27 8f 3f b7 21 1d bf 8a 85 5d be 93 11 3f 3d
       1.1183835 -0.6137957 -0.21632972 0.04664762
0000e0 52 db 2e bd 4b b2 bc bd 16 e2 e8 be 21 6c ae be
       -0.04268963 -0.09213694 -0.4548499 -0.3406687
0000f0 65 8d ee 3e 6e 22 d1 bd 33 f6 14 be 0f aa 3d 3d
       0.4659225 -0.10211645 -0.14547043 0.04630476
000100 2d 31 84 3e b8 cd e0 bd 42 b8 80 3f bf 2f ca 3e
       0.25818768 -0.10976738 1.0056231 0.39489552
000110 fd 07 fd 3d 46 99 a5 be 68 cf e4 bd a1 b4 75 3e
       0.12355039 -0.323435 -0.11172372 0.23994686
000120 3c d4 15 3f b8 3d d7 bd 6b 9b 6f 3e c4 8b 1b bd
       0.5852697 -0.10509819 0.23399131 -0.037975088
000130 03 15 c2 be 8a 09 92 3e 84 8a ad be a9 1c 8c bd
       -0.37906656 0.28522903 -0.33894742 -0.06841404
000140 ff f3 a4 be ec f2 d6 3e bd bb ad 3e 5c f6 51 be
       -0.32217404 0.4198221 0.33932295 -0.20504135
000150 cd 82 1f 3f d9 fe 69 3f 97 68 ac bd 1b 49 f1 be
       0.6230896 0.9140449 -0.084183864 -0.47126088
000160 2a d7 0d 3e ce 7c 88 bd 51 d2 ed be d4 68 12 bf
       0.1385161 -0.066644296 -0.4644952 -0.57191205
000170 41 4a fa be 7f 76 49 3d 6b 8a 8a 3f 0e 03 f1 be
       -0.48884776 0.049185272 1.0823492 -0.47072643
000180 9c 8f 4a bb 68 11 e0 3e f1 7f 6b 3c 5c 03 4b 3c
       -0.0030908352 0.4376328 0.014373765 0.012390938
000190 d5 97 ec bd 85 e2 a5 3e 75 2a 46 be d6 e0 6b bd
       -0.11552397 0.32399383 -0.19352134 -0.057587467
0001a0 df 49 7c be 82 71 4f bf c9 84 e8 bd 3d 99 13 be
       -0.24637555 -0.81032574 -0.11353452 -0.14413925
0001b0 12 3a 02 3f db f2 06 bf c4 11 f8 bd 0a 02 17 3e
       0.5086986 -0.5271432 -0.121127635 0.14746872
0001c0 51 ea 5f 3e 96 18 56 3e 53 e9 03 bf ad b0 96 3d
       0.21866728 0.20907816 -0.515279 0.07357917
0001d0 ff 9a 16 3e 18 8e 0d 3e b9 e2 b2 bc a4 12 cd be
       0.14707564 0.13823736 -0.021836625 -0.40053284
0001e0 1a b2 72 3c 23 df 6b be 57 1b 14 bd 7a 85 a3 3e
       0.0148129705 -0.23034339 -0.036158886 0.31937772
0001f0 eb ff 11 be 1c 5a ac be 84 20 89 be e7 67 05 be
       -0.14257781 -0.33662498 -0.2678262 -0.13027917
000200 ec aa b5 bd 3c ea 7a bd 82 9c 2a be 92 2f 00 be
       -0.088704914 -0.06125854 -0.16661265 -0.12518147
000210 b6 80 29 3e 47 99 98 3e ea ae 55 3d b2 0c b1 bd
       0.16553006 0.2980444 0.052168764 -0.086449996
000220 77 7e e4 3d dc bf 9a 3d 84 3f b6 be ba 8b d0 39
       0.11156934 0.075561255 -0.35595334 0.00039776956
000230 84 5f 21 bf c1 85 1a 3e 6c 95 f6 3d e3 1e 2d be
       -0.6303637 0.15090086 0.12040219 -0.16906314
000240 f2 5f 7a 3d 72 30 31 3f fd 3e 52 bb 5f 96 a6 3e
       0.061126657 0.69214547 -0.0032081 0.325366
000250 4b cd 62 bc 33 2c bc 3e df 73 95 be 0a fc b4 3d
       -0.013842891 0.3675247 -0.29189965 0.08837135
000260 7b d1 c0 3e 5f ba 50 3d b6 83 ee be 03 27 a8 be
       0.3765982 0.050958987 -0.46584862 -0.32842264
000270 07 ba 98 3e 01 5b 4e 3e 54 09 47 3d cf 10 ce 3d
       0.29829428 0.20151903 0.04859288 0.100618
000280 9a 63 9c be e1 b3 29 3e 04 05 29 be 30 22 fa bc
       -0.3054474 0.16572525 -0.1650582 -0.03053388
000290 5d f3 48 be 05 69 0a bf 66 dd 94 3d ec bd 04 bf
       -0.19624086 -0.540665 0.07268791 -0.518523
0002a0 7a 0c d1 bd 16 fc 6f 3e 9a d6 17 bd ec 2a 0d 3e
       -0.10207458 0.23436007 -0.037069894 0.13785905
0002b0 44 9d a7 3e da c8 8c bb e4 f1 01 be b5 3b 5c 3d
       0.32737172 -0.0042964043 -0.1268993 0.05376788
0002c0 53 22 82 3e 87 13 74 bd 13 c1 38 3d 3b 9b bd bc
       0.25416812 -0.059588935 0.045106005 -0.023145309
0002d0 3d b0 9a 3e 6c 64 75 be 71 5a 64 be ec 18 64 be
       0.30212584 -0.23964089 -0.22300126 -0.22275132
0002e0 26 03 c3 3e 67 56 0b bf 15 2e 2f 3f d8 74 bc 3e
       0.3808834 -0.54428715 0.6842969 0.36807895
0002f0 9a e7 64 be ae ef 80 be 9d 63 99 3e 9d e0 19 3f
       -0.22353974 -0.2518286 0.2995881 0.6010836
000300 80 37 84 3e 66 b6 2f be fc e8 7f 3e 95 82 fc bd
       0.25823593 -0.17159423 0.2499122 -0.12329594
000310 a0 bc f5 be 4b f9 01 be c2 9b 57 be f7 67 17 be
       -0.47995472 -0.12692754 -0.2105551 -0.14785753
000320 17 9a 23 3f 07 97 af 3d b7 8f fa 3e f0 69 03 be
       0.63907 0.08573728 0.4893777 -0.1283338
000330 dc 52 70 3f 4d 7e b9 3f 3f 38 ef ba 90 d9 8d be
       0.93876433 1.4491669 -0.0018251016 -0.2770505
000340 5e 18 aa bd c2 f8 9e be af 35 86 bc 2b a9 4d bd
       -0.08305429 -0.31049162 -0.01638302 -0.05021016
000350 95 dc af 3d af 84 23 be 12 fb 33 3f a3 5d 77 bf
       0.085869946 -0.15968584 0.7030498 -0.96627253
000360 a7 47 dd 3d c2 ef 99 3e 57 c2 bc 3d 48 69 0e bf
       0.10804682 0.30065733 0.09216755 -0.55629396
000370 07 2c e5 3e 10 0d 0b 3e 76 2b 37 be 90 26 01 bf
       0.44760153 0.13579202 -0.17887673 -0.50449467
000380 c5 51 e8 be 2a 56 b0 bf a9 35 35 3e 3e af 65 be
       -0.45374885 -1.3776295 0.17696251 -0.22430131
000390 45 a7 11 3f 06 94 c7 bf 94 02 a2 bd 6b 68 6f 3e
       0.5689586 -1.5592048 -0.07910648 0.23379676
0003a0 ad fb db 3e c4 be 08 bc ed 37 96 be 01 99 92 3d
       0.4296545 -0.008346263 -0.29339543 0.071580894
0003b0 3c ec 76 3e 13 6e 91 3e 85 7e 24 3e 82 59 0b be
       0.24113554 0.28404292 0.16063888 -0.13608363
0003c0 ed cf 10 3e ff 9a 54 be 76 c4 d3 be 24 d2 7f be
       0.14141817 -0.20762251 -0.41360825 -0.24982506
0003d0 86 a6 12 3f b4 bf 45 bf de b7 82 be d3 46 3a 3e
       0.57285345 -0.7724564 -0.25530905 0.1819108
0003e0 74 ad 61 3e 6e 37 88 be 0f fc c2 3d 10 72 46 3d
       0.22038823 -0.2660479 0.095207326 0.048448622
0003f0 11 e5 f8 3e f1 0e 3d be ac 7e bc 3c e3 49 1f be
       0.48612264 -0.18462731 0.02300962 -0.1555553

bias_ih f4 [240]
000000 a7 94 34 bf 15 c6 34 bf f8 c0 f2 be c7 7a f5 be
       -0.70539325 -0.7061475 -0.47412848 -0.47945234
000010 18 d3 a3 bf 25 eb e3 be bd ae 85 be f6 35 5a bf
       -1.2798796 -0.4451534 -0.26109877 -0.8523859
000020 62 a7 58 bf 42 0a 3a bf f2 0b 1e bf 33 29 05 bf
       -0.84630406 -0.726719 -0.6173698 -0.5201599
000030 c2 81 33 bf fd 52 6e bf fe 78 1f bf 5a 20 3e bf
       -0.7011987 -0.9309538 -0.62293994 -0.74268115
000040 83 8d 61 bf eb d2 53 bf f3 97 a8 bf 9d a9 5e bf
       -0.88106555 -0.8274371 -1.3171371 -0.8697756
000050 94 55 76 bf 56 29 3a bf e7 26 4b bf 8f 22 fc be
       -0.9622433 -0.72719324 -0.79356235 -0.49245116
000060 b8 9f e0 be f5 f8 21 bf e0 a9 4d bf ca e1 37 bf
       -0.43871856 -0.63270503 -0.80337334 -0.718289
000070 1a e9 2f bf 08 54 68 bf 3e 9d bd be 42 c9 b0 be
       -0.6871506 -0.9075322 -0.3703403 -0.34528548
000080 f0 39 04 bf d1 57 25 bf 90 e3 a9 bf 32 41 4b bf
       -0.51650906 -0.6458712 -1.3272572 -0.79396355
000090 13 f1 ec be a0 80 8c bf ee 3b 86 bf 48 fd 05 bf
       -0.46277675 -1.0976753 -1.0487039 -0.523396
0000a0 22 e6 bc be 1b 8f 16 bf 67 27 cc be 39 38 1e bf
       -0.36894327 -0.5881211 -0.39873812 -0.6180454
0000b0 f8 9b 84 bf cf 3c 57 bf cc 14 79 bf fc 9c 2f bf
       -1.0360098 -0.8407716 -0.9729736 -0.68598914
0000c0 6e bf 87 bf fd 5c 78 bf 3f 53 43 bf 5d 89 27 bf
       -1.0605295 -0.9701689 -0.762989 -0.65443975
0000d0 0d 9c bf be 00 51 45 bf 60 8d fb be 99 ec 72 bf
       -0.37423745 -0.7707672 -0.49131298 -0.9489227
0000e0 31 51 c1 be 5f 41 2e bf 16 15 81 bf ab 69 8b bf
       -0.37757257 -0.680685 -1.008456 -1.0891622
0000f0 d4 48 8e be ac 85 25 be b5 50 e9 be cd c6 dc bc
       -0.27789938 -0.16164273 -0.45569387 -0.026950264
000100 1e e6 f3 be 64 1e f0 3e ca 0c 20 3f bf 47 08 bf
       -0.47636503 0.46898186 0.62519515 -0.53234476
000110 0f d7 2d bf 19 a6 46 bf 40 58 2e bf 36 da b9 be
       -0.6790628 -0.77597195 -0.6810341 -0.36299294
000120 2e 2d ec be 81 49 21 bf 93 b3 32 bd 46 3d c6 be
       -0.4612822 -0.63002783 -0.043628287 -0.38718623
000130 11 88 30 bf 60 95 bf be d5 80 37 3f f1 99 2c bc
       -0.6895762 -0.37418652 0.7168096 -0.010534749
000140 40 7a 69 3f b0 f9 be be fb 97 44 be 48 18 bb bc
       0.91202164 -0.3729987 -0.19198601 -0.022838727
000150 f6 46 c4 3d a5 48 9d be 8a a3 06 bf 0e f3 f2 3d
       0.09583847 -0.30719486 -0.5259329 0.11862765
000160 96 f8 1c 3f 9b b9 24 bf 77 f1 c5 3e 22 a6 29 be
       0.6131681 -0.6434571 0.38660786 -0.16567281
000170 bf c4 87 3d ed a9 06 bf 51 68 c5 be 9d b5 d7 be
       0.06629323 -0.52603036 -0.3855615 -0.42130747
000180 9a 13 f0 bd f5 b9 a5 be 6a 8e 0f bf 77 dc 28 bf
       -0.11722489 -0.32368436 -0.5607668 -0.659614
000190 0c 1a f8 be 36 c1 91 be f5 d7 39 3b 1f 18 15 bf
       -0.48457372 -0.2846772 0.002835748 -0.5823993
0001a0 0b 58 d6 be 45 c7 1f bf 93 d9 0f bf 7c 18 13 bf
       -0.41864046 -0.62413436 -0.56191367 -0.57459235
0001b0 84 cd 71 bf 51 83 1f 3f 95 9e 33 bf 0b 66 35 bf
       -0.94454217 0.6230975 -0.7016385 -0.7085883
0001c0 11 42 13 bf 87 48 36 bf 08 9b 92 be d9 d1 59 be
       -0.57522684 -0.7120442 -0.28633904 -0.21271457
0001d0 7c eb 35 bf 66 93 1a bf b5 52 0a bf ea 69 ad be
       -0.71062446 -0.6038116 -0.5403245 -0.3386987
0001e0 68 35 82 be ea 01 34 3e e3 b1 0b 3e ea 40 8a 3e
       -0.2543137 0.17578855 0.13642077 0.2700265
0001f0 90 33 cc 3b 29 7d b6 3e 7b 5b d0 be bf de 09 be
       0.0062317327 0.35642365 -0.40694794 -0.13463877
000200 53 4d 26 3d 16 1f 5a 3e 73 6e 20 3e 6c 95 b2 be
       0.040601086 0.21300921 0.15667133 -0.34879625
000210 5b f0 e7 be f3 69 91 3e 1d f7 1a bb d0 68 3a 3c
       -0.45300564 0.28401145 -0.0023645826 0.011377528
000220 1a a2 ea bd 5d aa 61 be a4 6c 3c bc 75 f6 8d 3d
       -0.114567 -0.22037645 -0.011500511 0.069317736
000230 dc 8c 06 3e af c0 61 be 10 65 4a bd a7 ef 6c 3e
       0.13139671 -0.22046159 -0.049412787 0.23138295
000240 7b 95 36 be 0e 95 74 3c e7 7a e0 bd b2 b5 19 3e
       -0.1783046 0.0149281155 -0.10960942 0.15010718
000250 3c ef d2 bd dd fb c6 3e 7e e9 ae 3e 58 f5 3f 3e
       -0.102995366 0.3886403 0.34162515 0.18745935
000260 3f 40 88 3c 78 e9 58 be df 93 20 3e 10 11 cf 3d
       0.016632197 -0.21182811 0.15681408 0.10110676
000270 37 d5 24 be 45 2c 49 be 00 cf a9 3e 84 e4 61 3e
       -0.1609696 -0.19645794 0.3316574 0.22059828
000280 42 5f 82 be dd cc 82 be b1 96 53 3e d7 9e ff bd
       -0.254633 -0.25546923 0.20662953 -0.12481468
000290 9f 4d 92 3c b2 a7 44 be ae 9b 6c bd 68 1d cf be
       0.017859278 -0.19204596 -0.057765655 -0.40452123
0002a0 d8 3b 70 be 1b c7 57 be 6a 2f 6e 3b 8a d7 8e bc
       -0.23460329 -0.21072046 0.003634418 -0.017436761
0002b0 d6 08 94 3d 1a b9 6b 3e 64 8d 84 3e 4d 18 d8 be
       0.07228248 0.2301983 0.25889122 -0.4220604
0002c0 7e a0 8e 3e 91 fe 7c bd 6e 13 bb 3d 60 08 77 3d
       0.2785682 -0.06176621 0.09134565 0.06031072
0002d0 b1 be 29 bf d6 30 5e bf f2 85 06 bf 95 14 8d be
       -0.66306597 -0.8679327 -0.52548134 -0.27554765
0002e0 ad eb 8d bf e6 cb b6 be f5 52 64 bf 06 27 6e bf
       -1.1087548 -0.35702437 -0.8918908 -0.93028295
0002f0 16 b1 4d bf 12 0e 38 bf 8f ea 4a bf bc 5a 05 bf
       -0.80348337 -0.7189647 -0.7926416 -0.52091575
000300 cf 77 30 bf 3e af 65 bf 5a 1f c8 be df 58 45 bf
       -0.68932813 -0.89720523 -0.3908642 -0.7708873
000310 52 bd 87 bf 24 01 58 bf d4 a6 03 3f 87 21 38 bf
       -1.0604651 -0.8437674 0.51426435 -0.7192616
000320 55 e0 f6 be 19 fc 2e bf 87 9c 46 bf 09 65 29 bf
       -0.48218027 -0.6835342 -0.7758259 -0.6616979
000330 d4 9d 9a be 96 de 33 bf e5 b0 76 bf 99 17 78 bf
       -0.30198538 -0.70261514 -0.9636367 -0.9691101
000340 dc 68 40 bf 15 61 71 bf cd 3b 32 be 12 da da be
       -0.7516 -0.9428876 -0.17405625 -0.427445
000350 4b ec 65 bf 55 53 19 bf ee 59 1d 3f 87 a3 84 bf
       -0.8981368 -0.5989278 0.61465347 -1.0362405
000360 8d 26 ff be d7 3f 81 bf 49 f6 76 bf e9 a3 48 bf
       -0.498341 -1.0097607 -0.9646955 -0.7837511
000370 3a 35 94 be bd e0 31 bf 3c 76 cd be 4e e3 25 bf
       -0.2894686 -0.6948355 -0.40129268 -0.64799964
000380 a0 70 56 bf ec b1 27 bf e3 8f 85 bf ca 98 52 bf
       -0.837656 -0.6550586 -1.0434536 -0.8226439
000390 e8 16 7f bf 95 0a 3b bd 84 97 38 bf 38 63 2e bf
       -0.9964433 -0.04566439 -0.72106194 -0.68120146
0003a0 74 e1 55 bf b7 5c 67 bf 6e 60 e0 be bb 7e 3e bf
       -0.8354714 -0.90375847 -0.4382357 -0.74412125
0003b0 e8 4a 3b bf c1 5b 32 bf dd aa 5f bf e2 89 91 bf
       -0.7316117 -0.69671255 -0.8737009 -1.1370203

bias_hh f4 [240]
000000 76 0d 0e bf 97 4a 32 bf 51 d1 cb be cf f3 2b bf
       -0.5548929 -0.69645065 -0.39808133 -0.671689
000010 3b 47 9d bf b0 fa 25 bf 90 04 c6 be 89 af 3b bf
       -1.2287363 -0.64835644 -0.38675356 -0.7331472
000020 f4 a3 4e bf f4 ef 12 bf 63 df 07 bf bb a5 15 bf
       -0.8071892 -0.5739739 -0.53075236 -0.5845601
000030 d2 54 13 bf bc fc 81 bf e4 04 1f bf da f3 4b bf
       -0.575513 -1.0155253 -0.6211684 -0.7966896
000040 58 52 47 bf db 0a 43 bf 5a 40 b8 bf c8 cf 6b bf
       -0.7786002 -0.7618844 -1.4394639 -0.92113924
000050 9d 70 73 bf 4f fb 45 bf 59 70 1e bf 9f 4c 30 bf
       -0.9509371 -0.7733659 -0.6189018 -0.68866915
000060 c0 e1 ea be 5a 3c 11 bf ea 44 64 bf 90 c6 3f bf
       -0.4587536 -0.56732714 -0.89167655 -0.7491236
000070 bc 8c f5 be c3 a2 83 bf 90 63 de be ff 68 bf be
       -0.47958934 -1.0284046 -0.43435335 -0.37384793
000080 2a d1 01 bf 8e 62 3b bf be a5 97 bf 8f a3 47 bf
       -0.50709784 -0.7319726 -1.1847456 -0.77983946
000090 61 93 ae be 61 e7 79 bf 92 65 80 bf cc 7b 3d bf
       -0.34096816 -0.9761868 -1.0030997 -0.74017024
0000a0 4b 33 94 be d4 58 34 bf 49 50 1c bf 76 0e 21 bf
       -0.28945383 -0.7044804 -0.61060005 -0.6291269
0000b0 bd dd 79 bf 31 28 5f bf 4e fd 84 bf f5 83 42 bf
       -0.9760397 -0.871707 -1.0389802 -0.759826
0000c0 5f 0e 66 bf a5 5f 6a bf 37 de 41 bf aa b7 4a bf
       -0.8986568 -0.9155219 -0.757297 -0.791865
0000d0 9e 2d e9 be e6 d6 51 bf 5b 1f ca be 7f cd 4f bf
       -0.45542616 -0.81968534 -0.39477047 -0.8117294
0000e0 11 9f ad be f6 92 43 bf d9 10 81 bf 25 eb 88 bf
       -0.3391042 -0.7639612 -1.0083266 -1.069676
0000f0 60 81 8c be c5 97 43 be 88 be 2b bf c5 2b 75 3c
       -0.27442455 -0.19100864 -0.670876 0.014964049
000100 59 95 d5 be 04 52 be 3e 8d 6c 46 3f f5 fe 0c bf
       -0.41715506 0.37171948 0.77509385 -0.55076534
000110 8e f1 05 bf d0 92 20 bf 97 3c 18 bf c2 93 f9 be
       -0.5232171 -0.6272402 -0.5946745 -0.48745543
000120 68 25 ec be c5 42 23 bf 0f 2f 03 be e5 dd 83 be
       -0.4612229 -0.6377376 -0.1281092 -0.2575523
000130 e3 a3 3c bf d6 de bf be 91 46 fe 3e 82 a3 36 bd
       -0.7368757 -0.37474698 0.49663213 -0.044589527
000140 df 90 5f 3f 37 5f 8e be e7 bd 8b be 92 31 b0 bd
       0.8733043 -0.27807018 -0.27293321 -0.08603205
000150 44 4e 71 3e 2e 59 f2 be 0b 53 f8 be cd b1 50 3e
       0.23565012 -0.47333664 -0.48500857 0.20380326
000160 38 8e 14 3f 6a df 3e bf b8 4d bb 3e f8 33 74 be
       0.5802951 -0.7455965 0.36582732 -0.2384795
000170 5d 98 a7 3d 17 dd cb be f1 91 85 be de 4b a0 be
       0.08183358 -0.39817116 -0.26087907 -0.31307882
000180 1b 2f 0b be e0 78 b6 be 74 09 be be cb 91 15 bf
       -0.13592188 -0.35639095 -0.37116587 -0.5842559
000190 98 3f cc be 6d fa 91 be 2c 70 23 be 5a bd 11 bf
       -0.39892268 -0.28511372 -0.15960759 -0.5692955
0001a0 43 f9 39 be 4a 98 43 bf fe 12 00 bf 73 4d c8 be
       -0.18161492 -0.7640425 -0.5002898 -0.3912159
0001b0 21 3b 70 bf 21 ae 44 3f 6e a5 06 bf 9c de 1a bf
       -0.93840224 0.768282 -0.52596176 -0.60495925
0001c0 7e a3 15 bf 9f d2 28 bf 4e ed 7e be c7 16 b4 be
       -0.58452594 -0.6594638 -0.24895212 -0.35173628
0001d0 45 d3 06 bf a9 f5 c4 be 9b 75 ea be e5 67 7e be
       -0.5266612 -0.38468674 -0.4579285 -0.2484432
0001e0 5a 94 06 bd 95 b8 46 3e 48 4d c9 3d 80 16 87 3e
       -0.032856323 0.1940635 0.09829193 0.26384354
0001f0 a5 99 a8 3d e1 f5 85 3e 93 6a e4 be c4 27 2c bd
       0.0823243 0.26164153 -0.4461256 -0.04203011
000200 f9 a3 0e be 12 48 1d 3e c2 2c 9c 3e 43 45 2a be
       -0.13929738 0.15359524 0.30502898 -0.16627984
000210 14 50 84 be e8 87 4f 3e 88 d9 4a be 9b ce 21 bb
       -0.25842345 0.20266688 -0.19809544 -0.0024689797
000220 49 23 c5 39 aa 53 30 be db 53 26 be 56 71 8e bd
       0.00037601058 -0.17219415 -0.16242926 -0.06955211
000230 5a 25 9a 3d 03 48 53 be a8 85 a6 bd a3 5b 9d 3d
       0.075266555 -0.20632939 -0.08130962 0.07683494
000240 30 1d 97 bd 46 95 f2 3d 24 4b 16 bc 21 1c 7c 3e
       -0.07378614 0.11844878 -0.009173188 0.24620105
000250 2e bd ab bd 7a 43 9d 3e d1 23 9e 3e 03 8f 5f 3e
       -0.083856925 0.30715543 0.308867 0.21831898
000260 89 84 9b bc dc 59 79 be e3 92 2e 3e b8 db 35 3e
       -0.018984096 -0.24350685 0.1704822 0.17759597
000270 67 a9 77 be af 29 85 be ff ce 88 3e 09 18 89 3d
       -0.24185716 -0.26008365 0.26720425 0.066940375
000280 9e a3 b5 bd 64 9e 3c be ab 59 8f 3e f5 5b b8 bb
       -0.08869098 -0.18419796 0.279981 -0.0056261965
000290 3a 85 a5 3c 0f ab c4 bd d3 d1 80 3d b8 0c 95 be
       0.020205129 -0.09602939 0.06290021 -0.29111266
0002a0 ac e4 3d be 3b 6c 95 be ec e6 ed bc a6 08 27 be
       -0.18544263 -0.29184136 -0.029040776 -0.16311893
0002b0 38 8a 51 3e 95 62 5b 3c f5 94 3b 3e 1c 88 72 be
       0.20462883 0.013390203 0.18318541 -0.23684734
0002c0 44 de 04 3e 11 9a a2 3b 18 34 f2 3c 3a 62 ac 3d
       0.12975413 0.004962214 0.029565856 0.08417173
0002d0 1a 18 f8 be e8 98 35 bf c3 af e8 be b3 8f 9d be
       -0.48455888 -0.7093644 -0.45446596 -0.30773696
0002e0 4b d2 6c bf c8 27 d6 be 51 58 32 bf 05 2a 59 bf
       -0.9250838 -0.41827226 -0.6966601 -0.8482974
0002f0 b3 57 49 bf 81 25 4c bf 27 93 28 bf db e4 f9 be
       -0.78649443 -0.79744726 -0.65849537 -0.48807415
000300 8b 8c 19 bf d2 fa 6b bf 21 1e c8 be dd 5a 30 bf
       -0.59980077 -0.92179596 -0.39085487 -0.68888646
000310 d1 b6 58 bf 54 99 6d bf b7 3b bf 3e a0 8a 3a bf
       -0.84653956 -0.92812085 0.37350246 -0.72867775
000320 a6 09 05 bf 6d fb 53 bf 8b 7c 50 bf a3 b9 f5 be
       -0.5196785 -0.8280552 -0.8144004 -0.47993192
000330 c1 f4 fb be fa 5f 15 bf 6b e9 6d bf 12 fe 5a bf
       -0.4921017 -0.58349574 -0.9293429 -0.8554393
000340 60 88 5d bf a8 ff 83 bf a1 1a 82 bd 17 ef ee be
       -0.86536217 -1.0312395 -0.06352735 -0.46666786
000350 85 83 65 bf c3 b8 24 bf 4c 31 3f 3f 03 12 57 bf
       -0.8965381 -0.64344424 0.74684596 -0.8401186
000360 c1 e7 ce be 00 48 8f bf 4b 11 6a bf 92 38 36 bf
       -0.4041119 -1.1193848 -0.91432637 -0.7118007
000370 d4 ca c0 be d2 35 26 bf ea b3 f1 be 6a 78 3d bf
       -0.37654746 -0.64925873 -0.47207576 -0.7401186
000380 bd 00 63 bf 8c 59 2f bf 50 40 65 bf 0a 75 5d bf
       -0.88673 -0.6849601 -0.8955126 -0.8650671
000390 9e ef 74 bf e6 b8 71 3c d7 ef 3f bf 74 c3 45 bf
       -0.95678127 0.014753556 -0.7497534 -0.7725136
0003a0 2b b1 42 bf ba 42 59 bf 94 8c ff be 03 64 5d bf
       -0.76051587 -0.8486744 -0.4991194 -0.8648073
0003b0 f1 94 2c bf 0f 8f 31 bf 6b 2f 2c bf 3d 06 84 bf
       -0.67414767 -0.69358915 -0.67259854 -1.0314404

weight f4 [3, 12]
000000 c4 22 a3 3e c9 72 8a be 93 4a e7 bb 98 ab 9b be
       0.31862462 -0.270407 -0.0070584505 -0.30404353
000010 c8 38 c2 be f1 de bc bc 9e 74 f4 be fa d0 20 be
       -0.37933946 -0.023055525 -0.47745222 -0.15704718
000020 36 34 6a be 88 05 1e be 7c 8c 0d bf c6 f4 00 bf
       -0.2287148 -0.15431798 -0.5529249 -0.50373495
000030 c2 06 39 bc 07 5c d1 3e 15 57 37 be 61 0d 01 3e
       -0.011293115 0.40890524 -0.17904313 0.1260276
000040 87 10 b5 3e ff 55 2b be 31 f5 a3 3e 25 f7 59 3c
       0.35364172 -0.16732024 0.32023004 0.013303553
000050 fd e3 ed be 3a 2e d9 be c2 12 a4 bd 8f c0 76 3e
       -0.46463004 -0.4241808 -0.0801139 0.24096893
000060 41 fa c7 be 57 df d2 3e a9 9c 81 be d7 61 52 3f
       -0.39058116 0.4118602 -0.25314835 0.8218054
000070 9d 3b 35 3d 53 1b a7 be 60 a5 33 3e 1b 23 ae 3b
       0.044246305 -0.32638034 0.17543554 0.0053142435
000080 53 cf 67 3e b5 60 38 bc 53 90 7a 3e b8 16 14 3f
       0.22637682 -0.0112535255 0.24469118 0.57847166

bias f4 [3]
000000 23 79 f8 3e 2a 8c ee 3e c9 12 01 3f
       0.4852992 0.46591312 0.5041929
