models/paramsearch_0.000265620563019948_0.5426980618067645_0.48234223373039625_54.pt (torch, 33130 bytes, 7 tensors)

weight_ih f4 [240, 6]
000000 12 eb e4 3d c6 24 2f 3d bc b0 9e bd 1c bc de bd
       0.111776486 0.04275968 -0.07748553 -0.10875723
000010 66 e8 0c be 65 2b 57 3d b1 25 35 ba 93 5f d0 bd
       -0.13760528 0.05253162 -0.00069102185 -0.10174479
000020 1b f3 f3 bd e3 a6 29 bd c7 5d 3e bd 83 b9 14 3d
       -0.11911603 -0.04141892 -0.04647615 0.03630973
000030 1a 38 47 3c e9 af bc bd ca 8b 85 3d 09 98 87 be
       0.012159372 -0.0921324 0.06520803 -0.2648318
000040 c4 39 f3 bd 3f 00 f3 bd 31 09 92 bd 2b 8d a8 bd
       -0.11876252 -0.11865281 -0.07130659 -0.08230051
000050 cc 01 59 3d 60 d9 5f be 3a 38 87 bd 4e 54 2f be
       0.05298023 -0.21860266 -0.06602521 -0.17122003
000060 ed 95 22 bd f3 01 bd bd 26 2c db bd 31 4f 4a be
       -0.03969376 -0.092288874 -0.1070178 -0.19756772
000070 32 c6 56 bd e0 bc 35 bd 8f ea 36 3d 49 16 29 bd
       -0.052435108 -0.04436958 0.044657286 -0.04128102
000080 d1 9b 5f 3d ab e2 a2 bd 04 21 84 bd b5 06 e2 bd
       0.054591957 -0.0795339 -0.0645161 -0.110364355
000090 9c 07 b3 bc ff 25 12 be d5 26 a8 3b b2 a1 53 be
       -0.021854214 -0.14272307 0.0051315823 -0.2066715
0000a0 a1 d4 31 bd 03 9c 9f 3d 1c 62 82 3d b5 d7 20 be
       -0.04341567 0.07793429 0.06366369 -0.15707286
0000b0 91 13 b8 3b 20 07 44 be a1 73 18 3d f6 79 c6 3c
       0.005617567 -0.19143343 0.037219647 0.024228077
0000c0 9f 86 c2 3a 8d 28 08 be 24 a3 2e be 0b 11 84 be
       0.0014841146 -0.13296719 -0.1705442 -0.25794253
0000d0 09 dc 20 be c9 18 08 3e 68 46 68 bd f0 dd 60 3d
       -0.15708937 0.13290705 -0.05670777 0.054899156
0000e0 f7 3e 9f 3d 1a a7 e4 3e 26 4d 30 3e 8b 48 88 3c
       0.077756815 0.44658738 0.1721693 0.016636154
0000f0 a7 60 f3 3d 33 c6 1b be cc 62 f3 bd 33 3f 35 be
       0.11883669 -0.15212326 -0.118840784 -0.1769989
000100 81 a7 88 3c 83 5d 52 bd 8a 59 97 3e 93 9e ba 3d
       0.016681435 -0.05135871 0.295605 0.09112277
000110 75 b0 17 3e a0 f7 11 3f 65 cd 04 3f 5f f6 45 3e
       0.14813407 0.5701847 0.5187591 0.19332264
000120 7a 53 2f 3d d9 b2 18 bd 92 d7 ab 3d 1c 10 4c bc
       0.04280422 -0.037279937 0.08390726 -0.012455013
000130 2c 07 22 3c 47 33 aa 3d 54 ef 32 3e ae c6 9f be
       0.009889405 0.083105616 0.17474109 -0.31206268
000140 f3 49 3d 3d 7d 02 b5 be 43 fa d7 bc 68 31 d1 3d
       0.0462131 -0.3535346 -0.026364451 0.102145016
000150 fe 7f 25 3e 0d 8a fb 3d 13 f8 6e 3e ee 9d a1 3e
       0.16162106 0.122821905 0.2333682 0.31565803
000160 7f 2b 24 3e 8c a3 c2 ba 72 09 85 3d 3e 9b 5b be
       0.16032217 -0.0014849766 0.06495942 -0.21445939
000170 00 a2 c5 bd 06 34 a5 be 02 09 c1 bc cf 9f 95 3c
       -0.0965004 -0.32266253 -0.023563866 0.01826468
000180 d0 d9 a7 3d 57 60 1c be 18 74 a2 3d 8f b0 4c be
       0.08195841 -0.15271126 0.079322994 -0.19989227
000190 eb 93 6e 3d f8 11 e9 bd 3f bc 52 3e 62 b2 7b bd
       0.058246534 -0.113803804 0.20579623 -0.061449416
0001a0 fd 36 d7 3d 56 6a cf bd e7 5d 9e 3c cb a0 d7 3d
       0.10508535 -0.10127704 0.019331886 0.10528716
0001b0 49 1a 32 3e 2b 3d ab bd 3a 17 18 bd 5d fa e9 bd
       0.1739284 -0.08361276 -0.037131526 -0.11424706
0001c0 77 7f ac bc 15 24 89 bc c9 12 bd 3d 58 95 35 3e
       -0.021056874 -0.016740838 0.092320986 0.17732751
0001d0 87 35 ce 3d 3a c8 a9 3e e7 62 25 3e 46 6c 37 3c
       0.10068803 0.33160573 0.1615101 0.011195248
0001e0 8b 33 19 3c 27 0a b6 bd 57 c7 d9 3c fe e4 8c bd
       0.009350668 -0.08888655 0.02658431 -0.06879614
0001f0 68 b2 7d 3d 10 c6 7b 3d 70 03 fb 3c 66 3a 13 be
       0.06193772 0.061468184 0.030641288 -0.14377746
000200 ad 93 c5 3d 30 dd 7d be 99 78 67 bd cb 38 70 3d
       0.096473075 -0.24791408 -0.056511495 0.058647912
000210 8b f9 ff 3d b9 01 75 bd 9d 02 55 3d 49 bf 2e be
       0.124987684 -0.059816096 0.052004445 -0.17065157
000220 e8 03 1f 3d 36 7f f3 bc 08 04 39 3e 11 fe 26 bc
       0.038822085 -0.029723745 0.18067944 -0.01019241
000230 97 3e 8c 3d bd 1f 2d bd b1 85 19 bd e2 d4 09 bd
       0.068478756 -0.042266596 -0.037481014 -0.033650286
000240 5c 8f 55 3e bb 39 60 be a0 b3 86 bc b2 32 83 be
       0.20855469 -0.21897022 -0.016443074 -0.25624615
000250 7f 1b fe 3c fd ee 5c 3d 14 90 ca 3d df 7c 60 be
       0.03101897 0.053938854 0.09890762 -0.21922635
000260 14 5b 30 bc 82 3c 2c bd 6b 73 ee 3d dd 59 c2 3c
       -0.010763902 -0.042049892 0.11643108 0.02372449
000270 71 66 82 3c 1d 0b 36 be ff 99 05 be eb 8c 93 be
       0.015917988 -0.17777677 -0.13047026 -0.2881845
000280 73 2c e0 3b 43 61 d4 bd e1 6b 2a 3e 7c ce 19 be
       0.0068412363 -0.10370114 0.16642715 -0.15020174
000290 f9 d7 04 be 90 a6 f2 bd 2e 9e 34 be 19 bb 5a 3e
       -0.12973012 -0.118481755 -0.17638466 0.21360435
0002a0 c8 09 aa 3d c3 d8 24 be 88 15 40 bd 5a e1 d9 bd
       0.08302647 -0.16098313 -0.046895534 -0.106386855
0002b0 23 52 a7 3c 8d 1b ab bd 7d 37 f2 3d 71 75 cd 3b
       0.020424908 -0.08354864 0.1182699 0.0062701036
0002c0 8c 57 14 be db 2e 99 be fc 3b d5 bd d3 1d cb 3c
       -0.14486521 -0.2991856 -0.10411832 0.024794495
0002d0 fd 20 bd bc 93 b8 ac bd 77 24 09 3c 6a 6f b1 be
       -0.02308702 -0.08433642 0.00837051 -0.34655315
0002e0 f8 00 93 bd 6e f8 68 bb 8c 3c 58 3e bd 4e e0 bd
       -0.07177919 -0.0035548466 0.21116847 -0.10952518
0002f0 32 d1 fd bd bb 3b 7b be 4d 49 a5 3c d7 4f 19 3e
       -0.123934165 -0.24534504 0.020176554 0.14971863
000300 bc d3 25 3e 70 42 d6 be e4 22 87 bb 65 8e 8d bd
       0.16194052 -0.41847563 -0.0041240323 -0.06911925
000310 13 3c 26 3e 43 53 92 bd cd 8a 9f 3d 75 55 c1 3d
       0.16233854 -0.07144787 0.07790146 0.09440128
000320 48 cf d8 bc eb a2 5c be 7a 58 52 bd 82 20 d2 3d
       -0.026466027 -0.21546523 -0.05135391 0.102601066
000330 f5 51 15 3e 26 36 3c be de 95 65 3e 60 01 cc 3e
       0.14582045 -0.18380031 0.22420451 0.398448
000340 37 c3 d0 3d 5e 0f 4e 3e 70 ce 0d bc 41 14 ca bd
       0.10193484 0.2012305 -0.008655176 -0.098671444
000350 fb 8b ce bd 65 06 6e be 8e 18 87 3d d6 c4 e6 3c
       -0.10085293 -0.23244627 0.0659648 0.02817003
000360 0f d9 90 3d 9d 18 1a bf 64 6f 9b b9 e5 5b 5e 3e
       0.07072651 -0.60193807 -0.00029646896 0.21714742
000370 38 61 fb 3d 0d dc e9 3d bd ae 0c 3e 9d 31 1b bf
       0.122744024 0.114189245 0.13738532 -0.6062258
000380 91 8f 36 bd 3e fd 64 bd 6a 8f b9 3e 8b e2 a1 3d
       -0.04457051 -0.055905573 0.3624223 0.07904538
000390 a5 7b f2 3d 91 07 61 3d a9 12 3b bd 99 e7 85 be
       0.118399896 0.054938857 -0.045672093 -0.26153257
0003a0 e6 cc f3 bc 25 8b 17 be e4 ef 8a bc f7 69 ac bd
       -0.02976079 -0.14799173 -0.016960092 -0.08418649
0003b0 54 4c 2b 3d d5 13 79 be 03 a3 d1 3d 7a 74 ba 3d
       0.04182084 -0.24323972 0.1023617 0.091042474
0003c0 9a 21 25 bd 30 8b 03 be 7a c0 06 3c 3e c7 75 be
       -0.040315248 -0.12846065 0.008224601 -0.24001786
0003d0 b7 ad ba 3d 50 75 d0 3c 6b 83 04 be aa 93 11 be
       0.09115165 0.025446564 -0.12940757 -0.14216486
0003e0 98 f8 08 bd c3 08 2a 3f 07 77 f8 3e 90 40 72 be
       -0.033440202 0.6641962 0.4852831 -0.23657441
0003f0 0f 3c 44 3c d5 84 37 3c 95 c1 40 bc e0 09 0c 3e
       0.01197721 0.011201103 -0.011764904 0.13675642

weight_hh f4 [240, 12]
000000 5f c2 fe bd b6 aa 86 bd d3 64 e4 bd 82 fb e1 3c
       -0.12439417 -0.06575529 -0.11152043 0.027585749
000010 dc 9d 06 3e 78 12 af 3c b1 08 c2 bd 9a 3e 40 3a
       0.13146156 0.021371111 -0.09474314 0.0007333547
000020 70 28 0c 3e 0f 68 1d be e3 38 13 3e 62 1a 22 bd
       0.136873 -0.15371726 0.1437717 -0.03957594
000030 50 8a 00 be 2a b2 98 ba 94 b2 07 bd 20 12 40 be
       -0.12552762 -0.0011649777 -0.03312929 -0.18756914
000040 e8 1a b8 3b 6c fe 3e be 61 4e f5 bd 3b 5a d7 3d
       0.005618442 -0.18651742 -0.1197784 0.10515257
000050 42 23 36 3e 06 10 13 be f2 1e 42 bd 20 2f 8f 3d
       0.17786887 -0.14361581 -0.047392793 0.0699141
000060 85 f5 00 3d c2 ce df 3c 9a b8 e4 bd 55 3f b7 3d
       0.031484146 0.02732027 -0.111680225 0.089476265
000070 04 15 af 3c 1f 53 44 3d 65 62 14 bd 37 64 81 bd
       0.021372326 0.047930833 -0.03622665 -0.063179426
000080 7c dd 85 3d 4a aa fd bd f5 05 b4 3d a5 75 da bd
       0.065363854 -0.12385996 0.08790199 -0.1066697
000090 50 32 04 bd 38 48 57 3d 1b bb f6 bd 43 d7 a7 bd
       -0.032274544 0.052559108 -0.12047406 -0.08195355
0000a0 b7 87 b8 3d 1f 75 a8 bd c5 f8 cb 3d ee 5d 27 3c
       0.090102606 -0.08225464 0.099595584 0.010215266
0000b0 ff 35 62 bd e3 29 a3 bd a1 49 35 3b 13 bd 02 be
       -0.055227276 -0.07966974 0.0027662294 -0.12767439
0000c0 0a 5c 3b bd 53 cf ee bd 9e 8b ac bd a9 97 bd bb
       -0.045742072 -0.11660638 -0.08425067 -0.0057859016
0000d0 12 75 54 bc b0 ed 07 3c 9b 88 93 bd 62 03 b4 3d
       -0.012967365 0.008296415 -0.0720379 0.08789708
0000e0 ab 83 56 3d 6d 5f 5f 3c a9 72 8c bc 93 be 91 3d
       0.052371662 0.013633591 -0.017144518 0.07116427
0000f0 67 06 ba bd b0 81 a8 3c 0e bb f8 bd 4c 86 1c 3d
       -0.090832524 0.020569652 -0.12145053 0.038214013
000100 a4 bb e6 3d 2c fc 06 bc 96 3a 21 bd 1a 74 fa bc
       0.11266258 -0.008238833 -0.039362513 -0.03057294
000110 19 16 b2 3d 6f 1a 59 bb fb 09 34 bd fd fb e4 bd
       0.08695621 -0.0033127328 -0.04395483 -0.111808755
000120 c0 56 f5 bc 05 26 a0 bd a1 1c d0 bd 52 84 0f 3c
       -0.029948592 -0.07819752 -0.101617105 0.008759575
000130 0a 8d 49 bd 26 f7 2f bd 6f df 89 3b 10 e3 b7 3d
       -0.04920677 -0.04296031 0.0042075436 0.089788556
000140 3e c8 bf bd d7 f2 49 bd 91 3c 77 3d 7c e1 c5 bd
       -0.09364365 -0.049303856 0.060360495 -0.09662148
000150 df ef ad bd 7b ab 2c be 0c 66 16 bd a5 ce 0a bd
       -0.084930174 -0.1686229 -0.036718413 -0.033888478
000160 1d 04 66 3d e5 fa 9b bd 40 05 8c 3b aa 45 df 3c
       0.056156266 -0.07616214 0.004273087 0.027254898
000170 66 88 32 3e ba 28 9e bd 8d 14 a4 bb f5 52 24 be
       0.17434844 -0.07722612 -0.0050073327 -0.1604727
000180 07 dd f1 bd 43 d0 e6 bd 85 1b c2 3d 66 f6 18 3b
       -0.11809736 -0.112701915 0.09477905 0.0023340224
000190 74 77 c8 3b 50 4d 13 be 0e a8 80 3d d9 cc 5b 3d
       0.0061177555 -0.14384961 0.06282054 0.053662155
0001a0 dd 7e 12 3e 20 0a bd bc 17 63 f0 3d d1 d8 a2 3c
       0.14306207 -0.023076117 0.1173765 0.019878777
0001b0 eb b7 31 3c 44 55 ef bc 08 05 9a bc 46 3e 22 3e
       0.010847072 -0.029215463 -0.018801227 0.15844068
0001c0 1e 43 59 bd 2e 75 35 3d f6 10 c3 3d 9c 4a 54 3d
       -0.053042524 0.044301204 0.095247194 0.051828966
0001d0 20 7c 3a bd fa b9 cd bd a2 8a d4 3d 0f 89 d8 bd
       -0.04552853 -0.10045238 0.103780046 -0.10573017
0001e0 8e 95 09 be b6 98 07 be 11 ba 41 3d bc 84 ff bc
       -0.13435957 -0.13241848 0.047296587 -0.031191222
0001f0 91 f6 1d 3e da 3a 29 be 0c ec 47 bd 9a 32 e3 3b
       0.15426089 -0.16526356 -0.048809096 0.0069335224
000200 0e 47 26 3e 36 8a bb bc 4c f9 4b 3c 59 da db 3c
       0.16238043 -0.022893053 0.012449574 0.026837515
000210 6e 40 db bd 78 6e c3 bd eb 85 82 be 00 1a 57 bd
       -0.10705648 -0.095425546 -0.25492796 -0.05251503
000220 d9 c7 57 3e f9 d2 ab bd 21 77 34 be ec 48 74 bd
       0.2107233 -0.08389849 -0.17623569 -0.059639856
000230 2e 11 93 3e 2c 48 34 be 38 0e 40 3e a5 95 0e be
       0.28724045 -0.17605656 0.18755424 -0.13924272
000240 08 17 e1 3b f5 8b 39 3d 46 78 65 bd 6a 62 a2 bd
       0.0068692006 0.04529949 -0.056022905 -0.07928927
000250 83 c2 92 3d 5e a0 a8 bd 9b 98 dd bd 44 f1 12 be
       0.071660064 -0.082337126 -0.10820123 -0.14349848
000260 29 c2 10 3e 73 4f ad bc d7 d4 06 3e db 19 f5 bd
       0.14136566 -0.021156048 0.1316713 -0.11967822
000270 a4 25 dc bd 95 9f 72 3c 94 ec 27 3d 6d 5f 4d 3d
       -0.10749367 0.014808555 0.040997103 0.050139833
000280 5f 2f 5a bc ef a3 c4 bd 6a e6 f0 bd 59 27 04 be
       -0.013316958 -0.0960158 -0.11762698 -0.12905635
000290 11 06 e1 bc 12 ca 6e 3d b1 59 38 3d b1 e4 af 3b
       -0.027468713 0.058298178 0.04500741 0.0053678383
0002a0 63 b8 bb bd 34 02 f3 bd 5b aa b7 bd 39 39 14 3d
       -0.09166028 -0.118656546 -0.089680396 0.036187384
0002b0 a2 7a 13 3d 1f 5f a5 bd ab 1e 3e be c3 54 a7 bd
       0.036005624 -0.080747835 -0.18566386 -0.08170464
0002c0 f2 cf 44 bc d1 22 74 be 5d 13 65 bd 69 87 ea 3b
       -0.012012469 -0.23841406 -0.05592667 0.0071572554
0002d0 2d 2f 4a 3d 9c 03 fb bd d6 1a b9 bc 22 39 ac bd
       0.049361397 -0.12256548 -0.022595804 -0.08409335
0002e0 b3 dd 68 bd 34 c3 81 3d e3 c3 84 3c 90 d7 52 3c
       -0.056852054 0.0633606 0.016206687 0.012868777
0002f0 04 b1 98 3d d5 bd 1f be 18 ba 1a 3e 05 13 17 be
       0.07455638 -0.15599759 0.15110052 -0.14753349
000300 ce 83 c1 bd ec 5b 48 3d 1d 2d 36 be f9 90 6c bd
       -0.09448968 0.04891579 -0.17790647 -0.057755444
000310 19 a6 fc 3d 08 b3 96 bd 74 dc c7 bd 50 62 fc bd
       0.12336368 -0.07358366 -0.09758845 -0.12323439
000320 02 2d c9 3d 54 4e e6 bd 4f 6b 59 3d 0e 1c 2f be
       0.09823038 -0.11245409 0.053080853 -0.17100546
000330 87 f1 64 bd e5 6e 2a be e6 42 d4 bb c3 01 9f bd
       -0.0558944 -0.16643865 -0.0064777015 -0.07764008
000340 7c 19 79 3d 37 04 95 bb e2 02 4e bd 70 1b 89 bd
       0.06081532 -0.0045476216 -0.050295718 -0.066946864
000350 12 a7 2c 3c 2c 21 26 be 75 a6 8a bd 55 e3 a3 bd
       0.01053788 -0.16223592 -0.067700304 -0.080023445
000360 39 32 a1 bc 4a e1 b0 3b c5 5a 15 be 95 e7 d2 bd
       -0.019677268 0.0053979503 -0.14585407 -0.10298077
000370 71 80 8a 3d 3f 84 4b 3d fe e1 07 be 6a 89 c4 3c
       0.067627795 0.049686667 -0.13269803 0.023991305
000380 ec 32 56 bc d0 7f 88 bd 4f ef 07 3e bf cf c7 bc
       -0.013073664 -0.06665003 0.13274883 -0.024391053
000390 bd bd aa bd de 98 55 bd 1f a3 81 3d af 1e bd bd
       -0.08336971 -0.05214774 0.06329941 -0.09234368
0003a0 34 b2 da bc 3f 0f 83 bd 7c 36 13 bd d8 45 34 3d
       -0.026696302 -0.06399392 -0.035940632 0.04401192
0003b0 66 36 ac bc 06 64 36 be 79 37 2b 3d ce 71 d3 bc
       -0.021022033 -0.17811593 0.04180095 -0.025811102
0003c0 bd 40 6a bd b1 2a 87 3d 9c dc 5b bd 49 0f c7 bd
       -0.057190645 0.065999396 -0.053677186 -0.09719712
0003d0 77 12 46 bd 87 28 7d 3d 06 39 e5 3c c1 61 ab 3d
       -0.048357453 0.061806228 0.027981292 0.083682545
0003e0 0c 90 89 3d 40 32 b4 3d 90 72 d0 bd 09 23 1a 3d
       0.06716928 0.08798647 -0.10178101 0.03763107
0003f0 f6 aa f6 bd 05 c1 9d 3c b8 b1 dc bd ec f8 97 3c
       -0.12044327 0.019257078 -0.10776085 0.018551312

proj f4 [12, 60]
000000 26 7c b9 3d 65 ae cf 3d 23 0e e1 bd 8e 58 10 be
       0.090568826 0.10140685 -0.109890245 -0.14096281
000010 90 a9 7a 3d 73 01 d9 3d 73 0d 24 bd 46 28 74 3d
       0.061196864 0.105959795 -0.04005189 0.05960872
000020 b0 0e ce 3d ad 44 91 3c fc 68 5f bd 7e cd 91 3d
       0.10061395 0.017732942 -0.05454348 0.07119273
000030 fa 58 5b 3d 76 51 a3 bc c5 b3 ae 3d 46 2c 10 3e
       0.05355165 -0.019936305 0.08530382 0.14079389
000040 7c 98 23 3e bb 77 67 bd db d9 63 bc a8 3d 0f 3e
       0.15976137 -0.05651067 -0.013906921 0.13988364
000050 6d b5 80 bd a8 dc 9e bd 89 7c af bd 8b 9a 12 3e
       -0.06284604 -0.077569306 -0.08568675 0.14316766
000060 fe a5 41 bc 8d 90 ef 3d d3 34 ea 3c 4a 1f 24 bd
       -0.011819361 0.11697493 0.028589642 -0.040068902
000070 84 ce 37 3d c0 21 09 3d 14 ee 1a 3d cd 1a 81 bd
       0.044874683 0.033479452 0.037824705 -0.0630394
000080 b4 60 d2 bd d0 f0 f6 3d 3f 14 34 3d 15 1d 15 3d
       -0.10272351 0.1205765 0.04396462 0.036404688
000090 ed 78 9c 3c 5b df 9a bc c5 d9 1c 3e 8e f4 6c bc
       0.01910063 -0.018905332 0.15317447 -0.014462603
0000a0 99 16 bc bd 0c 1c c1 3d 78 59 50 bc f0 09 33 3d
       -0.09183998 0.09429178 -0.0127166435 0.04371065
0000b0 a8 73 97 bd fb 41 25 bd 1f ce 13 be 3d e9 1a bb
       -0.073951066 -0.040346127 -0.14434098 -0.0023637556
0000c0 31 bb 05 bc b3 81 bb bd 2e 91 48 bd f3 96 95 bd
       -0.008162306 -0.091555975 -0.04896658 -0.07304182
0000d0 b8 88 a3 bd 18 db 6b 3e df a5 32 bd a4 06 98 3c
       -0.079850614 0.23032796 -0.04361522 0.018557854
0000e0 83 f9 79 bd e2 a7 a1 bd 36 9e 3e 3d d7 b9 e5 3c
       -0.06102897 -0.07893349 0.0465376 0.028042717
0000f0 03 3a ef 3d 58 d0 0c 3e 8b 0a 90 3b 1c f6 83 bd
       0.11680987 0.13751352 0.004395788 -0.06443426
000100 0b f2 8f bd fb 98 14 3e 0b ff 83 3d 38 5d 47 3d
       -0.07028588 0.14511482 0.0644513 0.048672885
000110 0f 60 1f 3d 15 1b 94 bc 4c 4d b2 3d 67 16 c7 bd
       0.038909968 -0.01807932 0.087061495 -0.0972107
000120 45 f0 ec bc d2 63 ff 3d ed a6 8e bd c8 bf dd 3c
       -0.028923163 0.12470211 -0.06965432 0.027068987
000130 bc ac 4d 3d ae 73 0b bc 9e f7 fa 3d a8 40 89 3d
       0.05021356 -0.008511467 0.122542605 0.06701785
000140 b7 29 a0 3d b2 23 98 bc f9 69 d5 bd 3b 55 c9 bd
       0.078204565 -0.018571708 -0.10420603 -0.098307095
000150 aa d2 8d 3d 61 30 2e bd 6d 9b 06 3e c5 6e db bd
       0.069249466 -0.042526606 0.13145228 -0.10714487
000160 d1 0c 55 bd fa ee 29 be 98 5b a0 bc 26 24 cd 3d
       -0.052014176 -0.16595069 -0.019574925 0.100166604
000170 da 78 80 3d 89 71 2d bd 85 86 e0 bd 64 e3 1e 3d
       0.062730506 -0.042344604 -0.109631576 0.038791075
000180 c9 c6 48 3d 3c 93 c7 bc ae 5c a2 3c 3c ad 82 bd
       0.0490177 -0.024362199 0.019819584 -0.06380698
000190 91 64 99 bd e4 48 75 3d 93 0d 0a be be 42 00 3e
       -0.07489885 0.059883967 -0.1348174 0.1252546
0001a0 7b 4d 9c 3c 6c 00 a6 3c c7 f6 34 bd f5 f4 06 be
       0.019079914 0.020263873 -0.044180658 -0.13179381
0001b0 cd c5 56 bd 15 27 1a bd 3f cd 8b bc ac aa 23 be
       -0.05243473 -0.037634928 -0.017065642 -0.15983075
0001c0 62 28 7b bd 00 0c cd 3d 50 c2 f5 3d ff d0 f6 3c
       -0.06131781 0.100120544 0.11999953 0.030128954
0001d0 54 65 8d 3d 4f 8e a1 bd 5c 3d 0a 3e de 7b 9c 3c
       0.069040924 -0.07888471 0.13499969 0.019102033
0001e0 66 04 f3 3d 70 01 bc 3d 8f 56 e2 bc 2d 31 74 bd
       0.11866073 0.09179962 -0.027629165 -0.05961721
0001f0 85 e2 a5 bc dd 8b 68 3d 20 51 0c 3c 61 c9 f7 3d
       -0.020249614 0.05677401 0.008564264 0.12098957
000200 be 5f 03 be 3d fc a9 bd 6e 3d 11 bd 6e 4f e7 3d
       -0.12829491 -0.08300064 -0.035458975 0.11294447
000210 f1 4e e6 3c 22 aa 13 3c ce 54 10 bd e5 19 33 bd
       0.028113814 0.009012731 -0.035237126 -0.043725867
000220 56 2c 92 3d 2e d0 ef 3d 9a 6a 1b 3e a6 b7 10 3d
       0.07137363 0.11709629 0.15177384 0.03533139
000230 0e 3a e4 bd 8d 3e 81 3d 94 60 8d 3d fd 80 18 3e
       -0.111438856 0.06310759 0.069031864 0.14892955
000240 dd 27 03 3e 71 ac 7f 3d 26 af 06 3e 37 7a 2c 3e
       0.12808175 0.062420312 0.13152751 0.16843496
000250 ae 69 01 bd 80 b9 61 3d 86 01 0a be 80 ad ff 3d
       -0.031594925 0.055108547 -0.13477144 0.124842644
000260 4d f0 af 3d ba f7 fe 3c 49 f0 d9 bd 76 00 a4 3b
       0.085907556 0.031123985 -0.10641534 0.0050049378
000270 a9 43 bf bd 78 b3 69 b9 63 4e 08 3d 50 e5 1c 3d
       -0.09339077 -0.00022287469 0.03327788 0.038304627
000280 54 71 e3 3c bc cb 97 3d 01 ac 58 3d aa ad af bd
       0.027764 0.07411906 0.05289841 -0.08578046
000290 be 03 a2 3d f0 c6 97 bd 28 60 e0 bd 17 a7 98 3d
       0.0791087 -0.07410991 -0.1095584 0.07453745
0002a0 29 46 08 bd 69 a1 29 bd 41 83 25 be fa 59 71 3d
       -0.033270035 -0.0414137 -0.1616335 0.0589237
0002b0 0c e3 a0 3d ff 78 3b 3d 7a a2 6d bc 8c de ec 3d
       0.07855806 0.045769688 -0.014504069 0.11565885
0002c0 d9 d0 93 bd c6 97 9a 3c fc 46 64 bc 48 50 22 be
       -0.07217569 0.0188712 -0.01393294 -0.15850937
0002d0 49 1f 03 3e 16 76 1b 3d 40 92 84 3c 0a e0 a6 bb
       0.12804903 0.037954412 0.016183019 -0.0050926255
0002e0 85 02 33 3d 84 ba 10 3e ca 10 00 bc 7b 0f 2d 3e
       0.043703575 0.1413365 -0.007816503 0.16900437
0002f0 35 3e d6 bd 91 6c 61 3d 70 49 f5 3d 08 e8 80 3d
       -0.10461084 0.055035178 0.11976898 0.062942564
000300 7f f8 0c 3e 7e fa c5 bd 76 1f b1 3d 60 b0 ab 3d
       0.13766669 -0.09666918 0.08648579 0.0838325
000310 8c 6a 87 bc e3 a8 76 3d cc 08 a3 3b 5b 8b 8d 3d
       -0.016530298 0.060219657 0.004975414 0.069113456
000320 78 7b 6b 3d d7 29 ab 3c f8 60 b9 bd f2 b9 e9 3d
       0.057490796 0.020893974 -0.090516984 0.114124194
000330 42 68 89 bd 25 e3 e7 bb 5c 7b e1 3d 20 40 10 3e
       -0.06709339 -0.0070766383 0.11009857 0.14086962
000340 1a c3 16 3e 00 e8 ad bd d9 a2 b9 bc 9a 5d e7 bc
       0.14722863 -0.08491516 -0.02266066 -0.028242875
000350 5a 96 0c be 26 46 45 3c fc 41 30 bd 87 f4 98 3d
       -0.1372923 0.0120406505 -0.043031678 0.07468515
000360 97 a7 55 3d d7 a1 a3 3c 7f f0 9e 3d 99 54 c6 bc
       0.05216178 0.019974632 0.07760715 -0.024210261
000370 af 21 05 be 8a e1 a4 bd b4 ed 72 3d 53 02 5e 3d
       -0.1300113 -0.08050831 0.059308723 0.054201435
000380 13 21 81 bd 6d 70 e6 bd dd 63 2a 3d 05 98 fd 3c
       -0.063051365 -0.11251912 0.041599143 0.030956278
000390 09 f2 3c bd 77 d1 08 bd 81 64 1c be 8f cf d1 bd
       -0.04612926 -0.033402886 -0.15272714 -0.10244667
0003a0 91 93 92 bc cc 7d 31 3d c6 16 73 bd 23 00 17 3e
       -0.01789263 0.04333286 -0.05934789 0.14746146
0003b0 e2 a8 c2 bd 5b 9f 61 3c 88 e7 1a 3e ae 77 14 be
       -0.09504868 0.013770903 0.15127385 -0.14498779
0003c0 2b 0e e2 3c 3d 31 d0 bd 2b 22 46 bc cc 79 bd 3d
       0.027594646 -0.101656415 -0.012093107 0.092517465
0003d0 83 ca 0a be 73 85 a8 3d 91 e8 aa 3d 3c 40 60 3d
       -0.13553815 0.082285784 0.0834514 0.05474876
0003e0 27 00 9a 3d 9a 5f 1c be f1 fc 05 be 35 8d 4a 3e
       0.0751956 -0.15270844 -0.1308477 0.19780429
0003f0 ef f3 89 bd 93 3b 93 bc e2 9a ef 3d de 21 55 bd
       -0.0673598 -0.017972743 0.116994634 -0.05203425

bias_ih f4 [240]
000000 35 99 81 3d fc 21 8e bd 4f 54 98 3b 6f 18 95 3d
       0.0632805 -0.06940076 0.0046487222 0.07280051
000010 0c 77 09 3e 60 dd af bc 7e b3 50 3d ea 61 28 3e
       0.13424319 -0.021467865 0.050952427 0.16443601
000020 c9 1d 8d bd cc 94 10 bd 9b 42 18 3e a6 0f 99 3d
       -0.06890447 -0.035298154 0.14869158 0.07473688
000030 22 aa 2b bc d0 4f ac bd 62 e0 57 3d bb 7d a6 3d
       -0.010477575 -0.084136605 0.052704223 0.0812945
000040 6d 5e 71 bd a7 17 16 3e dd f6 14 3e 53 0a 86 3d
       -0.058927942 0.1465746 0.14547296 0.06544938
000050 12 0d a4 3d e0 21 a8 bd 4a 09 2a bc f7 db 7e 3c
       0.080103055 -0.08209586 -0.010378191 0.015555373
000060 2b e6 65 bd 87 9e 30 3e 6e 17 89 bd 37 98 59 bd
       -0.05612771 0.17247973 -0.06693922 -0.05312368
000070 59 0a 2b ba 4e ba 7e 3c 11 d0 09 3e 08 f5 53 3d
       -0.0006524674 0.015547348 0.13458277 0.051747352
000080 21 76 97 bd e4 ca 87 3d 92 b2 75 3e 1d 0f 31 3d
       -0.07395578 0.06630495 0.239939 0.043227304
000090 b3 d2 b9 3d ba 85 3c 3e ad 3e bb 3d 35 b1 7d bd
       0.09073391 0.18410388 0.09142814 -0.061936576
0000a0 55 e6 08 bb cd e1 b7 bd 06 52 91 3d d8 36 ca bd
       -0.0020889242 -0.08978615 0.07095723 -0.09873742
0000b0 70 26 04 3e 56 f4 a2 3d 7b 85 c1 3c ba d5 29 3e
       0.12905288 0.0795676 0.023623219 0.16585436
0000c0 e1 ab 7a 3d b7 13 74 bd 86 ec c8 3d 69 06 3d 3e
       0.061199073 -0.059589114 0.09810738 0.18459477
0000d0 6e 75 f0 bc 7a d2 f3 bc 5c 4c 27 3e c0 b6 5b bd
       -0.02935287 -0.029763449 0.16337723 -0.05364108
0000e0 13 14 58 3d 2d be 03 3c 29 10 aa bb 19 28 b7 3d
       0.05275352 0.008040947 -0.0051899147 0.08943195
0000f0 89 b8 37 3b f6 5a 7e 3d bf 8a eb bd 42 59 99 3d
       0.0028033576 0.062098466 -0.11501073 0.07487728
000100 c2 2c fe ba aa 25 de 3d 83 ad 92 3d 76 dc 4a 3b
       -0.0019392001 0.108470276 0.07162001 0.003095416
000110 f0 7b b7 3d c2 19 88 3d 67 50 ad 3d 9c e6 8e 3e
       0.08959186 0.06645538 0.08462601 0.27910316
000120 10 04 0d 3e c8 90 ce 3d 52 fd 3c 3e 0a 86 ac bd
       0.13771081 0.100862086 0.18456009 -0.084240034
000130 db f4 c6 3b db 26 d5 3d c4 05 eb 3d 84 b5 2f 3e
       0.0060716695 0.10407802 0.11475709 0.17159086
000140 1d 6f c5 bc 01 c7 d0 3d d9 87 fe 3d a3 75 86 3d
       -0.024100835 0.10194207 0.12428255 0.06565406
000150 99 b9 a3 bd a0 3c 6f bd 53 7c f4 bc a3 60 33 3e
       -0.07994384 -0.058407426 -0.029844439 0.17517333
000160 32 32 ad bd 91 90 61 bd 2a e8 8b 3d 3d 9b 83 3d
       -0.084568396 -0.05506951 0.06831391 0.06426094
000170 86 84 0d 3e 2f 94 9b bb c8 bf fb 3d 02 60 5a 3c
       0.13820085 -0.0047478895 0.12292439 0.013328554
000180 8d 9e 7b 3d 63 ce 90 3d f4 5b d2 bd dc 7e 9f 3d
       0.061430503 0.07070615 -0.10271445 0.077878684
000190 f5 28 d8 bd 48 80 f6 3c 8d 0b 48 3d 0f a6 44 bd
       -0.10554687 0.030090466 0.04883914 -0.04800993
0001a0 e9 58 7a bd de 88 3e 3d 1d 72 d4 3d a1 3a 24 3e
       -0.061119948 0.046517245 0.10373328 0.1603799
0001b0 3e 91 ab 3d af c2 69 bd 4b 24 85 3d ed 6c 88 3d
       0.08377312 -0.05707043 0.06501063 0.06661401
0001c0 3e 40 34 3c 19 df 8d 3c d9 36 ca 3d 3f ef 09 3e
       0.011001645 0.017318295 0.098737426 0.13470171
0001d0 e2 45 0b 3e 76 83 df bd 45 88 7a 3d 19 7d 8a 3d
       0.13600877 -0.10913746 0.061165113 0.06762142
0001e0 63 80 b3 bd 69 33 eb bd ba 3a 57 bd a2 cc f7 3d
       -0.08764722 -0.11484415 -0.05254624 0.120995775
0001f0 75 0e eb bd 50 98 45 3d 59 ef b8 bd 35 07 a1 3d
       -0.11477367 0.04824096 -0.09030027 0.07862703
000200 4c 07 15 3e 2b ca af bd 16 9f 93 bd 4e d4 96 3d
       0.14553565 -0.08583482 -0.072080776 0.07364713
000210 49 df c4 3c 52 a5 38 bd 78 de 5a 3c 3f cb ba 3d
       0.024032252 -0.045079537 0.013358705 0.09120797
000220 7e 8e 2f 3d f3 1f a5 bd db f2 03 be af 6d ac 3d
       0.0428605 -0.080627345 -0.12885611 0.08419358
000230 55 4c 89 bc 3a 24 d0 3c c8 54 03 be d3 e9 f5 3d
       -0.01676003 0.0254079 -0.1282531 0.12007489
000240 48 78 65 3c d1 a0 f2 bb ee ca 1a bd b2 f5 f6 3d
       0.014005728 -0.0074044247 -0.037791185 0.120585814
000250 e1 f2 72 3d cb 00 ff 3d 47 7d 83 3d e5 dd e9 bd
       0.05931366 0.12451323 0.06420379 -0.11419276
000260 e5 03 f1 3d 27 7a ca 3d 4c 11 f9 bd d3 29 39 bd
       0.11768321 0.0988658 -0.12161502 -0.045205902
000270 f4 fa 0b 3e cc 2e 7b bd 30 c3 4f bd fd 0b 1c bd
       0.1366995 -0.061323926 -0.050723255 -0.03809737
000280 90 ce b7 3d 82 f2 db bc f4 e1 36 3e 2c b1 8a bd
       0.089749455 -0.026849035 0.17859632 -0.06772074
000290 f9 1e cd bd 62 f2 bc 3d 9e f0 74 3c 6e 58 c8 3d
       -0.10015673 0.09225918 0.014949946 0.097824916
0002a0 96 41 5f bd 67 57 50 3d c0 c9 fc 3d 38 27 07 3d
       -0.054505907 0.050864603 0.12343168 0.032996386
0002b0 75 20 d5 3d 16 0b 84 3b ab 2e 15 be 65 d8 a5 bb
       0.10406581 0.004029642 -0.14568584 -0.0050611966
0002c0 e2 fe 9e 3d b9 5d f6 3c e2 92 3e 3a dc 4b 3c bd
       0.07763459 0.030073987 0.0007269812 -0.045970783
0002d0 83 58 c5 3d ca bb 1f 3e 12 55 c7 bd d8 6e d7 bd
       0.09636023 0.1559898 -0.09733023 -0.10519189
0002e0 c7 01 8b bd 1e e2 ab 3d 93 65 be 3d 2c f5 75 bc
       -0.067874484 0.08392738 0.092967175 -0.015012067
0002f0 c1 06 b3 3d 54 8b 89 3d ed 49 24 bd 2d e9 4f 3e
       0.087415226 0.06716028 -0.040109564 0.20303793
000300 39 4c 18 3e be a0 f2 3d 77 53 59 3d 17 26 ce 3d
       0.14872827 0.118470654 0.053058114 0.10065859
000310 96 fb 01 bb 25 8e 1d 3d b3 70 f3 3d 9d f5 0d bd
       -0.0019833795 0.038465638 0.1188673 -0.034658063
000320 28 d7 01 3e 03 17 7d bd e3 f1 ff 3d 7f ff 35 3e
       0.12679732 -0.061789524 0.12497308 0.17773245
000330 19 ef 24 3d c4 4e b7 3c 24 4f bc 3d a4 59 2e 3e
       0.040267084 0.022376426 0.091947824 0.17026383
000340 0e d0 ae bd bb 7d 1c 3d 1b 0c 8f bc 43 49 aa 3d
       -0.08535777 0.038205843 -0.017461827 0.08314755
000350 6c f6 99 bd 2f fa 31 bd a4 78 d8 3d 3c ef fc 3c
       -0.07517704 -0.043451484 0.105698854 0.030875795
000360 c1 68 03 3e 74 1a 36 3d 17 1a 8d 3d 65 e0 09 bc
       0.12832929 0.04445882 0.06889742 -0.008415316
000370 42 f2 e9 3d 90 c4 9f bd ce 56 f1 3d 71 73 c4 bc
       0.1142316 -0.07801163 0.11784135 -0.023980828
000380 a7 24 fc 3c d7 a3 27 3e 5c 05 f6 3d a1 0a 83 3c
       0.030779196 0.16371094 0.12012741 0.01599628
000390 d1 a0 aa bd fb 34 6c bd 7a 1d a2 3d 36 9e 15 3e
       -0.083314545 -0.057667714 0.079157785 0.14611134
0003a0 af 69 ae bd 32 47 bf 3d 58 c6 71 3e 1f 5d d1 3d
       -0.08516251 0.09339751 0.23610818 0.102228396
0003b0 f5 59 a5 3d b4 96 c0 3c 05 dc d2 3d 07 24 1c bc
       0.080737986 0.02350936 0.10295872 -0.009530074

bias_hh f4 [240]
000000 61 60 ec bc f2 1f 75 bd 03 23 bd bd f5 e1 41 bd
       -0.02885455 -0.05984492 -0.092351936 -0.04733463
000010 dd 8d 7c bd 6f ba ec 3d 9e 58 e8 bd 9b ba ec 3d
       -0.06165873 0.11558997 -0.113450274 0.1155903
000020 41 31 bb 3c a1 0a 0d 3e 8b f3 f1 ba 99 23 36 3e
       0.022850635 0.13773586 -0.0018459422 0.17787017
000030 08 09 6f 3d ea 2a 9f bd 2b 8f cb bc 3b 39 da 3d
       0.058358222 -0.07771857 -0.024848541 0.10655447
000040 da 62 82 bd 41 7a b0 3c 91 77 83 bd 6e 81 ac 3d
       -0.06366511 0.02154267 -0.0641929 0.08423124
000050 2f 3e f0 3d 3e da b1 3d 90 2f d1 bb 2a b5 2e 3e
       0.117306106 0.086842045 -0.0063838437 0.17061296
000060 32 9a 82 bd 5e 37 8c 3d 6f 07 59 bc f4 6a ac bc
       -0.06377067 0.06846498 -0.013246401 -0.021047093
000070 69 59 60 3d 02 f6 18 3e bf 8e 0d 3e dc 9e 82 3d
       0.05477277 0.14937595 0.13823985 0.06377956
000080 8b b0 0b 3e c4 71 33 3c ec cb 1c 3e 24 90 39 bd
       0.13641565 0.010952417 0.15312165 -0.04530348
000090 70 14 5a 3e 6e 4f 2d 3e a5 7a c7 3d 69 b1 b1 bd
       0.21296859 0.16924831 0.097401895 -0.086764164
0000a0 e0 79 09 3e f8 55 06 3e 83 d2 41 3e d2 dd ca bd
       0.13425398 0.13118732 0.1892796 -0.0990559
0000b0 e0 4b d8 3c 6c 75 fc 3c 1f d7 bc 3d b0 a5 8b bd
       0.026403368 0.03081771 0.092207186 -0.06818712
0000c0 c7 8e 0e 3e 65 47 9f 3c dc f5 e9 3d 0c a1 1b 3e
       0.13921653 0.019443223 0.11423847 0.15198153
0000d0 2d 0a d3 3d 49 56 b4 3d f2 90 49 3e 16 8b a8 bd
       0.10304675 0.0880552 0.19684198 -0.082296535
0000e0 36 7b de 3d 32 d7 29 bd 45 bb 13 bd 1b 0a 44 3d
       0.10863344 -0.041464992 -0.036067266 0.0478612
0000f0 75 cc 7e 3d 91 4d 04 bd 70 e2 ca 3d c7 c5 71 3c
       0.062206704 -0.032300536 0.09906471 0.014756626
000100 a3 0a 63 3d 97 06 16 3e e1 49 67 bc 21 1c cb 3c
       0.055430066 0.14650951 -0.014116735 0.024793686
000110 99 06 da 3c 5a 1f a9 bd d1 3c 26 bb e8 db 70 3e
       0.026614474 -0.08257933 -0.002536584 0.23521388
000120 05 f4 33 39 4c eb 48 bd c4 a9 0e 3e 90 4e b7 3d
       0.00017161675 -0.04905252 0.13931948 0.089505315
000130 a3 90 64 bd 60 5c cc bc f3 a2 ae bd 62 3a 5e bd
       -0.055802 -0.024946392 -0.08527174 -0.054254897
000140 81 9a fc 3d 15 c3 0f bd d2 e4 07 3e 1d e6 a9 3d
       0.12334157 -0.035098154 0.13270882 0.08295844
000150 8d 7b b3 3d 8b 64 39 bd 03 b3 8c 3d 1d 42 14 3e
       0.087638 -0.0452619 0.06870081 0.14478345
000160 21 38 86 3c 96 e1 55 bc 30 3f 3c 3d a5 9e fa 3c
       0.016384186 -0.013054272 0.045958698 0.030593226
000170 14 c7 26 3d 3c 82 d0 bc 77 00 19 3e 33 d6 73 3d
       0.0407172 -0.025452726 0.14941584 0.05953045
000180 13 d3 1d 3d 11 03 b2 3c d1 a7 a2 3b 8f 69 76 bc
       0.038531374 0.021729978 0.004963853 -0.015039816
000190 8f 00 01 3e 32 a1 35 3b 92 2f 9f 3d c4 10 d7 bd
       0.1259787 0.0027714488 0.07772745 -0.10501245
0001a0 08 9b 0d bd 6a e0 fb 3d 87 70 e4 3d 77 86 cf 3d
       -0.034571677 0.12298663 0.111542754 0.10133069
0001b0 7c 64 eb bd 8d d3 0f 3e be 33 3c 3d ad 14 30 3e
       -0.11493775 0.14045544 0.045947783 0.17195387
0001c0 e1 30 1a 3e 5e 2f a8 3d c2 e1 26 3e de 1c 77 bd
       0.15057708 0.082121596 0.16297057 -0.060330264
0001d0 ae 84 60 bd 7f 71 26 3d 50 b1 9a 3d dd 80 32 3e
       -0.054814033 0.040635582 0.07553351 0.1743197
0001e0 6b 36 29 bd e7 f4 97 3c 43 35 aa 3d 52 2e fe bd
       -0.041311663 0.018549396 0.0831094 -0.12411179
0001f0 41 3f 88 bd 77 5f f6 bc c3 4d fc 3c bb 5f a2 bd
       -0.0665269 -0.030074818 0.030798798 -0.079284154
000200 a1 05 13 3b 92 b0 de 3c d9 52 ba bd c7 c4 09 3e
       0.0022433775 0.027183805 -0.09097833 0.13453971
000210 9d c5 a3 bc ae a5 9e 3d af 02 1c 3e 68 d1 f6 bd
       -0.01999169 0.07746445 0.15235399 -0.1205166
000220 3d 88 f4 bd 0b 83 54 3b 30 fa 01 bd 04 50 bd 3d
       -0.11940048 0.003242674 -0.031732738 0.092437774
000230 7e 19 b2 3d b5 11 94 bb e3 50 0b 3d 7d 68 98 bd
       0.086962685 -0.0045187124 0.034012686 -0.074418046
000240 ae 74 fe bc a2 ac 96 bd d7 3d e4 bc 2e f6 45 bd
       -0.031061497 -0.07357146 -0.027861519 -0.04833048
000250 52 cc 06 be ea 26 b9 bd dd 56 8f 3d d2 91 30 3d
       -0.1316388 -0.090406254 0.0699899 0.043107815
000260 56 97 d7 3b 54 78 38 bd 2f 7a 00 be 63 83 c0 bd
       0.00657932 -0.04503663 -0.1254661 -0.0940006
000270 81 97 06 3e a7 8a f2 bd e8 cc 5b bd ba 06 c5 3d
       0.13143732 -0.11842852 -0.05366221 0.096204236
000280 76 a8 c8 3d d0 45 bd bd a1 3a 1b 3e 8d 6c 04 3e
       0.097977564 -0.09241831 0.15159084 0.12932034
000290 75 c5 0b 3e ba 05 c1 3d 73 8a 5d 3d 2f 71 2a 3e
       0.13649543 0.094249204 0.054087114 0.16644739
0002a0 64 7a 9d bd b3 e4 5a 3d 4e 7a a9 bd d8 2f 33 bd
       -0.0768936 0.05344076 -0.08275281 -0.0437468
0002b0 3a f1 4f bc ca cb 2b 3d 2e 79 6c 3c d0 73 ea bb
       -0.01269179 0.041942395 0.014433188 -0.007154919
0002c0 8e 56 b0 3d e1 d8 58 bc 6f d6 5c 3c 4e dc c6 3d
       0.08610259 -0.013235302 0.013478859 0.097099885
0002d0 e9 86 73 bd db de 00 3e 64 c4 b8 3d df bc 42 bd
       -0.059454832 0.12585013 0.090218335 -0.047543403
0002e0 e1 c3 09 bd 77 15 26 3c 61 93 de ba 93 d1 ee bb
       -0.03363407 0.010136954 -0.0016981178 -0.007288167
0002f0 a7 b1 0f 3e 4b 3a 11 3e 49 b6 10 3e 2b 58 8c 3d
       0.14032613 0.14182393 0.14132036 0.06852754
000300 57 71 cb bc 26 43 70 3d 9b 44 e2 3c c9 a5 14 bd
       -0.024834318 0.058657788 0.027620604 -0.036290918
000310 32 8c 63 bd 12 50 0b bd 7b de e1 3d 04 56 13 3e
       -0.055553623 -0.034011908 0.11028763 0.14388281
000320 14 3f 8c 3d b5 4f d2 3d 10 5f e1 bd 9e 3a 25 3e
       0.06847969 0.10269109 -0.1100446 0.16135642
000330 58 1e c6 3c 30 93 99 bc 42 43 1c 3e 6d 7f 4b 3d
       0.02418439 -0.018746942 0.15260032 0.04968207
000340 9d 3c 91 bd 41 8d 00 3e 5b fb ef 3c aa 1f 30 3b
       -0.07091639 0.12553884 0.02929466 0.0026874342
000350 05 11 dd 3c 5d bb 0c 3c 9b f9 c9 3c 7f 8e cb 3d
       0.026985655 0.008589593 0.024655154 0.09939288
000360 45 40 0d 3c c5 06 42 3d ae d9 e6 3d 60 75 ff bc
       0.00862128 0.047369737 0.11271988 -0.031183898
000370 4f 09 a8 3b 4a 4f 06 bd c8 19 5e 3d 5d d9 8c bd
       0.005128063 -0.03279046 0.054223806 -0.06877396
000380 ee cf e4 3d 62 cd 96 bd 9c 4d 3e 3b a0 82 f3 bc
       0.11172472 -0.073633924 0.0029037958 -0.029725373
000390 46 ba f2 3d 6f 61 d6 3d f1 80 fa 3d ca a0 01 3e
       0.11851935 0.10467803 0.12231625 0.12658992
0003a0 62 b6 79 bd 7a e2 7f 3d e3 40 9d 3d f4 bc 9e 3c
       -0.06096495 0.062471844 0.07678392 0.01937721
0003b0 fb b0 90 bd eb 27 10 3d de ca 52 3d fa 00 2a bc
       -0.07065006 0.03519432 0.051463 -0.010376209

weight f4 [3, 12]
000000 47 a7 89 be 48 bf 7f be 31 9d c6 bd f4 63 a5 be
       -0.26885435 -0.24975312 -0.09697951 -0.3230282
000010 7f 24 98 3d b7 73 27 be 99 8f 90 3d 58 6b 3b be
       0.07428836 -0.16352735 0.07058639 -0.18302667
000020 bc 22 1b 3e 48 26 ee 3d d2 51 51 3e bd 07 5e be
       0.15149969 0.11628395 0.20441368 -0.2168264
000030 f5 33 97 3e e3 b0 91 3d c2 c0 8c bd b6 0a 62 be
       0.29531828 0.071138166 -0.06872703 -0.22074398
000040 78 fe 8e bd 5c 3b af 3c fb 5e 8e be 79 3b c9 3c
       -0.0698213 0.02139061 -0.2780684 0.024564492
000050 1c 8f b6 3d a8 4c 95 be eb 45 83 3e 44 7c 55 be
       0.08914015 -0.29160047 0.2563928 -0.20848185
000060 07 9a 86 3d 8c 43 95 bd 99 a6 7e 3e 45 0e 3b 3d
       0.06572347 -0.07288274 0.2486824 0.045667905
000070 90 ee ac 3e e0 de e4 3d e2 c5 d6 bd c5 fd 5a bd
       0.3377576 0.111753225 -0.10486962 -0.05346467
000080 31 45 4d 3e c0 9c a9 be ff 73 ed bd d7 19 e1 3c
       0.20045926 -0.33127403 -0.1159439 0.027478142

bias f4 [3]
000000 ec 1f 8d 3d 60 c3 7b be de c9 ff 3d
       0.06890854 -0.24586248 0.12489675
