models/paramsearch_0.01_0.25955111877491066_0.0_35.pt (torch, 31804 bytes, 7 tensors)

weight_ih f4 [240, 6]
000000 fb 5e 2d bd 3a 8d 04 be 8c a1 12 be b7 88 c6 3d
       -0.04232691 -0.12944499 -0.14319438 0.09694045
000010 2f 79 0a be 45 ef 68 bd 65 11 00 be c2 74 2c 3d
       -0.1352279 -0.05686881 -0.12506635 0.042103536
000020 22 2e 90 3c cb 0c 58 3d b4 d3 0b bd b6 e2 77 bd
       0.017600123 0.052746575 -0.034137443 -0.060518943
000030 d5 2f 55 3c 87 65 e9 3c 63 98 f3 3d e1 73 9b bd
       0.013011892 0.028490795 0.118943 -0.075904615
000040 94 ac bf bc f1 39 a0 3d db e8 9b 3d 8d 17 e6 3c
       -0.023397721 0.078235514 0.07612773 0.028087402
000050 5a e1 cd bc 1b 7e e0 bd 5e ad 59 bc a8 76 c4 3b
       -0.02513187 -0.10961553 -0.013285963 0.0059955902
000060 b8 38 29 bd f6 99 01 be 58 69 02 be 95 72 eb bd
       -0.041313857 -0.12656388 -0.12735498 -0.11496464
000070 81 8f 19 be 4f 6b eb bd 7c 34 ba bd 2a ae c7 3d
       -0.14996149 -0.11495077 -0.09092042 0.09750016
000080 22 20 0a 3c a2 5d 8a 3c 72 1a 04 bf 79 06 ba bd
       0.008430513 0.01689035 -0.5160285 -0.09083266
000090 34 83 5f 3d 9e 0d d8 3c 45 dd e0 bc 1a 05 72 b8
       0.054568484 0.02637368 -0.02744926 -5.7702047e-05
0000a0 b1 06 a8 bd b8 cc 52 3d 09 70 c4 bc e0 03 e7 3c
       -0.08204401 0.051464766 -0.023979204 0.02820009
0000b0 89 a8 94 3d aa aa d1 bc da dc cc 3a 16 97 9e 3d
       0.07258708 -0.025594074 0.0015629784 0.07743661
0000c0 a5 14 4f be 5b 06 da bd 54 00 5a bd ad 61 04 be
       -0.20222719 -0.106457435 -0.05322297 -0.12927885
0000d0 fd 5e 2c be a7 7d 8a be f2 68 26 bd 77 57 96 3d
       -0.1683311 -0.2704899 -0.040627427 0.07340901
0000e0 fc bd c1 3c c2 f3 dc 3d 7c 3e 9f 3d f2 fe 1a bd
       0.023650162 0.107886806 0.0777559 -0.03784079
0000f0 4a 86 c6 bc 5d 60 d2 bd 51 53 bc 3d 81 94 f6 3d
       -0.024233956 -0.10272286 0.09195579 0.120400436
000100 29 ef e6 3c 6c 76 dd bc 21 67 56 bc 7b a6 7c bd
       0.028190212 -0.027034007 -0.013086111 -0.061682206
000110 72 37 26 3c 42 b2 94 bc fc 99 0c 3e 3e 33 c8 bd
       0.010145055 -0.018151406 0.13730615 -0.09775399
000120 81 82 2e bc 05 d3 9e 3d da 3d 79 3d de 5c 5d 3d
       -0.010651232 0.077550925 0.060850002 0.054043643
000130 7b 4a a6 bd 1a fc ba bd 19 00 b7 bc 03 45 52 3d
       -0.08119675 -0.09130116 -0.022338914 0.051335346
000140 71 84 9d bd ee a5 39 bd af 50 c0 3d b4 13 41 3d
       -0.07691277 -0.04532426 0.09390389 0.04713793
000150 96 83 aa bd c2 43 1b 3d f9 ec d6 3d d7 3d 1e 3c
       -0.08325879 0.037906416 0.10494418 0.009658298
000160 2b 92 a2 3c a3 23 dd 3d d0 e2 ff 3d 15 d7 66 3d
       0.019845089 0.10797813 0.12494433 0.056357462
000170 07 9e 9b 3d fd a5 ba bd 60 b2 87 3c 1d 75 e2 3d
       0.07598501 -0.09113691 0.016564548 0.11057494
000180 a0 42 99 bd 10 21 78 3c 0b e0 76 3d 93 02 08 3e
       -0.07483411 0.015144601 0.060272258 0.13282232
000190 89 d4 b0 ba 17 24 bc 3d 01 33 d4 bd c9 fe fa 3c
       -0.0013491075 0.09186571 -0.10361291 0.03063907
0001a0 3c 95 7c 3c c7 e1 22 3d b0 8f a6 3d 2d 51 86 3d
       0.01541644 0.0397661 0.08132875 0.06558452
0001b0 51 11 1a be 5d 06 1e 3d bd 3a 27 bd 50 86 13 be
       -0.15045668 0.038580287 -0.0408275 -0.14406705
0001c0 45 49 82 bd 41 fe 04 3d 9b 55 89 3d 90 9c 6c 3d
       -0.06361631 0.032469038 0.06705781 0.057766497
0001d0 e0 f1 80 3d b6 63 b5 3d e1 7b 46 3c c6 02 3a bd
       0.06296134 0.08856909 0.012114496 -0.0454128
0001e0 ab 13 c0 bc ed 55 c7 bd e4 48 74 3d 19 06 cb bd
       -0.023446878 -0.09733186 0.059639826 -0.099132724
0001f0 0d 27 c2 bd 4e 06 5b bd 21 2c 68 3d 66 f7 1b bd
       -0.094801046 -0.05347281 0.05668271 -0.038077734
000200 cb 4e a5 3d f4 34 d9 3a 7d 1f b3 bc ff e4 05 3e
       0.08071669 0.0016571567 -0.0218656 0.13075636
000210 e1 e0 b0 bd f4 5f 9b bd eb 98 5f bd 75 29 45 bd
       -0.08636642 -0.07586661 -0.054589193 -0.04813524
000220 34 44 ca bc d9 ac 1a 3d 13 75 b3 bd 02 e6 c0 b9
       -0.024690725 0.037762497 -0.087625645 -0.00036792463
000230 ee ad 71 3d 49 e5 17 bd 1d 10 9e bc 70 ec 95 bd
       0.059003763 -0.037083898 -0.019294793 -0.073204875
000240 25 ce 18 3b fc e0 d1 bc ef 83 cc 3c 8e 50 e7 3d
       0.002331623 -0.025619976 0.024965255 0.112946615
000250 2c 98 45 3d 97 c2 0d bc 26 e4 f6 3d dd e1 f5 3d
       0.048240826 -0.008652351 0.120552346 0.120059706
000260 be 94 05 3e b5 9b 85 bc f1 87 07 3e aa e8 8e 3d
       0.13045022 -0.016309598 0.13235451 0.06977971
000270 15 8a 1f bd e8 3d 11 be 24 16 ec bd 40 ed d3 3d
       -0.038950045 -0.14183772 -0.115276605 0.10347986
000280 c5 04 93 bc 9d 2a 0e be 19 68 96 bd cc 8a 85 3a
       -0.01794661 -0.13883443 -0.07344074 0.001018846
000290 60 ca 22 bd 95 62 b4 3d 6e b1 8f 3d 7d a0 7c 3c
       -0.03974378 0.088078655 0.07016264 0.015419123
0002a0 d3 e1 cd 3d 9d 19 06 3d 91 4f 80 3d 9c 02 01 3e
       0.10052838 0.03273927 0.06265176 0.12598652
0002b0 24 60 13 3e 79 92 87 bd 9a df 35 be ab ca b9 bd
       0.14392143 -0.06619734 -0.17761078 -0.09071859
0002c0 b8 36 4e 3b b4 3a 05 be af 47 08 be ff 67 a5 3d
       0.003146572 -0.13010675 -0.13308595 0.08076476
0002d0 91 72 02 3e 39 98 ae 3d 6a a3 61 3c 94 50 cf 3c
       0.12739016 0.08525128 0.013771871 0.025306977
0002e0 c0 84 ad 3d 74 d7 23 3d d0 03 49 bb 05 47 a3 bd
       0.08472586 0.040000394 -0.0030672438 -0.0797253
0002f0 5b 42 f1 bd f5 60 8a bb f5 ec c3 3c d7 88 5d ba
       -0.117802344 -0.004222984 0.0239167 -0.00084508717
000300 c6 df cb bd 6a ad 9a bd 28 18 3a bd ab 5a c0 3d
       -0.09954791 -0.07552607 -0.045433193 0.093922935
000310 6a 9f 7d bd f4 eb af bd 43 26 32 3d f5 38 b0 3d
       -0.061919607 -0.08589926 0.04349352 0.08604614
000320 01 b2 c5 3b 58 0b d8 3d 61 a0 e2 3d b5 ac cb bb
       0.0060331826 0.10549039 0.11065746 -0.0062156566
000330 5e 9b 5e 3d d6 6c 00 3d ea 66 a1 3d 85 69 ee bc
       0.05434739 0.031353794 0.078809574 -0.02910305
000340 2a a3 96 bd bd 50 ed bc 28 36 05 3d c7 76 a1 bd
       -0.0735534 -0.028969163 0.03252235 -0.07883983
000350 e5 af c9 bd 84 4b 85 3d 14 b5 7a bd 16 68 20 bd
       -0.09848002 0.06508544 -0.061207846 -0.039161764
000360 7a 78 6d bd 6a 4e 5b bc 95 30 fc 3c 7f ec 35 3c
       -0.057976224 -0.013385395 0.030784884 0.011103748
000370 88 81 bd 3c df f5 1a 3d 15 73 8f 3d 71 1a 61 3d
       0.023133054 0.037832137 0.07004372 0.054956857
000380 2c 60 95 3d e9 ca 11 3e 45 53 9b 3d 65 51 3a 3d
       0.07293734 0.1423756 0.07584242 0.04548778
000390 cd 99 b5 3b c6 8f d7 bd 4a d7 d5 bd fc e1 06 be
       0.005542016 -0.105254695 -0.10441454 -0.13172144
0003a0 e0 42 07 3d c8 99 c0 3c 21 73 8c 3d e4 bc b5 3d
       0.03302276 0.023510829 0.068578966 0.08873919
0003b0 f1 f8 d1 bc 46 e6 1f 3d 1f de da bd 93 e3 a6 3d
       -0.0256314 0.039037965 -0.106868975 0.08148875
0003c0 87 aa d9 bc 1e 02 9e 3d 0e 2f f0 bb cd 26 15 3e
       -0.026570572 0.077152476 -0.007329828 0.14565583
0003d0 9e b4 72 3d 8c 57 0f 3e 8e 05 15 bd 38 e1 83 bd
       0.05925428 0.1399824 -0.03638225 -0.064394414
0003e0 4f 3e 46 3d ec c8 0e bd 0d f9 29 3d 23 f5 57 3d
       0.048399266 -0.034859583 0.04149728 0.052724015
0003f0 e9 97 bc bc 0a 26 9f 3d df e7 37 3d e1 a5 81 3b
       -0.023021655 0.07770927 0.044898864 0.003956542

weight_hh f4 [240, 12]
000000 44 fb ca 3c 52 82 35 bd a3 bc f3 bd db 07 ba 3d
       0.024778016 -0.044313736 -0.11901214 0.090835296
000010 27 72 66 3d 65 1b bc bb b5 4a ff bd 35 e6 49 3c
       0.056261208 -0.0057405704 -0.12465421 0.012322952
000020 19 ca b8 3e 32 c8 c2 bd 19 0e a6 bd 49 3b c3 3d
       0.36091688 -0.095108405 -0.08108158 0.09532792
000030 b1 9e 09 3b 26 98 23 3d a6 eb 8f bd f7 c9 bf 3d
       0.0020999128 0.039940022 -0.07027368 0.093646936
000040 e7 8f d7 3d 43 85 1c 3e 24 29 64 bc 99 dc 03 3e
       0.10525494 0.1528521 -0.013925824 0.1287712
000050 3b 89 f5 3e f6 64 c8 3d 9d ef 04 3d c1 e4 d5 bd
       0.4795626 0.09784882 0.032455076 -0.10444022
000060 80 2b fd bc bc 9c 90 3d 39 a8 af 3d f1 7c 3a bd
       -0.030904531 0.07061145 0.08577008 -0.04552931
000070 d9 46 e7 bd 18 75 f9 bd ba dc a5 bd 38 c4 f3 bb
       -0.1129281 -0.12180537 -0.08098741 -0.0074391626
000080 94 bb 09 be 28 62 94 3c 2c c4 d0 bd 02 7c e6 bc
       -0.13450462 0.01811321 -0.10193667 -0.028135303
000090 d4 92 d4 ba d2 cb ac 3d 98 2f 85 3d e2 d9 37 3d
       -0.0016218075 0.08437313 0.065032184 0.044885524
0000a0 b0 b4 0e bd 13 08 e9 bc a5 ec d1 3d 14 96 8a 3d
       -0.034840286 -0.028446233 0.102502145 0.067669064
0000b0 42 94 66 be 25 ff 6f bc 00 5f c5 bc ba d1 ab bc
       -0.22517493 -0.014648234 -0.024093151 -0.020974029
0000c0 36 20 56 3e 89 40 09 3d 58 6d 81 3d ee 7b 09 bd
       0.20910725 0.03350881 0.06319684 -0.033565454
0000d0 0f 8b cd bd 66 aa 97 3d 03 05 92 bc 7b 0b 3f bd
       -0.10036289 0.07405548 -0.017824655 -0.046641808
0000e0 a7 7a 1c 3f 20 fa d6 bd 55 92 24 3e 10 6b 82 3d
       0.6112465 -0.10496926 0.16071446 0.06368077
0000f0 cd 9b fc 3d 09 f2 e5 3d 71 6b 38 bd 42 15 9a bd
       0.12334404 0.11227805 -0.04502434 -0.07523586
000100 90 27 3f 38 52 75 ff 3c b6 a3 59 bd fc 00 19 3e
       4.5574794e-05 0.031183872 -0.053134643 0.14941782
000110 2b 59 2c 3e 39 cb cb 3d 8f 79 21 3e 8a c6 c4 3d
       0.1683089 0.09950871 0.15769027 0.09608181
000120 aa bc 34 be 12 a6 c9 3d 23 24 f9 3d a7 d6 b4 bc
       -0.17650095 0.098461285 0.12165096 -0.02207501
000130 a5 b3 9c bc ed c8 12 be 34 6f bc 3b bf 73 1a bd
       -0.01912863 -0.1433446 0.005750561 -0.03770804
000140 e3 34 f2 be 18 8e d5 3c b5 28 4e bd 5a 9b 8f bc
       -0.47305974 0.026068732 -0.05033179 -0.017530132
000150 1f b8 9b bd 4a 20 d6 bd b1 eb db 3c 0d 5b 34 bd
       -0.07603478 -0.104553774 0.026845785 -0.044032145
000160 9f 78 26 3c f7 89 0b be 3c c9 db 3a 47 01 d0 bd
       0.010160594 -0.13626848 0.0016768347 -0.10156494
000170 4e db 07 3c ce 33 ad bd cd 0b a5 bc e8 02 2f 3c
       0.008292032 -0.084571466 -0.020147229 0.010681845
000180 76 66 d4 3e bd d2 8c 3d e6 2b 9d bd db 62 07 3e
       0.41484421 0.06876133 -0.076743886 0.13221304
000190 9a 9a 1a 3e ab 20 6b 3e dc ec 21 3d 04 29 74 3e
       0.15098038 0.2296168 0.039532527 0.23843771
0001a0 ed 7c 39 3f c9 37 94 bd 37 42 f8 3d 72 b0 20 3e
       0.72456247 -0.07237203 0.121220045 0.15692309
0001b0 bf 50 57 bd 90 d2 77 3d 3a f6 8f bd 0e 23 a8 bd
       -0.05256724 0.060503542 -0.07029386 -0.08209811
0001c0 2d 9b 42 bd 48 8c 85 bd fe 99 16 3c da f5 75 ba
       -0.04751127 -0.06520897 0.009191988 -0.0009382643
0001d0 2d 84 58 3c a5 0e ec 3c 3c 3e 84 bd 4e 69 c1 3c
       0.013215107 0.028815577 -0.06457183 0.023609784
0001e0 55 9d 35 bd 8a 43 09 be cb 5c 6d 3d 1d 13 fe bc
       -0.044339497 -0.1340467 0.057949822 -0.031014973
0001f0 7b c8 ca bd 28 d0 ae bd 26 3a fd 3d 3d 6e b5 3c
       -0.0990152 -0.085357964 0.123646066 0.022147292
000200 03 f3 6d be 9a c6 11 bc 62 a1 ca 3d f1 7b d1 bc
       -0.23237233 -0.008897448 0.098940626 -0.025571795
000210 50 b7 87 3d 0f 5e de 3c c5 a5 84 bd e8 67 15 bd
       0.06626761 0.02714446 -0.064769305 -0.036476046
000220 d5 dd bf 3a e2 0f 8a 3d 49 21 a2 bd 40 8b 8c bd
       0.0014638255 0.06741311 -0.07916505 -0.06862497
000230 6b 14 04 3d 10 bd cf 3d 6b 22 60 bc 51 13 dd bd
       0.032246035 0.10143483 -0.013680081 -0.107947
000240 89 77 d3 3e 85 36 4f 3d 9c 87 80 bc 80 f0 ab bd
       0.41302136 0.050589103 -0.015689664 -0.08395481
000250 f1 50 20 3d 71 2d bd 3d 23 9a ef bd c4 46 75 bb
       0.03913969 0.09237183 -0.11699321 -0.0037426213
000260 f7 6f 38 3f f8 16 bf bc ee d5 16 3e e4 89 00 3d
       0.72045845 -0.023326382 0.14730045 0.031381503
000270 ec 1b b8 3d 33 42 e6 3d e5 5d bc 3d 6f 4f 97 bd
       0.08989701 0.11243095 0.091975965 -0.07388198
000280 80 a1 ea bd 28 8e 40 3d 64 3a 86 3d 4e 15 7a 3d
       -0.11456585 0.04701057 0.06554106 0.061055474
000290 94 7f 84 3e e0 3e 5c 3d 63 40 42 bd a3 71 b3 bc
       0.25878584 0.0537709 -0.047424685 -0.021904772
0002a0 07 5d c3 3d 80 06 99 bd c6 d0 70 3c d5 d6 f1 bd
       0.09539228 -0.07471943 0.014698213 -0.11808554
0002b0 4f e2 16 3d a7 cf ab bc ff cf 39 3d 0c 13 fb 3c
       0.03683692 -0.02097304 0.045364376 0.03064873
0002c0 a0 dd fb bc 0b 5e 5e 3c 84 00 8b bd 9c 7d ac 3d
       -0.030745327 0.013572226 -0.06787208 0.084223956
0002d0 7e 42 b8 bd 39 28 b4 3d fd b6 85 bb 01 cb 77 3c
       -0.089970574 0.08796734 -0.004080652 0.0151240835
0002e0 a9 6d 85 3d 32 12 44 3c 20 c1 d6 bc da 5a 14 3e
       0.06515057 0.011967229 -0.026215136 0.14487782
0002f0 c2 af 85 3c 5c d4 c9 bd ae 5b 6b bd 4f 5f 22 3d
       0.01631916 -0.098549575 -0.05746048 0.039641675
000300 79 f2 b1 3c 75 0e 72 3d f1 80 b4 3b c1 df 30 3d
       0.021722065 0.05909582 0.005508535 0.04318214
000310 5f 6a 4e bd 15 66 02 be 00 80 e7 3d fd b4 00 3e
       -0.050394412 -0.12734254 0.11303711 0.12569042
000320 21 4d 38 3d 93 be 9c b9 7e cf 97 bc 12 e7 85 bd
       0.04499543 -0.00029896628 -0.018531557 -0.06538214
000330 a1 8f aa bd f4 3b 0a bd 95 0c 71 3d ca c4 dc 3d
       -0.08328176 -0.033748582 0.05884989 0.10779722
000340 67 00 0c be fe 22 04 be 0e 9a 58 3c 41 60 dc bc
       -0.13672028 -0.12903973 0.013220323 -0.026901366
000350 6c e2 10 bd 70 55 ac bd 90 13 f7 3c c9 a5 70 bd
       -0.035372183 -0.084147334 0.030160695 -0.058751855
000360 23 9e ee 3d ff 76 33 bd dd 57 a9 b8 d8 76 6f 3d
       0.11651256 -0.043814655 -8.074914e-05 0.058462948
000370 ee 90 de 3d e7 59 0c 3e 79 38 58 3d a0 6a b8 3d
       0.10867487 0.1370617 0.05278823 0.09004712
000380 ab 8c e7 3e 2e f8 f9 bd 29 a5 53 bd ed 50 db bc
       0.4522451 -0.1220554 -0.05167118 -0.026771987
000390 6a 73 e5 3c 1e 8f af 3c f8 eb 52 3d e0 70 1d bc
       0.028009135 0.021430548 0.05149457 -0.009609431
0003a0 a7 07 84 bd 8a 78 53 bd 5e e5 73 bd 73 b9 95 3c
       -0.06446772 -0.051628627 -0.059544913 0.018276906
0003b0 7e cf 8f 3d 36 96 a3 bd 71 a9 0c be 25 0c 11 bd
       0.07021998 -0.07987635 -0.13736512 -0.035411973
0003c0 3c 1b e0 bd 43 a1 af bd 32 67 34 bd c0 96 3f bb
       -0.109426945 -0.0857568 -0.044043727 -0.002923414
0003d0 75 8c 23 bd a5 9f 8d 3d e2 be 7e bd a5 8a d1 bc
       -0.039928872 0.069152154 -0.06219376 -0.025578806
0003e0 d2 cd 23 bf 6f a2 cd 3d c4 52 f1 bd 12 71 d5 3d
       -0.6398593 0.100407474 -0.117833644 0.10421957
0003f0 f7 f0 06 be cf cf d7 3d fb 5b 16 bd 6b 62 ae 3d
       -0.13177858 0.10537683 -0.036708813 0.085148655

proj f4 [12, 60]
000000 da 84 be bd 5b 62 1f bc 42 3c 1f 3d 29 13 c4 3c
       -0.09302683 -0.00972804 0.038875826 0.023934918
000010 a4 bd da bd 8a 68 7f bc fa 9d 62 bc 55 12 c6 3d
       -0.10680702 -0.015588889 -0.01383161 0.09671465
000020 87 19 ac bc e6 df 5f bd ce 75 52 bd 41 dc 91 3c
       -0.021008266 -0.054656886 -0.05138188 0.01780522
000030 4d f9 0f bc 3b 1a d2 3c 27 00 55 3c a9 f0 14 bd
       -0.008787465 0.025647273 0.013000525 -0.036362324
000040 ce 8b 40 bd 86 c2 fc bc 88 6f ca 3c 9a cf 3c bd
       -0.04700833 -0.030854475 0.024711385 -0.04609642
000050 83 bd 99 bd 0f c5 d1 bd b4 f7 58 bc 1d f4 f0 3d
       -0.075068496 -0.10242664 -0.013242651 0.11765311
000060 8f ad b4 bd 0c 5e c3 bd bb e7 e3 3d 09 d6 18 3d
       -0.08822166 -0.095394224 0.111281835 0.037313495
000070 87 d0 7a 3c 02 a3 c6 bc a1 bc 1d 3d 5e e1 0b be
       0.015308506 -0.02424765 0.03850997 -0.1366019
000080 fd 05 5f bd 90 d5 07 be 5f 65 13 bd ef 93 cb bd
       -0.05444907 -0.13265061 -0.035985347 -0.099403255
000090 80 6c 6a 3b a1 75 71 3d dd 89 1c bc 29 1c db 3c
       0.0035770237 0.05895007 -0.009554354 0.026746826
0000a0 b7 e0 ff bd a8 0a 09 bd b6 38 25 3d 14 7a b0 3b
       -0.12494033 -0.03345743 0.040337287 0.0053856466
0000b0 55 8c 02 3e 27 7e c3 3d d9 14 db bd 0f 96 dd 3d
       0.12748845 0.09545546 -0.10697336 0.10819637
0000c0 bb 14 90 3d 6b 27 fa bd 90 7a 21 bd 6f 61 0a bc
       0.07035204 -0.1221455 -0.039423525 -0.008446082
0000d0 dc 32 9e 3c a0 8d ce 3d 83 02 cf 3d 01 3d f2 3c
       0.019311361 0.100856066 0.10107901 0.029570105
0000e0 33 e6 13 be 8c a6 ca 3d a6 04 d8 3d cc 23 8c 3b
       -0.14443283 0.098950475 0.105477616 0.0042767283
0000f0 73 6e 12 3d 07 6a 89 3d e6 4a 46 3b 67 bc 08 be
       0.035749864 0.06709676 0.0030257045 -0.1335312
000100 64 b8 3b bc a4 a0 af bd 73 62 6b 3c 55 ae 49 bd
       -0.011457536 -0.08575562 0.014366734 -0.04923852
000110 8d f1 43 3d 9f b3 37 bd 27 02 6a 3d d4 3a b4 bc
       0.047837783 -0.044849034 0.05713096 -0.022000708
000120 b4 97 8a bc 9a fb 90 3d 72 f8 8d bb a1 11 d5 bd
       -0.01691804 0.07079239 -0.0043325955 -0.10403753
000130 c3 7f 9a 3d a6 1c 03 3d 1e 4a 18 bd 16 99 0b 3e
       0.075439 0.032009743 -0.03718006 0.13632616
000140 26 c3 eb bb 52 21 11 be 3d 0a d0 bd fd c3 6e 3c
       -0.0071948944 -0.14172867 -0.10158203 0.014573094
000150 cd 55 07 be 9e 16 82 3d b0 e1 1a 3d 17 1c 6e bc
       -0.13216324 0.0635197 0.03781289 -0.014533064
000160 9a 81 ac 3d 69 4e d9 3c 57 5d ce bd 76 8e 3f bb
       0.08423157 0.026526647 -0.10076397 -0.00292292
000170 ec 0c ff 3a 9d 44 78 3d 72 04 17 3e db a4 65 3d
       0.0019458807 0.06061231 0.1474779 0.05606542
000180 27 45 01 3e 17 a6 b2 3d 97 ae ee bd c9 71 ab 3a
       0.12624036 0.087230854 -0.11654394 0.0013080175
000190 9e 03 4e 3d 0c d6 fd bc 05 3d 4e bd 35 03 5f 3d
       0.05029642 -0.030985855 -0.05035116 0.054446418
0001a0 88 e6 8a bd 20 15 d8 3d d2 dd 0d bd af 8a bb bc
       -0.067822516 0.10550904 -0.034635372 -0.022893278
0001b0 73 4e 84 3d 7b d2 04 3e ab a3 3a 3d 15 65 82 3c
       0.064602755 0.12970917 0.045566242 0.01591734
0001c0 0d 5c b3 3d c0 fc e6 bd 97 d3 72 bc af 01 0d be
       0.08757792 -0.11278677 -0.014820955 -0.13770173
0001d0 ab f2 86 bc 5e c6 e6 bd d0 bd d1 bd 7f da ef bd
       -0.016473135 -0.11268304 -0.10241282 -0.11711597
0001e0 ba 26 05 be 1f 45 36 bd 0b a9 03 3e e5 55 b2 bd
       -0.13003054 -0.044499513 0.12857454 -0.08707789
0001f0 e1 31 23 3c f7 5f 8f 3d cf f6 0f 3e de 3f a5 3d
       0.0099606225 0.07000726 0.14058994 0.08068822
000200 16 64 c2 bd 93 f9 0d 3e a6 8b 01 3e 71 a7 b4 bc
       -0.09491746 0.13864736 0.12650928 -0.022052499
000210 52 81 c3 bd d3 6a e8 3d 82 92 ad bd d2 40 80 bc
       -0.0954615 0.113485 -0.0847521 -0.015655909
000220 8f 3c 0c 3d de ef d0 3c 30 67 c3 3d fc 37 3d bd
       0.03423744 0.025505003 0.09541166 -0.04619597
000230 41 bf 93 bc 5b 37 07 be e2 74 25 3d a9 66 f1 bc
       -0.018035533 -0.1320471 0.04039467 -0.029467897
000240 2f 32 9a 3d 62 9b 04 3e a8 90 c9 bd 32 03 36 bd
       0.07529103 0.12949899 -0.09842044 -0.04443664
000250 55 52 8e bd 30 cc e4 3d 39 24 c9 bd af e3 ec 3c
       -0.06949297 0.11171758 -0.09821362 0.028917162
000260 52 b8 dc 3d 90 76 f4 3d 1c 95 d6 3c 7a cc f4 3c
       0.10777344 0.119366765 0.026194148 0.029882658
000270 9b 80 c2 3d 9a ed 66 bd 32 5f 4e 3d 14 d5 60 3d
       0.09497186 -0.05637894 0.050383754 0.054890707
000280 53 4e 45 3d a5 c4 76 bd b4 0c 5d 3d 37 d0 2a bd
       0.0481704 -0.06024613 0.053967193 -0.041702475
000290 89 81 62 3d 63 79 77 3d 49 68 b1 bd bb a8 03 bd
       0.055299316 0.060418498 -0.08662469 -0.032143336
0002a0 7a 6e 62 bc 3a 9d 6e 3b ce e2 e1 3d e4 77 00 3e
       -0.013820285 0.0036409632 0.11029588 0.12545735
0002b0 86 62 8a 3d a1 ab e2 3d 4f b1 22 3c d6 18 81 bd
       0.06757073 0.11067892 0.009929969 -0.06303565
0002c0 be 79 a7 bd 2e ee 55 bd 1b e6 a3 bd ef 76 ab 3d
       -0.08177517 -0.0522291 -0.080028735 0.08372294
0002d0 87 c7 95 3d 81 f3 5b 3c 78 fe c1 3d 69 66 aa 3d
       0.073134474 0.013424755 0.09472364 0.083203144
0002e0 b3 29 b0 3d 19 ec 0a be c7 64 ba 3d 7d 4d cb bd
       0.086017035 -0.13566627 0.09101253 -0.09926889
0002f0 02 a5 a7 bb 55 c4 3a 3d 64 01 06 3e b8 5a ce 3d
       -0.005116106 0.045597393 0.13086468 0.10075897
000300 e6 75 29 3d d2 07 ad 3d a1 9d a1 bc e5 43 da 3b
       0.041372202 0.08448757 -0.019728484 0.0066609257
000310 64 52 16 be f4 5b e0 bd 1a 3e 10 be 80 13 c9 3d
       -0.14679867 -0.10955039 -0.1408619 0.098181725
000320 db 4d e6 3d 84 33 16 be af bc d6 bd f8 92 77 bd
       0.112453185 -0.14668089 -0.10485207 -0.060442895
000330 e0 a6 a7 bd 21 da de bd c3 af 3a 3b 66 05 99 3d
       -0.08186126 -0.108814485 0.002848611 0.07471733
000340 17 69 8f 3d 61 49 f1 3d db 35 27 bd 6b 41 59 3d
       0.07002466 0.11781574 -0.040822845 0.053040903
000350 33 c5 a5 bd 31 6d a5 bd a8 89 02 3e ea d5 13 3e
       -0.080942534 -0.08077467 0.12747824 0.1443707
000360 2b ef b8 bd 2c c0 be bd 44 23 5d bd fb cf ee 3d
       -0.09029993 -0.093139976 -0.05398871 0.11660763
000370 b7 d2 4a bd 6f 3d 0c 3d 06 65 58 bc f7 85 bf 3d
       -0.04951736 0.034238275 -0.01320768 0.09351724
000380 ff 3e 52 bd a1 53 8d 3c e3 cc 39 3c ed fe c9 bc
       -0.05132961 0.017251791 0.011340353 -0.02465769
000390 96 f3 fd bd d6 54 27 3d 77 fd b7 bd bd 5d f7 3d
       -0.12399976 0.04085239 -0.089838915 0.12078426
0003a0 47 8f 64 3d 8b 86 44 ba 0e ce 72 bd 8f 4a a9 3d
       0.055800702 -0.0007496855 -0.05927854 0.08266174
0003b0 6c 70 43 3d 5c ff 94 bd 2f 2a a3 bd 1d 39 0b bc
       0.047714636 -0.072752684 -0.0796703 -0.008497504
0003c0 f2 11 44 3d 53 f2 45 3d 5b 9d 1d bd c6 b7 c9 3c
       0.047868676 0.0483268 -0.038480144 0.024623763
0003d0 90 01 a2 3d a0 2f ce bd c4 37 85 3d ae e2 09 ba
       0.07910454 -0.100676775 0.06504777 -0.0005259913
0003e0 8d d9 87 3c f5 6e 81 bd 29 34 17 3e 26 fd cf 3d
       0.016583228 -0.063199915 0.14765991 0.10155706
0003f0 97 00 c7 bd 0b 90 40 3b fb 0c f8 ba 51 47 4b 3c
       -0.097169094 0.0029382731 -0.0018924767 0.01240714

bias_ih f4 [240]
000000 ef b7 80 bd 26 c1 a1 bc 5a 2d 0b 3e 22 31 9e bd
       -0.062850825 -0.01974542 0.13591519 -0.07724215
000010 2b 94 0e 3d c2 d0 1b bd cf 3d 1f 3d 0f e7 42 bd
       0.034809273 -0.038040884 0.038877305 -0.047583636
000020 6b b0 06 be 84 42 29 bd cd d2 c0 bd 07 a3 92 bd
       -0.13153236 -0.0413232 -0.09415207 -0.07160001
000030 12 9c 5a bd a4 7f 51 3d 99 a8 1c bd ac 02 9e bd
       -0.053371496 0.05114712 -0.038246725 -0.07715353
000040 83 07 91 bc 59 0b 05 be fc ad d8 bd 7f 0c 98 bd
       -0.017703777 -0.1299261 -0.1058006 -0.074242584
000050 d2 ce 1b 3c 84 41 0c 3e 29 29 9c bd 16 93 77 bd
       0.009509759 0.13696867 -0.07625038 -0.060443006
000060 10 92 1d bd 3a 06 cc bd 10 b0 2b 3d 83 91 cd bc
       -0.038469374 -0.09962125 0.041915953 -0.0250938
000070 cd c7 a3 3d 01 c5 c1 bd 87 25 67 3d e8 9d c9 bd
       0.07997093 -0.09461404 0.056432273 -0.09844571
000080 c7 2f 35 3d 3f d9 e6 bd 6c 50 9f 3d c3 2b 14 be
       0.044235017 -0.11271905 0.07779011 -0.14469819
000090 50 0f 11 be d1 20 c0 3d ea 6b 5f 3b b2 0c e5 bc
       -0.14165998 0.09381259 0.0034091421 -0.027960155
0000a0 2d a1 e4 3c 33 8c 31 bd d7 4d af ba e1 02 ff 3d
       0.027908886 -0.043346595 -0.0013374639 0.12451721
0000b0 c1 5f 93 3d 3b 3c 83 bd ce 35 a7 3d ce e5 be bc
       0.07195998 -0.064079724 0.08164559 -0.023302939
0000c0 0c b8 df bc 61 a2 ac 3d e2 46 af 3d 1e 51 e6 3c
       -0.02730944 0.08429409 0.08558442 0.028114852
0000d0 76 25 fa bd 30 64 d8 3d 0f 6f 63 3d de 7b 8a bd
       -0.12214176 0.10565984 0.055525836 -0.06761907
0000e0 c4 7a d3 3d b2 fd ee 3c f8 b9 a0 3d cd c5 90 bd
       0.1032615 0.029173706 0.07847971 -0.070689775
0000f0 9a 4c 01 bc 31 f1 1b bd 63 8d cd bd ee f2 45 3d
       -0.007891798 -0.038071815 -0.10036733 0.04832738
000100 a1 27 21 3d bd 22 df bd a2 87 a9 bc c4 34 0a bd
       0.039344434 -0.10895298 -0.020694558 -0.033741727
000110 dc 91 63 be 98 31 ae bd 3c 53 98 3c c8 88 14 3e
       -0.2222361 -0.08505553 0.018594377 0.14505303
000120 4b 46 0b be d3 ca a1 3d aa d9 6c bd 57 0b e5 3b
       -0.13601033 0.07900014 -0.057824768 0.006989877
000130 72 fc 82 3d 9a 81 04 bd b7 a5 3b bd e0 ef e9 bc
       0.06395806 -0.03235016 -0.045812335 -0.028556764
000140 d4 63 6c 3d 95 16 f9 3d 53 c8 ee 3c 21 72 03 3e
       0.05771239 0.1216251 0.029148256 0.12836505
000150 50 08 79 bd a8 7e f2 3d 53 a2 47 3d d4 ea 15 bd
       -0.060798943 0.11840564 0.04873879 -0.036600903
000160 89 d8 01 3c 94 04 6c be 9b f5 91 3d c1 2a 9c 3c
       0.007925161 -0.23048621 0.07126924 0.019063355
000170 4e be da bd be 12 20 3b d7 e8 c8 3c 7d 2f 28 bd
       -0.10680829 0.0024425234 0.02452509 -0.041060913
000180 cd a2 5a bc e3 2b cc bd aa c1 e7 3d 0f 1f 87 bd
       -0.013344479 -0.09969308 0.11316235 -0.06597721
000190 20 af e2 bd 12 e6 c4 bd 0c 91 b5 bd 49 37 bf bd
       -0.11068559 -0.09614195 -0.08865556 -0.09336717
0001a0 9e 64 42 3d c5 4d dc bd a8 10 c2 bd 9e df 8c bd
       0.047459237 -0.10757021 -0.09475833 -0.06878589
0001b0 92 76 d6 bc 91 10 e6 bd b5 2a ce bc 14 09 bc ba
       -0.026179586 -0.112336285 -0.025166849 -0.0014345967
0001c0 7a fa 92 3d 91 8c c3 bc c6 ad 0b bd 12 ca 13 3d
       0.07176681 -0.023870738 -0.03410127 0.03608138
0001d0 e7 e2 b2 3c 35 22 2a be 92 03 32 3b c8 79 87 3d
       0.021836711 -0.16614611 0.0027162773 0.06615025
0001e0 68 de 16 3d 52 20 36 bd f7 76 9e bd 7e 10 91 3c
       0.036833197 -0.044464417 -0.077375345 0.01770806
0001f0 34 14 cd 3d b2 83 28 3d 12 bf 76 bd 42 af 2f bd
       0.10013619 0.04114122 -0.060240813 -0.04289175
000200 f5 a3 6a 3d 26 2a aa 3d b7 bf 8f bd 93 c0 a1 bd
       0.057285268 0.083088204 -0.070189886 -0.07898059
000210 36 47 bc 3d 32 8c 30 bd a7 1b 0f bd 4e 88 7e 3d
       0.0919327 -0.04310245 -0.03493848 0.06214171
000220 8b d5 8f 3b 1f 79 3c 3d b4 64 a3 3d 73 52 8a bc
       0.00438947 0.046013948 0.07978192 -0.016885018
000230 3a 50 09 bb 6a a7 c1 bd 5a f7 99 bd 13 14 c6 3d
       -0.002095236 -0.0945576 -0.07517882 0.096717976
000240 9b 4e 07 3e 64 67 d0 bd f1 f0 da bd d1 a7 de bc
       0.1321358 -0.1017597 -0.10690487 -0.02717963
000250 5a 57 09 be 2f 8c 0c 3f 11 ab 01 3e 4b 63 3b bc
       -0.13412228 0.54901403 0.12662913 -0.0114372475
000260 6b cd 65 3d 65 8e a3 bc 13 5e c1 bb 47 78 8a bd
       0.056104105 -0.01996536 -0.005901107 -0.06761222
000270 f3 95 b8 3d ea 44 0a 3e 08 79 aa 3b 72 1d 0b be
       0.090129755 0.13502851 0.0052024163 -0.13585451
000280 28 5a cb bd fa 4b 9e bd a9 c1 0a 3c 34 27 b5 bd
       -0.09929305 -0.07729335 0.008469024 -0.08845368
000290 00 c1 0e 3e 97 57 1b 3c be f8 95 3c 60 bd bf bd
       0.13940811 0.009481332 0.018307086 -0.09362292
0002a0 37 b6 db 3d a9 d3 a8 3d 5b c2 f9 bd d1 e8 cc 3d
       0.10728114 0.08243496 -0.121952735 0.10005344
0002b0 5a 8a 16 bc ab 23 b5 3d ca dc 16 3d 5d 12 49 3c
       -0.009188259 0.08844694 0.036831655 0.012272445
0002c0 ca 4a 10 be 70 1d 87 3d a8 57 b9 3c 1f 19 83 3d
       -0.1409103 0.06597412 0.022624806 0.06401276
0002d0 56 5a fa 3a 07 9c 3f 3c e1 7e b3 bc ad 04 ff bb
       0.0019100409 0.011694915 -0.021911087 -0.00778254
0002e0 ac ff cc 3d 44 c0 b8 3d 1b c5 50 bc 8b 6b f0 3d
       0.10009703 0.09021047 -0.012742306 0.11739262
0002f0 4d ea 13 3c f7 02 d4 3b bf 71 80 bd 8e 0f cc bd
       0.00902803 0.00647008 -0.06271695 -0.09963904
000300 21 e4 06 be 38 a0 93 bd 7b ff 87 3c 19 07 fd bc
       -0.13172962 -0.07208294 0.016601315 -0.030887173
000310 65 a8 44 bd f2 c3 7e 3d 35 c2 19 3d 4b 2b d0 3d
       -0.048012156 0.062198587 0.037538726 0.101645075
000320 9a c1 ea 3c 26 0e 6e 3d 32 b1 c7 3c a9 cd 84 3d
       0.02865677 0.05811896 0.024376485 0.06484539
000330 dd 96 8f bd be d3 ef 3d 8d 2d d3 3d c4 f8 9f 3d
       -0.07011197 0.117103085 0.103114225 0.0781112
000340 6b cb bf 3d 49 31 b6 bc 69 fc be 3d 06 b9 de bd
       0.09364971 -0.022240298 0.09325487 -0.10875134
000350 cb 9e bb 3d c8 23 ae 3d 44 f1 e1 3d c5 a3 c3 3d
       0.09161147 0.085029185 0.11032346 0.09552721
000360 36 ca 2d bd b2 1a 41 bd 6b a5 e3 bd cd 15 fc 3d
       -0.04242917 -0.0471446 -0.11115535 0.12308846
000370 d3 04 36 3c 9a de 4f bd 4f 0d 03 be 91 e8 ad 3d
       0.011109549 -0.0507494 -0.12798046 0.08491624
000380 64 09 d6 bc 78 18 76 bd 30 c2 ea bd 01 c2 d6 3d
       -0.026127525 -0.06008193 -0.114628196 0.10486222
000390 d0 e7 55 bd d9 32 3a 3d 53 dd 0c bd e8 af eb 3c
       -0.052223027 0.04545865 -0.03439076 0.028770402
0003a0 46 bc cf 3c 20 8c b8 3b 4a 2c 81 3d 9f b4 f5 bc
       0.02535833 0.0056319386 0.063072756 -0.029993353
0003b0 b9 cd d7 3d 7d 91 2a be f4 e0 9e 3d 94 8c 02 3d
       0.10537285 -0.16657062 0.0775775 0.031872347

bias_hh f4 [240]
000000 74 6a bc 3d b8 57 a4 3d bd 2a f3 3d 74 7b 4c bd
       0.09199992 0.080245435 0.11873386 -0.04992242
000010 ce a5 14 be dd de 0f be e6 91 c4 3d bf 88 c8 bd
       -0.14516374 -0.1404986 0.095981404 -0.09791707
000020 c4 33 d7 bd 95 d0 ba 3c a0 51 8a bc 8e 1d 3e bd
       -0.105079204 0.022804538 -0.016884625 -0.046414904
000030 d7 74 df bd fc ef 92 3d b6 5b a2 3d d4 1e f0 bd
       -0.10910957 0.0717468 0.07927649 -0.1172463
000040 2c b5 c7 bd 67 4a d7 3c bd 5c ce bb eb 28 d9 3d
       -0.09751353 0.026280595 -0.0062976764 0.106035076
000050 fd c0 35 bd 6c c3 88 3d 33 77 99 bd 1a 2a 0d 3d
       -0.0443735 0.06677899 -0.074934386 0.03446398
000060 08 06 ef 3d ea 26 98 bc 6c 00 4e bc 86 7e be bd
       0.11671072 -0.018573243 -0.012573343 -0.09301476
000070 8b ee ba bd e9 f6 15 be 51 a7 01 3e 95 38 96 bd
       -0.0912753 -0.1464497 0.12661482 -0.07335011
000080 44 85 d0 3c f3 d1 8c 3d 20 ce 17 bd 1a 16 83 bc
       0.025454171 0.06875982 -0.03706181 -0.01600175
000090 79 40 9f 3d 73 d0 80 3c 8e 7d 96 3d bb 0c 01 3e
       0.07775969 0.015724396 0.073481664 0.12602513
0000a0 7f fd bb 3d fe 43 f2 bd 0e 3c 79 3d ad 9d f9 bb
       0.0917921 -0.11829375 0.06084829 -0.0076176734
0000b0 c1 ba 5e 3d e8 e6 ad bc fa 67 0b bd e4 26 fc 3d
       0.05437732 -0.021228269 -0.034034707 0.12312105
0000c0 a4 2e 9a 3d 25 0d 7c bd 6b fd 51 bd 28 32 ca bd
       0.07528427 -0.061535973 -0.05126707 -0.09872848
0000d0 89 6e 91 3d 07 da ee 3c 96 60 b9 3c c2 98 ac 3d
       0.07101161 0.029156698 0.022629064 0.08427574
0000e0 32 ae ba 3c 53 8d 1f be a1 d8 20 be b1 e2 9e bc
       0.02278814 -0.15581255 -0.15707637 -0.019395204
0000f0 a8 08 05 bb 96 7a fa bc 14 b8 0e 3e ae ba 21 3d
       -0.002029935 -0.030576032 0.13937408 0.039484672
000100 d5 2b 6b 3c f9 39 b9 3d 74 68 94 3d 46 8e b7 bd
       0.014353712 0.090442605 0.07246485 -0.089626834
000110 f6 c5 4d be 6d 2a 69 3c 14 4b 15 bd 60 e8 08 3e
       -0.20095047 0.0142313065 -0.036448553 0.13369894
000120 5e f5 6a 3d 87 8b e2 bd b3 d7 b1 3d 8b 10 80 bd
       0.057362907 -0.11061769 0.086837195 -0.06253155
000130 44 e0 7d 3d 66 a0 72 3c dc 87 d1 bd 32 03 7f 3d
       0.061981454 0.01480875 -0.10230991 0.062258907
000140 be d1 86 3d 99 4c 22 bd b3 d0 d7 3c 14 71 0f bd
       0.06582974 -0.03962383 0.026344633 -0.03501995
000150 41 1b 8f bd 64 a3 0c 3d b5 f2 a8 bd 12 e6 bc bd
       -0.0698762 0.03433551 -0.08249418 -0.0922357
000160 1c 8f 68 3d 3a 3f 47 be 41 5e bd 3d 0d 35 94 bd
       0.056777105 -0.19457713 0.09246493 -0.07236681
000170 b6 74 bc bd c1 04 80 bb 48 a2 e2 3d c9 bd 87 bd
       -0.09201948 -0.0039068167 0.11066109 -0.066279955
000180 c2 b1 53 bd 67 7d df 3d fb 2a 4b 3d d0 82 91 3d
       -0.051683195 0.109125905 0.049601536 0.07105029
000190 e6 0d 97 bc 02 67 a4 3c ff 82 c5 3d e6 15 c5 3d
       -0.018439244 0.02006865 0.09644126 0.096233174
0001a0 6e e0 02 bd b8 f5 6f 3d e0 71 9f bd 91 39 fe 3d
       -0.031952314 0.058583945 -0.07785392 0.12413324
0001b0 81 07 22 bd 12 68 bf bd a1 b2 82 3d 0c 81 a8 3d
       -0.039557938 -0.09346022 0.06381727 0.08227739
0001c0 6c f1 c0 bd 11 a9 d3 bc 6c 51 95 bd c1 cb cc bc
       -0.094210476 -0.025837453 -0.072909206 -0.024999501
0001d0 ab c8 28 3d 82 6e 0d be 7e b4 a3 bc b1 ee 54 bd
       0.041206997 -0.13811687 -0.019983526 -0.051985446
0001e0 1c df 23 3d 76 88 2e 3d 01 f9 86 bd eb 2c e5 3d
       0.040007696 0.042610608 -0.065904625 0.11190208
0001f0 b4 4a 9b 3d da 14 30 3d d9 fd 96 bd 37 b6 05 3b
       0.07582608 0.042988636 -0.07372636 0.0020402798
000200 7e 7f bf bc 54 d7 a6 bd db 29 b3 bd 94 1e ea bd
       -0.023376223 -0.08146539 -0.08748218 -0.114316136
000210 18 2a 83 bd 08 03 84 bc 05 92 1a 3d 23 2c e2 3c
       -0.06404513 -0.016114727 0.03773691 0.027608937
000220 db b4 a2 3d c1 d2 ab bd 38 54 d3 3c f9 9e ca bd
       0.07944652 -0.083898075 0.025796995 -0.09893603
000230 9c 7b ec bd e3 ed f7 3d 3a f3 4a bd ef 68 aa 3d
       -0.11547014 0.1210592 -0.049548365 0.08320796
000240 bd c1 90 bc 88 6a ae bd 49 34 07 bb 95 1a 9e bc
       -0.017670507 -0.08516413 -0.002063053 -0.019299785
000250 78 a4 33 bc 24 e0 03 3f 06 65 15 bd f9 43 fc 3b
       -0.010964505 0.51513886 -0.036473297 0.0076985327
000260 01 40 16 bd 4b b3 b3 3b a0 0b 46 bd 78 3f a9 bc
       -0.036682133 0.00548402 -0.04835093 -0.020660147
000270 8e 94 c8 bd 51 42 12 3c 7d d2 0c 3d 07 32 14 be
       -0.097939596 0.008926944 0.034380425 -0.14472209
000280 05 9b 1e 3d e7 26 bf 3d a1 8a c4 bd ba 3d 0b 3e
       0.038722057 0.09333592 -0.09596754 0.13597766
000290 f2 7f 22 3d 0d 5a b2 3d d4 fd d9 3d 8d 12 8b bd
       0.0396728 0.08708582 0.10644117 -0.06790648
0002a0 96 6e 84 3c 6f 8e c6 bd 0c 8d 38 bc 61 24 f7 bd
       0.016166013 -0.09695136 -0.011264097 -0.120674856
0002b0 f8 f4 81 3d 0f 5c ca bd cd 0a 4f bd 7a ab a8 3d
       0.06345552 -0.0988084 -0.05054741 0.082358316
0002c0 cc 5c db 3d be 13 07 bc 7f 70 6d ba 77 b9 db 3d
       0.10711059 -0.008244453 -0.0009057596 0.10728734
0002d0 c5 13 af 3c 1f 19 cc 3d d6 fc 98 bd 29 ba a8 bd
       0.021371732 0.09965729 -0.074701 -0.08238632
0002e0 ad 2d 58 3a 73 e8 e5 3c a4 6f c9 bd b9 ca a9 bc
       0.00082465523 0.028064942 -0.09835747 -0.020726549
0002f0 b1 21 cf bc 70 a4 e5 3d 8d 14 16 3e ca 52 08 3e
       -0.02528462 0.112130046 0.14656277 0.13312832
000300 9c 79 be bd fe 86 11 bd 3a 07 1a bc 6f 37 87 3d
       -0.09300539 -0.03552913 -0.009401137 0.0660237
000310 98 85 0e 3e f1 c7 b6 bd ee b2 18 bd 7e 92 26 bc
       0.1391815 -0.089248545 -0.037280016 -0.010166762
000320 41 96 02 3d 6c f0 cc bd 63 f6 ab bc c7 4d dc 3d
       0.031881575 -0.10006794 -0.02099151 0.10757022
000330 5b 5c 40 3d 1a 68 30 bb e7 9a 80 3d 14 54 0f 3d
       0.046963077 -0.0026917518 0.06279545 0.034992293
000340 c2 15 be 3c ef 9d 15 be 7c 42 24 3c 45 1e 1e bd
       0.023203734 -0.14611028 0.010025617 -0.038603086
000350 d9 ec 03 be 5d 22 89 bc 1c 42 f2 3d 17 d5 3c 3d
       -0.12883319 -0.016740019 0.118290156 0.046101656
000360 e8 f5 8e bd 4b 96 c3 3d f5 52 18 3d cf f2 be 3d
       -0.06980497 0.095501505 0.03718849 0.09323656
000370 12 5d 91 3d ae 5e 0d be 88 aa 04 bc 2d 1b 88 bd
       0.0709783 -0.13805649 -0.008097298 -0.06645808
000380 bf d0 4f bc 28 84 ea bd 62 43 b5 bd ab 34 64 bd
       -0.012684046 -0.11450988 -0.08850743 -0.05571429
000390 7b 06 da bd 6e 8c b1 3d 43 fb 9e 3d 56 0f 92 3d
       -0.10645767 0.08669363 0.07762768 0.07131831
0003a0 7a fe 69 3d f5 2d ab bd 79 5e b4 bc 9d 5c ca 3c
       0.057127453 -0.08358375 -0.022017704 0.024702365
0003b0 d7 c8 41 bc ff 0e 71 3d 8a 68 25 be 6e 22 d5 3d
       -0.011827669 0.058852192 -0.1615316 0.104069576

weight f4 [3, 12]
000000 d7 13 57 3e 8e ad 75 be 31 65 f8 bd 71 48 c5 bd
       0.21003662 -0.23991987 -0.12128676 -0.09632958
000010 36 ba 79 bb 79 37 f3 3d ab 38 6a 3e 75 c6 c8 3d
       -0.0038105375 0.11875815 0.2287318 0.09803478
000020 ef 59 66 be d0 80 94 3e dc 56 81 3c 66 88 48 3e
       -0.22495244 0.29004526 0.015788488 0.19583282
000030 43 4e a9 3e 46 c4 3c 3e 16 49 25 3d 69 a6 92 3e
       0.3306752 0.18434247 0.040352903 0.28642586
000040 c9 c4 56 3e 9a 88 2d 3c cb 05 b2 bd 41 c4 00 3e
       0.20973505 0.01059165 -0.08692511 0.12574865
000050 e6 8c 9f 3e 5a 30 7d be 02 e1 fa 3d 31 f3 83 3b
       0.31162184 -0.24725476 0.12249948 0.0040267934
000060 b5 2c 3c 3c f1 fe f4 3c f2 a0 d6 bd d6 7d 58 be
       0.011485268 0.029906722 -0.10479917 -0.21141753
000070 1c 60 88 be 4f ef 51 bd da 82 03 3e cb b7 ee bd
       -0.26635826 -0.051253613 0.12842885 -0.116561495
000080 92 e6 8d 3d eb 6c cb 3d db e0 6f be 26 13 bf bd
       0.069287434 0.09932884 -0.2342562 -0.09329824

bias f4 [3]
000000 86 b1 52 3e fd cd 32 3e fa c9 24 3e
       0.20575532 0.17461391 0.16092673
