models/paramsearch_1e-05_0.7765700221632791_0.6171003663365539_100.pt (torch, 32348 bytes, 7 tensors)

weight_ih f4 [240, 6]
000000 39 17 64 bd f8 3e 12 3d 5c 97 a7 3c e4 55 94 bb
       -0.05568621 0.035704583 0.020457916 -0.0045268405
000010 4f c6 0f bd c3 41 cf 3d c3 df e3 bd e1 10 bd 3d
       -0.03510123 0.10119965 -0.111266635 0.09231735
000020 1d 01 3d bd b2 dd cc 3d cc 4a 99 bd 28 8f 45 3c
       -0.04614364 0.100032225 -0.074849695 0.012058057
000030 09 c5 52 bd c8 57 bd 3d 6c ba b8 bd 53 fa 99 bd
       -0.05145744 0.092452586 -0.09019932 -0.07518449
000040 fa e0 48 bd 7d a9 53 bd 7b c2 9e 3d 8f 6e 39 3d
       -0.04904268 -0.05167531 0.07751938 0.045271453
000050 2e 59 e5 3d b2 c9 92 3d db 94 22 3d 2b e1 80 3c
       0.1119865 0.071673766 0.03969274 0.015732368
000060 bd 36 09 3e 9f ee ab bd 6a 69 a1 bd 40 13 9f 3b
       0.13399787 -0.08395123 -0.07881434 0.0048545897
000070 79 21 ec 3c f0 c3 3c 3d d2 30 69 bd 22 9a c8 bc
       0.028824555 0.046085298 -0.056931324 -0.024487559
000080 96 c6 a5 3d b2 b3 14 3e 33 75 d3 bc 94 9c ac bd
       0.08094518 0.14521673 -0.02581272 -0.084283024
000090 db 3a 8c 3d da d8 4d bd 55 74 06 3d 5c c6 fe bb
       0.06847163 -0.050255634 0.032825787 -0.007775111
0000a0 53 d3 b6 bd f3 0b 9e bd 83 72 c0 b9 9e 4c 68 bd
       -0.08927026 -0.07717123 -0.00036706412 -0.056713693
0000b0 71 f9 bb 3c 9f 70 bb 3d bc bb bb 3d bd 71 41 3c
       0.022946091 0.0915234 0.09166667 0.0118069025
0000c0 75 80 f8 3d b1 ab 98 bd 02 42 d1 3d 47 48 c2 3d
       0.12133876 -0.074546225 0.10217668 0.09486442
0000d0 8e 51 b1 3d 26 9d a0 bd d9 0c 16 3e 1b 3b 88 3d
       0.086581334 -0.07842474 0.14653338 0.066518985
0000e0 f8 a6 62 bd fb 4f a4 bd 93 59 f9 3c c7 3b 17 3e
       -0.055335015 -0.080230676 0.03043822 0.14768897
0000f0 90 d3 cb bd 33 1d 84 3d 63 41 90 bc 09 1a 9e 3d
       -0.09952462 0.06450882 -0.017609304 0.077198096
000100 75 fc d4 3d d4 23 09 bc 53 b6 01 be f0 03 a7 3d
       0.10399715 -0.0083703585 -0.12667207 0.08155048
000110 2a f2 9d bd 23 6c 41 3d a6 d8 03 be 81 32 4a bb
       -0.07712205 0.047222268 -0.12875614 -0.0030852857
000120 96 e1 59 bd be 8b 80 3d 14 2b de bd 6b 1c c0 bd
       -0.05319365 0.06276654 -0.1084806 -0.0938042
000130 f6 97 ad 3d 25 1a 43 bd 60 f7 b1 bd 15 b1 00 be
       0.0847625 -0.047632355 -0.08689761 -0.12567551
000140 5d 70 c7 bd 07 30 b5 bd 9c 39 85 bb 91 6b 55 3d
       -0.097382285 -0.08847051 -0.0040657055 0.052104536
000150 80 33 f8 bc b1 f7 09 3e 94 7a 39 bd bd 0d 7b bd
       -0.030297995 0.13473393 -0.045282915 -0.0612924
000160 73 ea db bd 10 79 cb 3d 8b 76 bc bd 56 75 03 3e
       -0.10738077 0.099352 -0.09202298 0.12837729
000170 73 37 7b bc 88 01 f2 3c 05 1d af bd b3 93 39 3b
       -0.015333044 0.029541746 -0.08550457 0.0028316795
000180 22 c5 dd 3d 4f 99 be 3d 7c 31 31 bc 85 ca f4 bb
       0.10828616 0.09306585 -0.010815021 -0.0074704313
000190 ce 14 c0 bc 6b 4d df bc f4 e3 f9 3d 73 01 ef 3d
       -0.02344742 -0.027258595 0.12201682 0.11670198
0001a0 8b 0c e1 3d 10 85 08 3d c8 81 00 be 7a d8 a5 bc
       0.109887205 0.033330023 -0.12549508 -0.020244826
0001b0 2e 9a 22 3d 9d 81 17 3e 32 7d bc 3d e5 17 1c 3b
       0.03969782 0.14795537 0.092035666 0.0023817953
0001c0 2c 2f 70 bd bd b7 85 3c 0b 5a a5 3c 97 b9 e2 3d
       -0.058638737 0.016322965 0.020184537 0.11070555
0001d0 d8 27 d0 3d 54 60 c4 3d 23 02 9d 3c 0b f7 b9 3d
       0.101638496 0.09588686 0.019166058 0.09080323
0001e0 3a f8 05 3d 5a 99 a0 bd 4d 52 3a bc 7e 81 36 bc
       0.03270743 -0.078417495 -0.011372161 -0.011139272
0001f0 15 9b 12 3e 39 de c8 bd 46 03 c4 3d c9 02 37 bc
       0.14316972 -0.098080106 0.09570937 -0.011170098
000200 b6 8b f6 3d 05 23 7d 3d 74 df 04 3d 2e 67 af 3d
       0.120383665 0.061800975 0.032439664 0.08564602
000210 8b cc e6 3d be 6d ca 3d 80 50 86 bd 31 72 28 3c
       0.11269482 0.09884213 -0.06558323 0.010281132
000220 af 4b d8 3d ec e6 bf bd 4f 2c e3 3d 38 02 90 bd
       0.105613105 -0.09370217 0.110924356 -0.07031673
000230 70 10 3f bd 4e b4 90 3d 9e 14 62 3d 82 97 11 3e
       -0.046646535 0.070656404 0.055195443 0.14217952
000240 39 b6 4d 3d e4 25 bb 3c 25 ed 31 bd 91 e6 b1 3d
       0.05022261 0.022845216 -0.04343905 0.08686555
000250 c6 8c 62 bd 75 8a 2c bd 1c 77 2a bc f8 68 8b 3d
       -0.055310033 -0.04212423 -0.010404374 0.068071306
000260 e7 28 e0 bd 18 d1 e3 bd 3d d8 b7 3d b1 24 db bd
       -0.109453015 -0.11123866 0.08976791 -0.10700358
000270 d7 cc d8 bd 7d b8 0d 3e 33 05 ff bd c1 4c 99 bd
       -0.10585945 0.13839908 -0.124521635 -0.07485343
000280 b2 d1 02 3e 92 77 9f 3d b5 21 81 bd 12 63 b4 bd
       0.12775305 0.07786478 -0.06305257 -0.08807959
000290 8a b2 fb bd 97 1a c1 bd d5 99 e6 3b 3f 10 de 3d
       -0.12289913 -0.094289 0.007037381 0.108429424
0002a0 23 fb 64 bd 2d 56 a7 3d f4 cb ab 3d dd 74 6c 3c
       -0.055903565 0.081707336 0.0838851 0.014432159
0002b0 17 79 9e 3c 52 77 24 3d ad 6f 0a 3d 57 4e c1 3b
       0.01934485 0.040152855 0.03379791 0.0058992314
0002c0 49 01 71 3d f6 5f 47 bd b1 d1 a7 3c e1 2c ca 3c
       0.058839116 -0.0486755 0.02048573 0.024679603
0002d0 91 00 dc 3c 9b 16 f1 bd 0c 72 9c 3d f1 f8 be bd
       0.026855739 -0.1177189 0.0763894 -0.093248256
0002e0 cf 0e b1 3d 46 30 6f 3d ca c9 19 bc f4 67 a0 3d
       0.08645403 0.058395647 -0.009386489 0.078323275
0002f0 b7 cf 82 bd 5f 59 4a bd 12 ca 0b 3e 41 86 dc 3d
       -0.06387275 -0.049401637 0.13651302 0.107677944
000300 cc 91 73 bc f6 83 78 bb 12 6f 5e 3d c0 67 b6 bd
       -0.014866304 -0.0037920452 0.054305144 -0.089065075
000310 42 d0 c6 bc cf da 82 bd 85 9a 04 3d 2b b8 07 3d
       -0.024269227 -0.06389391 0.032373924 0.03313462
000320 8d 40 df 3c 57 13 e3 bc 15 71 60 bd d0 a2 f3 3b
       0.02725246 -0.027719183 -0.054795343 0.0074351802
000330 2e 1b 64 bd 0f 44 08 3e be 45 d8 bd ec de ef bd
       -0.055689983 0.13307212 -0.10560177 -0.11712441
000340 56 31 ea 3d d6 54 95 3d 85 9a 6f 3d 7b 51 e6 bd
       0.11435191 0.07291572 0.05849697 -0.1124601
000350 36 e8 da bd 6b 5b 7d bd 0b 1c bb 3d 9a 4b 51 ba
       -0.10688822 -0.06185476 0.09136208 -0.0007983983
000360 5e 9e e8 bb 6f 5a 89 3c 25 ba bb 3d aa 2b 47 bd
       -0.007098957 0.016766755 0.091663636 -0.048625626
000370 7b 20 c8 3c 35 5a d5 bd 8b 6b 9d 3d e3 3c ed 3d
       0.02442955 -0.10417596 0.07686528 0.11583879
000380 bf c9 2d bd 90 45 ad bd 0a ab ca 3d 5e a1 cc 3c
       -0.04242873 -0.084605336 0.09895904 0.02497929
000390 43 c4 ab 3d cd 60 8b bd 69 c0 23 bd 26 74 de bd
       0.08387043 -0.06805573 -0.03997842 -0.10861997
0003a0 a4 c4 f4 bc 8b de 65 3c c6 0f 55 bd d7 f2 02 3e
       -0.029878922 0.014030109 -0.052016996 0.12787949
0003b0 f2 a4 ac bd 0d 1a 0a 3e 60 26 0f 3e 68 68 d3 3d
       -0.08429898 0.134865 0.13979483 0.10322648
0003c0 83 7b 99 bd 15 ba 1c bd 1b e6 b1 bd d9 74 69 bc
       -0.07494261 -0.0382634 -0.08686467 -0.01424905
0003d0 5a 26 db bd 2e 2d e0 3d 9f 86 05 3e 95 49 a8 bd
       -0.10700674 0.10946117 0.13039635 -0.0821716
0003e0 93 1a 86 bd ca 24 ed 3d 3a 11 11 3e 31 bb 07 3e
       -0.065480374 0.115792826 0.14166728 0.13255002
0003f0 ef 80 6e 3c 3a ab ef bd ed 8e ac 3d 8c a7 4e 3d
       0.014557107 -0.11702581 0.084256984 0.050452754

weight_hh f4 [240, 12]
000000 d6 ac e4 3d 30 68 ee 3d f8 e4 07 bd 90 3e 60 bd
       0.11165778 0.11640966 -0.033177346 -0.054747164
000010 e6 3d bb 3d f1 89 5f bc 48 47 f9 bd 76 73 94 3c
       0.091426656 -0.013643728 -0.12171799 0.018121462
000020 9e 97 98 3d 5f 6a 1d bd e2 5f ff bd 69 77 7e 3d
       0.07450794 -0.03843152 -0.1246946 0.062125597
000030 73 1b 5c 3d 3a 3c b8 3d ac 2d 9e 3c 89 a3 e8 bd
       0.053737115 0.08995862 0.019308887 -0.11359317
000040 31 7f fc 3c 97 e3 ba 3d a4 c1 9d 3d 54 d5 a2 bd
       0.030822368 0.091254406 0.0770295 -0.07950845
000050 29 0f ee 3b 0f 9e 86 3c de 14 ca 3d 66 87 65 3d
       0.007264991 0.01643279 0.09867261 0.05603733
000060 a2 3b dc bd 67 9a 80 bd 20 02 2b 3d f0 e0 c1 3d
       -0.107535616 -0.0627945 0.041750073 0.094667315
000070 9f 28 93 3d a3 3d 96 3d 8b 72 de 3d 23 54 27 bb
       0.07185482 0.07335975 0.10861691 -0.0025532327
000080 07 48 3a bc ad 0b 30 bd e9 65 17 3b 7f 97 de bd
       -0.011369712 -0.042979885 0.0023101515 -0.10868739
000090 1c 1e 89 ba 75 1f 6c 3d 04 5b c7 39 02 ff 37 bd
       -0.0010461244 0.057647187 0.0003802405 -0.04492093
0000a0 02 7c 27 3d b2 e5 bf 3d 38 c6 93 bd ea 3b 1a bd
       0.040889747 0.09369983 -0.072155416 -0.037654795
0000b0 93 8f 4c 3d 2f 9a 52 bd 0f 4a 01 3e 9c 71 41 3c
       0.04994161 -0.051416572 0.12625907 0.011806872
0000c0 66 67 13 3d 7d 66 5c bd 5d ee b3 3c 14 a9 56 3d
       0.03598728 -0.053808678 0.021964246 0.05240734
0000d0 c8 13 96 3d 0f 25 11 3e b3 ef 48 3d 5c de 91 3d
       0.07327992 0.14174293 0.04905672 0.0712249
0000e0 f5 24 bf bd 0f ac 17 bd a5 af a6 ba 6a 45 c1 3c
       -0.09333221 -0.037029322 -0.0012717141 0.02359267
0000f0 9d df d0 bd 8d 5b 24 3d 32 fe a4 3d 15 4d ab 3d
       -0.10198901 0.040126372 0.080562964 0.083643116
000100 2f 05 ad bd 72 cd a4 3d b6 33 dd bd 23 02 da bd
       -0.08448254 0.08046998 -0.10800879 -0.10644939
000110 a1 b9 af 3d 19 bc 78 bd 25 9d 08 3d de 56 9c 3d
       0.08580328 -0.06072626 0.03335299 0.07633756
000120 21 6d 49 3d fd 31 6a 3b fa 41 e4 3d 5c c7 2e 3d
       0.04917634 0.0035735362 0.111453965 0.042670593
000130 06 5e 4a 3d 11 96 03 bc 53 ad b5 3d e3 a9 c8 3d
       0.049406074 -0.008031384 0.088709496 0.09798028
000140 04 ff e4 3c 81 e5 9c 3b 7f ab ba 3d 46 3f b9 3b
       0.027953632 0.004788101 0.091147415 0.0056532947
000150 1f 3e 9e bc 64 9c ae bd 26 99 f4 3c f8 cc 48 bd
       -0.019316731 -0.08525923 0.029858183 -0.0490236
000160 56 a3 3f bd f0 30 9f bc 2e 80 99 bd 10 d0 5a 3d
       -0.04678663 -0.019432515 -0.074951515 0.05342108
000170 d7 dc 31 bd ce 9d db 3c 02 71 45 bd 2d 1f fe 3c
       -0.0434235 0.026808646 -0.048203476 0.031020725
000180 c4 4a 73 3c e8 32 b3 3d ba 2f 1e 3d 1a 81 a9 ba
       0.0148493685 0.08749944 0.038619734 -0.0012932152
000190 0f c0 63 bd 41 ba 9a bd 79 51 bb 3d 2e 1c 63 3d
       -0.055603083 -0.07555056 0.09146399 0.055446796
0001a0 ac ee 0b 3d 37 62 d8 bc e3 ad 04 3e 2f d7 c1 3d
       0.034163162 -0.02641402 0.12956958 0.09464871
0001b0 79 96 e5 3c f9 8c 4f bd d1 57 df bd 7c 74 05 3d
       0.028025853 -0.05067155 -0.109054215 0.03258179
0001c0 ac 3e 43 bc 88 6f f0 bb 8b 10 0a 3d 1d 25 d9 bd
       -0.011916798 -0.0073375143 0.033707183 -0.10602782
0001d0 5e 34 27 3c 64 18 15 3e c1 94 01 bd b4 87 f8 bd
       0.010205356 0.14560086 -0.031636003 -0.12135258
0001e0 95 ac ce bd 15 58 c1 bd 31 8e c0 bd 87 1a f8 3d
       -0.10091511 -0.094406284 -0.09402121 0.12114435
0001f0 5d 94 db bd d1 b1 e9 3d 57 2d e6 bc f1 17 96 3d
       -0.107216574 0.11410869 -0.028097792 0.07328785
000200 c7 99 b0 3d 5c 87 09 3e e6 db da bd 4b 36 c1 3c
       0.08623081 0.13430542 -0.106864735 0.02358546
000210 8b 35 94 3d 06 3c 5b bd c2 b0 98 3d 85 fb d8 bc
       0.07236775 -0.05352404 0.07455589 -0.026487121
000220 53 32 ad 3d 4f fe 89 bd 1e 8d e4 bd 1d 10 b6 3d
       0.08456864 -0.06737959 -0.111597285 0.08889792
000230 f2 8d d6 bd 80 e3 48 bd fd 36 af 3d fb 7b 2f bc
       -0.10476293 -0.049045086 0.0855541 -0.010710712
000240 cf f7 69 bd 8a 4b 92 bd 40 09 3a 3d 3f 7f b8 bd
       -0.057121094 -0.07143314 0.045418978 -0.09008645
000250 80 ef 49 bd ca f2 5d 3d f6 6c dc 3d ea bc b3 3d
       -0.04930067 0.05418662 0.1076297 0.08776267
000260 4b d7 73 3c 44 22 6f bd ea 77 d5 bd 6a 22 64 bb
       0.014882873 -0.058382288 -0.104232624 -0.0034810551
000270 c2 bc 02 bd b1 8d 48 bc a4 3e ee 3d 26 54 37 3d
       -0.031918295 -0.012240813 0.116330415 0.044757985
000280 f5 73 0d bc 80 ed 87 3d 91 d5 a7 bd 1f 9d e5 bd
       -0.008633603 0.066370964 -0.081950314 -0.11211609
000290 61 32 ee bd cc 7c 20 bd 40 31 98 3c 5e 90 04 bb
       -0.11630703 -0.039181516 0.018578172 -0.002022765
0002a0 b6 f4 41 3d e8 89 82 bd c3 64 11 bd 74 96 b3 3d
       0.047352515 -0.0637396 -0.035496484 0.08768931
0002b0 07 9d ba 3d 06 75 64 bc 9d 69 16 bc 94 58 a5 3d
       0.09111982 -0.013943916 -0.009180454 0.080735356
0002c0 fd 55 fd 3c 0b cc 13 bb 19 f3 e4 3d 70 64 c5 3d
       0.030924791 -0.002255204 0.1117918 0.096382976
0002d0 a9 0f eb 3d 5d f4 8c bd 2c a2 94 bd d2 7e 99 3d
       0.11477596 -0.06882546 -0.07257494 0.07494892
0002e0 65 cc b7 3d 4e 73 f6 3d a1 74 3c 3d 5c 62 9a 3d
       0.08974532 0.120337114 0.046009663 0.07538292
0002f0 36 66 4f bc 33 1b df 3c e6 b7 4d 3d 19 c6 1c 3d
       -0.012658646 0.02723465 0.050224207 0.03827486
000300 c7 c4 4e bb d1 24 d6 bd 0c bf 49 3d 25 b2 cc 3d
       -0.0031550394 -0.10456241 0.049254462 0.09994916
000310 0c 61 c6 3d 79 8e 7c 3b ee 88 14 3d a0 25 c7 3d
       0.09686479 0.0038537069 0.0362634 0.09723973
000320 95 c3 0f be 00 54 17 3d aa b0 64 3c 03 80 26 3d
       -0.14039452 0.036945343 0.013958136 0.040649425
000330 9d 8e 15 3c 6c 97 c7 3d 73 72 cc bd 69 8a 58 bc
       0.00912824 0.09745678 -0.09982767 -0.013216593
000340 ab 66 79 3d 61 90 a9 3d 85 21 23 3d 3a 1a f6 3b
       0.060888927 0.08279491 0.03982689 0.0075104507
000350 b7 e4 ca bd 98 32 bf 3d 1e 95 06 3e f5 52 cd bd
       -0.09906905 0.09335822 0.13142821 -0.100255884
000360 05 ca c1 3d d6 6d 4f bc 72 9c b3 3d e7 06 ce 3d
       0.0946236 -0.012660464 0.08770074 0.1005991
000370 15 4f 5d bd 7f 79 f5 3c e0 1e ea bd ac 94 89 3c
       -0.054030497 0.02996516 -0.1143167 0.016794525
000380 ec a5 61 bd 50 8f cc 3d 54 57 95 bc dd 2b 0b be
       -0.055089876 0.09988272 -0.018230118 -0.13590951
000390 33 3c 0f 3c e9 ef d8 bd d1 7e 5f bd d9 16 06 be
       0.00874238 -0.10592634 -0.0545643 -0.13094653
0003a0 b3 ea 0b be 66 bc 1c bd f6 3b 84 bd ad 51 dc 3d
       -0.1366375 -0.03826561 -0.06456749 0.10757766
0003b0 8c 9f d3 bd 68 bc 57 bc 76 75 df bd 13 a6 0b bc
       -0.103331655 -0.013167478 -0.10911076 -0.008523482
0003c0 8a dc b0 3d 5a 52 d8 3d 72 f7 89 3d 35 48 45 3d
       0.086358145 0.10562582 0.067366496 0.048164565
0003d0 ee ec 97 3d 1b 93 b8 3c 27 e6 b3 3d 3c 3c 75 3c
       0.074182376 0.022531083 0.087841325 0.014967974
0003e0 1d 71 a6 3d bb a6 d5 3d 3c 61 b0 3d fd b9 be bb
       0.081270434 0.10432192 0.08612296 -0.0058205114
0003f0 4a e1 db bd a6 ca f6 3c 4f b8 06 3e 82 d8 c2 bd
       -0.1073633 0.030125927 0.13156246 -0.09513952

proj f4 [12, 60]
000000 83 d5 d0 bd 61 0d 23 bd fa 61 28 bd 5c 53 04 3e
       -0.10196974 -0.03980768 -0.041109063 0.12922424
000010 7f 26 79 3c 0c ee 63 3c 4e 82 fb 3d 0f f2 82 3c
       0.015206932 0.013911735 0.12280713 0.015984563
000020 7c 10 8c bc 2f 24 25 bd f6 51 95 bc 52 e7 aa 3c
       -0.017097704 -0.04031771 -0.018227559 0.020862255
000030 b0 a4 bb 3d c3 1b 91 3d d8 ba db bd 4f e6 b6 3d
       0.09162271 0.07085373 -0.10728997 0.08930647
000040 44 03 1a 3c 32 42 02 3e bd d0 38 3b 43 11 42 bc
       0.009400193 0.12720564 0.002820059 -0.011844936
000050 03 dc 0b 3e 57 b0 92 3c 5c 92 58 3d 72 2a 57 bd
       0.13658147 0.017906351 0.052873954 -0.052530713
000060 02 ba 11 be 10 3d 97 bd 24 6d 9a 3d 63 f4 8e bb
       -0.14231113 -0.073846936 0.07540348 -0.0043626293
000070 b8 4e 03 be cc 9c e9 bc 09 37 7d bc c4 4b 65 3d
       -0.12822998 -0.02851715 -0.015455016 0.05598046
000080 98 d7 b1 3b 84 6f 4d bb e4 da c8 bd 64 1f 86 bc
       0.005427312 -0.0031346986 -0.09807375 -0.01637239
000090 af 17 a7 3d b9 66 03 3e e2 11 54 3d 4c 94 ab bc
       0.08158814 0.12832154 0.051774867 -0.020944737
0000a0 0e 2c 8d 3d b0 9c 03 3d 35 20 96 bc f3 ff 93 bd
       0.068931684 0.03213185 -0.018325904 -0.07226553
0000b0 8a c3 8e 3d 72 9a ed 3d 2c b1 85 bd e0 ad af bd
       0.0697089 0.11601724 -0.065279335 -0.08578086
0000c0 e6 02 69 bd 32 ac 26 3d c5 0b c9 3d a2 51 f5 bd
       -0.05688753 0.040691562 0.09816698 -0.11978461
0000d0 d9 78 dd 3c 28 74 2f 3c 09 a7 88 bc 75 1d 9f bd
       0.027035164 0.010708846 -0.016681211 -0.0776929
0000e0 76 08 81 3b b1 eb d4 3c 10 b0 fc 3d 08 3f dd 3d
       0.003937776 0.025991293 0.12338269 0.10803038
0000f0 4c 18 ac bd 64 5b 06 3d ac af 7a bd a7 16 de 3d
       -0.08403072 0.032802 -0.06120269 0.10844164
000100 60 6e 59 3d 2a 2c 0f 3e 87 a6 0f 3d 7b 66 08 bc
       0.053083777 0.13981691 0.035070922 -0.0083252145
000110 e6 71 ed bc 9a e3 a3 b9 98 74 0e be fa 2b b9 3d
       -0.028984975 -0.0003125936 -0.13911664 0.09041591
000120 18 5f ae 3d 51 2a 4d bd ee f3 97 3d 40 50 0a 3e
       0.085142314 -0.050089184 0.07419573 0.13507175
000130 ff 8b dd bc b4 60 ca 3c 88 09 b0 3d 64 62 00 3e
       -0.027044294 0.024704315 0.08595568 0.12537533
000140 41 bf e7 bc c6 54 d5 bc bf 54 87 3c b8 85 3d 3d
       -0.02828944 -0.0260414 0.016519902 0.046270102
000150 7b c5 6f bc 8b c9 b7 3d 4f 54 fd bd 85 33 03 be
       -0.014634485 0.08973988 -0.12369596 -0.12812622
000160 06 90 87 bd ab 75 d7 3c a8 f6 4f 3d 61 11 b2 bd
       -0.06619267 0.026301226 0.05077234 -0.08694721
000170 4e 33 03 be c9 a1 3c 3d 92 cc f3 3c 46 a4 48 3d
       -0.1281254 0.046052728 0.029760633 0.04898479
000180 c4 67 53 bd dc f4 ee 3d ad 02 17 bd e4 b1 a7 3d
       -0.05161263 0.11667797 -0.036867786 0.08188227
000190 a1 41 1f bd d8 9d 69 3d 47 58 93 bd c6 16 64 bd
       -0.038880948 0.057035297 -0.07194572 -0.05568578
0001a0 6b 51 14 bd a1 81 28 3d 6e 95 04 bd c1 9c e3 3d
       -0.03621046 0.04113925 -0.03236907 0.11113883
0001b0 6e 76 ce 3d c0 88 c1 bc 46 79 a4 3d 35 7e c8 3d
       0.100811824 -0.023624778 0.080309436 0.09789697
0001c0 b2 f0 9f 3d 1b cd 31 3d c0 fc f4 bd 2f fe d5 3d
       0.07809581 0.043408494 -0.11962271 0.10448872
0001d0 24 df a5 3d a5 f0 8c 3d d0 b3 13 3e 8b 79 f3 bd
       0.08099201 0.06881837 0.14424062 -0.11888417
0001e0 a0 a4 82 3c b3 f3 74 3d e9 b3 93 3c d5 74 dc 3d
       0.01594764 0.059802722 0.018030124 0.107644714
0001f0 de 61 df 3d 1e 9c cc 3d ae 68 d0 3c a7 fa c6 3d
       0.109073386 0.099907145 0.02544054 0.09715777
000200 57 4b 0b 3e 89 a6 dc 3d 9f e0 af bd 0e eb 70 bc
       0.13602959 0.107739516 -0.08587765 -0.014704479
000210 e2 fe ea bd ba 8c a9 3d 6f ee 81 3d 11 d3 8b 3d
       -0.11474396 0.082787946 0.06344306 0.06827367
000220 15 84 06 be 53 cb 06 3a 33 c1 82 3d 39 a8 e6 3d
       -0.13136323 0.0005141992 0.06384506 0.11262555
000230 de e9 67 3d db 8c 9e bd 63 10 87 bd ea de f4 3d
       0.056619518 -0.0774171 -0.065949224 0.1195658
000240 a2 a7 01 3d ab 62 12 bd 15 16 8e bd f7 74 2f bd
       0.031654008 -0.03573863 -0.069378056 -0.042836156
000250 a1 68 b2 3c 17 c0 bb bd 1e 54 5a 3d 3f 38 5b bd
       0.021778407 -0.091674976 0.053302877 -0.053520437
000260 1a 51 2f 3c df 80 ab bc e5 aa 8b 3c 8b 1f 69 3d
       0.010700488 -0.020935474 0.017049262 0.056914847
000270 d5 6f 34 bd c9 e3 c8 bb ee a2 b1 3d b0 84 50 3d
       -0.044051964 -0.0061306697 0.086736545 0.05090779
000280 23 19 be 3d f7 d4 a7 3d 0f 66 a0 3c e6 5c 30 3d
       0.09282138 0.08194917 0.019579915 0.043057345
000290 61 15 d5 ba a4 3a 49 3d 83 1f 81 bd 38 26 13 3e
       -0.0016256982 0.04912819 -0.063048385 0.14370048
0002a0 07 33 73 3d 09 5a c5 bd c8 d9 80 3d 8b 65 b9 bd
       0.059374835 -0.096363135 0.062915385 -0.09052571
0002b0 d8 97 8b bd ac 4b 7c bd 2a 74 ce 3c 5c 42 e4 3d
       -0.06816071 -0.061595604 0.025201876 0.111454695
0002c0 da 07 e3 3c ad 4a 09 be ba 80 87 bd 81 ec 16 be
       0.027713705 -0.13407393 -0.066163495 -0.14738657
0002d0 b7 9f 13 bd b0 ca 02 bd 5f 91 bf 3d 6d 63 c6 bd
       -0.036040988 -0.03193158 0.09353899 -0.09686933
0002e0 1a 64 e3 3d ee ba e1 bb 29 ed d1 3d e5 d1 36 bd
       0.11103077 -0.006888739 0.10250313 -0.044633765
0002f0 45 af 0b 3d de 44 d5 3d c0 b9 a1 3b ef e0 f5 3c
       0.034102697 0.10413526 0.004935473 0.030014483
000300 ac d6 aa 3d 05 96 b7 bd d9 28 e0 3d 8e fa d1 3d
       0.08341727 -0.08964161 0.10945291 0.10252868
000310 69 16 4c bd 78 84 0f 3e 25 9d 85 3c 77 d1 d9 3d
       -0.04982606 0.14015377 0.016310284 0.106356554
000320 df e1 95 3c 1c 89 dd bd cc 0a 03 3e 28 e7 75 3c
       0.01829618 -0.10817167 0.12797087 0.015008725
000330 72 b5 17 3d d3 fb 29 3d ec 3c 0c be af 67 1c 3d
       0.037038274 0.041499924 -0.13695115 0.038184818
000340 9f e8 db 3d d0 f9 4b bd 4a 44 8b bd 14 46 57 3d
       0.10737728 -0.049798787 -0.068001345 0.052557066
000350 99 cc c3 bb 78 34 05 be 60 15 64 3d fc 4b d3 3d
       -0.0059753177 -0.13008296 0.055684447 0.10317227
000360 2c 89 63 3a f1 85 6e 3d d3 25 4e 3d c4 33 c0 3c
       0.0008679803 0.058233205 0.05032904 0.023462184
000370 e6 54 bd 3d c0 85 9e 3d 2f 3c 80 bd 0b ba d8 bd
       0.09244709 0.077403545 -0.06261479 -0.1058236
000380 c6 70 36 3c 91 1e cb 3d 86 86 a1 3d bd d8 8d bd
       0.011135286 0.099179395 0.078869864 -0.06926105
000390 ef 18 be 3d d1 3d 39 3d 5d 55 4f 3d f3 91 f5 bd
       0.092820995 0.04522497 0.05061852 -0.11990728
0003a0 8d b7 4e bd 75 74 2b bd b4 ea a7 3d 23 35 6d bd
       -0.050468016 -0.04185911 0.08199063 -0.057912003
0003b0 ca fa 43 3d 44 45 37 bc 7c f0 9b bd 70 5e 47 3d
       0.047846593 -0.011185948 -0.07614228 0.048674047
0003c0 3d 0b 7f bd 66 ba 76 3d 2b 39 0b be 19 6f cb 3d
       -0.062266577 0.060236357 -0.13596027 0.099332996
0003d0 5d 22 67 bc 2b ab af 3d 11 31 dd bd 18 01 88 bd
       -0.014107314 0.085775696 -0.10800374 -0.066408336
0003e0 a8 3e 66 bd e8 7e fd bc 50 36 4e 3d f6 6c aa bd
       -0.056212097 -0.030944303 0.050344765 -0.08321564
0003f0 98 31 bd bd f0 f9 dd 3d 41 d3 a5 3d eb 8e a7 bd
       -0.09237975 0.108386874 0.08096934 -0.08181556

bias_ih f4 [240]
000000 0a 76 e3 bd 68 60 b3 3d f3 f0 44 bc 88 98 34 bd
       -0.111064985 0.087586224 -0.012020337 -0.044090778
000010 4f 23 3c bd c5 78 b0 bd 71 23 bf 3d 63 44 96 3d
       -0.04593211 -0.08616785 0.09332932 0.073372625
000020 ca e8 db bd 2f 42 05 bd 00 50 20 3d 2c ee 61 bd
       -0.1073776 -0.03253382 0.039138794 -0.05515878
000030 69 7f 8b bd 64 d3 45 bd 7c 5b da bd 38 40 c3 bd
       -0.06811411 -0.0482973 -0.106619805 -0.09533733
000040 24 ad 16 bc fa 37 45 bc e6 57 de bd 32 40 2a 3c
       -0.009196553 -0.012037272 -0.10856609 0.010391282
000050 ac ce 1c bd 81 81 85 3b 16 d1 b8 bd 95 c8 0c 3d
       -0.038283035 0.004074276 -0.09024255 0.034370977
000060 2c 63 88 bd 52 b8 05 be 44 a9 d4 bd 9a 04 83 bd
       -0.066595405 -0.13058594 -0.10383847 -0.06397362
000070 18 33 9d 3d 15 6c fe 3d c8 a0 da bd e3 4a 8a bd
       0.07675761 0.12422959 -0.10675198 -0.06752565
000080 71 59 f4 3d 75 35 2b 3d bb 00 bc bc b9 6e 6e bd
       0.11931122 0.041799027 -0.022949567 -0.058211062
000090 c6 7a 84 3d eb 42 bb bd 6e 9e 1d 3d 5a 77 f7 3d
       0.0646873 -0.09143623 0.03848117 0.120833114
0000a0 ad e4 84 3c a6 94 45 bd 3a 34 58 3c 26 04 34 bd
       0.016222322 -0.048237465 0.0131960455 -0.04394927
0000b0 a0 78 96 3c 06 13 dc 3d d5 a7 90 3d aa cc b2 bd
       0.018368065 0.10745816 0.070632614 -0.08730443
0000c0 b4 84 9f bd 6d 59 7a b9 c5 90 b5 3c ec ab 76 bb
       -0.07788983 -0.00023875172 0.022163758 -0.0037639095
0000d0 79 9a c8 bd cc 0d 91 bd dc 7d 85 3d 4d 64 14 3e
       -0.09795088 -0.0708271 0.065181464 0.14491387
0000e0 72 75 76 bd b6 ef 76 bc 06 ae d8 3d bc 3e e4 3b
       -0.0601706 -0.0150718 0.10580067 0.0069654863
0000f0 e0 ae ac bd 29 e9 a7 bd ea 48 a6 3d 48 ba 8b 3d
       -0.08431792 -0.08198769 0.08119376 0.0682264
000100 13 77 a9 bd 08 09 d4 3c 01 70 f1 bb 85 90 d8 3d
       -0.08274665 0.025883213 -0.0073680882 0.1057444
000110 66 fa 55 bd e8 b7 ba 3d bb 52 4a 3d 0b 4a 8e 3d
       -0.05224075 0.091171086 0.049395304 0.06947716
000120 d0 9a 1f bd c9 71 e8 3c e3 e0 94 3c 0c ab d1 bd
       -0.038966 0.02837457 0.01817364 -0.10237703
000130 e3 33 eb 3c 05 1d 10 3e 03 df 84 bd 3c 15 15 3e
       0.028711265 0.1407357 -0.064878486 0.14558882
000140 6d 26 b1 3d b5 a4 43 3d bd 1e e2 3d db 1b 0b 3d
       0.08649907 0.0477645 0.11041019 0.033962112
000150 2d e3 d8 3c 16 38 b2 bc 3d 43 04 3e f0 bb 16 3d
       0.026475513 -0.02175526 0.12916274 0.036800325
000160 0a 7a ba 3d e3 ca ae 3d eb 58 a9 bd ce 15 fd 3d
       0.09105308 0.08534791 -0.08268913 0.123576745
000170 02 93 14 bd b4 73 04 bd 15 92 e6 3d f8 55 23 3d
       -0.03627301 -0.032336906 0.11258332 0.039876908
000180 d2 b5 88 bd 48 b1 58 bd 2c f9 f8 3d 04 56 9b bd
       -0.066753045 -0.052903444 0.12156901 -0.075847656
000190 c5 ca e2 bd 1e 88 a5 bd 73 9c 6e 3d 9d 64 e7 3d
       -0.110738315 -0.08082603 0.05825467 0.11298487
0001a0 03 f0 23 3d 75 54 cf 3d 19 62 19 bd c4 77 1e bd
       0.040023815 0.10123531 -0.03744707 -0.038688436
0001b0 6b 2d 00 3e a9 66 cc bd 26 21 b5 bd 59 ae 51 bb
       0.12517326 -0.09980518 -0.08844213 -0.0031994788
0001c0 5b d2 a9 3d cd 74 03 be bc 9f ed bc 36 6b 12 3e
       0.08292075 -0.12837525 -0.029006831 0.1429871
0001d0 9a c9 f9 3d b8 5f bb 3c bc c0 d6 bc f1 7a 6b bd
       0.121966556 0.02287279 -0.02621495 -0.057490293
0001e0 c2 d4 b2 3c a8 bb 81 bd cb 7e 84 3d a7 9b 37 3d
       0.021829966 -0.06334621 0.06469496 0.044826176
0001f0 4c f3 da bd 8e 3c 0d 3d df a0 1a bd 77 b0 bb bd
       -0.106909364 0.034481578 -0.037751075 -0.091645174
000200 20 cd dd bd f8 f1 7f bd 98 f5 14 3e 12 3c 3a 3d
       -0.1083014 -0.06248662 0.14546812 0.045467444
000210 17 1f d7 3d 79 ec dd 3d 8d 97 30 bd e6 71 8c b8
       0.10503977 0.10836119 -0.04311328 -6.6969355e-05
000220 07 0c 6e 3d 34 98 e4 bd 30 0e 06 be 65 14 98 bc
       0.05811694 -0.11161843 -0.1309135 -0.018564412
000230 3c a2 15 be 54 c9 d5 bd c5 b1 40 3d ba 9c 59 bd
       -0.14612669 -0.10438791 0.047044534 -0.05312798
000240 5c 14 a9 3d 5c 6e 21 3d 11 75 3c 3d dd 96 12 3d
       0.08255836 0.039411888 0.04601008 0.035788406
000250 65 3d 27 3c 53 f2 61 3b 97 d8 0d 3d 86 b5 8d bc
       0.010207509 0.0034476712 0.034630384 -0.017298471
000260 a5 15 a1 3d f4 94 4d bd cb 79 bb bd b6 72 eb 3c
       0.078654565 -0.05019088 -0.091540895 0.028741222
000270 d7 ef e6 bd eb d9 17 be 78 1e c4 3d 65 57 20 3d
       -0.112762146 -0.14829223 0.09576124 0.039145846
000280 15 8b 8a bb 24 16 ec bd 37 7e c1 3c c6 01 8d 3c
       -0.0042280057 -0.115276605 0.023619754 0.01721276
000290 66 e3 8d 3d d5 b7 16 be e2 a4 c6 bd 6c b9 9c 3c
       0.069281384 -0.14718564 -0.09699418 0.019131385
0002a0 cb d9 cc bd ae 95 0e 3e 60 b0 7d 3c fc f3 ae 3d
       -0.10002478 0.13924286 0.015483946 0.0854263
0002b0 de 7a 0f bd cd 9a e5 bd c3 75 42 bc 7e 33 dd 3c
       -0.035029285 -0.112111665 -0.011868897 0.027002092
0002c0 d9 5b 96 3d 91 25 06 3e b2 8a 49 bc 74 22 a4 3d
       0.07341737 0.13100268 -0.012301134 0.08014384
0002d0 29 55 5a 3c cc f5 81 bd fa f7 92 bd b4 1c 44 3d
       0.013325968 -0.0634571 -0.07176204 0.047878936
0002e0 c4 78 b2 bc f6 04 10 bd 0c 6b 2f 3d 46 74 97 3d
       -0.021786101 -0.03516098 0.042826697 0.07395224
0002f0 d6 d7 0c 3e 55 79 c9 3d b2 f2 6b 3d 99 7f c0 3d
       0.1375421 0.098375954 0.0576045 0.09399337
000300 32 09 7c ba 17 10 18 bd 9b cb 1d bb 99 b6 d6 3d
       -0.00096144073 -0.03712472 -0.0024077657 0.104840465
000310 bd 87 20 3d 4d 35 db bc ca d5 4e 3d 8f c9 c4 3d
       0.03919195 -0.026758814 0.050496854 0.09608757
000320 af f5 b6 bc 30 df 1b bd 87 d7 28 bc 0c 24 e4 3d
       -0.022333948 -0.038054645 -0.010305292 0.11139688
000330 c4 69 a4 bd be 94 24 3d d7 36 f3 bb fb 9f ba 3d
       -0.08027986 0.040180914 -0.007422309 0.09112545
000340 ec be 8a 3d ff 9f 94 3d 36 ee a3 bd cf 3b cf bd
       0.06774697 0.07257079 -0.080044195 -0.101188295
000350 22 b1 69 bd f7 2b 10 3e cd ab a9 3d 38 ff c3 3d
       -0.057053693 0.14079271 0.082847215 0.095701635
000360 06 c1 07 bd 25 34 88 3c 16 90 d0 3d a7 be 04 3d
       -0.033143066 0.016626427 0.10183732 0.032408383
000370 21 a7 66 3d dd 01 f2 3d 02 0a ff bc 4a b8 87 bd
       0.05631173 0.11816762 -0.031132702 -0.06626947
000380 27 8b c3 3b f2 e7 9d bd 15 2e f9 bc 4a 56 8b 3c
       0.005967516 -0.07710256 -0.030417481 0.01700892
000390 25 05 91 bc f7 c3 a5 bd cb ae 01 3e 1a 8d 03 be
       -0.017702648 -0.08094018 0.12664334 -0.12846795
0003a0 98 f8 07 be 25 c8 e6 bd fd be 45 3d b7 df f8 3c
       -0.13278425 -0.11268643 0.048277844 0.030380113
0003b0 00 01 c4 3d e1 2b 04 3d 94 ea 6e 3d ee bb 81 bd
       0.09570503 0.03226841 0.05832918 -0.06334673

bias_hh f4 [240]
000000 46 d3 a2 ba 07 f2 34 3d f7 8b 93 bd f8 26 12 3e
       -0.0012422584 0.044176128 -0.072044306 0.14272678
000010 86 43 75 bd 83 a6 cb 3d 2e 30 81 3d 0d 36 98 bd
       -0.05987885 0.09943869 0.06308018 -0.07432184
000020 28 ec d0 bc 20 6c 85 bd 62 17 0e 3d 68 68 94 bd
       -0.025503233 -0.06514764 0.03469027 -0.072464764
000030 60 67 04 bd b3 3e 95 3d d8 ab cb bc 3e c3 00 3e
       -0.03232515 0.072873496 -0.024862215 0.12574479
000040 e3 49 d0 3d 26 ec ad bc b1 8c 60 bd e0 9b 05 3e
       0.10170343 -0.021230768 -0.054821674 0.13047743
000050 12 ba 52 bd ca d9 63 3d 03 a9 79 3d ce 0c 27 bd
       -0.05144698 0.05562762 0.060952198 -0.040783696
000060 8f cd f4 bc 83 d2 81 3d 07 ce ee 3d cd 0e c3 3d
       -0.029883174 0.0633898 0.1166039 0.095243074
000070 66 ba 94 bd d3 86 cf bd b9 19 c5 bc f7 fa e7 bd
       -0.07262115 -0.101331376 -0.024060117 -0.113271646
000080 65 e8 ea bc cb 45 02 3d 22 5a cf 3d 58 f2 90 bd
       -0.028675267 0.03180484 0.10124613 -0.070774734
000090 09 f2 96 3d 39 29 04 bb d7 f0 f8 bd 6b 2a e2 3a
       0.07370383 -0.0020166172 -0.121553116 0.0017255073
0000a0 5f 5f 96 3d 6d 6b 4f 3c bd 74 fb bd de 6d 04 3e
       0.07342409 0.01265989 -0.122781254 0.12932536
0000b0 27 ae 9d bd 83 96 25 bd b8 10 c3 3c 06 8e 20 bd
       -0.076992325 -0.040426742 0.023811683 -0.039197944
0000c0 0e a3 ca 3d 37 4d b1 bc 23 ce 0d 3e cc 6e 9a bd
       0.098943815 -0.021643264 0.13848166 -0.07540664
0000d0 73 08 7d 3c c7 f4 6a bd de e9 a6 3d 14 dc 10 3e
       0.015443909 -0.057362344 0.081500754 0.14146453
0000e0 9c ae 96 bd ed 47 3a bd 8a 4f 71 3d 73 ef 75 bd
       -0.07357523 -0.04547875 0.058913745 -0.06004281
0000f0 3f a2 47 bd 4f cc 90 bc 54 6e cb 3d 5e 48 43 3c
       -0.048738714 -0.017675547 0.09933153 0.011919109
000100 33 01 1e 3c e6 92 2b bd 84 65 38 bd 47 c6 80 3d
       0.009643841 -0.04188814 -0.045018688 0.062878184
000110 ac 20 ca bd ef c5 2b 3d f0 3a 0c 3e b7 03 ad 3d
       -0.09869513 0.04193681 0.13694358 0.08447974
000120 a0 b4 04 be 45 69 71 bd fa 90 d8 3d 5a 35 a1 3c
       -0.12959528 -0.058938283 0.10574527 0.01967876
000130 c6 44 17 bd d9 1d cb bd 92 d8 09 3e 34 bc f2 3c
       -0.03693082 -0.09917802 0.13461521 0.029630758
000140 29 4d b7 3d 71 1d a7 3c e7 0a 0e 3e b2 ae 20 bd
       0.08950264 0.020399781 0.13871346 -0.039229102
000150 ac e6 44 bc ca 18 cc 3d 7a c4 de 3c 52 14 15 3e
       -0.012017887 0.09965666 0.027193297 0.14558533
000160 3a 6e 48 bd 07 9d e0 ba 81 d2 3b 3d d0 c8 9d bd
       -0.048933245 -0.0017136642 0.04585505 -0.077043176
000170 cf b4 0c 3e cd e9 b5 3d bb 68 0c 3e 40 92 5c bd
       0.13740848 0.088824846 0.13711827 -0.053850412
000180 94 ac 97 bd 57 19 0d 3e 72 26 aa bd 08 c6 70 bd
       -0.074059635 0.13779198 -0.08308114 -0.058782607
000190 2f 87 2f bd 2a f3 e4 3c 0a 3a 14 be 48 e8 00 3e
       -0.04285353 0.02794798 -0.14475265 0.12588608
0001a0 66 e4 99 bd 06 5d 68 3d 4e 95 ff 3c d4 0a 63 3c
       -0.07514267 0.05672934 0.031199124 0.013857562
0001b0 ce 1b 06 3e b9 f8 cf 3d 31 37 d1 bd b6 07 bb 3d
       0.13096544 0.10154862 -0.10215605 0.0913233
0001c0 99 92 41 3d 13 90 da 3d 30 42 03 be 99 21 88 3d
       0.047258947 0.10672011 -0.12818217 0.06647033
0001d0 3c 56 4a 3d b7 5b 1e bd ef 33 4e bc 51 9b 7a bd
       0.049398646 -0.038661685 -0.012585624 -0.061183278
0001e0 92 3e df bd a1 6d 7f bd a8 48 aa 3c 6a 0a d3 bd
       -0.10900606 -0.06236041 0.020786598 -0.10304721
0001f0 97 85 b5 bd bf 29 a2 bd 51 bd 70 3b 8d ba f2 3c
       -0.08863371 -0.07918119 0.0036733935 0.02962997
000200 84 28 3e 3d 55 ad 16 be 96 c0 38 3d d3 39 60 bd
       0.046425357 -0.14714558 0.04510554 -0.054742645
000210 39 d8 f9 bd ca 2f b4 bd a4 2e 02 be c1 e6 be bd
       -0.12199444 -0.087981775 -0.12713104 -0.093213566
000220 08 9f 6a bc 20 55 c6 bc 58 37 cf bb 9b fb ea bd
       -0.014320143 -0.024210513 -0.006323736 -0.11473771
000230 aa 14 8c bd 6b bd af 3d be 89 02 be ab cb 7b 3c
       -0.06839879 0.085810505 -0.12747857 0.015368382
000240 d7 8f 78 bc e1 df 6d bd aa 38 43 3d 88 f7 b1 3c
       -0.015171013 -0.058074836 0.04766146 0.021724477
000250 68 93 36 bc a9 b9 6e 3d 86 18 ba bd ae fe 0b 3e
       -0.011143543 0.058282528 -0.09086709 0.13671371
000260 9c 89 1e 3d c2 ac c9 3d 4a df 32 bd 6a 46 04 3d
       0.038705453 0.09847404 -0.043669976 0.032293715
000270 b4 3c ae bd 6d d9 a4 3d cc 42 d0 bd d9 b9 e0 bd
       -0.08507672 0.08049283 -0.101689905 -0.109729476
000280 67 77 d7 3d 7d 71 af bd c0 b1 9f bd ff 80 0c 3d
       0.10520821 -0.08566568 -0.07797575 0.034302708
000290 45 f9 a8 bd ad b8 c3 3c 48 e2 b0 bd 6c be 07 be
       -0.082506694 0.023891771 -0.0863691 -0.13256234
0002a0 ec c8 1b bd bf 7e ff 3d d1 a2 b6 bd b8 7f b4 3c
       -0.03803341 0.12475347 -0.089177735 0.022033557
0002b0 c6 7f ae bd 80 47 12 bd 80 bc bb 3d 04 0c 12 be
       -0.085204646 -0.03571272 0.09166813 -0.14262396
0002c0 55 93 8e 3d b3 4c 38 bd 87 11 a5 bd 76 47 b3 3d
       0.06961695 -0.04499502 -0.08059984 0.087538645
0002d0 bd db 0d be 61 4b 6a bd a4 3c 64 3c 1e 16 a8 bd
       -0.13853355 -0.057200793 0.0139304735 -0.082073435
0002e0 80 23 90 3b 5c 78 5d bd b1 cb a9 3c dc f0 86 3d
       0.004398763 -0.05406986 0.02072701 0.06588909
0002f0 84 d1 e1 3d ec 23 70 3d 38 a2 9b 3d 6c 04 fc bd
       0.1102629 0.058628008 0.075993 -0.12305531
000300 29 cb 71 bd 68 5e 7b bd 76 e5 19 bd 2e 35 6e 3d
       -0.05903164 -0.06136933 -0.037572347 0.058156185
000310 c9 3a 2e bd 7d 3a 0b 3e ad e0 8d 3d ef d3 99 3d
       -0.04253653 0.1359653 0.06927619 0.07511126
000320 84 fb 63 bd 0a 53 e7 bd 86 50 cf bd 1e 26 5b bd
       -0.055659786 -0.11295135 -0.101227805 -0.05350315
000330 9c 9b 62 bc 9b 5e c1 bd 3f f7 c7 3d 37 53 f1 3d
       -0.0138310455 -0.09441873 0.09763955 0.1178345
000340 b1 a2 72 bd 95 29 c9 3d f2 e2 b2 3c a3 73 0c 3e
       -0.059237186 0.09822384 0.021836732 0.13715987
000350 ad 6b 83 3d 97 7c b3 bd f6 bb 01 3e d4 72 c3 bd
       0.06417022 -0.08763998 0.12669358 -0.09543386
000360 01 99 c2 bd 60 a7 8f 3c af ef f7 bc 91 8e 85 bd
       -0.095018394 0.017535865 -0.030265657 -0.06521333
000370 0b 11 ea 3c 42 ae af bc 39 a1 8c bd f2 e5 aa bd
       0.02857258 -0.021445397 -0.06866688 -0.0834464
000380 02 9b fb 3d 41 8c 04 3d 1c 2d 43 bc 72 36 7e bd
       0.12285425 0.03236032 -0.01191261 -0.06206364
000390 47 0d 4c 3d a5 bf 17 3e 47 3c bf 3c 8e 5c 82 3c
       0.04981735 0.148192 0.023344172 0.015913274
0003a0 a6 d7 5d bd 32 43 4b bd f9 50 c5 3d 44 1a 47 bd
       -0.054160737 -0.04962463 0.09634585 -0.048609033
0003b0 f3 ff d7 bd 20 3d 5d bd 14 e1 ed 3d 74 70 bb bd
       -0.10546865 -0.05401337 0.11615196 -0.09152308

weight f4 [3, 12]
000000 a9 22 5b be f8 12 92 ba 8b 71 90 be c0 f2 4a be
       -0.2139994 -0.0011144569 -0.28211626 -0.19819164
000010 59 b2 b6 bc f4 6e 47 3e c8 7b aa 3d 9f b0 01 be
       -0.02230184 0.19475919 0.08324391 -0.12665032
000020 1d 51 ae bc 26 ca 10 3d 77 ef 1a 3d 2a ea c5 bc
       -0.021278912 0.035349034 0.037826028 -0.02415951
000030 58 01 95 bd fb c9 88 ba 80 8a 09 3e 11 46 89 3e
       -0.07275647 -0.0010436171 0.1343174 0.2681127
000040 41 b9 2d be c1 4d 22 3e fd 73 4b 3e ae 1c 5b 3e
       -0.169652 0.15849973 0.19868465 0.21397659
000050 fc 97 5b be 73 f1 b6 bc 8d 1c 52 3d a9 3b 0c 3e
       -0.21444696 -0.022331929 0.05129676 0.13694634
000060 64 ce 8f 3d 4f a2 8e be 53 bd 39 be c5 89 83 3e
       0.07021788 -0.27858207 -0.18138628 0.25691047
000070 52 f2 c4 bd 24 29 96 3e 2c c7 c3 bc 56 5f 23 3c
       -0.096165314 0.29328263 -0.023898683 0.00997146
000080 aa da 37 bd 56 71 43 3e b5 ac 13 3d 75 2e ce bd
       -0.04488627 0.19086203 0.036053378 -0.10067455

bias f4 [3]
000000 a2 3a 45 3d ae ef a6 3d 69 75 ab bd
       0.04815162 0.08151184 -0.083720036
