models/paramsearch_0.00039390237880950054_2.216077907087515e-16_0.7887133433607147_100.pt (torch, 33220 bytes, 7 tensors)

weight_ih f4 [240, 6]
00000000: 4aae 4f3d 46cf bb3d 141c 163e bd73 cf3e
00000010: 3f3f 753e da25 dabd 6583 bcbd 6570 5d3e
00000020: 0138 58bc df07 463e f071 6a3d 42f6 36bd
00000030: 3c96 f33c e6bb 05be f835 1dbd 96e7 9b3e
00000040: a0bf bf3d 2458 c6bd 2284 e33c 9b80 fe3d
00000050: 127f eb3c d1b1 3e3e 6d32 f33d c5f7 b33c
00000060: 317e 173e 9b93 3fbe 1b39 2d3d 079c 39be
00000070: f584 ddbd 8b49 61bc bc5b 243e 5329 c5bd
00000080: 4238 4bbd 1837 6cbe 2075 73bd 037e b13d
00000090: f71f 1e3e 6728 50be 8b86 43be 6002 a5bd
000000a0: e676 74be a526 c23c 96ba 293d 6e24 f43d
000000b0: c3b0 393d c7ac df3e 18e2 853e 47a1 293c
000000c0: f9bf 303e d081 3fbe 17c8 4d3d f299 71be
000000d0: 91a8 f2bd 041b e9bc 4477 9d3d 36cf 7abe
000000e0: 9d1f 0dbe 65be 5bbe 3b33 84be 547b e73b
000000f0: 0d23 323c 7397 abbd e965 e1ba dbb8 3bbe
00000100: 2755 703b c2c8 c03d ec98 4d3d c0df 74be
00000110: 2103 ddbd 1637 a3be 4beb 75be 3937 9a3d
00000120: 1af7 f0bc dd35 8abd 6ea8 cbbd 983a 6abe
00000130: c25b 253c 63b1 c9bb 6bc1 60bc cf7e b2bd
00000140: d4d4 22be 44ad 09be 5ce3 26be 3c71 d63d
00000150: a58b 0b3d 7c1d 72be 0981 ffbd 8242 38be
00000160: 3734 15be fba8 193e 3083 ed3d a3bf c2be
00000170: c856 44be 5126 3f3e a2df 82bd d661 e0bc
00000180: 40e5 b43d 3b33 24be 68f3 20be ccf0 32be
00000190: 3986 10be b945 d23d 9ba3 a93d 8a5b 92be
000001a0: 2fe7 3dbe 8c73 96be 88e6 32bc b9ac c63d
000001b0: 07eb b9bc c728 6e3e 61d6 473d 4444 743e
000001c0: 4b93 933c 2893 af3d f022 8a3d 0cbe 87bc
000001d0: df26 8dbc 9d68 d23e 0804 b63e b726 05bd
000001e0: c417 8cbd 8ff3 76be 8324 57be c82f 5cbd
000001f0: aaf6 e5bc 7055 76bd 7766 bebd 13ea 063d
00000200: ee65 69bd 297d b13e 80f6 0a3e 3959 c43b
00000210: 0dc5 293e a2ea 25bd d0b4 f0bd 76c6 46be
00000220: 905e 88bd d6db 213e 69fa 173e 354a 04be
00000230: cdb5 703d 60e3 a1be 5ff3 34be 7778 8d3d
00000240: 8290 8fb8 ca43 d7bd 6f9e 8bbd 19a5 24be
00000250: e4f8 c5bd d9c2 003e 734b ffbd 30c0 083b
00000260: 6c63 f938 7ffc bd3e c93c 113e 1a06 eabd
00000270: fea8 5e3d d288 22be fc5f 2ab9 c4d4 92bd
00000280: ec55 65bd f645 2e3e 9a64 0e3e 27de 1dbe
00000290: 7923 29be d775 db3b b44b 36be 7dac c7bd
000002a0: c668 8f3d 9000 d0bd 7f6a d7bd e097 bebe
000002b0: 7d21 a4bd cf2c 823d af02 4bbd 40bd efbd
000002c0: 2fc6 d03c 4325 7fbe c895 6ebe d11a 313d
000002d0: 5839 13bd fe0a ae3c b147 2a3e 84ed 553e
000002e0: c06a bd3d 2df1 9bbc a218 423d 45d0 6abd
000002f0: f093 0e3e 9545 16be 500d 3fbe 7edb 1c3d
00000300: 2e9f 093e 6d7c 58be b8c5 f0bd 3a13 84be
00000310: 28ea 05be cd7b 3bbd c051 553e b56e 0dbe
00000320: d604 853d bfef e8bd 3c74 95be 6c6f b8bd
00000330: d0f1 363d 7e1e 8abe d41e e53b 8eb4 193e
00000340: d819 5f3c 6a33 a1bd a65c 8b3d f86e 4abe
00000350: da18 dfbd 3cca bfbd 0823 26be 6b7e 5fbd
00000360: dfc7 c1bd 8265 5e3d 69ed e03d 34a8 9a3e
00000370: 3e49 5b3e 946c 2a3e b3de 2b3d e588 4ebd
00000380: a636 813a 8ebc 9e3e a6a9 9d3c 4861 4bbd
00000390: 3872 893c 8363 36be 1790 33bd 4f41 aebe
000003a0: 2d51 7dbe d552 04bd b94a eebd 6030 273e
000003b0: b6c2 523c 18cb 093e b0f8 333e 95ac 023d
000003c0: 82bf da3c 2b24 10be 73b6 26be d77a 1bbe
000003d0: 9806 3137 8518 a63c 220d 123d 75a7 e5bd
000003e0: 3199 35bd 73e3 acbe 5d1b 30bd 332d f63d
000003f0: 55c2 8ebc aaec 4fbd c776 02bd ac78 99be
0.050703324 0.09170394 0.14659148 0.4051799 0.23949908 -0.10651751 -0.09204749 0.21624906
-0.013196946 0.1933894 0.057237566 -0.044668444 0.029734723 -0.13059959 -0.038381547 0.30450124
0.093627214 -0.0968478 0.027772967 0.12426873 0.028747115 0.18622519 0.11874852 0.021968732
0.14794232 -0.18708651 0.04229079 -0.18125926 -0.10816375 -0.013750444 0.16050619 -0.096270226
-0.0496142 -0.23067892 -0.05943787 0.08666613 0.15441881 -0.20327912 -0.19094293 -0.080570936
-0.23873481 0.023700068 0.041437708 0.11921011 0.04533459 0.43686506 0.26149058 0.010353393
0.17260732 -0.18701863 0.05023965 -0.23593882 -0.11848558 -0.028455265 0.07688764 -0.24493107
-0.13781591 -0.21459348 -0.25820336 0.0070642624 0.010872615 -0.08378496 -0.0017196509 -0.18332236
0.0036671849 0.094132915 0.050194666 -0.23913479 -0.107916124 -0.31877965 -0.24015538 0.07530064
-0.029414702 -0.06748555 -0.09944235 -0.22873914 0.010092678 -0.0061551793 -0.013717989 -0.08715593
-0.159015 -0.13445002 -0.16297668 0.104708165 0.034068722 -0.2364406 -0.124757834 -0.1799412
-0.145707 0.15005867 0.11597288 -0.38036832 -0.1917373 0.1866696 -0.06390311 -0.027390402
0.088327885 -0.16035168 -0.15717852 -0.17474669 -0.14113702 0.10267205 0.082831584 -0.28585464
-0.18545221 -0.2938503 -0.010919221 0.09700913 -0.022695078 0.23257743 0.048788432 0.23854166
0.01801457 0.0857299 0.06744945 -0.016570114 -0.01723045 0.4109544 0.3554995 -0.032507624
-0.068404704 -0.24116348 -0.21010022 -0.053756505 -0.02807172 -0.060140073 -0.09296887 0.032938074
-0.056981973 0.34665802 0.13570595 0.0059920815 0.16579075 -0.040506966 -0.11753237 -0.19411644
-0.06658661 0.15806517 0.14841618 -0.12918933 0.05876713 -0.31618786 -0.17670964 0.069077425
-6.845688e-05 -0.105109766 -0.06817328 -0.16078605 -0.09666613 0.12574328 -0.12465563 0.0020866506
0.00011891764 0.37106702 0.14183344 -0.11426945 0.054360382 -0.15872505 -0.0001624822 -0.07169488
-0.055990145 0.17018875 0.13905564 -0.15416776 -0.16517438 0.006697397 -0.17802316 -0.097496964
0.07002406 -0.10156357 -0.105183594 -0.37225246 -0.080142 0.06356203 -0.049563106 -0.117060184
0.025485126 -0.24916558 -0.23299325 0.043238465 -0.03594336 0.021245476 0.1662891 0.20891386
0.092488766 -0.0190359 0.047386773 -0.057327528 0.13923621 -0.14674981 -0.18657422 0.03829526
0.13439628 -0.21141215 -0.11756462 -0.2579592 -0.13077605 -0.045772363 0.20831966 -0.13811763
0.06495063 -0.11373853 -0.29190242 -0.09005627 0.044664204 -0.2697639 0.0069922004 0.15010282
0.0136170015 -0.078711346 0.06804781 -0.19768894 -0.10893412 -0.09364745 -0.16224301 -0.05456392
-0.094619505 0.054296024 0.109827824 0.30206454 0.21414658 0.16642982 0.04196043 -0.05042352
0.0009858205 0.3100323 0.019245934 -0.04965332 0.016778097 -0.17811398 -0.043838587 -0.34034202
-0.24737997 -0.032305557 -0.11635346 0.16327047 0.0128638055 0.1345638 0.17575336 0.03190287
0.026702646 -0.14076297 -0.16280536 -0.15183578 1.0551557e-05 0.020275364 0.035657056 -0.112135805
-0.044335548 -0.3376728 -0.042994846 0.1202034 -0.01742665 -0.05076281 -0.031851556 -0.29974878

weight_hh f4 [240, 12]
00000000: 8287 cc3d 5b79 3fbd 3f4e eabd 5c8c fc3c
00000010: 3723 bd3c e1b7 e63d 613e 473b c051 38bd
00000020: ab1c e2bd a4a1 d13d 9dc7 9d3b 3254 323d
00000030: c876 c03d 5ce7 03bd 0dee 9d3d 212d 2b3e
00000040: fd62 25be 3775 9a3d 1060 c33c cc1e d4bc
00000050: 9d74 08be 7e9b ab3d 03fc 203c 0091 5cbd
00000060: abf1 3e3e 5a95 ecbc 2251 203e 6bec 693d
00000070: c2f2 dc3d ed61 f03c b662 acbd dbb1 5abd
00000080: 5166 cc3d fc25 e83d be97 573b 8464 54bd
00000090: c47c e03d f16f 7c3d fd69 f33d 1fc4 1c3e
000000a0: e153 0dbe f10b 9dbd 87de 093e 3584 1a3d
000000b0: 5046 73bd f81d 863b f6e3 95bd 310a 883c
000000c0: ec0f 9f3d ede6 96bd 68bf f8bd bf52 9a3d
000000d0: eaa1 83bd 1179 943d ef89 8e3b 78bd 83bc
000000e0: 647d 573b c700 2ebe 068c 7dbd d395 e73d
000000f0: 7b08 13bd 362a 4c3d 7ae2 24bd 579f a339
00000100: a34d 493d fce0 ad3d ccf9 3abd 19d1 113e
00000110: 28c4 11bd 4105 07be 9c34 a83c ddde 57bd
00000120: f8dd a1bd 9983 193d 23b7 683d d39e 8ebc
00000130: f07b c03d 0206 da3c 855b 58bd caf7 0f3d
00000140: 53f1 f7bc 8a15 9abd f687 d5bd 04f7 65bd
00000150: f344 b83d 7fd5 183d a87a ce3c 1847 b2bb
00000160: ec46 6fbe 4ac4 a63d 4844 01bc 0eab 37be
00000170: b474 893c c0d9 453d 9382 d5bd 6a24 11bd
00000180: 4cde 0e3d 93a1 babd 2dfa a8bd 174b afbd
00000190: a0da 20be 0c36 01bd 7334 bf3d b2f0 c9bc
000001a0: 0e60 e6bd 6193 25bd 24ff acbd 08a7 3a3c
000001b0: 23ac cf3d 3702 f83d d2b8 c0bd 51cf ec3d
000001c0: 892a c6bd 50f2 ebbd 6162 f93c a171 743d
000001d0: edae 02bd 3faa f2bc 0cd1 ac3d e5e3 833d
000001e0: b92f a4bc b340 26bd 913d 7a3d 23ce 1f3e
000001f0: 8958 873d a1fc 013e 48e6 f2bc 875a f43d
00000200: b65c 8dbd a8ad 773d 5b6e 863d 5ded e43d
00000210: d754 943c 934c d3bb ffba ef3b 0bfe 133e
00000220: dd4a 97bd 706f 0c3d 306c 993d f802 d8bc
00000230: 039f 8dbd f5ea 0bbe d459 a0bd 6fa3 003e
00000240: 7eeb a4bd 6589 953c abdd 32be 4b56 1abd
00000250: 59e6 e5bc 37ad c43d a8d8 723d e364 bc3d
00000260: f739 c4bc a789 1e3d fbe1 183d dfcb 3cbd
00000270: 0f72 bebd ba38 03be 1b38 8b3d 1dc8 eb3d
00000280: 1183 cf3d d711 b0bd 7abb d03c 9d83 94ba
00000290: 7e3f fbbd d15f 1fbe f258 08bc 0e2f b73c
000002a0: 5fc3 f7bc 9927 33bd c3fd 8bbc c0cf 77ba
000002b0: 1a08 b9bc 96c5 403e a133 da3d fba8 c7bd
000002c0: 322d fabd 0113 ac3c 9a37 23be 91b6 9f3d
000002d0: ce3d 6f3d e1e6 d5bd 2add 80bc eef6 ef3d
000002e0: 8f17 8d3d 1682 523d 2785 6fbd f90a 27bc
000002f0: b396 a63c e9fe 3a3d 1a69 10be 6d2c 36bd
00000300: 3ca5 e23d 14b8 a93d 7df5 393d 7e2d 703d
00000310: 38ff 07bd 8617 0a3e 5cc2 d9bd 0c34 ac3d
00000320: f13c 69bc 314a 8f3d eb18 cbbc 0bc7 a33d
00000330: 605d 993c 3b80 c23c 5cd6 15be 92af 0e3e
00000340: 92cf edbc 45fe 83bd 3f40 173e 6681 adbd
00000350: f0bb 11be 3ffa 0cbe f2fb 793d 983a dd3c
00000360: 2d2c 1cbd d602 0f3e 9c06 f839 e5aa 873d
00000370: dfa8 783d cc7f e2bd 474d d6bd cc7c 0cbe
00000380: 5190 753d 99a0 66bd 8bbf 713d edcc 02be
00000390: 2815 843d 069a eaba da2b 4abd 761a f93d
000003a0: 2518 c33c e54b ba3d 7b0b 8d3d a89e 2dbd
000003b0: 48bd eebd ea4a adbd 666f 9f3c c321 163d
000003c0: 9931 98bd 34ec 04be b003 a83d f3f4 8e3c
000003d0: 13b7 48bd 6fd5 b2bd eadb 31bd a352 b8bd
000003e0: 7aa6 cbbd 8b49 463c ddba aabd 8418 87bd
000003f0: 4cb9 8b3c d445 c3bd 68bd d4bd b303 833d
0.099867836 -0.046746593 -0.114407055 0.030828647 0.02308808 0.11265541 0.003040217 -0.044999838
-0.11040624 0.10235909 0.0048150555 0.043537326 0.09397656 -0.032203063 0.0771142 0.16716434
-0.16151042 0.07541888 0.023849517 -0.025893591 -0.13325734 0.08379267 0.009825709 -0.05384922
0.18646877 -0.02887981 0.1565595 0.05711023 0.1078849 0.02934357 -0.08417265 -0.053392272
0.09980453 0.1133537 0.0032896842 -0.05185367 0.10961297 0.061630193 0.1188545 0.1530919
-0.13801529 -0.07668293 0.13463794 0.03772374 -0.059393227 0.004092928 -0.07318871 0.016606422
0.07766709 -0.07368264 -0.12145883 0.07535314 -0.06427367 0.07249654 0.004349939 -0.016081557
0.0032881135 -0.16992484 -0.061901115 0.113078736 -0.03589676 0.049844943 -0.040255047 0.000312085
0.049146306 0.08490178 -0.04564838 0.1423992 -0.03558746 -0.13185598 0.020532899 -0.052702773
-0.07903665 0.037479017 0.056815278 -0.017409718 0.09398639 0.026614193 -0.052821655 0.03514842
-0.03026644 -0.075236395 -0.10426323 -0.056143776 0.08997526 0.03731298 0.025204971 -0.005440604
-0.23366898 0.08142908 -0.007889815 -0.17936346 0.016779281 0.048303366 -0.10425296 -0.035435118
0.034879968 -0.09112849 -0.08250842 -0.08559244 -0.15708399 -0.031545684 0.09336176 -0.024650905
-0.1124879 -0.040423755 -0.08447102 0.011392362 0.10140254 0.121097974 -0.09410252 0.1156298
-0.09676082 -0.11520827 0.030442419 0.059678677 -0.031905103 -0.029622195 0.0843831 0.06439952
-0.020042287 -0.040589046 0.06109387 0.15605979 0.066086836 0.12694027 -0.029650822 0.11931329
-0.06902449 0.060468346 0.065640174 0.11178086 0.018106861 -0.0064483373 0.007315993 0.14452378
-0.07387326 0.034285963 0.07491338 -0.026368603 -0.06915095 -0.13663848 -0.07829633 0.12562345
-0.08052729 0.018253991 -0.17467372 -0.03767995 -0.02806394 0.096033506 0.05928865 0.0919893
-0.023953421 0.038705494 0.037324887 -0.046092864 -0.09299099 -0.12814608 0.06797811 0.11512778
0.10132421 -0.08597153 0.02548002 -0.0011330728 -0.122679695 -0.15563895 -0.008321987 0.022361305
-0.030244527 -0.043738935 -0.017088776 -0.00094532594 -0.022586871 0.18825373 0.10654379 -0.09749027
-0.122156516 0.021005156 -0.15939179 0.07798494 0.05840855 -0.10444427 -0.01573046 0.1171702
0.06889259 0.05139359 -0.058476593 -0.010195487 0.02033553 0.045653258 -0.14102593 -0.04447596
0.11066672 0.08287063 0.04540013 0.058637135 -0.03320238 0.13485536 -0.10632774 0.08408365
-0.014235721 0.06996573 -0.024792155 0.07996949 0.018721282 0.023742786 -0.14632553 0.13934162
-0.029029641 -0.064449824 0.14770602 -0.084719464 -0.14231849 -0.13767336 0.06103129 0.027005479
-0.038128067 0.13965926 0.0004730717 0.066243924 0.060707923 -0.110595316 -0.10463958 -0.13719481
0.059952084 -0.0563055 0.05902056 -0.12773485 0.06449348 -0.0017898686 -0.049358226 0.1216325
0.023815224 0.09096507 0.06886955 -0.042387635 -0.11657196 -0.08461554 0.019462299 0.03665329
-0.07431335 -0.1298073 0.08203828 0.017450785 -0.04900272 -0.087321155 -0.043422617 -0.09000137
-0.09943862 0.012102495 -0.083364226 -0.06596473 0.01705613 -0.09534803 -0.10387689 0.0639719

proj f4 [12, 60]
00000000: 57ef 09bc 8822 07bb b0c9 a8bd ea6b 0f3e
00000010: c7af d23d 61ff 13be 5d6d e4bc e94a 333e
00000020: 3199 bf3d db2e a5bc a21f a7bd 7765 59bd
00000030: e407 8bbd 36ff 98bc 220d c63d 45ae 1bbd
00000040: b742 7c3d 1137 aa3d b865 aabd f6f8 eb3d
00000050: bacd 11bd 6b81 30bd a972 983d b49e 02be
00000060: 74d7 81bd dffd 8abd e05f b6bc 8e21 84bb
00000070: c508 01bc 2758 f9bd b0d7 723d b754 613d
00000080: 9370 af3d 5a76 01be a2cd 0bbe 343c c63d
00000090: f0f5 17be d68f 793d 4925 983d ac91 ec3d
000000a0: 63ec 74bd 1b21 9dbd 4837 963d c0cc e739
000000b0: d08d 0d3c ee9b 7f3b 4b29 233d 68d1 cbbc
000000c0: 347f 5abd 64bc 063d ec4f aebb 2b8c 14be
000000d0: eb30 26be f850 b33d eef2 6c3e 6924 95bd
000000e0: 8b73 94bd 87e7 ae3d fb7f f23c 3304 19be
000000f0: ffdd 74bd 4789 d73c f85e b63c 0492 d6bb
00000100: 5f2c bd3c 4ff7 2c3e 325f a7bd e4d3 283b
00000110: 97be 2a3e fe8a 11be 3b64 90bd 3a4b 103e
00000120: a780 debd 6480 503d 57ba 203e ca53 debc
00000130: da80 17be 3887 81bc f0c7 b63d f23c 00bc
00000140: 1372 eebd 251b 8ebd bb07 31be 8939 423c
00000150: 2fcf 1dbe 3b9c 91ba ff29 5abd 3123 61bd
00000160: 63b7 ccbd 0ae5 b33d 598b 70bc 9571 d63d
00000170: 233c 56bd d0c5 92bd d6e7 753d 8b79 d83c
00000180: f55b b9bd f889 983d 16a6 313c 3cbf 193c
00000190: 2be8 ccbd 8ce0 18be e9c8 103d 48e8 b0bc
000001a0: e6e7 933c 5bcf 8bbd e3df 953d e466 303e
000001b0: af87 d63d 0d92 c53d 0088 bbbd 2db9 a63d
000001c0: 89de acbd f127 0abe 4359 923d d6b4 11be
000001d0: 2061 5d3d 9ede ae3d d748 173e 0067 2bbe
000001e0: ae57 5bbd 68e9 b9bd 32db 793d c72c a13d
000001f0: 0b10 383d 952e 093e da77 b53d 44d2 513d
00000200: 961b 03bc 6e0e 0d3d 2d89 343d c0f3 a4bd
00000210: 1ed6 13bd e0b9 ccbc 7f81 123e 2d65 0a3e
00000220: b1b8 99bd 5873 ce3d 13aa 10be c0f6 15bd
00000230: b37b 1dbd abf2 8ebc 24f6 1cbe 91c3 f0bd
00000240: 85ef c6bd 809d 15bd d3f5 d7bd 7fde 15bd
00000250: 020e eabd e872 1e3e 79f0 f1bb bc7d d63c
00000260: 31de 7a3d 80b4 293c f622 073e 60be 183c
00000270: 291f b83d a75b ab3c 9188 81bd 77df a93d
00000280: 80c1 69bc 133d bcbd 39db 823d 7f78 73bd
00000290: 20c6 edbd a290 de3c 80d8 ba3d 3fcd 3b3d
000002a0: d16f b33d 0356 cb3d 98e4 aebd e072 493d
000002b0: 65d2 2b3c 0905 493d 6237 703d a8f0 163c
000002c0: bdee b73d 20fb 763d 85f1 033e 0b75 08ba
000002d0: 2e00 00be ce4e 81bd 53dd 54bd 049d 053d
000002e0: 7a71 623d 41ba 5d3d c370 ca3d a7f5 203e
000002f0: c263 a4bc cbb6 db3d 3c5f 87bd ecd5 a13c
00000300: 3b23 c03c 91bd 52bd c141 973d f864 7ebd
00000310: 69e6 04bb fd96 c83c 9442 733d 0886 2b3e
00000320: b8c8 0d3e 3662 193e 3fbf eb3c 5a75 353d
00000330: 7bc4 883d d628 ed3b b180 65bc 7a15 f63c
00000340: 9014 d0bd 2593 dcbc f7e3 433c 4796 e63d
00000350: 0cb3 7cbb 8c20 fdbd c3db 18be 8d1b 173d
00000360: 19a5 efbc 3270 ec3d 1d54 debd c1af 993b
00000370: e70a ae3c 0b8c 2a3b 15de d13d 9a16 863d
00000380: 3963 873c 9493 823d dd68 a43d 56b5 2abd
00000390: 200a 5b3d a84e 9a3d 9948 ac3c 9a41 2abd
000003a0: 24e4 a9bd d77c e23c bc8f 763e 89ba 0f3e
000003b0: 8ac9 00be d608 91bd 2301 a63d d945 b63c
000003c0: cdd8 e63c 9285 023e ce87 053c 312c fcbd
000003d0: 5578 f73d 6f00 74bd 5ded 16bd b481 6cbe
000003e0: fe36 8c3d b8af e7bd 8c6b 0bbe 29aa 043e
000003f0: 7a50 8abd 6445 f9bd cb20 883d 76bc 103e
-0.0084188795 -0.0020619947 -0.08241594 0.1400601 0.10287433 -0.14452888 -0.02788418 0.17509045
0.09355391 -0.020163944 -0.0816033 -0.05307528 -0.067886144 -0.018676382 0.09670474 -0.038007993
0.06158706 0.08311284 -0.083201826 0.11522095 -0.035596587 -0.043092173 0.07443745 -0.12755853
-0.063399225 -0.06786703 -0.022262514 -0.0040323203 -0.007875626 -0.12175017 0.059287727 0.05501243
0.08566394 -0.12642804 -0.13652661 0.096794516 -0.14839911 0.06092819 0.074289866 0.11551222
-0.05979575 -0.0767233 0.07334763 0.00044212304 0.008639768 0.0039002853 0.039834302 -0.024880126
-0.053343967 0.032894507 -0.005319586 -0.14506595 -0.16229598 0.08755678 0.23139545 -0.07282335
-0.072486006 0.08540254 0.029602041 -0.14943008 -0.059782024 0.026310576 0.022262082 -0.006548168
0.023092447 0.16891216 -0.08172454 0.0025761062 0.16674267 -0.14213178 -0.070503674 0.14091197
-0.10864382 0.050903693 0.15696083 -0.027139563 -0.14795247 -0.015811548 0.08924854 -0.0078270305
-0.11642852 -0.06938771 -0.17288105 0.011854538 -0.15411066 -0.0011109182 -0.053262707 -0.0549652
-0.09995916 0.0878392 -0.014681661 0.10470883 -0.052303445 -0.07166636 0.06003555 0.026425144
-0.090507425 0.074481905 0.010842821 0.009383973 -0.1000522 -0.14929408 0.035347853 -0.021595135
0.018054914 -0.06826659 0.07318094 0.1722675 0.10475098 0.096469976 -0.09156799 0.08140788
-0.08440883 -0.13491799 0.071459316 -0.1422914 0.054047704 0.085385546 0.1477388 -0.1673851
-0.053550415 -0.09077722 0.061000057 0.07869869 0.044937175 0.13396676 0.088607505 0.051225916
-0.0080021825 0.03443759 0.044076134 -0.08054304 -0.03609287 -0.024990976 0.14307211 0.13515158
-0.0750593 0.10080594 -0.14127378 -0.036612272 -0.038448047 -0.017449697 -0.1532827 -0.11756051
-0.097136535 -0.036527157 -0.10544934 -0.036589142 -0.11428453 0.15473521 -0.007383403 0.026183002
0.061247054 0.010357976 0.1319693 0.009322733 0.08990318 0.020917727 -0.06324876 0.08294576
-0.014267325 -0.091913365 0.0638947 -0.059441086 -0.11610055 0.027168576 0.09123325 0.045850035
0.08761562 0.09928515 -0.085396945 0.04918182 0.010487174 0.049077068 0.058646567 0.00921265
0.089810826 0.060298085 0.12885101 -0.0005205429 -0.12500069 -0.06313859 -0.051968884 0.032620445
0.055284 0.054132704 0.09884789 0.15718709 -0.0200671 0.10728224 -0.066099614 0.019755326
0.0234543 -0.051450316 0.073855884 -0.06210801 -0.0020278937 0.02448606 0.059389666 0.16750348
0.138461 0.14978871 0.028777717 0.04430137 0.06678101 0.007237534 -0.014007733 0.030039538
-0.10160172 -0.026925633 0.0119562065 0.11259132 -0.0038558869 -0.123597234 -0.14927582 0.03689151
-0.02925353 0.11544837 -0.10855887 0.004690141 0.021245433 0.0026023414 0.10247437 0.0654728
0.016526805 0.063758045 0.080278136 -0.04167684 0.053476453 0.07534534 0.021030711 -0.04156647
-0.082954675 0.027647419 0.24078268 0.14036001 -0.12576881 -0.070817634 0.081056856 0.022250103
0.02817955 0.12746266 0.008150054 -0.12313116 0.120834984 -0.059570726 -0.03684746 -0.23096353
0.068464264 -0.113128126 -0.13615245 0.12955536 -0.06753631 -0.12171438 0.0664688 0.14134392

bias_ih f4 [240]
00000000: e8e8 393d cb58 a2bd 677a 48bd 9b40 42bd
00000010: 9ab2 863d abaf a43d 7c0a 66bd 37ab 3c3d
00000020: 0080 86bc 91c3 9dbd f84e 2abd 8d05 a8bd
00000030: aa40 be3c d9fb b3bd 2f66 053e 2ba7 11bd
00000040: 102e 973c 9124 fe3d 9388 80bd 6b30 a53d
00000050: 3cf7 883d 6c59 5e3b aa05 143e 48b1 583d
00000060: ad29 9ebd 5a1f 183c 1a14 82bd bdb8 57bd
00000070: 5d9d cebd e5a2 62bc a57f 9a3d 2c1c 573d
00000080: 56dc 8fbc f30b c03d 077c 063e 8c09 e33d
00000090: 4a29 9d3d 997d ecbc 967e a2bd 1eb8 ef3d
000000a0: f674 cebc 62da 143e fc68 5ebd c397 bbbd
000000b0: 0c85 c73c 6728 0a3e e398 2b3d b75f 923c
000000c0: deb8 7d3d dbeb 5c3d a37c ba3d 3c48 c13d
000000d0: 9f3c e83b 91de 87bd 1302 183d f3c4 0f3e
000000e0: cb7f 3fbd 825d 24bc cf7d b03d ae6b 203e
000000f0: d2ad 7bbc 8a85 a2bc 3882 f03d 99f7 9ebd
00000100: 0ce8 16bd c063 d63d 3ba9 063e c81f 073d
00000110: 020e 08bd 0baa 013e 7b99 3b3d 74ed 48bd
00000120: 18f4 d73d f1a7 87bc 2174 ddbc 5332 963c
00000130: 7f36 aebd 6b55 263d 316d dd3d 5cfd 6cbd
00000140: 8cc9 a93d 78ea 803d 71bd 14bd dbe5 f83d
00000150: a672 20bd 7098 2a3e 68a8 2e3e 8a58 94bd
00000160: 3c10 65bc 1e1b a23d 1278 413e f62a e73d
00000170: 6e9c d2bc 90f2 e43d d166 53bd 28ac da3d
00000180: 3ab4 1a3e e058 2f3e e7e6 d83d 0023 a23d
00000190: 8197 71bd 8473 123e 5ea3 c1bd 1a3c 86bd
000001a0: 97fa ca3d dcae 18bc 76c3 0b3e 5fa7 b0bc
000001b0: 2801 873d ae67 a73d c30f 87bc b8c3 a73d
000001c0: 10fa 283d 2197 003e 2392 4b3e 654a 233e
000001d0: 9a6b 6cbd 46bc 28bd 8e1e afbd 405f b63d
000001e0: a5a1 66bd 22ae 8b3d 288c 5a3c e04b 9fbc
000001f0: a5fc 14be 2e40 59bd fa32 1b3e c53a ab3d
00000200: df82 9f3c 5305 e13d ceb2 a73d d335 07be
00000210: e8c2 833d 8aa4 49ba d83f d0bc 3f38 043d
00000220: a75d e63d debf 75bd 05da 853d 03dc 163e
00000230: e010 9a3d 61e9 853d 9438 e93c 9d01 383d
00000240: c127 d93d 4c9b f93d 65db 183e fc95 293d
00000250: 4685 50bc c1c7 0d3c d171 0dbe 1fdc babd
00000260: ed1d 8abd f960 ac3d 3d5b bdbd 17bf 5cbd
00000270: f44b 83bd 2bde 6a3d 17eb fdbc b7d7 5bbd
00000280: 3ef5 34bd 2a17 1b3d 846e 5ebd 0271 13bd
00000290: 66ba 593d 9ef2 8b3c cbe6 1b3e acd6 053d
000002a0: 258b 04bd b4d7 a7bb b6c6 253e 5669 eabd
000002b0: f568 06be a631 cc3d e291 9b3d 138a 973d
000002c0: 6e34 3bbd d548 55bc c6c8 72bd db4d 0ebd
000002d0: ecd5 903d 7859 f83d f551 dabd 4e9b f8bc
000002e0: f210 3e3d 4ce0 ec3d 8f7c 95bc 057f 4b3d
000002f0: a244 bd3d e00f b03d 7898 d83c c64c 60bc
00000300: 307f b73d a7ad 98ba 109f bd3c 26bf 19bd
00000310: 21ca c33d e606 8abd b5dd 77bd d431 de3b
00000320: 0e34 143e b33b e3bc 75cd 81bc d4eb 863d
00000330: 3f88 93bd 2f58 64bd fabd 1a3e 7c2b d83d
00000340: 0ca3 843c 30b5 293d 0a81 fe3d a47d f23d
00000350: 85d2 083d 6fbd 293e bb57 f73d e65a 023e
00000360: 1575 163e 3389 d6bd 2172 773c 0b49 e43c
00000370: b8f9 dd3d 5645 963d 25ab a2bd f313 ed3d
00000380: 4f47 f03d d2d7 043e a323 4ebc 3c31 883d
00000390: 479b 1d3d 2899 1c3d 0961 013e 0f8e 8b3d
000003a0: 082e cdbc 9ca2 c63d 4365 a53d 607e 25bd
000003b0: 9b33 a3bc f8f0 9a3d 8737 0c3e 0267 1d3d
0.045388132 -0.07927092 -0.048944857 -0.047424894 0.06577034 0.080413185 -0.056162342 0.04606172
-0.016418457 -0.07703317 -0.041579217 -0.08204184 0.023224194 -0.087882705 0.13027261 -0.035559814
0.018454581 0.12409318 -0.062760495 0.080658756 0.06687781 0.0033927811 0.14455286 0.052903444
-0.07722793 0.009284819 -0.0635149 -0.052666415 -0.100886084 -0.013832782 0.075438775 0.0525171
-0.017561119 0.09377279 0.1313325 0.11085805 0.07673891 -0.028868483 -0.079343006 0.117050394
-0.025202256 0.14536431 -0.05429934 -0.091598056 0.024355434 0.13491975 0.04189385 0.017867906
0.06194388 0.053935867 0.09105804 0.09437606 0.0070873047 -0.06634248 0.037111353 0.14039974
-0.046752732 -0.01003206 0.08617746 0.15666077 -0.015361266 -0.019839067 0.11743587 -0.07762069
-0.03684239 0.104682446 0.13150494 0.032989293 -0.033216484 0.12662522 0.045800667 -0.049054578
0.10544604 -0.016559573 -0.027032914 0.018334543 -0.08506488 0.040608805 0.10811842 -0.05785881
0.08290395 0.06294721 -0.036313478 0.121532165 -0.039171837 0.16659713 0.1705643 -0.0724345
-0.013980921 0.079153284 0.1889346 0.11287491 -0.025709357 0.111790776 -0.051611725 0.106773674
0.15107813 0.17123747 0.10590916 0.07916832 -0.058982376 0.14301878 -0.09454988 -0.06554432
0.099110775 -0.0093190335 0.13648781 -0.021564184 0.065920174 0.08174072 -0.016487008 0.08191627
0.041254103 0.12557651 0.19879965 0.15946348 -0.057719804 -0.041195177 -0.0855075 0.08904886
-0.0563065 0.068203226 0.01333908 -0.01944536 -0.14549501 -0.053039722 0.15156165 0.08360819
0.019471584 0.10987344 0.08188401 -0.13204126 0.0643366 -0.000769206 -0.025421068 0.032280203
0.112483315 -0.059997432 0.065357246 0.14732365 0.0752275 0.06538654 0.028469361 0.044923414
0.106032856 0.12187824 0.14927442 0.041402802 -0.012727087 0.008653582 -0.13812949 -0.09124016
-0.06743989 0.084169336 -0.09245918 -0.053893175 -0.06410971 0.057340782 -0.030995889 -0.05367252
-0.044179194 0.037863888 -0.054304615 -0.035996445 0.05315628 0.017083462 0.1522476 0.03267543
-0.03235926 -0.0051221494 0.16189083 -0.114458725 -0.13125975 0.09970407 0.07596184 0.073993824
-0.045704298 -0.013017853 -0.059273504 -0.034742218 0.07072052 0.1212644 -0.10660163 -0.030347493
0.04640288 0.11566219 -0.01824787 0.049681682 0.09241606 0.08596778 0.02643989 -0.013690179
0.08959806 -0.0011648432 0.023147136 -0.03753581 0.095600374 -0.06739597 -0.06051417 0.0067808423
0.14472982 -0.027738428 -0.01584504 0.065879494 -0.07203721 -0.05574816 0.15111533 0.10555169
0.016191028 0.04143256 0.12426956 0.1184037 0.033403892 0.1657617 0.1207728 0.12729988
0.14693101 -0.104753874 0.015102894 0.02786686 0.10838646 0.073374435 -0.079427995 0.11576071
0.11732351 0.12972954 -0.012581739 0.06650016 0.038478162 0.038232 0.12634672 0.06814205
-0.025046363 0.09698984 0.08075955 -0.040403724 -0.019922068 0.075654924 0.13693057 0.038428314

bias_hh f4 [240]
00000000: b309 1e3d 0f87 393d a45e a5bd d684 edbc
00000010: 4d8e 373e ffd4 923d c2d7 9a3d 0f89 d23d
00000020: 3653 5cbd a452 d9bc bf7e 1ebd 4c8c 023d
00000030: 5824 9cbc 4db2 5dbd 783f 793c f451 3dbc
00000040: 8e6d 763b c6a0 013d 5917 303d d58e 243d
00000050: c7e5 af3c 2e0d acbd c55f 263d ae31 e93c
00000060: 24f3 203d f6e7 913d 0b42 adbb bfef d53d
00000070: 0633 033e a86c 4cbc af6f fa3d 7b5e 673d
00000080: 029f e3bd e887 7cbd b29e a3bd e75a af3c
00000090: 002e 54bc 9f41 e13d b873 a33d 2d7a 97bc
000000a0: 8565 1abd 35b4 11bd e1f9 bcbd 170e 0abd
000000b0: 210a 6f3d 3a65 2d3e e92f f03c 069a 833d
000000c0: 0c82 0c3d cd05 9e3d d1b4 323c 7b2f ea3d
000000d0: 4204 b33d 302c 06bc b188 5a3e 2a64 133d
000000e0: bbc4 083e 91b8 093e 6402 8e3d 3727 9e3c
000000f0: dbe3 1b3e 4589 c63d aca4 e33d de47 9ebc
00000100: 8571 cbbc 9d4f 02bd ca68 9539 5220 fd3d
00000110: 0d39 f3bc 4216 bbbd 693c f73c 0813 2ebc
00000120: 5e6b 1abd 8053 bfba 82f5 f63d cb5f ef3d
00000130: 5eec fb3d b879 0b3e b2dc 0dbe b68b 913d
00000140: cd3d c9bc 273f 8b3d f090 b53d 380b ce3c
00000150: aaa0 a1bd a40d 593d 69aa 193e 0491 93bc
00000160: d904 9dbd 7318 b63c fd3c febc 034a e23c
00000170: 1d3b 94bd fbe3 8f3d b13d 5a3d 9c46 303d
00000180: 14db 8abc 4b53 4a3d ec65 013e da5b b5bd
00000190: e7d7 c03d 7dbe 0d3e 953d 52bd 41e8 383c
000001a0: a004 823c 18f0 723d 1d1b d33c 5400 2d3d
000001b0: f73a 8c3d 744c be3d 823a 9c3d 2eb5 a7bc
000001c0: f5e3 ee3d 873d 233e 0a77 733e b3a0 b23d
000001d0: 108e 913d e5c3 093e fdc9 123e 8a9d 3e3e
000001e0: 4395 11be f69e 02be cec1 e5bc 7ebe 4a3e
000001f0: 84e3 713d d6bf f4bd 71ff fd3d a28c 423d
00000200: 97f9 d8bc 5762 523c ce94 63bd f5a0 27bd
00000210: de3d 5b3d 1289 8bbd 57ef b3bd 08e5 04be
00000220: c9c8 e93d 6418 e5bd b278 1fbd 1f40 2c3e
00000230: 969f 193e 2eec 243c d109 d13d 9b05 923d
00000240: 0bd8 7bbd 3c7a 8f3d f60f 75bd 4f3c 313d
00000250: 7c35 753d f423 12be 86f0 f0bd f9a7 aabd
00000260: 0887 d23d 5fae d13d be4a e9bd dba8 193d
00000270: c5d0 4dbe ea6f dd3d ee36 dbbd 4a37 ff3d
00000280: 08e7 053e 8ef1 ed3d be66 4dbd 2dfc 02be
00000290: 5907 b43c aae5 20be b57f 273d 86ff e6bd
000002a0: f0f2 d4bd a3f1 acbd 1c86 da3c 18cd c4bc
000002b0: f867 7bbd 5480 56bc af43 883d 03df a8bc
000002c0: 8904 f7bd 5bfd 113e 820e abbd 00ac eabc
000002d0: eb80 acbc a71b c8bd 2fc0 803b b90c ad3c
000002e0: f9d3 0b3e 7a52 b2bd 5ff2 61bd b9dc c03c
000002f0: 9f70 083e 1e7a 23bd 4118 8abc 3369 173e
00000300: 1a30 fd3d d264 aa3d fb58 a33d e8cd 853c
00000310: 51b5 a5bc 97a0 733d 507f f4bd a482 59bc
00000320: e325 f63d 39d3 c7b9 fb52 8f3c aaff febd
00000330: 5d80 46bd 16c4 ac3d 6847 d6bc 1e00 913d
00000340: eb82 48bc 670d 123e 6494 d83d aea9 163e
00000350: 1663 aa3d 6723 1c3d 1f58 b0bd fd67 5bbd
00000360: b7b0 873d 403a 9c3c 112e bebd 81f8 953c
00000370: 52bd f33d 1e60 ee3d 9bd4 b43d 6cde 163e
00000380: b7c3 003e 4aee 933d 0e11 67bd ff16 003e
00000390: 80f2 a2bd 8b3e 69bd bbdc 2f3e 680a de3d
000003a0: 3de9 733c b1c6 0b3e e634 253e cf4f 393e
000003b0: 4038 903c adb6 dc3d 6ac1 893c 1603 1bbd
0.03858347 0.045294818 -0.08074692 -0.028994005 0.17925377 0.07169532 0.07560684 0.10280048
-0.053790294 -0.026528664 -0.038695093 0.03187208 -0.019060299 -0.05412512 0.015212886 -0.011555184
0.003760192 0.031647466 0.042991016 0.040175278 0.021471871 -0.08400951 0.040618677 0.028466072
0.039294377 0.07124321 -0.005287414 0.104461186 0.12812433 -0.012477078 0.12228333 0.056486588
-0.11114313 -0.061653048 -0.07989253 0.02140565 -0.01295042 0.10998844 0.07981056 -0.018490875
-0.037694473 -0.03557225 -0.09227348 -0.033704843 0.05835927 0.16933146 0.02931972 0.06425862
0.03430371 0.0771595 0.010907368 0.114348374 0.087410465 -0.008189246 0.21341206 0.035984196
0.13356297 0.13449313 0.0693405 0.019305808 0.15223639 0.09694151 0.11115393 -0.019321378
-0.024834404 -0.031814206 0.0002849757 0.1235968 -0.02969029 -0.09135105 0.030180173 -0.010624655
-0.03770005 -0.0014597028 0.12058546 0.11688193 0.12300943 0.13620651 -0.1385372 0.07106726
-0.024565602 0.06799155 0.08865535 0.025151834 -0.07891972 0.052991524 0.15006413 -0.018013485
-0.0766694 0.022228455 -0.03103494 0.027623182 -0.072378375 0.07025906 0.05328149 0.04303609
-0.016950168 0.04939584 0.12636536 -0.0885541 0.0941618 0.13842197 -0.05132826 0.011285842
0.015871346 0.059311002 0.025769765 0.04223664 0.06847184 0.09291926 0.07628347 -0.020472135
0.11664573 0.1594144 0.23775879 0.08722057 0.071071744 0.13453634 0.14334865 0.18614784
-0.14217095 -0.12755951 -0.028046515 0.1979923 0.059054866 -0.11950652 0.12402237 0.0474974
-0.026486201 0.012840829 -0.055561833 -0.040924985 0.053525798 -0.068132535 -0.08785885 -0.12977993
0.1141525 -0.11186293 -0.038933463 0.16821335 0.15002283 0.010066075 0.102069505 0.071299754
-0.06148533 0.07005736 -0.059829675 0.043270405 0.05986546 -0.14271528 -0.11764626 -0.083328195
0.102796614 0.10238337 -0.11391209 0.03751455 -0.2009917 0.108123615 -0.107038364 0.124617174
0.13076413 0.116183385 -0.05014681 -0.1279151 0.02197616 -0.1571261 0.040893275 -0.11279206
-0.10397899 -0.08444526 0.026675276 -0.024023578 -0.06137845 -0.013092119 0.066535346 -0.020614153
-0.12061412 0.14256804 -0.083523765 -0.02864647 -0.021057567 -0.09770899 0.00392916 0.02112423
0.1365508 -0.087071374 -0.055162784 0.023542749 0.13324212 -0.039911382 -0.016857268 0.14786224
0.1236269 0.08320011 0.07975956 0.016333535 -0.02022806 0.059479322 -0.119383454 -0.013275776
0.12018945 -0.0003811361 0.017495623 -0.12451108 -0.04846226 0.08435838 -0.026157096 0.070801005
-0.0122382445 0.14262925 0.10575178 0.14713165 0.083196804 0.0381197 -0.08610558 -0.053565968
0.066255026 0.019070745 -0.0928613 0.018306972 0.11901344 0.11639427 0.08829614 0.14733285
0.1257466 0.072231844 -0.05641275 0.12508772 -0.079564095 -0.05694441 0.17174046 0.108418286
0.014887151 0.13650014 0.1613346 0.18096851 0.017604947 0.1077703 0.01681586 -0.03784474

weight f4 [3, 12]
00000000: f7be cebd 3bd3 7fbe a6c8 ecbd e856 82bd
00000010: ce44 9cbe 4695 a93d 593b b6bd 22e8 d3bd
00000020: ee08 a8be 506a 7cbe f039 8ebe 3ed3 9b3d
00000030: 2b44 023e 046e 9abe e883 d73d 02ae 063b
00000040: 94f6 67be a725 643d 4c6a 473d 039e 053e
00000050: e577 013e a1b3 653e 7c53 32bd af94 4c3e
00000060: 134f 953e 5d21 ce3d 02cd 2dbe 5f72 7f3e
00000070: 5e61 89be 792e 5cbd a21e 623e dded 37bd
00000080: 9f71 08be b12e 4a3e 1dc1 afbc b006 863b
-0.100950174 -0.24982922 -0.11561708 -0.06364232 -0.30521244 0.08280425 -0.088980384 -0.1034701
-0.32819313 -0.2464993 -0.27778578 0.076086506 0.12721317 -0.3016206 0.10523206 0.0020550494
-0.22652656 0.05569997 0.048685357 0.13048558 0.12643392 0.22431804 -0.04353665 0.19978593
0.2916189 0.10064957 -0.16972736 0.24945973 -0.26832098 -0.053755257 0.22081998 -0.04490458
-0.13324593 0.19744374 -0.021454388 0.0040901527

bias f4 [3]
00000000: 5d72 4dbd 5104 40be e301 a8bd
-0.050157893 -0.18751647 -0.08203485
