models/paramsearch_0.006142580309158473_0.42760011311509943_0.35341915337512897_88.pt (torch, 33148 bytes, 7 tensors)

weight_ih f4 [240, 6]
0	0xbdeaa887	-0.11457925
1	0x3f76438d	0.96196824
2	0xbedd3f51	-0.4321237
3	0xc0535ba0	-3.3024673
4	0xbfd05e5c	-1.6278796
5	0x3e8c5500	0.274086
6	0xbe1ce59a	-0.15321961
7	0xbec9af11	-0.39391378
8	0x3ef69c4c	0.4816612
9	0xbfe8f1b5	-1.8198763
10	0xbfb21b4c	-1.391458
11	0xbefb5676	-0.49089402
12	0xbe006117	-0.12537037
13	0xbd3ad770	-0.045615613
14	0xbf780d14	-0.96894956
15	0xc0222488	-2.5334797
16	0xbfc74934	-1.5569215
17	0xbe439769	-0.19100727
18	0xbd983da4	-0.07433632
19	0x3ec17b13	0.3778921
20	0x3bfb5d0c	0.007671004
21	0xbfa542b5	-1.2910982
22	0xc00469d1	-2.0689585
23	0x3e2c5443	0.16829018
24	0xbf122b1a	-0.5709702
25	0x3f21154e	0.62923133
26	0x3ec0c1e4	0.37647927
27	0xbff07250	-1.8784885
28	0xc01c2b3c	-2.4401388
29	0x3e5dd794	0.21664268
30	0x3d9b394c	0.07579288
31	0x3fd63036	1.6733463
32	0xbea751f3	-0.3267971
33	0x3f869b29	1.0516101
34	0x3eb7562f	0.3580794
35	0xbe3cde95	-0.18444283
36	0xbdaed2ea	-0.085363224
37	0x3fcca155	1.5986735
38	0xbf74becf	-0.9560365
39	0x3ea2fd45	0.31833854
40	0xbf0f5be9	-0.5599962
41	0xbe037641	-0.12838079
42	0xbe6b1144	-0.22955805
43	0xbf1d7c34	-0.61517644
44	0x3d6eb82b	0.058281105
45	0xbf82766c	-1.019239
46	0xbd81360b	-0.06309136
47	0xbf2fc0ef	-0.6865377
48	0xbf35f6d6	-0.71079767
49	0x3e3629ec	0.1778943
50	0xbf2e50fe	-0.68092334
51	0xbfb60ee5	-1.4223295
52	0xbfdd34d3	-1.7281746
53	0xbf042fc0	-0.5163536
54	0xbe45fd07	-0.19334804
55	0xbdd36ef6	-0.103238985
56	0x3e99f143	0.3006688
57	0xbe8de59f	-0.2771425
58	0xbfa7e24d	-1.3115937
59	0xbe75a7b3	-0.23989753
60	0x3b3a4c0e	0.002842668
61	0x3e8b7ef4	0.27245295
62	0xbfab15a2	-1.3365977
63	0x3f2354b4	0.6380112
64	0xbd137807	-0.03600314
65	0xbe543972	-0.20725039
66	0xbe94f360	-0.2909193
67	0x3f37d0ab	0.7180278
68	0xbf8085ba	-1.004081
69	0x3f6137f8	0.87976027
70	0xbebab8eb	-0.36469206
71	0xbedd174c	-0.43181837
72	0x3e4933d1	0.19648673
73	0xbf4b5beb	-0.7943713
74	0xbe87bcdd	-0.2651128
75	0xc040b9de	-3.0113444
76	0xbf8b0b0e	-1.0862749
77	0xbdc1a042	-0.09454395
78	0xbe259db8	-0.16173446
79	0x3f820618	1.015811
80	0x3da09255	0.078404106
81	0xbf93cbbf	-1.1546553
82	0xbe9a3378	-0.30117393
83	0x3de063f8	0.109565675
84	0xbe9634bf	-0.29337117
85	0xbd788ce8	-0.060681254
86	0x3dd8aeda	0.10580225
87	0xbf025da1	-0.50924116
88	0xbfc98e52	-1.5746558
89	0xbf08a5d0	-0.5337801
90	0xbd50e3cf	-0.050998505
91	0x3efe3880	0.4965248
92	0x3e2afe32	0.1669853
93	0xbf26c604	-0.651459
94	0xc012c378	-2.2931805
95	0x3e84db4d	0.25948563
96	0xbed9b7cd	-0.4252304
97	0x3e9d45e2	0.3071738
98	0x3e47a886	0.1949788
99	0xbf2443d5	-0.64166003
100	0x3d4bb953	0.049737286
101	0xbef90d7d	-0.48643103
102	0x3dba2310	0.09088719
103	0xbe6af128	-0.22943556
104	0xbd3fbae3	-0.04680909
105	0xc03d7735	-2.9604008
106	0xbfa35e68	-1.2763186
107	0xbdaabf64	-0.08337286
108	0xbf0b669e	-0.54453456
109	0x3e79db7a	0.2440013
110	0x3eb18513	0.3467184
111	0xbdba8fe6	-0.09109478
112	0x3da63834	0.08116189
113	0xbf5b9aea	-0.85783255
114	0x3dd19f77	0.10235494
115	0x3f1f2d7d	0.62178785
116	0xbf586a73	-0.8453743
117	0x3e6413ff	0.22273253
118	0xbd7c2d0a	-0.06156639
119	0xbd15afb7	-0.036544528
120	0xbdc55918	-0.09636134
121	0xbf678c41	-0.90448385
122	0xbde7fc98	-0.11327475
123	0x3c68be3b	0.014205511
124	0x3e9620ac	0.29321802
125	0xbdff8b26	-0.12477712
126	0xbeed57c3	-0.4635602
127	0x3ffad74b	1.9596952
128	0xbe36f20b	-0.1786577
129	0x400452f6	2.0675635
130	0xbd89827e	-0.067143425
131	0xbe893ef4	-0.26805842
132	0xbd8774d0	-0.06614077
133	0xbf195af8	-0.5990443
134	0xbf127a38	-0.5721774
135	0x3fc6f64a	1.5543911
136	0xbf6bc9a9	-0.92104584
137	0xbea8d22f	-0.32972857
138	0x3e6da71e	0.23208281
139	0xbf3075ba	-0.68929636
140	0x3db5d5f3	0.08878698
141	0xbe6226db	-0.22085135
142	0xbf9421c1	-1.1572801
143	0xbdffa1d6	-0.1248204
144	0x3e0e8686	0.13918504
145	0x3f18a215	0.5962232
146	0xbee0159f	-0.43766496
147	0x3dbf48d6	0.09340064
148	0xbe90443d	-0.28177062
149	0x3d72bcd0	0.059262097
150	0xbed5ba18	-0.4174354
151	0x3c2416bf	0.010015189
152	0x3e55ce38	0.20879447
153	0x3fcede1f	1.6161536
154	0x3eaa9759	0.33318594
155	0xbd8df867	-0.069321446
156	0xbf5ba814	-0.8580334
157	0x3b8ec864	0.0043573845
158	0x3eb13380	0.34609604
159	0xbeb948db	-0.36188397
160	0x3eca80f9	0.39551523
161	0xbf070b50	-0.52751637
162	0xbf476eec	-0.7790363
163	0x3fe32640	1.7746048
164	0x3d4064e6	0.046971224
165	0xbfa8aaf9	-1.3177177
166	0xbff194c1	-1.8873521
167	0x3e0d27c6	0.13784704
168	0x3d9a0a3d	0.07521484
169	0x3e5f37fe	0.21798703
170	0xbe68af06	-0.22723016
171	0xc011f1c4	-2.2803812
172	0xc0031e90	-2.0487404
173	0x3dc4579b	0.09587022
174	0x3de61089	0.112336226
175	0xbe46f303	-0.19428639
176	0x3e94df9c	0.2907685
177	0x3fd157da	1.6354935
178	0x3f0011a6	0.5002693
179	0x3e387acf	0.18015598
180	0xbe45a50c	-0.19301242
181	0x3c61f4a0	0.013791233
182	0xbe6d7122	-0.23187688
183	0xbfb8f74f	-1.4450473
184	0xbfa33211	-1.2749654
185	0xbe9dfe27	-0.30857965
186	0xbe556754	-0.20840198
187	0x3fa2c457	1.2716168
188	0x3e0125a1	0.1261201
189	0x3eeeb4ec	0.46622407
190	0x3e1d24b7	0.15346037
191	0xbf5366b1	-0.8257857
192	0xbf2c2e73	-0.67258376
193	0x3ef3f553	0.47648105
194	0x3b340dc3	0.0027474023
195	0xbdb8e9fd	-0.09029005
196	0x3cb93768	0.022609428
197	0x3d9a2047	0.07525688
198	0x3e9a0de0	0.3008871
199	0x3e4ad502	0.19807819
200	0xbf29e6f8	-0.66368055
201	0x3fbbd211	1.4673482
202	0x3f7941d4	0.9736607
203	0xbe221684	-0.15828902
204	0x3e11f3f9	0.14253224
205	0x3c21e4e9	0.009881237
206	0xbf2009a5	-0.62514716
207	0xbf90901b	-1.1293977
208	0x3e808a70	0.2510562
209	0x3af127ae	0.0018398666
210	0xbe338068	-0.17529452
211	0x3e72644a	0.2367107
212	0xbf2756ef	-0.65367025
213	0xc0a46c63	-5.138231
214	0xbfe9ee29	-1.8275806
215	0xbe9f0967	-0.3106186
216	0xbe28e0b6	-0.1649197
217	0x3ebdaf49	0.37047794
218	0x3df560ef	0.11981379
219	0xbeaa449a	-0.33255464
220	0xbed3c95c	-0.41364563
221	0xbe567837	-0.20944296
222	0xbe4b48d3	-0.19851999
223	0xbd826e7f	-0.06368732
224	0xbe0d0603	-0.13771825
225	0x3f33b885	0.7020343
226	0x3e382b5e	0.17985293
227	0xbec5b497	-0.38614342
228	0x3db4341b	0.08799001
229	0x3f8f27de	1.1184042
230	0xbeef76ce	-0.46770328
231	0x3ed57786	0.41692752
232	0xbfed2324	-1.8526349
233	0x3e81cd1d	0.25351802
234	0xbed8687c	-0.42267215
235	0xbf0a11b4	-0.5393326
236	0x3ec0fb70	0.37691832
237	0xbd33c6b7	-0.04389068
238	0xbf31a6a5	-0.69394904
239	0xbf1f76e0	-0.62290764
240	0xbe789f7a	-0.24279585
241	0x3eb2c8dc	0.3491887
242	0x3e00903e	0.12555024
243	0x3f78a5c9	0.9712797
244	0x3c590b8a	0.01324738
245	0x3ecde7db	0.40215954
246	0x3dead534	0.114664465
247	0xbe8146ad	-0.25249234
248	0xbca07039	-0.019584762
249	0x3e131842	0.14364722
250	0xbf014599	-0.5049682
251	0xbe9686df	-0.29399773
252	0xbf420ada	-0.7579781
253	0x3f64edf6	0.894256
254	0xbea1bb7b	-0.3158835
255	0xbd44a324	-0.048007146

weight_hh f4 [240, 12]
0	0x3e592182	0.21204188
1	0xbdd41046	-0.103546664
2	0xbe28e44b	-0.16493337
3	0x3f04458d	0.51668626
4	0x3e273ff8	0.16332996
5	0x3d86bf2e	0.065794334
6	0xbf397186	-0.7243885
7	0xbed27195	-0.4110228
8	0xbf500744	-0.81261086
9	0x3da4c7a1	0.08045889
10	0xbef7eafd	-0.4842147
11	0xbf81751d	-1.0113865
12	0x3e770133	0.24121551
13	0xbe8c3b18	-0.27388835
14	0x3db4f8fc	0.088365525
15	0xbef538ea	-0.47894984
16	0x3dea7121	0.11447359
17	0xbe457c61	-0.19285728
18	0x3e55add8	0.20867097
19	0x3d956891	0.07295335
20	0x3f26e14c	0.65187526
21	0xbe6d88d1	-0.23196723
22	0x3ddedfb7	0.10882514
23	0x3e5dbce3	0.21654086
24	0x3e4bef18	0.19915426
25	0x3f17dedf	0.5932445
26	0xbec56f41	-0.38561442
27	0x3dad1033	0.084503554
28	0x3f27870a	0.6544043
29	0x3da60750	0.081068635
30	0xbf6e5b01	-0.9310761
31	0x3d3ff196	0.046861254
32	0xbe362e39	-0.1779107
33	0x3e9af256	0.30263013
34	0x3ebf9f79	0.37426355
35	0xbef59e70	-0.4797244
36	0xbbba7084	-0.0056896824
37	0xbec5894a	-0.38581306
38	0xbedd29d5	-0.43195978
39	0x3dab8abc	0.08376071
40	0xbdf23e11	-0.118282445
41	0xbc0eaaf9	-0.008707755
42	0x3e99e7a9	0.30059555
43	0x3f311bde	0.69183147
44	0xbe9096a9	-0.28239945
45	0x3dee4b33	0.11635437
46	0xbdb445be	-0.08802365
47	0xbead8445	-0.33889976
48	0x3edd1dab	0.43186697
49	0x3f17db5c	0.5931909
50	0x3e941c0f	0.28927657
51	0xbeabbad3	-0.33540973
52	0x3ef023d9	0.4690235
53	0x3ea7660d	0.32695046
54	0xbe4a9c6b	-0.19786231
55	0xbe2f3193	-0.17108755
56	0xbe4d9b7c	-0.20078844
57	0xbde631c5	-0.112399615
58	0x3f04d342	0.51884854
59	0xbe8f5768	-0.27996373
60	0xbedecece	-0.43517154
61	0xbefea8d0	-0.4973817
62	0xbea4cad3	-0.32185993
63	0x3eed36e5	0.46330944
64	0xbe53f6ff	-0.2069969
65	0xbe7efa7f	-0.24900244
66	0xbe84b913	-0.2592245
67	0x3e0ed7de	0.13949534
68	0xbe7b60d3	-0.24548654
69	0xbed818b4	-0.42206347
70	0xbf056cd5	-0.5211919
71	0x3e894030	0.26806784
72	0xbe9bf3cc	-0.3045944
73	0x3e84da5e	0.2594785
74	0xbe862e94	-0.2620741
75	0x3e724a3b	0.23661129
76	0x3e9d20fe	0.30689234
77	0xbebb473d	-0.36577788
78	0xbdd92908	-0.10603529
79	0x3e59426c	0.21216744
80	0x3e15e153	0.14636736
81	0x3edd47ef	0.43218943
82	0x3dc4c170	0.09607208
83	0x3e81aab8	0.2532556
84	0xbd9c5b10	-0.07634556
85	0x3e7d6725	0.24746378
86	0xbdaa3950	-0.08311713
87	0xbf19ad87	-0.60030407
88	0x3f85ea17	1.0462064
89	0xbe5c3bb0	-0.21507144
90	0x3f142390	0.57866764
91	0xbeab8c50	-0.33505487
92	0x3fd49cde	1.6610372
93	0x3c52b226	0.012859857
94	0x3fb8db96	1.4442012
95	0x3dd243e0	0.102668524
96	0xbeb09976	-0.3449208
97	0xbf0c9925	-0.5492118
98	0x3f40c412	0.7529918
99	0xbc26e33f	-0.010186016
100	0xbd24cbcc	-0.04023342
101	0x3e23839c	0.15968174
102	0xbf19f613	-0.60141104
103	0xbedfa1e2	-0.43678194
104	0xbdbf4361	-0.093390234
105	0x3e8826e0	0.2659216
106	0xbeaf664a	-0.34257728
107	0x3f059dd7	0.5219397
108	0xbd8bfb5b	-0.068350516
109	0xbe864503	-0.26224527
110	0xbe122f64	-0.1427589
111	0xbf143acc	-0.57902217
112	0x3e3ab001	0.18231203
113	0x3dd62a45	0.10457281
114	0x3f18c86c	0.5968082
115	0x3eb62ace	0.35579532
116	0x3e20e4f8	0.15712345
117	0xbdd93db8	-0.10607475
118	0xbe81bcae	-0.25339264
119	0xbccba5f6	-0.02485941
120	0xbfe36f55	-1.7768351
121	0x3e1792b8	0.14802063
122	0x3f96ab46	1.1771019
123	0x3f3d47b2	0.73937523
124	0xbf040000	-0.515625
125	0x3ef05335	0.46938482
126	0xbf840a1c	-1.0315585
127	0xbf0e1311	-0.55497843
128	0xbf0d2e0d	-0.5514839
129	0x3f0c01d9	0.5469032
130	0xbe8cb518	-0.27481914
131	0x3eb3eca6	0.35141486
132	0xbf1a0eb7	-0.60178703
133	0xbe92b1d6	-0.28651303
134	0xbf390d28	-0.722857
135	0xbf45b69a	-0.7723175
136	0x3e6dd87d	0.23227115
137	0xbf953a37	-1.1658391
138	0x3f5e20e2	0.86768925
139	0x3e1b7078	0.15179622
140	0x3f9deec8	1.2338495
141	0x3f20ae1c	0.6276567
142	0x3f9c34dc	1.2203631
143	0xbe83db22	-0.25753123
144	0x3e78debd	0.24303718
145	0xbe1e0eee	-0.15435383
146	0xbf3d3aea	-0.7391802
147	0xbee63376	-0.44961137
148	0x3ed1e878	0.40997672
149	0xbeb1f20b	-0.34754977
150	0x3ebf3801	0.37347415
151	0x3eecb76e	0.46233696
152	0x3f6253d0	0.8840914
153	0xbdc8e338	-0.098089635
154	0x3e9ad5cd	0.30241242
155	0x3cecf6de	0.02892631
156	0xbf183e88	-0.59470415
157	0xbe93bf7d	-0.2885703
158	0xbe288600	-0.16457367
159	0x3de122f2	0.109929934
160	0xbec59860	-0.38592815
161	0x3e7a9468	0.24470675
162	0x3ef1b2e8	0.47206807
163	0xbdd6022e	-0.104496345
164	0x3e77fc6a	0.24217382
165	0x3efbd862	0.49188524
166	0xbc46f809	-0.012144097
167	0x3f683bad	0.9071606
168	0x3dc5f95f	0.096667044
169	0x3eac249d	0.33621684
170	0x3e2dc731	0.16970517
171	0xbed1fe40	-0.4101429
172	0x3f593a80	0.8485489
173	0x3e81d234	0.25355685
174	0x3ebc950f	0.36832473
175	0xbc6c49f4	-0.014421929
176	0x3f7ea09a	0.9946381
177	0xbb2459fc	-0.002507805
178	0x3f67b92d	0.9051693
179	0x3df3b258	0.11899251
180	0x3e3e054c	0.18556708
181	0x3dc62b9e	0.09676288
182	0x3dcd5c4a	0.10027368
183	0x3b02b68e	0.0019945237
184	0x3ee75bcf	0.45187232
185	0x3e28f611	0.16500117
186	0xbe8e971e	-0.27849668
187	0x3e2f1675	0.1709841
188	0xbe72e190	-0.23718858
189	0xbeaded30	-0.33970022
190	0x3d167cef	0.03674024
191	0xbecc1750	-0.39861536
192	0x3e9a9095	0.30188432
193	0xbe9863dc	-0.29763687
194	0xbec1a19d	-0.37818614
195	0xbebcbb57	-0.3686168
196	0x3ebd9b8a	0.3703273
197	0x3d4dc5d5	0.050237495
198	0x3f29c50c	0.66316295
199	0x3e5b6f16	0.21429095
200	0x3f159a43	0.5843851
201	0xbd2ef650	-0.04271537
202	0x3e957cdf	0.29196832
203	0x3ddafa46	0.10692267
204	0xbe9cec71	-0.3064914
205	0xbf7650a9	-0.9621683
206	0xbe049f06	-0.12951288
207	0x3e977564	0.2958175
208	0xbeefca60	-0.46834087
209	0x3d4e7c5c	0.050411567
210	0xbeac0529	-0.33597687
211	0x3ee59f0c	0.44847906
212	0xbdd566f8	-0.1042003
213	0xbaa1e9a2	-0.0012352953
214	0xbf333192	-0.69997513
215	0x3e98d1fb	0.29847702
216	0x3f08f131	0.5349303
217	0x3e875e1e	0.26438993
218	0x3ea06a6e	0.313312
219	0xbf07ea66	-0.5309204
220	0x3f17a879	0.59241444
221	0x3e96ab7d	0.2942771
222	0x3e4baa58	0.198892
223	0xbf19a29c	-0.6001375
224	0x3f67d82b	0.9056422
225	0xbbd4c136	-0.006492759
226	0x3eed9624	0.4640361
227	0xbca3bb54	-0.019986786
228	0xbeb54545	-0.3540441
229	0x3d2d97b2	0.042380996
230	0xbe1dd3f4	-0.15412885
231	0x3e3a7a34	0.1821068
232	0x3da51ed2	0.08062519
233	0xbefb2895	-0.490544
234	0x3dd7fcb3	0.105462454
235	0xbe10bdba	-0.14134875
236	0x3e8b6d8d	0.27232018
237	0x3f6c1aa9	0.9222818
238	0xbf2ac54e	-0.66707313
239	0xbfa13c5f	-1.2596549
240	0xbeda1694	-0.4259535
241	0xbed0a226	-0.4074871
242	0xbf52ab7b	-0.8229291
243	0xbe48bb45	-0.19602688
244	0x3e9b1042	0.3028584
245	0xbef44e58	-0.47716022
246	0x3f22e2fc	0.636276
247	0x3f8416f7	1.0319508
248	0x3effca0c	0.49958837
249	0xbe8fc119	-0.2807701
250	0x3ec2fb1e	0.38082212
251	0xbdb10ac3	-0.08644631
252	0x3e2d4e27	0.16924344
253	0x3f2c3d06	0.67280614
254	0xbe65f088	-0.22455037
255	0xbe38c3a3	-0.1804338

proj f4 [12, 60]
0	0xbecd6ecc	-0.40123594
1	0xbdecab32	-0.115560904
2	0x3c0208f3	0.007936704
3	0xbe083ac1	-0.13303663
4	0x3e95e82d	0.292787
5	0x3e900c92	0.2813459
6	0xbe3df673	-0.18551044
7	0xbe6ac1d7	-0.22925507
8	0xbd16632f	-0.036715683
9	0x3e4d6258	0.20057046
10	0x3eca1dda	0.394759
11	0x3e2a9797	0.1665939
12	0xbe88c429	-0.26712158
13	0x3d9724ad	0.07380042
14	0xbd3f8bc9	-0.04676417
15	0x3e0fa526	0.14027843
16	0x3ea90644	0.33012593
17	0x3e7bcb6b	0.24589317
18	0xbe97afd3	-0.2962633
19	0x3e0a16fc	0.1348533
20	0x3dec691f	0.11543488
21	0xbdbeff08	-0.09325987
22	0xbea90f78	-0.33019614
23	0xbe322551	-0.17397048
24	0x3f058e38	0.52170134
25	0xbcf2c7e2	-0.029636327
26	0x3e3034d5	0.17207654
27	0xbe851aff	-0.2599716
28	0x3eb7a8b8	0.3587091
29	0x3e8d1f57	0.27562973
30	0xbe2529eb	-0.16129272
31	0x3e639574	0.2222498
32	0xbe5cb4db	-0.21553366
33	0xbe69dabe	-0.2283735
34	0xbed530af	-0.41638705
35	0x3ec6a7b9	0.38799837
36	0xbd1f9f7a	-0.038970448
37	0x3e97f2ae	0.29677337
38	0xbbe7ef28	-0.00707807
39	0x3e906520	0.28202152
40	0x3e8363da	0.25662118
41	0x3ea3019b	0.31837162
42	0xbdec25fc	-0.115306824
43	0xbe4d3905	-0.20041282
44	0xbe9026a6	-0.28154486
45	0xbe53670a	-0.20644775
46	0x3e739b8f	0.2378981
47	0xbe6d3eea	-0.23168531
48	0x3ebebed8	0.37254977
49	0x3ea0f8bb	0.31439766
50	0x3dff8637	0.12476771
51	0x3e699334	0.2281006
52	0x3dc813d5	0.09769408
53	0x3f08cb7d	0.534355
54	0xbd80e672	-0.06293954
55	0x3f0227c4	0.5084193
56	0xbe19069b	-0.14943926
57	0x3e02ce51	0.12774016
58	0x3d8cb306	0.068700835
59	0x3daa05a2	0.083018556
60	0xbf03b722	-0.51451313
61	0xbe393729	-0.18087448
62	0xbeaeb7d3	-0.34124622
63	0x3cc0cd09	0.023535268
64	0xbe917b00	-0.28414154
65	0x3ed8bbde	0.4233083
66	0xbe05ae23	-0.13054709
67	0xbe6872d4	-0.22700053
68	0xbdffd52d	-0.12491832
69	0x3e4c14dc	0.19929832
70	0x3ec490af	0.38391635
71	0xbce84431	-0.028352829
72	0x3ec3f640	0.3827381
73	0x3f4ceea9	0.80051666
74	0xbcfbb975	-0.030728081
75	0x3c336167	0.0109485155
76	0x3e6b2e89	0.2296697
77	0xbd366a25	-0.04453482
78	0xbeca11fa	-0.3946684
79	0x3e9b8b7c	0.30379856
80	0xbcdab1e0	-0.026696146
81	0xbeaae64f	-0.33378837
82	0xbe87a3fb	-0.26492295
83	0x3e653ab4	0.22385675
84	0x3ef8eb9d	0.4861726
85	0xbe15d526	-0.14632091
86	0x3cf653d4	0.03006927
87	0x3e3d86a3	0.18508391
88	0x3e095bc5	0.13413914
89	0x3e1bdcc1	0.1522093
90	0xbe5fe44e	-0.21864435
91	0x3ef7950d	0.48355904
92	0xbed047eb	-0.4067987
93	0xbef46e76	-0.47740525
94	0xbdd796fa	-0.10526843
95	0xbd5cd63a	-0.05391524
96	0xbe0311fa	-0.12799826
97	0x3f1abc80	0.6044388
98	0x3e88bf67	0.26708528
99	0x3ec4216f	0.38306758
100	0x3e5a3f94	0.21313316
101	0xbedcb76f	-0.431087
102	0xbe081797	-0.13290249
103	0xbeb2bf27	-0.34911463
104	0x3dd0edab	0.102015816
105	0x3f05434a	0.520558
106	0x3ed37da1	0.41306785
107	0x3e6d0c21	0.23149158
108	0x3ab7cbd5	0.0014022539
109	0x3dac1b52	0.084036484
110	0xbdcbc364	-0.09949377
111	0x3ead5a95	0.3385817
112	0x3ec82ca5	0.3909656
113	0x3e6f2005	0.23352058
114	0x3edfd7fd	0.43719473
115	0x3f1a64b6	0.6030992
116	0xbc3c6b51	-0.011500196
117	0x3edb7df1	0.42869523
118	0x3e97db72	0.2965961
119	0xbe58a816	-0.2115787
120	0x3d62b04b	0.055343907
121	0xbb72de16	-0.0037058643
122	0xbd9fe3e9	-0.07807142
123	0xbd807ba6	-0.06273584
124	0x3c3ecf3e	0.01164609
125	0xbd2f354c	-0.042775437
126	0xbe370eb8	-0.17876709
127	0x3e3040a0	0.17212152
128	0xbd3bb7c2	-0.045829542
129	0xbe00d9b2	-0.12583044
130	0x3e1fa0e5	0.1558872
131	0x3dc935be	0.09824704
132	0xbe569b35	-0.20957644
133	0xbd8f1e21	-0.069881685
134	0xbe7b91af	-0.24567293
135	0x3e1d2e10	0.15349603
136	0xbcbf5ce3	-0.023359722
137	0x3d01a1b5	0.031648356
138	0xbe18f822	-0.14938405
139	0xbb88f01e	-0.004179015
140	0xbdfeb778	-0.12437338
141	0xbdd1e6fa	-0.102491334
142	0xb85b63b4	-5.2306525e-05
143	0xbdd9d60a	-0.10636528
144	0xbd156987	-0.03647759
145	0xbeca3074	-0.39490092
146	0x3cd5b3ef	0.026086776
147	0x3dc9aadd	0.09847043
148	0xbce3b966	-0.027798366
149	0xbda935f4	-0.08262244
150	0x3dc8734d	0.09787617
151	0x3d462caf	0.048382457
152	0xbd6a3c5a	-0.057186462
153	0xbe1ac2cf	-0.15113376
154	0x3e08c992	0.13358143
155	0x3c943db8	0.018095836
156	0x3e46e181	0.1942196
157	0xbc85d051	-0.016334685
158	0xbde8d2a8	-0.113683045
159	0xbea1af39	-0.31578997
160	0xbe034967	-0.1282097
161	0xbe213883	-0.15744214
162	0x3e4c9ba1	0.19981243
163	0xbc94c3d6	-0.018159788
164	0x3df1bafe	0.11803244
165	0xbdb0f2f0	-0.08640087
166	0x3e009284	0.12555891
167	0xbcff5427	-0.031168057
168	0xbcc60d50	-0.02417627
169	0x3ce01db2	0.02735791
170	0xbe0298b9	-0.12753572
171	0x3f29dadc	0.6634958
172	0x3beb779f	0.007185891
173	0xbe7d2a7b	-0.24723236
174	0xbe23587b	-0.15951721
175	0xbd0969fa	-0.033548333
176	0x3e202694	0.15639716
177	0xbd892518	-0.06696528
178	0x3da920c0	0.082582
179	0xbea9c1b7	-0.33155605
180	0x3ed2132d	0.41030255
181	0x3eaeb646	0.3412344
182	0xbe840680	-0.2578621
183	0xbe4421e2	-0.1915355
184	0x3e1e4944	0.15457636
185	0xbdfe5b45	-0.12419752
186	0xbe08405e	-0.13305804
187	0x3e8544d9	0.2602909
188	0xbd9f72a7	-0.0778554
189	0x3df9cdad	0.12197433
190	0xbeb6c700	-0.356987
191	0x3e012abd	0.1261396
192	0xbe272e41	-0.16326238
193	0x3f06bab5	0.5262864
194	0xbdbee7d8	-0.093215644
195	0x3dfc1fa2	0.12310721
196	0xbedda5e1	-0.43290618
197	0xbee19c11	-0.44064382
198	0x3ec19cca	0.37814933
199	0x3ec0a26b	0.37623915
200	0xbeaf9dba	-0.34300023
201	0xbd8f853c	-0.07007834
202	0x3e89a424	0.26883042
203	0xbd7fd013	-0.062454294
204	0x3dfbaff6	0.12289421
205	0x3e8529bc	0.26008403
206	0xbd9ebedf	-0.077512495
207	0xbeac0945	-0.33600822
208	0xbec80d16	-0.39072484
209	0xbe36800c	-0.17822284
210	0x3d76275c	0.06009613
211	0xbe0da441	-0.13832189
212	0x3eaa3098	0.332402
213	0xbe199055	-0.14996465
214	0xbdd13f92	-0.10217203
215	0xbe9acc63	-0.3023406
216	0x3e7e8bd2	0.24858025
217	0xbef2eef9	-0.47447947
218	0x3e5016cf	0.20321201
219	0xbc426b1f	-0.01186636
220	0x3d15625f	0.036470767
221	0xbd042bab	-0.032268208
222	0x3e5fc771	0.21853425
223	0xbe0c7beb	-0.13719146
224	0xbebea74b	-0.3723701
225	0xbe3371ac	-0.17523831
226	0xbe977f02	-0.29589087
227	0xbeb48409	-0.35256985
228	0x3ee231e7	0.44178697
229	0xbec2da18	-0.38057017
230	0xbe96517d	-0.29359046
231	0x3e3b20af	0.18274187
232	0x3daa1a73	0.08305826
233	0xbea85d76	-0.32883805
234	0xbd3ce2a1	-0.046114568
235	0xbecbaeb9	-0.3978174
236	0xbe2abe9a	-0.16674271
237	0xbdadf446	-0.08493857
238	0x3d8baba6	0.06819849
239	0xbf10c2ef	-0.56547445
240	0xbe9ce7f6	-0.30645722
241	0xbe15ec77	-0.14640985
242	0x3db1d1b2	0.08682574
243	0x3e0cf502	0.13765338
244	0xbe49407f	-0.1965351
245	0x3e0cc29a	0.1374611
246	0x3c3c1d62	0.011481615
247	0xbe27aecb	-0.16375272
248	0xbdaaecd0	-0.0834595
249	0xbec5a6ff	-0.3860397
250	0x3ea6b112	0.3255697
251	0xbec8bce8	-0.39206624
252	0x3ea0b750	0.31389856
253	0xbddaf926	-0.106920525
254	0xbe80c22f	-0.2514815
255	0xbe6154f8	-0.2200507

bias_ih f4 [240]
0	0xbe04e101	-0.12976457
1	0xbdf9e294	-0.122014195
2	0xbe98c3f4	-0.29837
3	0xbe0ba974	-0.1363886
4	0xbdcc8535	-0.09986345
5	0x3e79ec49	0.24406542
6	0xbdd7369b	-0.10508462
7	0xbad0bbfd	-0.0015925165
8	0xbf4ae195	-0.7925046
9	0xbeaa76a5	-0.33293644
10	0xbf02c237	-0.510776
11	0xbe5192e6	-0.20466194
12	0xbe5f1e01	-0.2178879
13	0xbec41ef9	-0.3830488
14	0xbe384ebb	-0.17998783
15	0x3e05aec4	0.13054949
16	0xbdf01c0d	-0.117241
17	0xbe09a21b	-0.13440745
18	0xbe24ab54	-0.16080981
19	0x3db425de	0.08796285
20	0xbe0b17ff	-0.13583373
21	0xbd120ea8	-0.03565851
22	0xbec5d0df	-0.38635918
23	0xba432f13	-0.0007445674
24	0xbdb6fb5d	-0.089346625
25	0xbe598e80	-0.21245766
26	0xbe1b32ed	-0.15156145
27	0xbdd0e7f2	-0.1020049
28	0xbe07c68b	-0.13259332
29	0x3e87b0d3	0.26502094
30	0xbe748cb4	-0.23881799
31	0x3c863365	0.016381929
32	0xbe4a688f	-0.19766448
33	0x3e465866	0.19369659
34	0xbe536ff8	-0.20648181
35	0xbee5bf64	-0.44872582
36	0xbd8c8d6c	-0.068629116
37	0xbd8e3589	-0.06943805
38	0x3e1c5db3	0.15270118
39	0xbe6c00bd	-0.23047157
40	0x3e195591	0.14974047
41	0xbd4b8c38	-0.04969427
42	0xbf0c0054	-0.54688
43	0xbea530a4	-0.32263672
44	0xbe9db49a	-0.3080185
45	0xbe2e490c	-0.17020053
46	0xbca18e93	-0.019721305
47	0x3e036b91	0.12834002
48	0xbe1dbf1c	-0.15404934
49	0xbe630752	-0.22170761
50	0x3dae81bd	0.08520839
51	0xbe422130	-0.18957973
52	0x3f028752	0.5098773
53	0xbe03c0dd	-0.1286654
54	0xbb1d3a3a	-0.0023991005
55	0x3e5dcf49	0.21661104
56	0xbe2ff900	-0.1718483
57	0x3d9cf4a9	0.07663853
58	0x3b8d74fb	0.0043169237
59	0xbd72557a	-0.059163548
60	0x3ea5fdbb	0.32420143
61	0xbbc6b479	-0.0060639945
62	0xbda819f2	-0.08208074
63	0x3e1b888c	0.15188807
64	0x3dd9a5a5	0.10627297
65	0xbe62b2f3	-0.22138576
66	0xbe99ce2c	-0.3004011
67	0xbd2c0d8d	-0.04200511
68	0xbe5b75fe	-0.21431729
69	0xbe8a50dd	-0.2701482
70	0x3f7975db	0.9744546
71	0xbd974b20	-0.07387376
72	0x3e7d53b6	0.24738964
73	0x3e171c0d	0.14756794
74	0xbe9b4b27	-0.30330774
75	0xbe5a639e	-0.21327063
76	0x3e194fdb	0.14971869
77	0x3a91becf	0.0011119487
78	0xbe5b10f7	-0.2139319
79	0xbd16f6d6	-0.036856495
80	0x3d8e5d28	0.06951362
81	0x3e676ed8	0.22600877
82	0x3f48646c	0.7827823
83	0xbe3c7536	-0.18404087
84	0xbf057491	-0.5213099
85	0x3d2149f7	0.03937718
86	0x3daa2880	0.08308506
87	0x3e0000a3	0.12500243
88	0x3ee48f16	0.44640416
89	0x3e8838d3	0.26605853
90	0xbea005f9	-0.31254557
91	0xbe97df95	-0.29662767
92	0x3e92e4ce	0.2869019
93	0x3ded850c	0.11597642
94	0x3ed0d235	0.40785375
95	0xbd061dc6	-0.032743238
96	0x3dd94f55	0.106108345
97	0xbc75f1b2	-0.015011238
98	0xbf290067	-0.6601624
99	0xbdebea3f	-0.11519288
100	0x3e0a2176	0.13489327
101	0xbd47f367	-0.04881611
102	0xbec532dc	-0.38515365
103	0x3f051ff9	0.5200191
104	0xbe0c7262	-0.13715509
105	0xbc0a3ef2	-0.008437859
106	0x3e868fe7	0.26281664
107	0x3e3fd30e	0.18732855
108	0xbc9ac685	-0.01889349
109	0xbdc42e1d	-0.09579108
110	0x3e01ea46	0.12687024
111	0x3e1df720	0.15426302
112	0x3e00ec2c	0.12590092
113	0xbdc1a877	-0.0945596
114	0x3ea13b94	0.31490767
115	0x3efd71d2	0.495009
116	0xbe220231	-0.15821148
117	0x3e7cbb32	0.24680784
118	0xbe81562f	-0.25261065
119	0xbe370c2a	-0.17875734
120	0x388d3d03	6.734768e-05
121	0x3e5ed92f	0.21762536
122	0x3de26923	0.110552095
123	0x3c254b31	0.010088728
124	0x3deb37ee	0.11485277
125	0xbd435c62	-0.047695525
126	0x3da49257	0.080357246
127	0x3e574a2f	0.21024393
128	0x3dc520a4	0.09625366
129	0x3e3c5329	0.18391098
130	0x3dbe10e5	0.09280566
131	0x3d12c9ad	0.035836864
132	0xbd535350	-0.051593125
133	0xbdda1bc8	-0.1064983
134	0x3dc7dd26	0.097589776
135	0xbcd4a478	-0.025957331
136	0xbde73ab2	-0.11290492
137	0xbda5176c	-0.08061108
138	0x3e389ff5	0.18029769
139	0xbdaa8886	-0.08326821
140	0xbc95e276	-0.018296462
141	0xbcd3a01e	-0.025833186
142	0x3dfc321e	0.123142466
143	0xbe4033eb	-0.18769805
144	0xbe245987	-0.16049777
145	0x3deb0fd2	0.11477627
146	0xbe6ae278	-0.22937953
147	0xbd65f649	-0.05614308
148	0xbdadab4e	-0.084799394
149	0x3c7591ac	0.014988344
150	0x3d368fad	0.044570614
151	0xbaf11b13	-0.001839491
152	0x3e5352f5	0.20637114
153	0x3d9a6adb	0.07539912
154	0xbd49b1a1	-0.049241666
155	0xbded9a2d	-0.11601672
156	0x3d7b44e9	0.061345015
157	0xbe1574bd	-0.14595313
158	0x3cec67c3	0.028858071
159	0xbe27d926	-0.1639143
160	0x3df5e901	0.120073326
161	0x3d68b3ee	0.05681222
162	0x3d7c3242	0.061571367
163	0xbcedf33c	-0.029046647
164	0xbde8fae4	-0.113759786
165	0xbe5abcef	-0.21361135
166	0xbe1652c7	-0.14680015
167	0xbe23e239	-0.16004266
168	0x3e013da3	0.12621169
169	0xbe281aaa	-0.16416422
170	0x3de2fc4c	0.11083278
171	0xbbc0bd16	-0.005881916
172	0xbd807977	-0.062731676
173	0x3d724ac8	0.05915335
174	0xbe000abc	-0.12504095
175	0xbe5c6aa6	-0.21525058
176	0x3b861a09	0.004092459
177	0xbc0b4a0a	-0.008501539
178	0xbda9db73	-0.0829381
179	0x3dfc26fa	0.12312122
180	0xbe28779a	-0.16451874
181	0x3dc33a7a	0.09532638
182	0xbe9ff78b	-0.31243548
183	0xbd229c31	-0.039699737
184	0x3cc9a4b1	0.024614664
185	0xbbfcdba9	-0.007716615
186	0xbe8ab90b	-0.27094302
187	0x3d06d13e	0.032914393
188	0xbf0cc6a8	-0.54990625
189	0xbe2e2457	-0.1700605
190	0x3e52b868	0.20578158
191	0xbe84998f	-0.25898406
192	0x3c822b29	0.015889721
193	0xbe4bbc88	-0.19896138
194	0xbe257950	-0.16159558
195	0x3d594d65	0.053052325
196	0xbe7ed4e6	-0.24885902
197	0xbea9ce17	-0.33165047
198	0xbde3e515	-0.11127678
199	0x3e6a1083	0.22857861
200	0x3e021f5b	0.12707274
201	0x3dad7534	0.0846962
202	0x3dda7e13	0.10668578
203	0x3ea68cda	0.32529336
204	0xbd931660	-0.07182002
205	0x3db09367	0.08621865
206	0xbdf6c808	-0.12049872
207	0xbd66586c	-0.05623667
208	0xbe87ae89	-0.26500347
209	0xbc664bd0	-0.014056161
210	0xbdc6d3fa	-0.097084
211	0x3a066ee9	0.0005128221
212	0x3df0de64	0.11761168
213	0x3e77c68c	0.24196833
214	0x3d28399a	0.041070558
215	0xbe9f2a37	-0.31086895
216	0xbe1f098d	-0.15530987
217	0xbe5d62d4	-0.21619731
218	0x3e83c2de	0.2573461
219	0xbd591072	-0.0529942
220	0x3e59be22	0.21263936
221	0xbdb2c64f	-0.087292306
222	0xbf1363fb	-0.57574433
223	0xbc97a314	-0.018510379
224	0xbe1f5aa1	-0.15561916
225	0xbe882dad	-0.26597348
226	0xbc69a74e	-0.01426108
227	0x3eac062e	0.33598465
228	0xbde39a0c	-0.111133665
229	0xbeaebd9e	-0.3412904
230	0x3da53cb9	0.080682226
231	0xbc748f43	-0.014926734
232	0x3ee74d12	0.45175987
233	0xbe0b0efb	-0.13579933
234	0xbd1dac69	-0.0384945
235	0x3e8152ee	0.25258583
236	0xbdc8becf	-0.09802019
237	0x3e5b2f3f	0.21404742
238	0x3dd8a605	0.10578541
239	0x3eed57a2	0.4635592

bias_hh f4 [240]
0	0xbdf3004e	-0.118652925
1	0xbdf1239d	-0.11774371
2	0xbeab481f	-0.33453462
3	0x3b89031c	0.004181279
4	0x3dc1def9	0.09466357
5	0x3d8485fb	0.06470867
6	0xbe3eacab	-0.18620555
7	0xbdd93115	-0.10605065
8	0xbf2147d6	-0.6300024
9	0xbeaa4a5d	-0.3325986
10	0xbee22290	-0.44166994
11	0xbe189295	-0.14899667
12	0xbdc6f6f4	-0.09715071
13	0xbe73475b	-0.23757689
14	0xbe9a267a	-0.3010748
15	0x3dd4df72	0.10394181
16	0xbe165d6a	-0.14684072
17	0xbe37413a	-0.17895976
18	0xbe7ccee9	-0.24688305
19	0x3e63b455	0.2223676
20	0xbe673bc3	-0.22581391
21	0x3c27a5c2	0.010232391
22	0xbe331211	-0.1748736
23	0x3d102b1a	0.035197355
24	0xbe541077	-0.20709406
25	0xbe35ef72	-0.17767122
26	0xbd49bcd7	-0.049252357
27	0xbe94de6d	-0.29075947
28	0xbdb8751b	-0.09006711
29	0x3e994bb1	0.2994056
30	0xbe94142b	-0.28921637
31	0xbe0cf531	-0.13765408
32	0xbe6dd220	-0.23224688
33	0x3eb06c05	0.34457412
34	0xbe2b9356	-0.16755423
35	0xbf10e371	-0.5659705
36	0xbe6c55e3	-0.23079638
37	0xbe7910e5	-0.24322851
38	0x3ead84d9	0.33890417
39	0xbe4399b5	-0.19101603
40	0x3db00d40	0.08596277
41	0xbe32dc1c	-0.17466778
42	0xbed24ab7	-0.41072628
43	0xbefc6374	-0.49294627
44	0xbedc27a9	-0.42999008
45	0xbd839a67	-0.06425934
46	0xbdf6c416	-0.12049119
47	0x3e79382c	0.24337834
48	0xbdbf1f81	-0.09332181
49	0xbed9d8b6	-0.4254815
50	0x3e5cc621	0.21559955
51	0xbeb8b20c	-0.3607334
52	0x3e99118c	0.298962
53	0xbe330419	-0.17482032
54	0x3d39d91d	0.04537307
55	0x3ed5fc23	0.41793928
56	0xbe1ad667	-0.1512085
57	0xbd88205d	-0.06646798
58	0x3e4ec8d4	0.20193797
59	0xbc654fda	-0.013996089
60	0x3e28e8c4	0.16495043
61	0xbdc1adb5	-0.0945696
62	0xbdf0142f	-0.117226
63	0x3e6fadb7	0.2340611
64	0x3e460271	0.19336869
65	0xbe4dc0ae	-0.20093033
66	0xbe9d16a8	-0.30681348
67	0xba37320c	-0.00069883536
68	0xbe3b3ca5	-0.18284853
69	0xbeab4699	-0.334523
70	0x3f74a60d	0.95565873
71	0x3d95141c	0.07279226
72	0x3e1a78df	0.15085171
73	0x3e208fcc	0.15679854
74	0xbebb3878	-0.3656652
75	0xbdbcbeed	-0.09216104
76	0x3dcd2516	0.10016839
77	0x3d2980ab	0.041382473
78	0xbd22cae0	-0.039744258
79	0x3d2cfa5f	0.04223096
80	0xbd4a2aa4	-0.04935707
81	0x3dfce8c0	0.12349081
82	0x3f4b5a5e	0.79434764
83	0xbe6fcf05	-0.23418815
84	0xbee3ca2b	-0.4449018
85	0x3e261ba8	0.16221488
86	0x3e26a4a6	0.16273746
87	0x3e83dccc	0.25754392
88	0x3e901308	0.2813952
89	0x3efd0a18	0.49421763
90	0xbda86cce	-0.08223878
91	0xbeeaaf7c	-0.4583701
92	0x3e821ec2	0.2541409
93	0x3e54cd33	0.20781402
94	0x3e6ab205	0.22919472
95	0x3d7ef26e	0.062242918
96	0x3d0645d9	0.032781456
97	0xbb618c8c	-0.0034416048
98	0xbf3a5b0c	-0.72795177
99	0x3de07be4	0.1096113
100	0x3e56bb31	0.20969845
101	0xb97f6eb8	-0.00024359941
102	0xbee70cd2	-0.4512697
103	0x3effe0af	0.49976107
104	0xbdb0d7d1	-0.08634914
105	0x3e0f5ded	0.14000674
106	0x3e81c9b7	0.2534921
107	0x3db2fbd3	0.08739438
108	0xbc586673	-0.01320802
109	0xbe5d2663	-0.21596675
110	0x3e18e7ed	0.14932223
111	0x3e4fe2e3	0.20301394
112	0xbcdcdf03	-0.026961809
113	0x3d9a4da5	0.07534341
114	0x3e86c09d	0.26318827
115	0x3f04d204	0.5188296
116	0xbe57620d	-0.21033497
117	0x3e382453	0.17982607
118	0xbead18c5	-0.3380796
119	0xbd9f301b	-0.07772847
120	0x3c22ce3e	0.009936867
121	0x3db7419f	0.08948063
122	0x3d3f59c8	0.04671648
123	0xbd6e9057	-0.058243122
124	0x3e1007a7	0.14065419
125	0xbdc3a3f0	-0.09552753
126	0x3e333c26	0.17503414
127	0xbd1495d1	-0.03627569
128	0xbd3c5706	-0.04598143
129	0x3c0ff721	0.0087869475
130	0xbc55ae79	-0.013042086
131	0x3da00805	0.078140296
132	0x3dec15f6	0.11527626
133	0xbd96a017	-0.073547535
134	0x3e1dcbf9	0.1540984
135	0x3e10d36a	0.14143148
136	0xbe1740e8	-0.14770854
137	0xbe98d60f	-0.29850814
138	0x3e31871e	0.173367
139	0x3dbada3a	0.09123655
140	0xbc83b6ff	-0.01607847
141	0x3e1c9539	0.15291299
142	0x3d069584	0.032857433
143	0xbd7e31df	-0.06205928
144	0x3d1e1e62	0.038603194
145	0x3be42bd9	0.006963235
146	0xbda358e3	-0.07975938
147	0xbdf65227	-0.12027388
148	0xbe08a9cc	-0.13346022
149	0x3b2a245e	0.0025961618
150	0xbcb62eed	-0.022239173
151	0xbdee8717	-0.1164686
152	0x3e424eb7	0.1897534
153	0x3e152b8c	0.14567393
154	0xbe3cb956	-0.18430075
155	0xbdc4d0c2	-0.0961013
156	0x3e3e1d26	0.18565807
157	0x3d549179	0.051896546
158	0x3e15135e	0.14558169
159	0xbda0eccb	-0.07857665
160	0xbda056e0	-0.0782907
161	0x3e806140	0.25074196
162	0xbd5f7d51	-0.05456287
163	0x3ccebf34	0.025237657
164	0xbe3038a8	-0.17209113
165	0xbdb36826	-0.08760099
166	0xbe14a0cf	-0.14514469
167	0xbe805a3e	-0.2506885
168	0x3da29851	0.07939208
169	0xbdff3691	-0.124615796
170	0x3dcb2157	0.099184684
171	0xbe3e276c	-0.18569726
172	0xbc7ab7b3	-0.015302586
173	0x3cca4147	0.02468933
174	0xbe876533	-0.26444396
175	0xbe3d5866	-0.18490753
176	0xbe125f00	-0.14294052
177	0xbe368650	-0.17824674
178	0xbe18d1a9	-0.14923729
179	0x3dd082e5	0.10181216
180	0xbe171b33	-0.1475647
181	0xbdbbdb91	-0.09172738
182	0xbecd2526	-0.40067405
183	0xbd995e15	-0.07488648
184	0x3dcbf99f	0.09959721
185	0xbd902b56	-0.07039516
186	0xbe73f186	-0.23822603
187	0x3be16dd1	0.006879546
188	0xbf290ce0	-0.6603527
189	0xbe82e584	-0.25565732
190	0x3dd1694b	0.10225161
191	0xbe915141	-0.28382304
192	0x3dc27659	0.09495229
193	0xbdf69e8f	-0.120419614
194	0xbe0adecd	-0.13561554
195	0x3e0cc468	0.13746798
196	0xbd78280b	-0.060585063
197	0xbe618563	-0.22023539
198	0xbe854663	-0.26030263
199	0x3d3b3568	0.04570523
200	0xbdceeb14	-0.10103431
201	0xbda8167a	-0.08207412
202	0x3e40d0fe	0.18829724
203	0x3e7a73f0	0.24458289
204	0xbce49780	-0.027904272
205	0x3cac106d	0.021003926
206	0xbdc434be	-0.09580372
207	0xbd122661	-0.035681132
208	0xbda5b124	-0.080904275
209	0xbcf61133	-0.030037498
210	0xbe6ca239	-0.23108758
211	0xbdb65ec6	-0.08904795
212	0xbce194ec	-0.027536832
213	0x3e37c1c7	0.17945014
214	0x3e13debb	0.14440434
215	0xbeac5226	-0.33656424
216	0xbd91aaf0	-0.07112682
217	0xbd8da042	-0.069153324
218	0x3e676585	0.2259732
219	0xbe972201	-0.2951813
220	0x3e35caa4	0.17753083
221	0xbd65da9d	-0.05611669
222	0xbf1d2186	-0.6137928
223	0xbe2deda4	-0.16985184
224	0xbe383d9b	-0.1799225
225	0xbe73479e	-0.23757789
226	0x3c6663fb	0.014061923
227	0x3e632741	0.22182943
228	0xbe02628a	-0.12732902
229	0xbe507629	-0.20357575
230	0xbd216947	-0.03940704
231	0xbd90db6a	-0.070731
232	0x3ea15ecc	0.31517637
233	0x3cc546ae	0.024081554
234	0x3dffb96a	0.12486537
235	0x3ea8b4e0	0.32950497
236	0xbde069ab	-0.109576546
237	0x3d539b5e	0.05166184
238	0x3d602a17	0.05472764
239	0x3ea026bc	0.31279552

weight f4 [3, 12]
0	0xbd8989ae	-0.067157134
1	0xbedc2eaa	-0.43004352
2	0xbf44e7ed	-0.7691639
3	0x3f0a1bc5	0.5394862
4	0xbec1ad9e	-0.37827772
5	0xbef4eb17	-0.4783561
6	0x3f11cf18	0.56956625
7	0x3f116912	0.5680095
8	0xbe4224a7	-0.18959294
9	0xbe922263	-0.2854186
10	0xbe80f0b1	-0.25183633
11	0xbe1ad3ab	-0.15119807
12	0x3d71d0e2	0.059037097
13	0x3df48110	0.11938679
14	0x3d11a6de	0.035559528
15	0x3e2abcca	0.1667358
16	0xbde75f74	-0.11297503
17	0x3e379904	0.17929465
18	0x3e4e9674	0.20174581
19	0xbd8fa6ff	-0.07014274
20	0xbe56b93c	-0.20969099
21	0xbc912fa7	-0.017722918
22	0xbbe3b9d5	-0.006949643
23	0xbda0fceb	-0.0786074
24	0x3e88471b	0.2661675
25	0x3ded0a15	0.115741886
26	0x3e8d2bde	0.2757253
27	0xbebbc4be	-0.3667354
28	0x3e4de960	0.20108557
29	0x3e8779f2	0.26460224
30	0xbe7921c5	-0.24329288
31	0xbec75b7f	-0.38936993
32	0x3e5a1725	0.21297891
33	0xbd65b1c7	-0.056077745
34	0x3d41929d	0.047258962
35	0x3e380736	0.17971501

bias f4 [3]
0	0x3f2f5d3c	0.6850164
1	0xbc5da3cc	-0.013527822
2	0x3e073fa6	0.13207874
