models/paramsearch_0.01_0.5449173510167913_0.43140988944151654_50.pt (torch, 32266 bytes, 7 tensors)

weight_ih f4 [240, 6]
00000000: 9092 97be e852 7fbf 0212 393f 97a5 64c0
00000010: 3984 93bf bc75 4cbf 0336 6f3e cabf 4dc0
00000020: 331e f6bf 2f27 30c0 0feb d8bf 50b2 b0be
00000030: 9a53 7cbe a50d e7be 5664 233f 3dca c3c0
00000040: 7f3c d0c0 21b0 acbe e1c4 09c0 ec0c 4cbf
00000050: b984 443e 909a 97bf ebfb a8bf 808d 95bf
00000060: 5241 cdbe ddf7 d73f 9174 ffbd b853 85bf
00000070: bc07 a43f 6211 50bf 78dd 29bf 81cf 64be
00000080: c3ce e1bf c427 86c0 d9d3 3cc0 1896 bbbf
00000090: eac8 9b3e 7bbd 60c0 a9f2 8dbf f605 6bbe
000000a0: f695 09c0 bd7e 2cbf 3390 38bf 573b 96bb
000000b0: f695 53bf 3f18 c9bf 5cee 34bf f969 b1bf
000000c0: 7753 95be fdc6 f1be 6f6b 9bbe cf97 53c0
000000d0: 4f14 b7c0 f3b6 02bd b50b 0cbf ffed cdbf
000000e0: b6f0 f93e 41af f1c0 5618 9cc0 3a9c 2bbf
000000f0: 4f6d 27bf 7bb0 1a3d 6a7e 11c0 7c03 ee3f
00000100: 13d2 f9bf 05e0 a1bf f21e 2dbf 613e 7e40
00000110: 8839 3dbf e8b6 5bbf 7f7a 69be c6ef 26bf
00000120: c09c dbbe 558b 4a3f 4d9c 273f 1681 b4bf
00000130: 5a56 cfc0 9b54 6c3e 719a 09bf 7b0b 6cbf
00000140: 933c bfbf d5bc bc3e 2492 4bbf 65f5 67bf
00000150: 0bd9 c2bc fadc ac3d 24f8 de3e 04fc c040
00000160: e76d c53f 0e4b d8be a745 bbbe bdc8 a6be
00000170: 1f5c e2be d93d fac0 873a 96c0 457c 8dbe
00000180: f82d febe ba43 823f a6b2 273e e648 54c0
00000190: 6711 ddc0 a44f 50be ea63 1bbf 7580 b33f
000001a0: 4a43 c0be eb3a b93f f6b6 efbe bf6d 31bf
000001b0: 0c12 26bf 90eb d9bf da2c 02c0 0fb0 a7c0
000001c0: 80b7 ecbf 131d e3bf ef4d f3be 90ec 053f
000001d0: b0f4 9b3e 21e6 4140 9f24 2bc0 54c6 abbf
000001e0: f036 91be 27ab 94bf cbff 0cbe 040d a63f
000001f0: 11f4 02c0 6cbd 47bd 7f79 70be 9e45 90bc
00000200: 170c 12bf d125 aa40 a384 fabf dfa0 9abe
00000210: e846 7fbf e723 2fc0 c623 f9be a60b 41c0
00000220: 0450 46bf 3182 d6bf be54 fabe cbea b2bf
00000230: 4fe1 a2be bfd0 bdbf d7f0 80bf 3d4a eabf
00000240: 80a0 90be cd75 6cbf 838e 0bbf e3a9 4c40
00000250: bb6e 8b3f 8c9a 93be ef4a 2fbf 5670 3a3f
00000260: 4690 2a3f 59f5 59c0 945b 59c0 c2f0 52bd
00000270: 14c9 85bf 770c 91be 5429 a63d b366 ecc0
00000280: 7b2a afc0 ea59 2fbf 12fb e1be 1921 003f
00000290: 5af9 1abf 3d4a 143f 958f dbbd 4613 17bf
000002a0: 6669 4dbf 0222 5f3f 00e0 f9be 2e2f 61c0
000002b0: 262b 34c0 0517 cdbf c7c7 babe 68f5 6a3f
000002c0: 741f 85bf 7d00 873f 0e6e 6b3e b757 0abf
000002d0: 1c48 17bf 9c6a 81bb 0520 84bf 20a2 863f
000002e0: fb87 8abf e844 0ebf 48d8 0c3e 5707 44bf
000002f0: 1b23 4dbf 009c bd3f 7ed5 0abf 26c7 113e
00000300: 0e16 07bf f93a 83be c60d cd3e 87c5 9840
00000310: ed62 1c3f a7a5 3fbe af40 2ebf c13e e13f
00000320: 57a9 31bf 17f7 65bf 2e16 fdbf 7903 a0bf
00000330: ec90 843e b023 93bf cef5 043d 17c6 9a3f
00000340: 4dcc 4ac0 b51e afbe 91e2 8cbe e597 6c40
00000350: a87c 48be 09f7 e43e 76e7 51bf 5bae a13e
00000360: ecb0 57c0 9bb4 38c0 cc6e f2bd 3020 2b3f
00000370: ec55 87be 6106 babf 99f2 133f 01cf a53e
00000380: 464e 11c0 2494 05c0 4abb 2bc0 0814 f93d
00000390: 5824 e2bd 802a aabc 90f4 55be e972 c140
000003a0: b25d a2be 0552 c0bf 0176 cabe 06f6 943d
000003b0: 83c4 a83e 98ab 2440 fd3a 55c0 415b 6ebf
000003c0: 2fc6 debf 5d89 183f c5fc 433e 1154 e3bf
000003d0: d1ee cfbf a7ae 1cbf 92fd 21bf 1cef 7cbf
000003e0: 9626 f1bf 2a36 603f 2f5f d6bf ea50 43bf
000003f0: 567a 5ebe f203 45bf 6077 ddbf 411f a5bf
-0.29604006 -0.9973588 0.722931 -3.5726068 -1.1524726 -0.7986715 0.23360448 -3.2148309
-1.9227966 -2.7523916 -1.6946734 -0.34511042 -0.24641266 -0.45127597 0.63824975 -6.1184373
-6.507385 -0.33728126 -2.1526415 -0.7970722 0.19191255 -1.1844044 -1.3201879 -1.1683807
-0.40088898 1.6872517 -0.12473405 -1.0416174 1.281486 -0.81276524 -0.6635356 -0.22344781
-1.7641224 -4.192354 -2.9504302 -1.465518 0.30426723 -3.511565 -1.1089679 -0.22951493
-2.149778 -0.6738089 -0.7209503 -0.0045847106 -0.826507 -1.5710524 -0.7067621 -1.3860465
-0.2916524 -0.4722213 -0.30355403 -3.3061407 -5.721229 -0.031912755 -0.54705364 -1.6088256
0.4881646 -7.5526433 -4.8779707 -0.6703526 -0.65401167 0.03776596 -2.2733407 1.8594813
-1.9517235 -1.264649 -0.67625344 3.9725573 -0.7391591 -0.8582597 -0.22800635 -0.65209615
-0.42893028 0.79118854 0.6547287 -1.4101894 -6.479291 0.2307915 -0.53751284 -0.9220502
-1.4940361 0.36862817 -0.7951987 -0.9060882 -0.023785135 0.084405854 0.4354869 6.0307636
1.5424165 -0.42244762 -0.36576578 -0.32575026 -0.44210908 -7.82005 -4.6946445 -0.27633873
-0.49644446 1.0176919 0.16376743 -3.3169494 -6.9083743 -0.2034288 -0.6069933 1.4023577
-0.37551337 1.4471105 -0.46819276 -0.69308084 -0.6487129 -1.7025013 -2.0339875 -5.2402415
-1.84935 -1.7743248 -0.47520396 0.5231409 0.3046012 3.029671 -2.6741102 -1.34199
-0.28362226 -1.1614732 -0.13769452 1.2972722 -2.0461466 -0.04876463 -0.23483847 -0.017611321
-0.570497 5.3171163 -1.9571728 -0.3020086 -0.9971757 -2.7365663 -0.48660105 -3.016336
-0.77465844 -1.6758481 -0.48892778 -1.3977903 -0.31812522 -1.4829329 -1.0073498 -1.8303906
-0.28247452 -0.9236725 -0.5451433 3.197869 1.0893167 -0.28828847 -0.68473715 0.7282766
0.66626394 -3.4055998 -3.3962145 -0.051499136 -1.0451989 -0.28329822 0.081133515 -7.3875365
-5.4739356 -0.6849657 -0.44136864 0.50050503 -0.6053673 0.5792578 -0.107207455 -0.59013784
-0.8023895 0.87161267 -0.4880371 -3.5185046 -2.8151336 -1.602265 -0.36480543 0.9178071
-1.0400224 1.0547024 0.22991201 -0.5404009 -0.59094405 -0.0039494764 -1.0322272 1.0518227
-1.0822748 -0.5557389 0.1375438 -0.765737 -0.8013169 1.4813232 -0.54232013 0.14236125
-0.5276803 -0.2563093 0.4004957 4.774112 0.6108845 -0.18715535 -0.6806745 1.7597276
-0.6939902 -0.89830154 -1.9772394 -1.250106 0.25891817 -1.1495266 0.03246098 1.2091702
-3.1687195 -0.34203115 -0.27516606 3.696771 -0.19578803 0.44719723 -0.81993806 0.31578335
-3.3701735 -2.8860233 -0.11837539 0.6684599 -0.2643274 -1.4533197 0.5779205 0.32384494
-2.2704024 -2.0871668 -2.6833062 0.12162024 -0.11042088 -0.020772219 -0.20894074 6.045277
-0.3171211 -1.502503 -0.39543155 0.07273488 0.32962427 2.5729733 -3.3317254 -0.9310799
-1.7404231 0.595846 0.19139393 -1.776003 -1.6244756 -0.61204 -0.6327754 -0.9880235
-1.88399 0.8758265 -1.6747798 -0.7629534 -0.21726355 -0.76959145 -1.7302055 -1.2900163

weight_hh f4 [240, 12]
00000000: 2c16 493f aa16 ca3c f645 3f3f f67f bf3f
00000010: d4cd 8bbf 0820 59bf 234c b4be e258 6ebf
00000020: 11c6 123f dbd5 b13d ffa5 51bf 64e3 0a3e
00000030: a573 6e3e 04d3 693e 8a54 1abe 8a8e f53e
00000040: 4636 28bf 3c77 06bf 4dcd d13c c413 bf3d
00000050: a7ec 8fbe fc04 23be a316 fb3d 1b95 b93e
00000060: c843 883e 7259 b43e cf1e 9a3e 1d43 a73f
00000070: 44f3 a0be 4439 1bbf 893d 0dbf e16f 713e
00000080: 9679 383e 81b4 91be 6e68 4d3d bea1 303f
00000090: 56d6 433e 645c bfbd 1a04 013e a250 183f
000000a0: c63a 2abe 5a68 213d b88a 3dbe ab8b 8cbd
000000b0: 07b8 a53e bdeb 953d d7a5 a53a f4eb 2b3f
000000c0: 7836 a6bd da96 90bf d015 083e 5e08 d2be
000000d0: c6d5 50bd ba7a 9cbe 8619 9abe a588 83be
000000e0: 4524 c23e 2fd4 5fbc f439 d0bd 0e61 363f
000000f0: e99b e63f dcd7 5b3e eb59 96bf d72a d8bd
00000100: 68dc a9bf bff1 84be 717e 84bf 7539 c0bf
00000110: 88c8 32bf 1751 a13f 4a5e 843f 31da 2e3f
00000120: e3ff 123f 1d4c b4be d278 9b3e a9cd ab3e
00000130: dea4 693f d484 43bf 1d13 9f3f f3b3 26be
00000140: c4b2 e4be 7687 c8be 14cd 99be 2155 3a3e
00000150: dc89 62be bb5e 02bf af06 1c3f d90d a13e
00000160: 467f a7bc 77a7 da3d 9c36 8fbe 0038 543f
00000170: 1d28 4b3f 8fd3 313f dc27 89be f12f 753e
00000180: dd87 933e 79f0 193f 9e5e afbe 93e5 3bbf
00000190: 3651 713f 54ba 06bf ebe7 1f3f 3194 343d
000001a0: cca8 15bf 72b3 213e 2711 853f f205 c4be
000001b0: 3024 76bd 1e38 233f 9ec4 5a3e 91b2 b23f
000001c0: 8b4a ec3f 1cef e4be 9ca7 773e 6421 5abe
000001d0: 178a 0c3d 0320 62bf 846e 41bf f090 243f
000001e0: 2c67 ed3e 0218 10be abdd fdbe ee2f 16bf
000001f0: 72c9 ffbe 8869 ca3e 7982 193e 7914 94bc
00000200: 0e24 dfbf 6513 c73e d719 893f 50a2 553f
00000210: bab7 d73f 24cb 06c0 3363 1e3f 90cd 8bbe
00000220: e7c3 4b3f 507c debe ee60 653e c436 43bf
00000230: e315 b1be 94d5 253f 1a0b c8be 4c9c 643e
00000240: 8196 86bf 134e 6c3f cf72 dabe fe5d 883f
00000250: c2ad a13f 5d7e eebe 67ab c0bd 81e1 673f
00000260: f5be bd3e 1544 ee3c 399f b53e 2514 a5be
00000270: bd0c 24be e236 12bf 53e8 c33f 03f1 293f
00000280: 576a 803f c0f6 ac3f ae7c 063f 007c 03bf
00000290: c6bb c4bd e5c3 1dc0 3474 e6bf b808 0940
000002a0: 4445 5b3e e7a4 5e3f 5236 8d3f d812 0240
000002b0: aeab a53f cb41 97bf c995 623f 2cc7 65be
000002c0: 6a9b b93f 23d6 fbbe 1c05 07bf 56c4 d2bf
000002d0: 60e5 77be ec84 843f af7c cbbf 2764 9fbe
000002e0: 341c b13e 8d3d 043e af68 25bf 8b45 7b3f
000002f0: 8110 39bf 8249 f63e 2ec9 953f 6847 88be
00000300: 7343 02bf a3fa 6b3f 3614 82bf d0fd 213f
00000310: 2141 543f 6337 1ebf 59d8 813d 67c4 18bd
00000320: 4dce 413e dd32 ba3e bff0 b2bd e295 57be
00000330: 80cc 5e3f 0e3b 1ebf 3eec 4ebf 9bb1 40bf
00000340: 0e83 a93f cb74 2ebf 0474 523e 8157 82be
00000350: d528 b7bf 1674 923f 758f 6a3f 5afc b03d
00000360: 9949 13bf 49f9 5fbf f3d0 dcbe 5783 4f3e
00000370: 0f3c a13e f427 87bd 9ddc 7cbf ee85 c1be
00000380: cf15 463f 9119 883e 8621 88be f527 753e
00000390: e2a7 493f e35c 10bf 0683 d53e 3f67 d93c
000003a0: 9fda 5d3f 0aee 7abf 5fd9 a23e 75f8 6e3e
000003b0: c872 033e 8117 023f 65a2 2a3f 7eab f3bc
000003c0: cc2e fc3e 5ebb 8c3f 18f1 6b3c 619b 783f
000003d0: d3f1 553f f7ad c8bf 1266 5d3e d557 71bf
000003e0: 4d71 323f b4b1 5fbd 20a0 14bf d2c8 e0be
000003f0: 3198 16bf 3d0e 6f3f 2e05 ca3e 72d1 9f3f
0.78549457 0.02466901 0.74716127 1.4960926 -1.0922189 -0.848145 -0.35214338 -0.93104374
0.57333475 0.08683368 -0.81893915 0.13563305 0.23286302 0.22834402 -0.15071312 0.4796031
-0.65707815 -0.5252569 0.02561059 0.09329942 -0.2811024 -0.1591987 0.12260177 0.3624657
0.26614213 0.3522449 0.3010163 1.3067356 -0.31435597 -0.60634255 -0.5517202 0.23577835
0.18015131 -0.28458026 0.05014842 0.689968 0.19124731 -0.09343794 0.12599221 0.59498036
-0.16623983 0.039406158 -0.18509948 -0.06862577 0.32366964 0.07320354 0.0012637925 0.6715691
-0.08115858 -1.1296036 0.13289571 -0.4102201 -0.05098512 -0.30562383 -0.30097598 -0.2569019
0.37918296 -0.013661428 -0.10167304 0.71241844 1.801633 0.21469063 -1.1746191 -0.10555046
-1.3270388 -0.25965688 -1.0351087 -1.5017534 -0.69837236 1.2602872 1.0341275 0.68301684
0.574217 -0.3521432 0.30365616 0.33555344 0.9126719 -0.76374555 1.2427708 -0.16279583
-0.44667637 -0.39165848 -0.30039275 0.18196537 -0.22122902 -0.509258 0.609477 0.31455877
-0.02044643 0.10676473 -0.2797135 0.8289795 0.79358083 0.6946344 -0.26788223 0.2394407
0.28814593 0.6013256 -0.34251875 -0.7339718 0.94264543 -0.52628064 0.62463254 0.04408664
-0.5846069 0.15791109 1.039586 -0.38285786 -0.060093105 0.63757503 0.21364066 1.3960744
1.8460249 -0.44713676 0.24185032 -0.213018 0.03431138 -0.88330096 -0.7555926 0.6428366
0.46367776 -0.14071658 -0.49583182 -0.58666885 -0.49958378 0.3953364 0.14991178 -0.018076168
-1.7432878 0.38881984 1.0711011 0.83450794 1.6852944 -2.1061487 0.61870116 -0.2730527
0.795958 -0.43454218 0.22400257 -0.7625544 -0.3458701 0.6477902 -0.3907097 0.22325248
-1.051468 0.9230663 -0.42665717 1.0653684 1.2631152 -0.46580783 -0.094076924 0.90578467
0.3705975 0.029085198 0.3547304 -0.32241932 -0.16020484 -0.57114995 1.5305275 0.6638338
1.0032452 1.3512802 0.52533996 -0.51361084 -0.096061274 -2.4650815 -1.8004212 2.1411572
0.21413141 0.8697037 1.1032202 2.0324001 1.2943017 -1.1816953 0.88509804 -0.2243926
1.4500554 -0.4918681 -0.5274217 -1.6466167 -0.24208593 1.0353065 -1.5897425 -0.31131098
0.3459183 0.12914105 -0.6461286 0.9815299 -0.7229081 0.48102957 1.170202 -0.2661698
-0.5088417 0.92179316 -1.0162418 0.6327791 0.8291188 -0.61803263 0.06340093 -0.03729668
0.18926354 0.3636693 -0.08737325 -0.2105327 0.8703079 -0.6180886 -0.80829227 -0.75271004
1.324312 -0.6814696 0.20552069 -0.25457385 -1.4309336 1.1441677 0.9162515 0.08641882
-0.57534176 -0.87489754 -0.43128166 0.20264946 0.31491134 -0.06599417 -0.9877413 -0.37797493
0.7737703 0.26582006 -0.26588076 0.23941024 0.78771794 -0.56391734 0.41701525 0.02653849
0.86661714 -0.9801947 0.31806466 0.23336966 0.12836754 0.50817114 0.66654044 -0.02974486
0.49254453 1.099468 0.014400743 0.9711209 0.8357212 -1.567809 0.21620968 -0.94274646
0.69704133 -0.05461283 -0.5805683 -0.43903214 -0.58825976 0.933811 0.39457077 1.2485793

proj f4 [12, 60]
00000000: 5cbd 893e 697e d73d 2ea3 2d3f 722e b43f
00000010: b8e4 043f 8226 48bf 1242 50bf a5b1 0d3f
00000020: 9366 18bf efe2 62be df1e b7be 8ac9 b5bd
00000030: c9f7 163d 4417 81be 1914 a4be fc0c 0a3d
00000040: 00d7 833e defa 13bf 4cb1 0dbd d846 feba
00000050: 9631 5c3e be7a 62bf 1d7b 81bf eb7e 423f
00000060: b808 0fbe 4902 253f dff0 093f a501 84be
00000070: adfa 943f 5b9f a6bd 41cd da3d 99ad 2cbe
00000080: 97fb 9d3c 5b66 ae3e 506e fe3e e955 b23e
00000090: 587f 2f3f ddae 2d3e 306d 7abf 472b a4bc
000000a0: 8954 babe f1c9 f03d c9ed db3b 3b0d c53e
000000b0: 5d5a e4be 570b d3be d2c7 8cbf 12b5 ae3d
000000c0: 940e ab3e fcfb 26bd 5eee 0a3e 0985 b43e
000000d0: 83b3 90bd 202e 083f 7cb0 a43d e6c7 803f
000000e0: 3afb 123f 0eaa d6be 7427 5fbf 93fa 31be
000000f0: ddcf 1abe 8e5b d63e cfaa 8dbd e1ef 783e
00000100: 6f58 60bf 09fa 3f3e 36fd 993e 0032 dbbc
00000110: 9fda 9ebc 5bbb 243f 774d 87be f152 663f
00000120: b453 653f 5272 e0be dd9e 313c 28b1 b43e
00000130: 6b92 1abf 6458 543f dd31 16bf f7b8 443f
00000140: 5e7e 03bf 74d3 833f 9245 fe3e a1ce bf3d
00000150: d849 babe 82a6 cfbd 60a9 05bf ef75 01bf
00000160: f2f9 813e a78a d5bc 3467 8c3e 17a2 88be
00000170: 2c53 ca3e a91e 5b3f 1d93 423e ab8e 163e
00000180: c435 a93e 83c8 6c3b 3edc 7f3e c15b 0bbf
00000190: e4f8 0ebe 9105 da3e 2807 443f 9bef 41bd
000001a0: acc9 1bbe ead2 2bbf e75f d63d fea8 663d
000001b0: 54e2 3fbf bed1 9e3e 8d76 e43b d9a1 3abf
000001c0: 7bb6 28bf 33a6 35bf 2945 97be fc8b 45bf
000001d0: ad8c 01bf c0c2 1c3f 6dc0 373e 3f82 d23e
000001e0: 97a1 963e d6a6 36be 8956 023e 118e 8fbe
000001f0: dede a2bc 6460 4c3f 677c 733e e597 8c3f
00000200: 1b69 e63d 0746 b23d bec7 a93d 5889 f03d
00000210: c4dc 95be b892 e53c f941 92bd fa23 f7bd
00000220: f6e4 0d3e a455 b73e c27f af3d 4ad7 86be
00000230: d3d0 51bf 1a4d a83e 1d57 5abf cc83 83be
00000240: 4190 3fbe 549e 3f3f f68f a0bd 907c 823d
00000250: 38c8 70be 50c2 17be ca39 babe f721 e3be
00000260: bd5b 293e 71c0 033d 7fca b3be 6fa3 97be
00000270: 8754 2a3f 31a1 2e3c a162 83bd f133 0bbe
00000280: 73f8 863e 4b66 c03e 12e3 2f3f 4547 083e
00000290: ba0f 3f3e 68bf 973d 6c8c be3d 567a 91be
000002a0: ac93 f4be efc5 bdbe 7cb4 d6be 2204 afbe
000002b0: a138 3e3f 1695 b43d 2c61 71bb eb12 dfbd
000002c0: 1057 4b3f a60c 65be 5cd8 cc3e 6c31 2f3e
000002d0: cc96 743f faed dd3c 271b 163f ba7b 74be
000002e0: 4093 bd3d 6ef0 2f3e f2ae 053f c824 a5be
000002f0: 079a 313f 2d79 11bf acd8 283f 3e7d 2b3f
00000300: 7bb1 8cbf f027 1a3e c274 c6be d12e a6be
00000310: a2c4 843f 3eaa 103f 9839 c9be 1d85 13bf
00000320: d336 5ebf 2418 123f aa8d b9be cbec 4fbf
00000330: 01b9 1f3f d8de 2e3d 187a 933e 76f0 373f
00000340: 1b81 47bf b63c b3be c524 393d d792 12be
00000350: 66cd ec3e 13de dabb 7c1e 99bf dd62 f3be
00000360: bff0 efbe a645 3fbf ffc5 163f 7c7b 0fbd
00000370: 7a61 8cbf fabb f93e 1249 2e3f ece9 133e
00000380: aec1 b6bd 1839 683f 284b 533f 76a0 9b3c
00000390: 483a 89be 813c 213e 40e3 d8be a4d8 1f3e
000003a0: 507c 9b3f 99ee 3c3f fbd8 8fbe ea6f 62be
000003b0: 24d0 a73e 0968 44be a7dc 953e dffa d2be
000003c0: 8658 c03e 5c42 643f 5196 ee3e 05eb a83f
000003d0: a443 973f b37c 0e3d 903d acbf 4f52 39be
000003e0: 7d34 183f fd3b 1abf 54ad 843e e537 3a3e
000003f0: f85c a1bf 8c95 efbe 6406 51bf 18c6 8fbf
0.26902282 0.10522158 0.6782712 1.4076674 0.519115 -0.7818376 -0.81350815 0.5534919
-0.59531516 -0.22156881 -0.3576574 -0.08876331 0.0368574 -0.25213063 -0.32046583 0.03370379
0.2574997 -0.5780467 -0.03459291 -0.0019399775 0.2150329 -0.8846854 -1.0115696 0.7597491
-0.1396817 0.6445661 0.53883165 -0.25782505 1.1639 -0.081358634 0.1068368 -0.16863097
0.019285006 0.34062466 0.49693537 0.3483117 0.68553686 0.16961236 -0.97822857 -0.020040167
-0.3639262 0.11757267 0.006711696 0.38486657 -0.44600192 -0.4121959 -1.099848 0.0853063
0.3340956 -0.040767655 0.13567492 0.35257748 -0.07065489 0.5319538 0.08041474 1.0061004
0.5741459 -0.41926616 -0.87169576 -0.17380743 -0.15118356 0.41866726 -0.06917345 0.24310257
-0.8763494 0.18747725 0.30075997 -0.02675724 -0.019391356 0.6434838 -0.26426288 0.8997031
0.89580846 -0.4383722 0.010841099 0.3529141 -0.60379666 0.82947373 -0.58669835 0.76844734
-0.51364696 1.0298905 0.49662453 0.09365583 -0.36384463 -0.10139181 -0.5221157 -0.5057058
0.25386006 -0.026067091 0.27422488 -0.26686165 0.3951658 0.8559366 0.19001432 0.14702861
0.33048832 0.0036130256 0.2498636 -0.5443688 -0.13962132 0.42582372 0.7657342 -0.047347646
-0.1521365 -0.67118704 0.10467511 0.056313507 -0.74954724 0.31019396 0.00697214 -0.7290321
-0.65903443 -0.70956725 -0.29544953 -0.77166724 -0.5060528 0.61234665 0.17944498 0.41114995
0.29420158 -0.1783708 0.12728323 -0.28038076 -0.019881662 0.7983458 0.23777924 1.0983855
0.11250516 0.08704763 0.08290051 0.11744946 -0.29269993 0.028024063 -0.071414895 -0.12067409
0.13856873 0.35807526 0.0856929 -0.26336128 -0.81959265 0.32871324 -0.85289174 -0.2568649
-0.18707372 0.74850965 -0.07839958 0.06371415 -0.23513877 -0.14820218 -0.36372215 -0.4436185
0.16538902 0.03216595 -0.3511543 -0.29616877 0.6653523 0.010658548 -0.06415296 -0.13594033
0.26361427 0.37578043 0.68705857 0.13308437 0.18658343 0.07409555 0.09304127 -0.28413647
-0.47768915 -0.37065074 -0.41934574 -0.3418284 0.7430516 0.088174984 -0.00368316 -0.1089228
0.7942972 -0.22368106 0.4000882 0.17108697 0.955426 0.027091015 0.5863518 -0.23875323
0.09256601 0.1718156 0.5222007 -0.32254624 0.6937565 -0.56825525 0.65955615 0.6698798
-1.0991663 0.15054297 -0.38760954 -0.32457593 1.0372508 0.5650977 -0.39301753 -0.5762499
-0.86802405 0.57068086 -0.36240894 -0.8122069 0.6239167 0.04269299 0.28804088 0.7185129
-0.77931374 -0.35007256 0.04520108 -0.14313827 0.46250457 -0.0066793053 -1.1962428 -0.47536364
-0.46863362 -0.7471565 0.5889587 -0.035029873 -1.0967247 0.48776227 0.68080246 0.14444703
-0.0892366 0.9071212 0.82536554 0.018997412 -0.26802278 0.15745737 -0.42360878 0.15609986
1.2147312 0.7380157 -0.2809523 -0.22113004 0.32775986 -0.19180311 0.29269907 -0.41207024
0.37567538 0.89163756 0.46599057 1.3196722 1.1817517 0.03478689 -1.3456287 -0.18097804
0.5945509 -0.60247785 0.2591349 0.18185385 -1.2606497 -0.46793783 -0.81650376 -1.1232328

bias_ih f4 [240]
00000000: 655d 69be 8ca8 57bd 7183 95be 9e9f a5be
00000010: f382 1abf 31b3 8fbf 9e2d 49be 65ec 25bf
00000020: 32d8 7abe 8ec0 fbbe d40f 08bf 13cd 95be
00000030: 11f1 273e 6f01 10bf 1a6b 9a3d 8231 47be
00000040: fb41 90be a153 0ebf c14a 69bf 5486 eabe
00000050: c1ed a9be 6469 cabd ee2b 17bf 0d5b 73bf
00000060: 8546 14bf 2b4e 24bf 96a4 02bf fdf9 45bf
00000070: 4fe8 93bf f98d 1bbf 168a 90bf 347d b9bd
00000080: aec4 e1be 7102 1abf 9aa0 f13e a072 013e
00000090: a208 33bf cc28 37be 647c 0ebf 3c29 e5be
000000a0: 59d7 98be 322d 27bf 032a 6fbf b4c4 b0be
000000b0: e55a dfbf 3673 c4be 2f3c 77be 37cd bebe
000000c0: 64bc 8c3e 08ff fdbe 2ee7 aebe 594a 2fbf
000000d0: 74c1 b4bd 6544 babe c0a7 92be 7e66 6b3e
000000e0: de6f b2be cd04 c7be 8c57 80bf 213f 18bf
000000f0: 1de3 8a3d e706 723e 2d71 4bbf c4ef b53c
00000100: d13c 1a3e 6b32 953f 44d6 d5bd 14af 1d3f
00000110: e0c6 cfbe 078f 673e 5401 c0be 93ab 643e
00000120: 6806 403e 2d68 dc3f 869a aa3d 36a1 21be
00000130: b081 13be 6141 793e c2c3 21bf 0175 273f
00000140: 9dab 41be 1cb9 c5be 6d35 8f3e 2a55 243f
00000150: cd75 5b3f f781 06be 1ac8 36bf 0a60 783f
00000160: be89 9b3f 90ca dc3f 400a 463f e8e6 183f
00000170: fe73 923d 5205 59be 9bfc 98be 96a2 e7be
00000180: dfe0 bc3c a0cb bfbe a9e6 bb3e 0689 0dbe
00000190: 61a1 73be b97a cebc 6f3d 333f 10b0 863d
000001a0: eac2 54bf e7cf 1dbf 84b4 c7be 03cc be3e
000001b0: e010 18be 5ff3 9f3e af0f 94be ae83 b73e
000001c0: 70c8 34be 3eb4 80be ab64 c33e 37b8 9d3c
000001d0: ad33 6d3d ac46 133d c3df a5bd 6ccb 123f
000001e0: cf43 98be e492 1dbd d854 63be 5fa6 f23e
000001f0: bbcd d73d b48f 293d 36b3 673e d749 843e
00000200: 5f90 8dbd 5e07 913e d426 babe 4b21 28be
00000210: 5e65 c93e 8380 363e 309b 823e 374a 323e
00000220: f609 86be 5d4d 44be 2f66 d9be 79b5 8b3e
00000230: 033d 8b3d 7d8e 65be d99d 453e 3d89 5d3e
00000240: 5592 533e b4fc 67bc d25a b1be 2414 b2bd
00000250: 5bdd f7bd a628 7b3d 2399 dd3d c642 1cbd
00000260: a5ec 13be 5eb1 cbbe 5414 bc3e 7ef6 d63d
00000270: bda0 57bd 59a5 693d 4b3b 58be 27b1 8ebe
00000280: e54c 93be 9657 6abe 5319 83be b432 68bd
00000290: 50f3 e13d e356 8bbe 6542 6dbf 3d14 ffbd
000002a0: aa96 2b3e 76d8 073f 8788 9f3e 3455 253e
000002b0: 35c1 e9be 435f 63bd e646 88be 58d9 033e
000002c0: 4f78 0dbe 0a85 6dbe 60b9 d9be 47ac 883e
000002d0: d090 a8be ab44 e03c b600 9dbe d525 25be
000002e0: e022 3abf df9d 91bc 35a2 7bbd dd4f 3cbd
000002f0: 5244 d73c 0a22 c0bd ed33 19bf cae6 0ebd
00000300: d68b cd3e ff01 7a3e cbb0 98be f80f 30be
00000310: 3492 0ebe cc4c 53be dce4 75bf 475f 04be
00000320: 39ef 35be ce16 1abe f089 18be 69ff f73d
00000330: 1a6a 15be 46c8 0ebf c0e4 0dbf 9752 dfbe
00000340: f006 68be 97cc 553f 4a34 77be be2d e0bd
00000350: 675a b1be 85b8 0dbf 8954 af3e f95a a53d
00000360: e760 54bf 1cd5 8dbc bc9d f1be f70b c6be
00000370: a263 91bc b305 fcbe f787 dabe 6c09 6ebe
00000380: 29f0 dfbf 939f 1fbf a731 e9bd 6ece a5be
00000390: f26c e13e fa58 00bf d536 4ebf 6dff 81be
000003a0: 15c7 e63c 46e7 5cbe 79fa 6ebe 2e41 b33d
000003b0: b5bb bcbe 7d3c 01bf 8716 42bf bfc4 febe
-0.22789533 -0.052650973 -0.29201844 -0.3234834 -0.6035606 -1.122656 -0.19646308 -0.64813834
-0.24496534 -0.49170345 -0.5314915 -0.29258022 0.16400553 -0.5625219 0.07539959 -0.1945248
-0.2817534 -0.5559636 -0.9112969 -0.4580561 -0.33189204 -0.09883383 -0.59051406 -0.9506081
-0.57920104 -0.64181775 -0.5103239 -0.77334577 -1.155527 -0.6076351 -1.129214 -0.09057084
-0.44095367 -0.60159975 0.47192842 0.12641382 -0.6993505 -0.17886657 -0.55658555 -0.44758022
-0.29851797 -0.6530334 -0.9342348 -0.34525073 -1.7449614 -0.3836915 -0.24144052 -0.37265942
0.2748748 -0.49608636 -0.3416075 -0.6847282 -0.08825961 -0.36380306 -0.28643608 0.22988316
-0.34850973 -0.3887085 -1.0026717 -0.5947133 0.067816 0.23635446 -0.7946957 0.022209056
0.15062262 1.1656011 -0.104412585 0.61595273 -0.40581417 0.22613154 -0.37501013 0.22331075
0.18752444 1.7219292 0.08330254 -0.15784153 -0.1440494 0.24341346 -0.6318933 0.6541291
-0.18913122 -0.3861779 0.27970448 0.6419245 0.85726625 -0.13135515 -0.7139908 0.97021544
1.215141 1.7249317 0.7735939 0.59727335 0.0715103 -0.21193436 -0.29880223 -0.4524123
0.023056446 -0.3746004 0.36699417 -0.13821802 -0.2379203 -0.025205003 0.70015615 0.0657655
-0.83109915 -0.6164536 -0.3900491 0.37265024 -0.14850187 0.31240365 -0.28918216 0.3584265
-0.17654586 -0.25137514 0.3816274 0.01925288 0.05791061 0.03595607 -0.0809932 0.5734165
-0.29739234 -0.038470164 -0.22200334 0.47392556 0.10537287 0.04139681 0.22626957 0.25837585
-0.06912302 0.28325933 -0.36357749 -0.1641895 0.3933515 0.17822461 0.25509024 0.17411123
-0.26179475 -0.19170137 -0.42460772 0.2728689 0.067987464 -0.22417636 0.19298495 0.21634383
0.2066129 -0.01415937 -0.34639603 -0.08695248 -0.12102767 0.061318062 0.10820224 -0.038149618
-0.14445741 -0.39783758 0.3673426 0.104962334 -0.052643526 0.057042453 -0.21116368 -0.27869532
-0.28769603 -0.22884974 -0.25605258 -0.05668898 0.11032736 -0.27214727 -0.92679435 -0.12455032
0.16756693 0.5306467 0.3115885 0.16145784 -0.45655218 -0.05551077 -0.2661659 0.12875879
-0.13815425 -0.23195282 -0.42524242 0.26693937 -0.32922983 0.027376493 -0.30664605 -0.16127713
-0.72709465 -0.017775474 -0.06143399 -0.0459746 0.026277695 -0.093814924 -0.5984486 -0.034888066
0.4014575 0.24414824 -0.29822382 -0.17193592 -0.1392296 -0.20634764 -0.96052337 -0.1292697
-0.17767037 -0.15047762 -0.14896369 0.121092625 -0.14591256 -0.55774343 -0.5542717 -0.436177
-0.22658896 0.83515304 -0.2414104 -0.10946225 -0.34639284 -0.5535968 0.34244183 0.08073992
-0.8296036 -0.017313533 -0.47190654 -0.38681003 -0.017747704 -0.49223098 -0.42681858 -0.23245782
-1.7495166 -0.62352866 -0.113864236 -0.32384056 0.4402843 -0.5013577 -0.8055242 -0.25390187
0.028171102 -0.21572599 -0.23337735 0.087526664 -0.3686196 -0.5048292 -0.75815624 -0.4975948

bias_hh f4 [240]
00000000: ef7c a0be a09c 88bd c97d a7be b155 98be
00000010: 1aa5 15bf 1bee 80bf 9966 bdbd d52c 43bf
00000020: 6be4 78be 7c26 23bf 45c4 e4be f046 cfbe
00000030: cc92 ba3d 66fa 23bf f163 e1bd e734 19be
00000040: 8fb0 9cbe 9e72 07bf 87e8 68bf 6171 96be
00000050: 4e5f 82be 0b1a 98be e490 25bf 86b5 93bf
00000060: 19e6 d5be ad6a eabe 4aa2 fdbe 333b 3bbf
00000070: 243d 68bf 1d0a 11bf c757 83bf 7dee 38be
00000080: 5f7e e7be 06eb 04bf f353 d13e 6f73 1e3e
00000090: dbc9 48bf 71df f1bd b437 23bf 3f50 05bf
000000a0: 3f52 a8be 3b83 55bf 42c4 33bf 6ac7 f8bd
000000b0: fe54 d6bf 3092 f5be 26e8 5abd 2793 a2be
000000c0: fe3f 513e 4fab e2be 643f d1be 2129 34bf
000000d0: dc1e f73c 7ef9 6abe a02f 99be 905f da3c
000000e0: 009d f3be f207 c5be cc93 63bf ebdf f5be
000000f0: d8e1 363e 5acf 353e 6204 26bf 505b e23c
00000100: e7cd ba3d 2832 943f bca5 b93c 196b fc3e
00000110: 677d 21be afda 973e 69e0 bdbe fa7f 363c
00000120: f16b 8d3e 3dd9 ef3f fa41 573d 0d6d 21be
00000130: 50e7 03be d968 923e e8cf 1ebf d8c2 303f
00000140: 8017 9cbe d069 aabe 962c 033e a7d1 3d3f
00000150: 63aa 533f 023f 07be 8d07 3fbf a45c 7e3f
00000160: 2150 a83f 2c49 cd3f 5869 6c3f 5016 f43e
00000170: 5800 033e 9eeb 65be 6798 97bd f901 e4be
00000180: 56c8 b0bd 1257 cabe 8154 9e3e 5901 75be
00000190: ed6a b3bc ab4e 54bd a9b7 043f e5be d43d
000001a0: a3a2 4abf e23e 13bf 0f9d ddbe c27b ca3e
000001b0: 7e55 133d 5ec0 af3e ad95 87be b931 9c3e
000001c0: 0762 50be 6355 92be 043d b93e d6c4 3ebe
000001d0: ae88 2c3d 7cd0 f13c d095 15be b13d 163f
000001e0: 90b5 b4be 1133 0d3e 8e48 bfbe 3110 053f
000001f0: 3e23 633d 14a6 fe3c a129 343a 8ec5 4e3e
00000200: 41e8 66be 28eb 543e 0ba2 c3be 4b6d c3be
00000210: a8d5 c63e 03f0 6abc 49f0 273e 7f24 6e3e
00000220: ffdd 5cbe 3eed 81be 9b24 0fbf d3a0 563e
00000230: ece4 d23d d8c4 87be cc0f 643e 5d4e 933e
00000240: 4148 283d 8092 33bb 189a a8be 890f 8abd
00000250: 132d f33c 7e9b 423e 3349 223e cd61 e7bc
00000260: a96a aa3b 5aeb d2be c2a1 d43e d732 ce3d
00000270: 344b 20be be3a c33d 94ed 89bd 7752 34be
00000280: 3600 b7be 17a1 b5bd fb58 d7be 4f8b bf3c
00000290: 60bb 293e 580e efbe 8020 6dbf 82ef f7bd
000002a0: de4d 123e f9b3 c03e a749 fa3d 42eb bf3e
000002b0: 08f7 c9be 5c7a 4bbe 960b 25be ad4b 0eba
000002c0: 4ca5 21be 6d44 03be 5025 e9be 80b3 313e
000002d0: 7591 abbe c202 06be c0c5 6bbe 4884 3cbe
000002e0: 81f2 29bf e7f9 e3bd dd6a 17be 63a0 54be
000002f0: c471 6d3c 35ad 2cbe a49f fdbe 8086 1ebe
00000300: d61b 713e 0664 ad3e 0a7b c7bd a5e0 4ebe
00000310: bcef 69bd df9e 36be d0d1 5dbf eb0e 3abe
00000320: 5d72 a6be 4ff1 9dbd a395 13be 1350 c93d
00000330: d708 9bbe 038e ddbe 700c fdbe 5fe7 e9be
00000340: ae15 adbe 7efc 553f ab7d 27be 28d0 363c
00000350: 5614 b2be d134 07bf 1914 5b3e b0c0 973c
00000360: 6c65 46bf e47e 803d ac43 ecbe f9c9 a6be
00000370: 07a3 b13d 29dc 08bf 4a0b 2dbf c48c 18be
00000380: 2583 d5bf a81b 37bf 3801 b8bd 68b9 95be
00000390: 93b6 8f3e 174a c3be 3c23 60bf 7064 f3be
000003a0: 000d c0bd 5d5d 35be 62f5 c1be 17bc 713e
000003b0: 60af aebe 61e8 06bf c108 32bf 5afc ecbe
-0.31345317 -0.06670499 -0.32713154 -0.29752877 -0.5845505 -1.0072664 -0.092480846 -0.76240283
-0.24305885 -0.637306 -0.44680992 -0.4048381 0.091100305 -0.6405395 -0.110053904 -0.14961587
-0.30603454 -0.52909267 -0.9097981 -0.29383376 -0.25463337 -0.2970737 -0.6467421 -1.1539772
-0.41777113 -0.45784512 -0.4953788 -0.73137206 -0.90718293 -0.56656057 -1.0261163 -0.18059726
-0.452136 -0.5192112 0.4088436 0.15473722 -0.78433007 -0.11810196 -0.6375687 -0.5207557
-0.3287525 -0.83403367 -0.7022134 -0.1214741 -1.6744688 -0.47963095 -0.05344405 -0.31752893
0.20434567 -0.44271323 -0.40868676 -0.7037526 0.030166082 -0.22946736 -0.29919147 0.026656896
-0.4758072 -0.38482624 -0.88897395 -0.48022398 0.1785959 0.1775488 -0.6485044 0.027631432
0.09121304 1.1577806 0.022662036 0.4930046 -0.15770493 0.2965903 -0.37085274 0.01113891
0.27621415 1.8738171 0.052553155 -0.15764256 -0.12881207 0.28595617 -0.6203599 0.6904731
-0.3048668 -0.33283854 0.12809977 0.7414803 0.82681865 -0.1320763 -0.74620897 0.9936011
1.3149453 1.6037955 0.9234824 0.47673273 0.127931 -0.22453162 -0.07402115 -0.44532755
-0.08631961 -0.39519554 0.30923846 -0.23926295 -0.021901572 -0.051832836 0.51842743 0.10387973
-0.79154414 -0.57517827 -0.4328389 0.39547545 0.035970204 0.34326452 -0.2648138 0.30506685
-0.20349894 -0.2858077 0.36179364 -0.18629774 0.042122535 0.029518358 -0.1460793 0.58687884
-0.3529477 0.13789012 -0.37360042 0.5197783 0.05545353 0.031085052 0.0006872658 0.20192549
-0.22549535 0.2079283 -0.38209566 -0.3816932 0.38834882 -0.01433945 0.16400255 0.2325611
-0.2156906 -0.25376314 -0.5591523 0.20959787 0.1029757 -0.26517367 0.22271651 0.28770724
0.04108453 -0.0027400553 -0.32930064 -0.06741244 0.029684579 0.19004628 0.15848236 -0.028244877
0.005200703 -0.41195184 0.4152966 0.10068291 -0.15653688 0.095326886 -0.067347676 -0.17609583
-0.35742348 -0.08868616 -0.42060074 0.023381857 0.16575384 -0.4669063 -0.92627716 -0.12106229
0.14287516 0.37637308 0.12221079 0.37484175 -0.39446282 -0.19870895 -0.16117701 -0.00054281467
-0.15785712 -0.12819071 -0.4553628 0.1735363 -0.33509412 -0.1308699 -0.23024654 -0.18409836
-0.66385657 -0.111316495 -0.14786859 -0.20764308 0.014492456 -0.16862948 -0.4953586 -0.15480995
0.23545775 0.33865374 -0.09740265 -0.20202883 -0.057113394 -0.17834042 -0.86648273 -0.18169753
-0.32509127 -0.077120416 -0.1441255 0.09829726 -0.30280182 -0.4327241 -0.49423552 -0.45684335
-0.33805603 0.835884 -0.16356532 0.011158027 -0.3478114 -0.52814966 0.21394385 0.018524498
-0.7749851 0.062742025 -0.4614538 -0.32575968 0.08673673 -0.5346094 -0.6759535 -0.14897448
-1.6680647 -0.71526575 -0.089846075 -0.29243016 0.2806898 -0.38142464 -0.87553763 -0.47537565
-0.093774796 -0.17711397 -0.37882525 0.23606907 -0.34118176 -0.5269833 -0.6954461 -0.4628628

weight f4 [3, 12]
00000000: 2f03 653d c178 ea3d 0c09 b9be e51b ebbd
00000010: 3332 663c ca2c edbe e2dd 6ebe 72bd b2bd
00000020: 1cbf 26be fc6d 96bc 6599 4bbe e0be 18be
00000030: 1aab fdbd ad01 ad3d 375f d9bc 0057 b73d
00000040: 8726 203c cee7 593e eb27 9fbd 3bd4 4c3e
00000050: 4a30 1c3d c3f5 77bc c9e1 e33c b4f2 9bbc
00000060: 5a9b 033e 8562 40be 92bb ce3e 123b 8f3d
00000070: a2ea 99bd d258 913e 4702 9d3e cd0e 103d
00000080: a600 d23d b4c5 e2bb 9d8e 193e d889 093e
0.05591124 0.11448813 -0.36139715 -0.1147993 0.014050054 -0.46323234 -0.23326829 -0.0872754
-0.1628384 -0.018362992 -0.19882734 -0.14916563 -0.12386151 0.08447585 -0.02653466 0.08952141
0.009774811 0.21279833 -0.077712856 0.20002834 0.03813199 -0.015134278 0.027817624 -0.019036628
0.1285223 -0.18787582 0.4037748 0.06993689 -0.07515456 0.28388077 0.306658 0.035170365
0.1025403 -0.0069205407 0.14995809 0.1343149

bias f4 [3]
00000000: fe8c 783f db27 25bd a3e2 633d
0.97090137 -0.040321212 0.05563606
