models/paramsearch_0.0002553034097482335_0.5026086620978653_0.23748206132620164_100.pt (torch, 33166 bytes, 7 tensors)

weight_ih f4 [240, 6]
000000 1a 32 41 3d f3 8f 97 be 2f 13 af 3d 85 de 38 bd
       0.04716692 -0.29602012 0.08548581 -0.045134086
000010 6e 66 7c 3d 38 cc f7 bd c0 23 ab 3c 6a df 49 be
       0.061621122 -0.120994985 0.02089107 -0.19714132
000020 a9 00 83 3c 6e 2a 9b be a8 43 8a be 71 1c b6 bd
       0.015991526 -0.3030581 -0.27004743 -0.088921435
000030 16 0a b1 3d dd 0f b4 bd 12 96 98 3d 2f 19 85 be
       0.08644502 -0.08792088 0.07450499 -0.25995776
000040 a0 39 0c be a4 7a 2b be 53 fa 59 bd 51 22 7c be
       -0.13693857 -0.16746002 -0.053217243 -0.24622466
000050 21 4e 2f be f0 91 2a be 7b d5 28 be 3a 39 26 39
       -0.17119648 -0.16657233 -0.16487686 0.00015852312
000060 ed e0 14 3e 76 cd 71 3d 0e 16 8d bd 97 6d b4 bd
       0.14538927 0.059033833 -0.06888972 -0.08809965
000070 6a 52 c1 3c bc 77 38 bd f8 4e cc b8 d4 92 43 bc
       0.023598868 -0.045036063 -9.742187e-05 -0.011936862
000080 8d 04 d1 3c a8 de dd bd 2f dc 4d be 46 7d d6 bc
       0.025514865 -0.10833484 -0.20103525 -0.026182782
000090 b4 7a 9d bc 40 c0 43 be 44 17 c1 3d 7d cc 50 be
       -0.019223548 -0.19116306 0.09428266 -0.20390506
0000a0 5c 77 63 bd 31 b8 70 3d 6d ba f6 3c f0 76 95 3c
       -0.05553375 0.05876941 0.030118192 0.01824519
0000b0 66 6b 28 bd f1 1a 4b be 04 67 11 be bb ee 5e bd
       -0.041118048 -0.19834496 -0.14199454 -0.05442689
0000c0 71 42 ec 3d 50 78 75 be ea 0d 4f 3b b9 b8 f5 bd
       0.1153611 -0.23971677 0.0031593987 -0.11998124
0000d0 d1 af 3c be 04 4e 08 3e 52 fa d4 bd e3 1b 85 be
       -0.18426444 0.1331101 -0.10399307 -0.25997838
0000e0 56 21 a2 bd 0a 67 27 be f6 31 12 bd eb 94 13 3c
       -0.079165146 -0.163479 -0.035692178 0.009007673
0000f0 74 c5 00 3e 3c 07 50 bd 1f 9d 09 bc 0e 01 a8 bd
       0.12575322 -0.05078815 -0.008399277 -0.08203326
000100 af 01 54 3c 58 2c e5 ba 15 95 01 3e e4 4c d5 bd
       0.0129398545 -0.0017484529 0.12654527 -0.10415056
000110 c9 94 82 bd 19 6f 55 be df 26 0e bd fe 83 bc bd
       -0.06376035 -0.20843162 -0.03470504 -0.09204863
000120 21 1c 39 3d d9 60 50 be 90 92 c4 3b ec 48 30 be
       0.04519284 -0.20349444 0.005998917 -0.17215317
000130 bf 10 25 be 71 18 6f 3d e2 3e 77 3b 5d b7 e6 3c
       -0.1611967 0.05837292 0.003772669 0.028163606
000140 99 8c 8a 3a 47 01 97 be 97 af ab bd 5a 9a b4 3d
       0.0010570466 -0.29493162 -0.083831005 0.08818503
000150 4a 8c 0d 3d 72 ed 17 be 1e a4 12 3d 57 07 83 be
       0.03455762 -0.14836672 0.035801046 -0.25591537
000160 90 64 e3 bd 8e 42 f7 ba b4 bc 42 3e 9b ec 86 bd
       -0.11103165 -0.0018864439 0.19017297 -0.06588098
000170 72 45 d3 bd 39 1c 38 bb f4 28 00 bd e0 36 28 3e
       -0.1031598 -0.0028092994 -0.031289056 0.16427183
000180 51 78 0d bd a7 11 d2 be 16 b9 9b bd 1b e7 78 be
       -0.03453857 -0.41029093 -0.07603662 -0.2430691
000190 b1 0b b9 3b 28 89 08 3e 4a e9 82 bd b4 d2 54 be
       0.0056471457 0.13333571 -0.063921526 -0.20783502
0001a0 44 39 4e bd 58 15 dc 3e 3b 2c a9 3d 53 e8 56 3d
       -0.05034758 0.42985034 0.082603894 0.052467655
0001b0 82 0e e2 3d e0 04 3f be f1 0d 34 3d 78 0a 1d be
       0.110379234 -0.18654203 0.043958608 -0.15336025
0001c0 a8 c5 58 3d f8 ea a1 bd 0d 0d c4 3b 9e e4 00 be
       0.052922875 -0.07906145 0.005983001 -0.1258721
0001d0 b1 80 0c be f0 5d 13 be f2 27 08 be fb d7 1d 3d
       -0.13720967 -0.14391303 -0.13296488 0.038536053
0001e0 53 92 17 3e d1 ab c8 3e c6 6c 7b 3d 98 59 5f 3e
       0.14801912 0.39193586 0.06138303 0.21811521
0001f0 6e 03 8d 3e ac 0f 9c 3c 82 29 c1 3d 3b a2 f6 bd
       0.2754168 0.019050442 0.09431745 -0.12042662
000200 44 cb 15 bc e8 60 72 be 87 6f 2c be a4 32 99 3c
       -0.009142701 -0.2366978 -0.1683942 0.018700905
000210 9f 2b bb 3c 53 74 a3 3d 80 62 c8 bd 8d 4d 9e be
       0.022847949 0.079811715 -0.097844124 -0.30918542
000220 b4 33 a7 bc 3a 1a b6 3d 87 15 50 3d de a5 38 3e
       -0.020410396 0.08891721 0.05080178 0.18032023
000230 1e 93 96 3e a9 23 70 3e ee af b4 3e 79 ee e5 3c
       0.29409117 0.23451103 0.35290474 0.028067814
000240 7e 54 32 3e f9 22 99 3b 41 ba bf bd a2 df 1c be
       0.17415044 0.0046733585 -0.09361697 -0.15319684
000250 52 bd 4a bd bd 72 96 bc 2f cb 95 bd 09 f4 19 be
       -0.049496956 -0.018365258 -0.07314145 -0.15034498
000260 40 a6 61 bc 8f f8 8f be 9d 13 4b bd cf 83 9b bd
       -0.013772547 -0.28119323 -0.04957925 -0.075935
000270 26 31 5c 3e 9d a3 df bb 79 20 13 bd 65 7c 2f be
       0.21503124 -0.006824924 -0.03591964 -0.17137296
000280 a7 51 db bd f2 69 7c bd e5 2c e3 bd af 07 4a be
       -0.10708933 -0.061624475 -0.11092547 -0.19729494
000290 36 24 50 bd 09 5a 27 3e c2 a7 9d 3d 73 77 1a 3e
       -0.050815783 0.1634294 0.07698013 0.15084629
0002a0 a7 e4 0f bd 80 62 60 bd 74 54 d0 b9 8f b0 49 be
       -0.03513017 -0.054781437 -0.00039735774 -0.19696258
0002b0 41 40 15 be 14 70 8a bc 87 e4 00 3d 27 99 cd bd
       -0.14575292 -0.016899146 0.03146794 -0.10038977
0002c0 2e 99 11 be ca 61 8b be f3 4c 6c 3d a9 99 d0 3d
       -0.1421859 -0.27223045 0.057690572 0.10185558
0002d0 f6 77 73 3d 97 da 67 ba 93 b6 06 be 03 5a 40 be
       0.059440576 -0.0008844523 -0.13155584 -0.18784337
0002e0 ef 89 28 be bb bb b5 bc c9 43 a7 bd bc 06 b8 3c
       -0.16458867 -0.022184243 -0.08167226 0.022464149
0002f0 68 82 a8 bd 93 b6 92 be c1 91 ba bd 23 83 1d be
       -0.08227998 -0.28654918 -0.091098316 -0.15382056
000300 6e 91 a0 3d 98 e1 a7 bd a9 87 24 be 39 0d e4 bd
       0.078402385 -0.081973255 -0.16067375 -0.111353345
000310 3c 97 37 be 4a 96 9b 3d 62 04 38 3b 2d f3 34 be
       -0.17928785 0.07597025 0.0028078784 -0.17670889
000320 79 1f 8b 3d 97 0e 89 be 8b 34 b0 bd 05 c5 58 bd
       0.06793112 -0.26768944 -0.08603772 -0.052922267
000330 2b 7c 25 bb 63 d4 89 bc ee dd 1c be 5d 86 b0 be
       -0.0025251012 -0.016824907 -0.15319034 -0.3447751
000340 cb 2e 50 bd ec 19 3c be 19 c1 76 bd bb 9b 47 be
       -0.050825875 -0.18369263 -0.060242746 -0.19493
000350 89 80 17 bd 06 81 67 be 74 5e 27 be cb b6 5f 3d
       -0.036987815 -0.22607812 -0.16344625 0.054617684
000360 0b 18 00 bd cc e6 a1 be 2c fe 3f bd 3a ce 0a 3e
       -0.03127293 -0.31621397 -0.046873257 0.13555232
000370 a8 e9 11 bc e3 8a ae bd 3a 41 46 3e 8a c2 09 bd
       -0.008905806 -0.08522584 0.1936082 -0.033632793
000380 df 55 88 3c 35 21 a4 be 7a 37 03 be ea 6b b4 bd
       0.016642509 -0.32056585 -0.12814131 -0.088096455
000390 42 50 c2 3d ca 3c cb bd 94 e5 16 be 94 70 48 bd
       0.09487964 -0.09923704 -0.14736015 -0.048935488
0003a0 a3 b0 0a 3d ae 77 2e bc c3 4c 06 3c 6a d8 84 3c
       0.03385986 -0.010648651 0.008197012 0.016216476
0003b0 69 36 68 bd 3d 4e a1 be e9 cb ef bd 4a 34 16 be
       -0.056692515 -0.31505004 -0.11708815 -0.14668384
0003c0 40 6d 2d 3e 87 a2 5f be 0a 80 a9 3d c9 92 14 3e
       0.16936207 -0.21839343 0.08276375 0.14509119
0003d0 0d 11 1d be ec 77 a0 bd 71 dd 82 bd ca 87 af bd
       -0.15338536 -0.07835373 -0.06389893 -0.085708216
0003e0 d5 8c bc bb 01 a4 16 be 91 f7 9b bd db 35 24 3a
       -0.005754093 -0.14711 -0.07615579 0.00062641286
0003f0 57 27 e7 3d 26 13 9d bd f6 8d 14 be 15 48 93 be
       0.112868 -0.07669668 -0.14507279 -0.28765932

weight_hh f4 [240, 12]
000000 81 96 b9 bd 98 a8 08 3e 81 f5 d8 bd 71 53 0e be
       -0.090619095 0.13345563 -0.10593701 -0.13899018
000010 15 f5 dd 3c 26 b4 63 3a 08 d8 cc bd e4 bf f2 3c
       0.027094403 0.0008686207 -0.10002142 0.029632516
000020 1b 3f b5 3d 84 41 4c 3d ef 04 40 3d 25 a5 dc bd
       0.08849927 0.049867168 0.046879705 -0.10773686
000030 97 ef 2e be 0a 2e 01 bb 6c a6 49 bd 01 b3 dd bd
       -0.17083584 -0.001971128 -0.049230978 -0.10825158
000040 72 28 02 3d e7 d3 17 3e 52 42 78 bd eb fa 10 bc
       0.031776853 0.14826928 -0.060610123 -0.008848886
000050 5e ef 78 3c 69 ed 10 3e e8 1d 89 bd 37 ea 92 bd
       0.015193788 0.14153065 -0.06695157 -0.07173579
000060 16 5f 27 be 4d 3d 3c 3d 7d f2 76 3d 2d a7 5b 3d
       -0.16344866 0.0459569 0.06028985 0.053626228
000070 95 e8 2f bd 11 2a 8b bc 05 da 93 bd c4 af bc bd
       -0.042946417 -0.016987832 -0.07219318 -0.09213212
000080 7f 77 81 3c b7 bb 8f bd 42 6c 20 be 76 ad 12 be
       0.01580405 -0.07018226 -0.15666297 -0.14323983
000090 4e 6e fe bd c6 c9 12 bd 07 d0 5e 3d 34 13 b1 bd
       -0.12423383 -0.035836957 0.05439761 -0.08646241
0000a0 b5 86 f7 ba 00 9f c7 bd cf 1a d8 3d c0 6f d8 bd
       -0.001888475 -0.09747124 0.10551988 -0.105681896
0000b0 b2 31 24 3d 85 60 25 bd 6b 70 34 3c 1e f5 a8 3d
       0.040086456 -0.04037525 0.011013131 0.082498774
0000c0 1e 96 4f 3d 89 83 d6 3d 05 2b 27 bd 16 ba a7 3d
       0.050680272 0.10474307 -0.04081251 0.0818979
0000d0 6f 06 be bd 71 fc 4d 3b 6a ff 08 be e0 2c 98 bc
       -0.09278571 0.0031430984 -0.13378683 -0.018576086
0000e0 02 66 17 be c2 66 3d bd 26 2e e6 3c 2f 0b 89 bd
       -0.14785007 -0.046240576 0.028098177 -0.06691586
0000f0 56 0f 78 3c 60 9f 0c bd 4f 56 ea 3d 99 51 a3 bc
       0.015140375 -0.03433168 0.11442243 -0.01993637
000100 68 cd 38 be 27 fa 19 3d ed 9d b3 3c 55 b7 87 3d
       -0.18047106 0.03759208 0.02192589 0.06626765
000110 8b 1b da bd 8d b8 07 bd cf d2 2b 3d 9f 38 6d bd
       -0.10649785 -0.033134986 0.04194909 -0.057915326
000120 5c 2e 93 3d dd 4f a8 3d 4b f6 d8 3a a5 a0 51 bd
       0.07186577 0.08218358 0.0016552893 -0.051178593
000130 75 39 ea bd f1 b8 82 3d c6 4f 78 bd ab 5a fa 3c
       -0.1143674 0.06382931 -0.060622953 0.030560812
000140 ab d2 a2 3c 4b 88 4c 3d 5a 1f d4 bd 2f 8a ab bd
       0.019875845 0.049934667 -0.10357542 -0.08375966
000150 cd e3 13 be fe d9 3d 3d 75 d7 5e 3d 68 14 0c be
       -0.14442368 0.04635047 0.054404695 -0.1367966
000160 b5 f1 cd bc 2b 81 12 3e 2b 92 b0 3d f1 06 74 3d
       -0.025139669 0.14307086 0.08621629 0.059576932
000170 93 73 ab 3c c6 55 05 3e 85 24 dd bd 0a 06 f7 bc
       0.020929134 0.13021001 -0.10797981 -0.030154247
000180 0e d3 94 3d d0 26 4c bb 00 ce 7a 3d a3 5e b1 3d
       0.07266818 -0.0031151064 0.061231613 0.08660629
000190 0e b4 cb bd f1 d5 c8 bc 4b 47 8c 3d 66 e8 b7 3c
       -0.09946452 -0.024516078 0.068495356 0.022449683
0001a0 31 81 bb 3d ed 20 2b 3d 16 0e b2 3c b6 0f d9 bd
       0.09155501 0.041779447 0.021735232 -0.105987
0001b0 b2 ee 5d bd d2 43 9b bd 82 a7 b0 bd 48 da f9 bd
       -0.054182716 -0.07581295 -0.086256996 -0.12199837
0001c0 51 7e d7 bd 90 47 2e be 22 fa 44 3c da c9 c6 3c
       -0.1052214 -0.17019486 0.012022527 0.024266172
0001d0 21 66 f8 bd 77 8f 89 3d 0c 60 f2 bd 83 40 33 bd
       -0.121288545 0.06716817 -0.11834726 -0.043762695
0001e0 f2 66 03 bc b0 a9 80 bd 63 0b 65 3d 7c fb c4 3b
       -0.00802015 -0.06282365 0.055919062 0.0060114246
0001f0 7a 47 86 bd a4 22 3e be 2a 0b 97 bd c1 03 b3 bd
       -0.06556602 -0.18567902 -0.07375176 -0.087409504
000200 65 2a ad 3c d9 30 e6 3c 53 1e 02 be 7f 60 88 bc
       0.02113838 0.028099464 -0.1270688 -0.016647575
000210 20 89 89 bd 79 e6 9f 3d 67 e0 f3 3d 58 e2 54 3c
       -0.06715608 0.07807631 0.11908036 0.012993418
000220 b1 5a 30 3c d0 c8 05 bb 69 f9 52 bb 90 ee 47 be
       0.01076381 -0.0020413883 -0.0032192117 -0.19524598
000230 c3 e0 4a bb f4 82 46 3e 30 e0 ac bc 97 f9 40 be
       -0.0030956722 0.19385892 -0.021102995 -0.18845211
000240 69 5e 5d 3d eb 4e d1 3d 28 c6 9b 3d b7 d7 3e 3d
       0.054045115 0.102201305 0.07606155 0.04659244
000250 34 f5 51 bd 19 c3 27 3d 02 6e 47 bd 78 a1 fa bc
       -0.051259235 0.040957544 -0.048688896 -0.030594572
000260 2a 47 9d 3d 42 35 fe 3d 86 43 d1 bd ed 2f 0c be
       0.07679589 0.12412502 -0.10217957 -0.13690157
000270 80 37 76 3d dd 34 91 bd db b4 6d 3d 22 45 cb bd
       0.060111523 -0.07090161 0.058033805 -0.099252954
000280 ea 9e 7c bd 90 24 97 bb 55 68 da bd 60 a1 65 bd
       -0.06167499 -0.004612513 -0.10664431 -0.056062102
000290 26 69 74 bd be 31 43 bd a5 23 da bd 1a 39 2a 3c
       -0.05967059 -0.04765486 -0.1065133 0.010389591
0002a0 b9 9c d6 3d 7e 87 a0 3d 03 5f d3 bd e9 b8 ce 3d
       0.10479111 0.07838343 -0.103208564 0.100938626
0002b0 a0 e3 55 bd b4 3d 14 bc f6 a6 fa bd db 56 7d 3c
       -0.052219033 -0.009047914 -0.122388765 0.0154626025
0002c0 c1 6e f1 3c 3c 3f de 3d 69 b2 87 3d ac a7 fc bd
       0.029471757 0.10851905 0.06625826 -0.12336668
0002d0 90 e4 2d be 9b 6b 35 3e b4 ed 00 3e 28 09 9b bd
       -0.16981721 0.1771683 0.12590677 -0.07570106
0002e0 e8 21 e2 bd 0b 36 a9 bd be 5e d9 bd 3d 6e 15 be
       -0.11041623 -0.08262261 -0.10613774 -0.14592834
0002f0 87 dd c6 bc 32 2b e6 3d 56 87 2d be 89 28 ee bd
       -0.024275554 0.112387076 -0.16946158 -0.11628825
000300 1f fe a4 bd c6 e8 84 3d 7c 81 1a 3c 70 d5 a6 3d
       -0.08056282 0.064897105 0.009430286 0.08146179
000310 57 da 4e bd 29 9d 72 bd 64 87 22 be 5e 6b 59 3d
       -0.050501194 -0.05923191 -0.1587196 0.05308091
000320 0b d4 ae 3d 09 4d 27 3e 9b c8 98 bc c8 20 fd bd
       0.08536538 0.1633798 -0.018650344 -0.12359768
000330 3f 87 23 3e a8 bc 06 3c e4 f6 a5 bb 4c df 48 bb
       0.15969561 0.00822369 -0.005064832 -0.0030650673
000340 7d b1 e4 bd 0e 9a 41 be 97 45 86 bd 9a 96 14 3e
       -0.11166666 -0.18906423 -0.06556242 0.14510575
000350 fc 74 27 3e 05 89 d8 bd 16 69 87 b9 75 a3 96 3d
       0.1635322 -0.105730094 -0.00025827502 0.07355396
000360 32 37 4d 3b 2e fd 89 b8 00 52 b0 bc b0 c4 ea bd
       0.0031313417 -6.5798275e-05 -0.021523476 -0.114632964
000370 23 ba 04 be d0 8e 6c be ab fc f0 bd 65 7d 20 bd
       -0.1296163 -0.23101354 -0.117669426 -0.039182086
000380 3b 8d 8e bd 33 59 c5 3d a2 5d c6 bd c3 06 b0 bd
       -0.06960531 0.09636154 -0.09685828 -0.0859504
000390 29 cb ff bd ef f2 d6 3d 7e 57 60 3d 52 d2 05 be
       -0.124899216 0.10495555 0.05477094 -0.13068512
0003a0 56 60 9e 3d 36 ba 93 be ee da 20 3d 0a a7 6b bc
       0.07733218 -0.28853005 0.039271288 -0.014383087
0003b0 2b 69 df 3c bc 5c 04 bb a1 92 65 bd dd b4 29 be
       0.027271828 -0.0020196876 -0.05604804 -0.165729
0003c0 a8 36 6d be 28 f8 ef bc e4 f2 cd 3c ea 4f b3 bc
       -0.23165381 -0.029293135 0.025140233 -0.021888692
0003d0 69 07 c5 bc f1 5e f0 bc 15 a8 1e bd e2 a5 d2 bd
       -0.024051385 -0.029342147 -0.038734514 -0.10285546
0003e0 c5 9d 96 bd 04 fb 37 3e cf 33 8b bd 29 25 c8 bd
       -0.07354311 0.17966849 -0.06796991 -0.09772713
0003f0 e3 9c f9 bc 6d cf 31 3c 3c f7 4d 3e d5 b0 5f bd
       -0.030470317 0.010852677 0.20113844 -0.054612

proj f4 [12, 60]
000000 d9 18 2b bd 1e 33 ad ba da 50 97 bd f0 c1 bb bd
       -0.041771743 -0.0013214087 -0.07388468 -0.0916785
000010 9f 14 b0 3c ac b8 ae 3d c6 d6 19 be 4f f3 1f be
       0.021494208 0.08531317 -0.15023336 -0.15620159
000020 af 36 e7 bd a9 76 0f 3b 62 de 1a 3e d7 1d cf 3d
       -0.11289727 0.0021890795 0.15123895 0.101131134
000030 39 4c 05 be 18 20 e7 3c 92 7f 46 bd 23 17 39 be
       -0.13017358 0.028213546 -0.048461504 -0.18075232
000040 2c 7c 03 be 8d 7a 3d bd 8c a4 9b bd bc 8b 3a be
       -0.12840337 -0.04625945 -0.07599744 -0.18217367
000050 a9 90 df bd f6 b7 19 3e 88 1a ef 3d 75 dc 94 bd
       -0.109162636 0.15011582 0.11674982 -0.07268611
000060 2d e7 0a 3e 10 24 74 3d be e1 cf bd eb 20 14 bd
       0.13564749 0.059604704 -0.10150479 -0.036164206
000070 28 73 e7 bd 85 4c 89 bd 2e 58 cb bd 46 61 09 3e
       -0.11301261 -0.06704048 -0.09928928 0.13416013
000080 62 05 a4 3c 2b 51 80 bc 40 ec 96 bd 2b bd db 3d
       0.020022098 -0.015663704 -0.0736928 0.1072944
000090 35 23 96 bd a8 fa 3d bc ec 05 27 bd a5 b4 b7 3d
       -0.07330934 -0.011595406 -0.040777132 0.08970002
0000a0 76 f0 05 be 42 09 85 3d 1d bf de bd b6 ec 64 bd
       -0.1308001 0.064959064 -0.10876296 -0.055889808
0000b0 01 68 17 be e5 a3 70 bc fa b3 12 bd 64 90 fb 3c
       -0.14785768 -0.014687513 -0.03581617 0.0307085
0000c0 06 9a 00 bd 2d d6 79 3d f4 2e ed bd 06 56 7f 3d
       -0.03139689 0.06099527 -0.11581221 0.062337898
0000d0 79 fd eb bb 0f 9b 26 be 1e a9 1c 3e 31 89 ed 3c
       -0.007201847 -0.16270088 0.15298888 0.028996082
0000e0 1e 94 02 3d 39 74 0a be f6 d6 cf 3b 8e 66 68 3d
       0.031879537 -0.13520898 0.006342764 0.05673843
0000f0 f7 4f 01 bd 62 c6 75 3d e8 b8 b6 bd 70 7f 09 be
       -0.0315704 0.060003646 -0.08921987 -0.1342752
000100 9e 98 85 bd e1 8b 21 3d 88 99 95 bd b7 86 5f 3d
       -0.0652325 0.03944004 -0.073046744 0.054571833
000110 9d dd 03 3e 45 a6 72 3d b4 ac 94 bd eb 7b 04 3d
       0.12877508 0.0592406 -0.07259503 0.03234474
000120 27 66 0b 3e ef df b9 bd 7c 93 85 bd 78 6d 08 3e
       0.13613187 -0.09075915 -0.06522271 0.13323009
000130 bd 89 d4 3d 19 a5 28 bd 62 02 32 3e 06 24 db 3d
       0.10377834 -0.041173074 0.17383721 0.1070023
000140 58 4f 80 bd 37 b3 cb bd bd 16 41 bb 0f c5 b3 bc
       -0.062651336 -0.09946292 -0.0029463016 -0.02194455
000150 4e a8 d1 ba 97 bd 10 3d 57 2e 90 3d 82 0c 1f bb
       -0.0015995593 0.035337057 0.070400886 -0.002426893
000160 7e 72 5d 3d 96 77 6e 3d 44 f3 ca 3d 8f 0c 04 be
       0.054064266 0.058219515 0.099096805 -0.12895416
000170 26 06 18 3e a1 fa 9c 3d 29 d7 0e bd fd b2 10 be
       0.14846095 0.07664991 -0.03487316 -0.14130779
000180 73 fe 9f 3d 59 a7 3d 3d 50 3c d6 bd de 8b 72 bd
       0.07812204 0.046302173 -0.104607224 -0.05921542
000190 45 db ac bc ab aa be 3d 8a c7 a9 3d 96 88 5b 3d
       -0.02110065 0.09309896 0.08290012 0.053597055
0001a0 44 73 09 3e e9 e4 7c bd 91 32 04 be 1f df 14 bd
       0.13422877 -0.061741743 -0.12909915 -0.036345597
0001b0 5d 05 6d 3d da a3 9b 3d c5 1f 08 3d f4 f0 9f 3d
       0.057866443 0.075996116 0.033233423 0.0780963
0001c0 6f 51 ab 3d 1a 40 d4 bb 1f e4 9d bd 4c c6 f5 bc
       0.083651416 -0.006477368 -0.07709526 -0.030001782
0001d0 50 34 b9 3d fe ab ed 3d 03 1e 80 3d bd fa 03 be
       0.09043181 0.116050705 0.06255724 -0.12888618
0001e0 f8 c2 15 3d f4 0c d8 bd 00 4c 0c be 59 b2 b9 bd
       0.03656289 -0.105493456 -0.13700867 -0.0906722
0001f0 68 e0 1c 3e a0 87 c5 bd 97 53 01 3e c8 78 1f bd
       0.15319979 -0.09645009 0.12629543 -0.038933545
000200 95 c8 09 3e ff 43 9e 3d 2a 6d 98 bc 95 53 bc bd
       0.13455422 0.07727813 -0.018606741 -0.091956295
000210 63 6e 26 bc ef d0 22 3d 64 c3 8c bd 0a bb 63 3d
       -0.010158154 0.039750036 -0.06873205 0.055598296
000220 04 8a b1 bd a2 91 d1 bd 56 fa 58 3e ef b2 31 3e
       -0.086689025 -0.102328554 0.21189246 0.17353414
000230 06 21 27 3d a6 79 f0 bc b6 3a ee 3d e0 84 22 be
       0.040802978 -0.029354881 0.11632292 -0.15871
000240 53 2b d8 bd 86 61 33 bd 2c 91 10 3e 97 37 a1 bc
       -0.105551384 -0.043794177 0.14117879 -0.019679828
000250 07 16 1b 3e 8f ca e8 3c 6c cb 21 bd 24 a3 07 3d
       0.15145122 0.0284169 -0.03950064 0.033114567
000260 5b 38 6a bd 0b b8 35 3d c8 02 dc 3d 69 a3 d1 bd
       -0.05718265 0.04436497 0.10742718 -0.10236246
000270 46 58 74 bd 1a 23 51 3d 47 15 fa bd 1a 7f 28 be
       -0.059654497 0.051058866 -0.122110896 -0.16454735
000280 a8 60 a2 bb 7f 54 62 bd 15 46 2c bd b1 c2 e0 3d
       -0.00495537 -0.055256363 -0.042059023 0.109746344
000290 23 f3 4b bd bb 62 bb bc 61 e3 c0 3d 82 78 4e 3c
       -0.04979242 -0.022874227 0.09418369 0.0126019735
0002a0 cb 7e b8 bd 24 32 46 bd 6b 8c 31 3e 01 3e 6b 3b
       -0.09008559 -0.04838766 0.17338721 0.0035895112
0002b0 e9 41 a4 bd a3 ff 1b bd d0 3e 38 3d c7 22 46 be
       -0.08020384 -0.03808559 0.044981778 -0.19349204
0002c0 48 60 fb bc 79 40 dc 3d e3 0a 8f 3d 28 60 17 be
       -0.030685559 0.10754485 0.06984498 -0.14782774
0002d0 69 ef 15 be f0 7d 16 bb e8 e6 f1 3d 28 ae aa 3d
       -0.14642109 -0.0022963248 0.1181162 0.08333999
0002e0 df fe 24 3d c3 df bc 3c 91 cf 2b be 33 01 3d bd
       0.040282127 0.023055917 -0.16778399 -0.04614372
0002f0 3f 0b e8 3c b9 66 21 bd 22 7d 85 3c af 3b 3c 3e
       0.028325675 -0.039404605 0.01629502 0.18382142
000300 9a 2a 41 be 92 c9 18 bc 0b bf b1 bc 71 4e a2 3a
       -0.18863907 -0.009325402 -0.021697542 0.0012382997
000310 13 89 2a be ea c8 87 3b 0f 60 9d bc 6b 4e 19 be
       -0.16653852 0.004143824 -0.019210843 -0.1497132
000320 d4 a8 b2 bd 5c f1 54 bd ee 9b 10 39 a6 39 e0 3d
       -0.08723608 -0.05198799 0.00013790998 0.109484956
000330 fa ac 0e bc 38 0a 1d be 03 fe 8d 3b c3 7a 54 3d
       -0.008708233 -0.1533593 0.004333259 0.051874887
000340 13 7e 79 bb 41 91 21 be 52 82 7f 3c 06 97 90 3d
       -0.003806953 -0.15778066 0.015595036 0.070600554
000350 d1 bc 9f bd bd ac d5 bd 02 27 f4 bd 9b c0 e8 3d
       -0.07799686 -0.10433338 -0.11921503 0.113648616
000360 cc 96 18 3e de 29 eb bb 54 4a 8c bd 85 3e c0 3d
       0.14901274 -0.007176622 -0.068501145 0.09386925
000370 d0 df 2d bd b3 a0 d2 bd 96 fb a8 bd 7b 43 ff bd
       -0.042449772 -0.10284557 -0.08251111 -0.12464043
000380 46 8e 06 3d b3 78 dc 3d 1e 9b ab bd c7 46 2b bd
       0.032850526 0.10765209 -0.08379196 -0.041815545
000390 f1 ac 4b ba 75 d4 4c 3d 2d d9 91 bd 87 ea 80 3c
       -0.0007769606 0.050007302 -0.07121501 0.015736831
0003a0 d7 2b c2 bd c5 dc e0 3d c3 9b dc 3d 19 06 6d 3d
       -0.09481018 0.109796084 0.10771897 0.057867143
0003b0 ea 2c 06 3e e9 20 85 bd 6a 0c cd 3c 83 f8 b5 3d
       0.13103071 -0.06500418 0.025030334 0.088852905
0003c0 32 2b 8d bd eb 92 a4 3d d3 0b e7 3d ab 21 fd bc
       -0.068930045 0.08035835 0.11281552 -0.030899843
0003d0 03 7c b9 bd ed 95 ef 3c 9f 71 75 bd 43 a5 01 be
       -0.090568565 0.029246295 -0.05992281 -0.12660699
0003e0 6e cc 12 be b4 72 41 3d fc 8f a2 3d d8 10 68 bb
       -0.14335796 0.04722853 0.07937619 -0.003541043
0003f0 b1 9e 23 be 85 be c2 bd 39 af 82 bd 88 8d 81 bd
       -0.15978505 -0.09508995 -0.06381077 -0.06325823

bias_ih f4 [240]
000000 52 6f f4 bb b4 f8 00 3e 4e d0 d2 bc a5 47 be 3d
       -0.0074595595 0.12594873 -0.025734093 0.09291009
000010 e8 c6 fe ba 76 17 c1 3d a4 6d 1b 3e b4 0d a8 bd
       -0.0019437941 0.09428303 0.15178543 -0.08205739
000020 ce 97 8d bd 20 e8 76 bd 2b 13 f2 bc ca a2 27 3e
       -0.0691372 -0.060279965 -0.029550156 0.16370693
000030 ff 79 76 3d a4 96 f7 3c ef 1e e0 3d 06 f2 24 3c
       0.06017494 0.030223198 0.109434 0.0100674685
000040 58 00 23 3e 31 f6 2f bd 10 34 c5 3d 69 bc 0a 3c
       0.159181 -0.042959396 0.09629071 0.008467772
000050 19 d7 61 3d d5 97 bc 3d bb 05 e6 3d bd f9 cd 3d
       0.055136774 0.09208647 0.11231562 0.100573994
000060 3b 86 d9 bd f7 e1 11 3e 27 02 a3 3d 54 d8 9f 3d
       -0.106213056 0.14246355 0.07959395 0.07804933
000070 ff 58 8d bd 49 55 b1 3d f5 cc 09 bd 9d f3 e8 3c
       -0.0690174 0.08658845 -0.033642728 0.028436476
000080 bd d4 c2 3d ca b9 98 3d 0a 08 04 bd 74 63 9c bb
       0.09513233 0.074573115 -0.03223423 -0.004772598
000090 27 e6 bf 3c f5 0e 45 bd 6b 52 9e 3c 87 54 6c bd
       0.023425175 -0.048109967 0.01932641 -0.0576978
0000a0 3a 66 d3 3c b8 42 89 bd fc b1 86 bd fd e5 96 bd
       0.025805581 -0.06702179 -0.065769166 -0.073680855
0000b0 da ec 2b 3e 86 66 bd 3c 9d 25 7d 3d 36 94 41 3d
       0.1678957 0.023120176 0.06180345 0.047260486
0000c0 68 74 d0 3d f0 99 cf bd c1 f7 03 3e 79 3d 19 3d
       0.10178453 -0.10136783 0.1288748 0.03741214
0000d0 5c b3 e4 3d f7 06 57 bd 68 b3 8e bd 63 99 db 3d
       0.111670226 -0.052496877 -0.06967813 0.107226156
0000e0 26 ce ac bd 19 23 0a 3c 10 c3 42 bd 1c 6b 42 bc
       -0.08437757 0.0084312195 -0.047549307 -0.011866357
0000f0 2e 29 fa 3d 2d 02 3d 3c 3b cf 94 bc f6 fe 17 3e
       0.12214886 0.011536163 -0.018165221 0.14843354
000100 09 a1 b3 3d 86 c5 47 bc 3b 54 c2 bb b8 7f 32 bd
       0.087709494 -0.012193089 -0.005930451 -0.043578833
000110 ac f4 98 3d 3d d7 95 3c 44 83 93 3d 18 94 c0 bc
       0.074685425 0.01829111 0.07202771 -0.023508117
000120 5f 3d e8 3c df ff 31 bd f0 9c 12 bd 31 fe 37 3c
       0.028349577 -0.04345691 -0.0357942 0.011230038
000130 23 da 12 bd fc 2f 84 bd 1f ce 31 bd 81 1a a3 3d
       -0.035852563 -0.06454465 -0.043409463 0.079640396
000140 2c 67 63 bd 14 61 f1 bc a2 36 3f bd fa e5 55 3e
       -0.055518314 -0.029465236 -0.04668296 0.2088851
000150 48 8d 94 3d a6 c7 30 3d 89 c9 36 bd 72 2f 2e 3e
       0.0725351 0.04315915 -0.044625793 0.17010286
000160 7d 9c f3 3d 6f d6 93 bc aa 72 9e 3c 40 45 86 bb
       0.11895082 -0.018046586 0.019341785 -0.0040976107
000170 8c 5d 64 37 6f 0a b7 3b 35 da dc bc f8 0a f7 3d
       1.361164e-05 0.0055859606 -0.026959518 0.12062639
000180 03 40 95 bd b3 1f 23 bd a6 42 05 3e aa 21 c9 bc
       -0.072876 -0.039825153 0.13013706 -0.024552185
000190 8c c0 f6 3d d3 2b be bd 46 ba 51 3d fd 1b 82 bd
       0.12048444 -0.092857026 0.051203035 -0.063529946
0001a0 04 e2 00 3e b5 be e1 bc 23 5f 8a 3d 6c d8 f4 3d
       0.12586218 -0.027556757 0.06756427 0.11955342
0001b0 a5 ad 06 bd ab 70 15 3e 57 90 fe 3d bb b1 3e 3d
       -0.032880444 0.1459376 0.124298744 0.046556216
0001c0 20 cc f7 3c 32 e1 18 3c d0 98 08 3d d7 93 f1 3d
       0.030248702 0.0093310345 0.03334886 0.11795776
0001d0 b1 bb f1 3c 5b 75 e4 3d 4c 5d 4a bd fb 9b d5 3c
       0.029508444 0.11155196 -0.04940538 0.026075354
0001e0 bf ec 33 bd 3f 43 3a bd 92 86 cd bd c2 a4 09 be
       -0.04392695 -0.045474287 -0.10035433 -0.13441756
0001f0 a9 46 ba 3d 84 bf 80 bb 99 45 72 bd b5 aa 91 bd
       0.090955086 -0.0039290804 -0.059148405 -0.07112638
000200 ca 27 c6 3d 3f 5d 8e 3d 52 40 b1 3d fe 3f 8e 3d
       0.09675558 0.06951379 0.08654846 0.06945799
000210 cd 6b 0b 3e cc 08 a7 3d 63 84 84 bd 15 f1 a6 bc
       0.13615341 0.08155975 -0.06470563 -0.020378629
000220 7e 54 34 bc a9 33 82 bd 40 84 0c 3d 56 9c a0 3c
       -0.011006473 -0.0635751 0.03430581 0.019605797
000230 ca a4 c3 3d 0b 1a 87 bd 9d 22 2e 3c 05 bf b6 bd
       0.095529154 -0.06596764 0.01062837 -0.08923153
000240 63 43 82 bd eb 7f 24 3e cd ea 1a bc 2b 47 19 be
       -0.06360509 0.16064422 -0.009455395 -0.14968555
000250 85 92 43 bd 8e 59 95 3d 77 63 be 3d 67 7e 0c be
       -0.047747154 0.07292472 0.09296315 -0.13720094
000260 d1 49 30 3d 50 63 1a 3e b8 b1 b7 3d 5c 2e 04 be
       0.043039147 0.15076947 0.08969444 -0.1290831
000270 1b ee 02 bd 44 97 b2 3d 9a 2c d8 bd 1f bd 62 3d
       -0.031965356 0.08720258 -0.10555382 0.05535614
000280 02 0a 11 3e ff cd b9 3d 20 b6 0d bd 58 a6 10 3e
       0.14163974 0.09072494 -0.034597516 0.14125955
000290 5a 78 19 3e b6 6d c0 bd 40 15 b4 3d da aa e8 3d
       0.14987317 -0.09395926 0.087931156 0.11360712
0002a0 46 c2 81 3c 28 3b af 3d 32 d8 a0 3d eb 05 7a 3c
       0.015839707 0.08556205 0.07853736 0.0152602
0002b0 be 28 89 3c 8b 4b 19 3d 7d b5 7c bb 58 31 da bd
       0.01674306 0.03742556 -0.0038560324 -0.10653943
0002c0 2e 60 71 bd 82 03 ef 3d 33 27 c4 bc de fa 4e bc
       -0.058929615 0.11670591 -0.023944473 -0.012633054
0002d0 e6 9f 53 3d 46 b5 16 3d db b0 fa bb b2 46 1c 3e
       0.051666163 0.03679397 -0.0076504773 0.15261343
0002e0 c0 fd 12 bd ca 2e af 3c 5c 56 04 bd 0d 7e 74 3d
       -0.035886526 0.021384615 -0.03230892 0.059690524
0002f0 d5 cd 22 bd 31 53 2a 3d 30 08 89 3d 1a ac b0 3d
       -0.039747078 0.041583244 0.06691015 0.08626576
000300 29 6a b9 3d 90 7f 0d bd 1e ac a5 bd 43 b4 90 3d
       0.090534516 -0.03454548 -0.080894694 0.07065632
000310 ce fb be 39 71 3b 8f bd e7 c7 88 3c 54 45 82 3d
       0.00036427233 -0.069937594 0.016696883 0.063608795
000320 5a 6f aa 3d d5 7a 05 bd 0d 57 e0 3d 09 c1 e9 3d
       0.0832202 -0.032587845 0.109541036 0.11413772
000330 38 e8 b9 3d 6e b8 66 3d f8 b5 3b bd 16 36 27 3d
       0.09077495 0.05632823 -0.045827836 0.040823065
000340 82 13 80 3b b4 4a ce 3d c8 55 27 3d ec a0 ca 3d
       0.0039085755 0.10072842 0.04085329 0.09893975
000350 d1 c9 2f bc cd 0d 78 3d b0 76 c3 bd e1 e3 ff 3c
       -0.010729269 0.060560036 -0.09544122 0.03123659
000360 7e ea 4f bd 6d c5 eb 3c 73 ae c3 3d 96 e1 78 3d
       -0.05076074 0.028780663 0.09554758 0.06076201
000370 65 67 09 3e 84 01 82 bd a9 57 d3 3c 9c eb 1c 3d
       0.13418348 -0.06347945 0.025798636 0.038310632
000380 13 82 ab bd 81 dd 00 bd 8f 75 83 bd 80 23 c0 3c
       -0.08374419 -0.031461243 -0.06418907 0.023454428
000390 3e d8 c6 3d 26 77 50 3d 7c 01 5c 3d e0 06 0f 3e
       0.09709214 0.05089488 0.053712353 0.13967466
0003a0 fd 08 0d 3d d7 51 eb 3c 6b a3 d1 bc 85 b6 e8 bc
       0.0344324 0.028725548 -0.02559062 -0.028407345
0003b0 5c 99 8d bd 67 a7 43 3d 2f 0f 34 3d b0 d9 18 3e
       -0.069140166 0.04776707 0.043959793 0.14926791

bias_hh f4 [240]
000000 b0 f5 a6 3d a8 97 0b 3e 6b fe f8 3c 2d 38 aa 3d
       0.0815233 0.13632071 0.030394753 0.08311496
000010 74 af 47 3d 93 30 b8 3c a0 7b f2 bc 63 ec c7 bd
       0.04875131 0.0224841 -0.029599965 -0.09761884
000020 e1 df a2 bd 72 52 61 bd e7 9e 9f bd 92 4a 01 3d
       -0.07952858 -0.055010267 -0.0779398 0.031565256
000030 3e 69 95 3d 3d 9c 75 bc cb 6d d4 bd d4 f5 60 3e
       0.07295464 -0.014990863 -0.10372504 0.21968776
000040 ff 4b 1c 3e 93 f7 bc 3d 0a 48 65 bd 33 6d 00 3e
       0.15263365 0.092269085 -0.055976905 0.12541656
000050 6f 46 07 3e 33 30 f2 3d 36 19 b6 bc a0 57 43 3e
       0.13210462 0.118255995 -0.022228818 0.19076395
000060 d9 5d c0 bc c5 db d2 3d e8 79 c6 3d e8 29 43 3e
       -0.02348225 0.10295824 0.096912205 0.19058955
000070 ff 20 04 bc d9 7b 83 3c 6f d2 06 3c 33 d8 9f bd
       -0.0080645075 0.016050266 0.008228882 -0.078049086
000080 75 d5 37 bd e2 f7 9b bd 6d c8 47 bc 79 7f c5 3d
       -0.044881303 -0.07615639 -0.012193781 0.09643454
000090 79 f1 06 3e 75 41 96 3d f6 1f 87 bd b5 18 e7 3d
       0.13178052 0.07336704 -0.06597893 0.11284009
0000a0 59 00 02 3e 9c ac 2a 3c 06 eb c0 3d d6 66 b2 bd
       0.12695445 0.01041713 0.09419827 -0.08711021
0000b0 8a 92 09 3e 0e fd 32 3e 67 cc 89 bd b7 c8 e0 bc
       0.13434806 0.17479345 -0.0672844 -0.027439458
0000c0 3c e0 1b bc 58 aa f1 bc a4 d2 d2 3d 70 dd b1 3d
       -0.009513911 -0.029500172 0.10294083 0.08684814
0000d0 8c aa fa 3d 57 b8 9d 3d fb dc e4 3d d7 b3 c4 3d
       0.122395605 0.07701176 0.11174961 0.09604614
0000e0 34 ac 12 3e 5f 83 b9 3b d8 45 b6 bd c0 c0 c8 3d
       0.14323503 0.0056614126 -0.089000404 0.09802389
0000f0 4a a6 8c bc 69 5a b5 bd f0 0c c6 3d 90 b6 0a 3d
       -0.017169137 -0.08855135 0.096704364 0.03386551
000100 91 54 eb 3c 61 50 d3 bc 16 c1 3f 3c 6c fe 8c 3c
       0.028726848 -0.025795164 0.01170375 0.017211162
000110 d0 c1 e8 bd b6 7b 93 3c 62 10 d5 3c 78 54 82 bb
       -0.11365092 0.018003326 0.026008788 -0.0039773546
000120 c2 db c8 bb 28 e0 0d 3d 26 ec e6 bc 78 eb 5d 3e
       -0.006129713 0.0346376 -0.028188776 0.21671855
000130 07 c1 76 3c f7 2a 07 3e 8e 4a 2b bd 58 15 cc bb
       0.01506067 0.13199984 -0.041819148 -0.0062281303
000140 f3 e1 15 3e e3 e4 e5 3d 23 2f 25 3d 1d 56 00 3e
       0.14636974 0.11225297 0.040328156 0.1253285
000150 50 54 8d bd 28 a3 7c bb 34 95 c6 3b f0 27 2b ba
       -0.06900847 -0.0038549397 0.006060267 -0.00065290835
000160 9e c6 07 bd 72 b8 24 bd 87 92 e0 3b 45 d4 fa bc
       -0.0331484 -0.040214963 0.006853405 -0.030618796
000170 26 e3 ab 3d 49 9e ee bc 20 43 10 3c e3 c0 c7 3c
       0.083929345 -0.02912821 0.008805066 0.024383968
000180 3d ad de bd f2 fc a0 bd 72 f7 9a bc b6 c9 7f bd
       -0.10872886 -0.078607455 -0.01891682 -0.062448226
000190 e1 e8 bb 3d 5a 16 0a bd 8d 95 55 bb c3 ed 24 3e
       0.091752775 -0.033712722 -0.003259036 0.16106324
0001a0 47 02 1d 3e 1e ac 96 3d 17 e1 27 3e cf b9 14 bd
       0.153329 0.073570475 0.16394459 -0.036310013
0001b0 e0 a9 d9 3d e1 9b 01 3e db 5b 02 3e db c5 56 bd
       0.10628104 0.1265712 0.12730353 -0.052434783
0001c0 20 12 f7 3c d8 8e ad 3c 2e d7 ba 3d ff ef 7c 3b
       0.03016001 0.021186277 0.091230735 0.0038595197
0001d0 38 0c bb 3d ad a2 ea bc a1 9e a4 ba a2 91 8e 3c
       0.0913319 -0.028642023 -0.0012559482 0.017403428
0001e0 0c 2a a3 3d 98 5f 71 3d 20 75 b8 3d dc 78 18 be
       0.07967004 0.058929056 0.09006715 -0.14889854
0001f0 f9 9f c5 3d 6a 3d 07 be 75 55 ff 3d a6 7b d1 3d
       0.09649653 -0.13207021 0.124674715 0.10228662
000200 65 5e 08 bd 37 d0 8f 3d c8 2e 22 be cb 99 39 bd
       -0.033293147 0.07022136 -0.15838158 -0.045312684
000210 1e 3b c3 3c 7b c9 09 3e 59 a3 1e 3e d4 bf 0c bd
       0.0238319 0.13455765 0.15492 -0.03436263
000220 f2 d0 0d 3e 2c c9 f8 bd 9b 05 4e 3d b2 45 c3 3d
       0.13849238 -0.121477455 0.050298315 0.09534778
000230 11 59 34 3d d3 6e 32 3d d6 c8 d5 3d 30 d0 e4 bd
       0.044030253 0.04356272 0.10438697 -0.11172521
000240 53 61 d8 bd 67 47 b2 bc 25 8b c9 bd 74 29 43 be
       -0.10565438 -0.021762563 -0.09840993 -0.19058782
000250 cc f5 09 3e 2d 8c b0 3d 5c 8e ee 3d 23 5e cb 3d
       0.1347267 0.086204864 0.11648247 0.099300645
000260 dc c5 ad 3d b2 50 82 bc 8f ec c6 3d 0f d0 94 bd
       0.08485004 -0.01590762 0.09713089 -0.072662465
000270 95 96 2c be b1 01 e7 bb fb 94 76 bd 8f 8d d5 bd
       -0.16854317 -0.007049762 -0.060200673 -0.10427391
000280 f2 9b 2d 3e c1 fd 18 3d fc 92 03 3e 18 bf cc 3c
       0.1695402 0.037351374 0.12849039 0.024993464
000290 b2 ee c5 3c 7a 42 ba bd 8b ea 99 bd 18 89 7c bd
       0.02416167 -0.09094711 -0.07515439 -0.06165418
0002a0 b2 99 e0 bd 48 ee dd 3d d2 a7 b2 3d 22 71 08 be
       -0.10966815 0.10836464 0.087234154 -0.13324407
0002b0 63 34 92 3d b4 5a 20 be 42 c5 03 be 08 65 a7 bc
       0.07138898 -0.156596 -0.12868217 -0.020433918
0002c0 8b b2 bb bd 30 f4 0f 3e 7a e9 2c 3d 99 4f d1 bd
       -0.09164914 0.14057994 0.042214848 -0.1022026
0002d0 8f 2b 6e 3d 94 dc da bc 27 e8 91 3c 50 11 90 bc
       0.05814701 -0.026716508 0.017810894 -0.01758638
0002e0 c8 0f c2 bd 1f 3f c9 bd e2 fe b0 bd 6a ba b5 bd
       -0.09475666 -0.098264925 -0.08642365 -0.08873446
0002f0 c6 dc e1 3d 98 5b 4b bd 6a 6f 43 bd 87 19 24 3e
       0.11028437 -0.049647897 -0.047713675 0.16025363
000300 8d 01 e4 b9 3e 66 17 3e 31 d5 b3 bd d7 35 e1 3d
       -0.00043488704 0.14785096 -0.087808974 0.10996597
000310 1b 30 b3 3d 1c 37 7e bb e4 09 5f 3d 75 54 3a 3e
       0.0874941 -0.0038790172 0.05445279 0.1819628
000320 83 72 0b bd e9 38 a8 bd be ce bb 3d d7 a9 77 3e
       -0.034044754 -0.0821398 0.09170292 0.24185883
000330 41 2f cb bd 07 be 00 3e 1d 9e 10 3e 02 bc 15 3e
       -0.09921122 0.1257249 0.14122815 0.146225
000340 97 aa 24 3e 50 7b 0f 3e 8b 3f 85 bd 79 e2 a4 3d
       0.160807 0.14011884 -0.065062605 0.08051009
000350 de 8a 08 3e d3 30 11 3d 78 56 f3 3d 91 7e 98 3d
       0.13334224 0.035446953 0.11881727 0.074460156
000360 59 3e bc 3d 5c 93 90 bb a9 42 66 bd 64 42 f9 3d
       0.09191579 -0.004412098 -0.056215916 0.12170866
000370 19 0c 7e bd f2 f6 b2 3d 9c 33 29 bd c8 a2 c5 bc
       -0.062023256 0.08738507 -0.041308984 -0.024125472
000380 bc 4c 97 3d 30 c3 2a 3e 20 8d b6 3d 2d 28 bc 3d
       0.07387683 0.1667602 0.08913636 0.091873504
000390 72 c3 2f 3e 93 bd 05 3e 69 91 83 3d 8a 25 44 bc
       0.171644 0.13060598 0.06424219 -0.011971841
0003a0 23 fc 3f 3c 54 2b 9f 3d 84 6c 70 bd 5e 51 f5 3d
       0.011717829 0.07771936 -0.05869724 0.1197841
0003b0 8a 5f 46 3d bb ff 57 3d a2 76 6a 3d 86 f2 36 3d
       0.048430957 0.052734118 0.057242043 0.044664882

weight f4 [3, 12]
000000 2a 1e 4d be bd 59 4e 3e e5 14 54 3d 67 57 16 be
       -0.20031038 0.2015142 0.05177774 -0.14681779
000010 67 62 5c be 63 68 9a 3d 72 38 c2 bd 49 77 db bd
       -0.21521913 0.075394414 -0.09483422 -0.10716111
000020 b1 79 83 be 7d bd 1b 3e 19 6c 12 bd e1 14 96 be
       -0.2567878 0.15209003 -0.03574762 -0.29312804
000030 81 8e 03 be 4c 45 58 3e c0 e1 80 be 64 ff 26 3e
       -0.1284733 0.21120185 -0.25172234 0.16308361
000040 9f 1a 49 bd 35 c6 09 be 7d 34 42 bd de 35 cd 3c
       -0.049097653 -0.13454516 -0.047413338 0.0250501
000050 cc 10 2f be aa 29 ef 3d 7a b3 93 be 06 94 9d 3c
       -0.17096251 0.11677869 -0.28847867 0.019235622
000060 ad 8b a4 3d 32 01 e9 3d 80 05 24 3e a7 13 1d be
       0.080344535 0.11377181 0.16017723 -0.15339528
000070 60 59 6e be f6 05 c2 be 17 84 a8 be e0 73 88 3d
       -0.23276281 -0.37895173 -0.32913277 0.066627264
000080 60 8d f7 3d c8 b6 07 3e 04 9c 31 be 65 b5 1b 3e
       0.12087512 0.1325332 -0.17344671 0.15205915

bias f4 [3]
000000 68 d5 37 be f8 51 f9 bd 58 2d 58 bd
       -0.17952502 -0.121738374 -0.05277762
