models/paramsearch_0.0024131227541136437_0.4073356661126427_0.19379976857555054_100.pt (torch, 33166 bytes, 7 tensors)

weight_ih f4 [240, 6]
00000000: a097 b4bd bac3 dfbc ce8f 14bd b4ca a2bf
00000010: e3cc 9abf d7b3 3d3d 1914 d93d 4b88 033f
00000020: 786e 463e 44ed 50bf 5904 30bf 0541 933e
00000030: 7d38 af3c d311 68be c15b aabd b64b cbbf
00000040: c5b5 febe 56af 2cbe 38df 193e 8296 01bd
00000050: 3e8f c43d ccb8 3a3f 4872 c03e 763e bdbd
00000060: ffb9 0c3e 2d19 d33e 5b41 89be 5449 d6be
00000070: 841e 53bf cf07 043e a8dd 573e eb92 9f3e
00000080: b75a 3f3e 7402 00bf da09 cabe e547 ba3e
00000090: 5e2a 4f3c baad 803e 53de 71bd f9e4 adbf
000000a0: 194f 3dbf 71db 31be 4496 07bd dd2d 8c3e
000000b0: ee2f 113e 156d 693f a1ec 3f3e 299f 473e
000000c0: a6a6 a13e 14eb a1be c6ef 12bd a29f c0be
000000d0: 09b7 36be d036 3a3e 7b19 be3d a175 e0be
000000e0: 75bb 033e c158 213f be72 e63e f1d8 0b3e
000000f0: 67be 583d 7aaa 58be f816 ab3d 5f50 983f
00000100: ad3e ff3e 41bf 623e 7fd3 fa3c 6b0a 2bbd
00000110: 0200 ab3d 048b af3f 2529 fc3e 7df0 c43d
00000120: 6a7a 8a3b c0fe 51bd 63b0 e5be 452b 7abf
00000130: 13c0 25bf e2eb ea3d 9e5f c63d bac5 9e3e
00000140: 9cad 48be e6cd d13e f86a c73e d429 363e
00000150: 3169 193e c3ab bc3e 4111 37be 97ce 4abf
00000160: 8a61 36bf 9eaa b03b b047 0d3e 3106 073f
00000170: 1ed1 15bf 288f 92bf 4e2c 0fbf dca5 7abe
00000180: 4e19 753c 5758 873d 4f31 95bd 0fab babf
00000190: 4bb1 91bf 3ae0 92bd 86ce 873e e69a 153e
000001a0: 5e79 c3bd 5380 17bf b231 afbe 5034 ff3e
000001b0: 665a ce3e b28d 573f 1d8c 5a3e edd0 5b3f
000001c0: fa91 36be 8c45 a13e 729b 32be df0c 8abe
000001d0: ecc2 a73d 8f72 08bf f26c 073f 531f 17be
000001e0: 1a90 2bbe 52f4 c0be 5b8c 5ebc bdcc a23e
000001f0: 7ac1 9dbd 3f38 8abd cb29 c23e 4c9a f93d
00000200: c546 76be 481a 2abe d7d8 af3c 4a12 be3d
00000210: 4d63 f9bd 68e2 e2bd 1d64 03be 6ba6 903f
00000220: cfe5 633e a232 fbbd 3793 8abd 42d8 dbbc
00000230: af3a c23d 606b 39bf 9655 9a3e 0408 23bd
00000240: be0c 9f3e 7c24 e2be 681c febe 5811 4ebf
00000250: fe88 4dbb 4a96 853d 8114 08be efda bd3e
00000260: 9cb5 23be d609 4b3f 57d0 403e 6ab6 eb3c
00000270: b875 643e 5bd9 b83e 3363 c3bd 7e20 d6bf
00000280: 5a8c 29bf 57ca 563e d71e cd3d 92de 6fbd
00000290: ed44 b9bd d4e3 a6bf f3d2 22bf a7eb 01bc
000002a0: 7cd1 1bbe 087d f13e 7539 983d a313 033e
000002b0: c06d f3be 1851 78bd c220 263e ebca a83e
000002c0: 15aa ccbe 6ed2 adbf c956 f1be bbde 363e
000002d0: 714e 73bd ed6a 9f3d e791 3f3d 3392 043f
000002e0: 2d46 9ebe 7659 533b fdfc 96bd 2218 3c3d
000002f0: 3c81 30bd 55a2 b8bf b0b2 27bf e5b1 73be
00000300: d644 1c3e 4055 8a3f b66d 373c 9a8e a5be
00000310: 1c1a 26bf 145b 61bd fd1b 2b3d 46b3 a93d
00000320: a393 21bd f5ae abbf 9716 4abf adb1 0dbe
00000330: 8a85 6d3d d6ac e7bc b893 86bd 005e 663f
00000340: efbe b73e 52a3 8fbb 633f 853e 13d2 e4be
00000350: a3e1 c83e 4d1b 0abf 4d7e 983e 9478 323e
00000360: 5100 e83d d747 b63e ce2b e6bd ee76 bfbf
00000370: 2121 3ebf e8ce 813e 8b06 6b3d cb95 b93e
00000380: 6f94 7c3d ad54 b2bf 3a2f 73bf 3cff d23d
00000390: 1adc d83e c8b1 ed3d 5476 34be 845f 57bf
000003a0: b9b1 bebe 324e a33e 1321 573e 238d 983e
000003b0: 1f95 0cbe 7933 b23e 13f2 e33e a198 803e
000003c0: 3e69 33be 2725 c3be c766 b5bd ad64 0cbd
000003d0: b2ad ef3d 0a7a e1bd eebe d2bd 8778 73bd
000003e0: f602 313e 0c04 b6be 364e 62be 54e3 9cbe
000003f0: 2a2d afbd 1678 8d3d b67d 25bd 97e9 0f3d
-0.08817983 -0.02731501 -0.036269955 -1.271811 -1.2093776 0.046314087 0.105995364 0.5137984
0.19378078 -0.8161204 -0.68756634 0.28760543 0.02138924 -0.2266305 -0.08318282 -1.588248
-0.49748054 -0.1686376 0.15026557 -0.031637676 0.09597634 0.7293823 0.3758719 -0.09240429
0.13742827 0.41230145 -0.26807675 -0.4185282 -0.8246844 0.12893604 0.21080649 0.31166777
0.18686949 -0.50003743 -0.3946064 0.36382976 0.0126443785 0.25132543 -0.059049916 -1.3585502
-0.7394882 -0.17368867 -0.03310229 0.2737874 0.1417844 0.9118207 0.1874261 0.19494309
0.31572455 -0.31624663 -0.035873197 -0.3762179 -0.1784326 0.18184972 0.09282204 -0.43839744
0.12864478 0.6302605 0.45009416 0.13656975 0.052915957 -0.21158782 0.0835399 1.1899527
0.49852505 0.2214327 0.030618427 -0.041757982 0.08349611 1.3714299 0.4925014 0.09616182
0.0042260187 -0.05126834 -0.44861135 -0.97722274 -0.64746207 0.11470772 0.09686206 0.31010228
-0.19597477 0.409774 0.38948798 0.17789394 0.14981534 0.36849794 -0.17877676 -0.7922148
-0.7124258 0.005391433 0.13796878 0.5274382 -0.5852221 -1.1449938 -0.5592698 -0.24477333
0.014959646 0.06608646 -0.072847955 -1.4583453 -1.138223 -0.07171674 0.26524752 0.1460987
-0.09544633 -0.5918018 -0.34217602 0.498446 0.40303344 0.84200585 0.21342511 0.8586567
-0.17829123 0.31498373 -0.1744211 -0.26962945 0.08191475 -0.532998 0.5290061 -0.14758043
-0.16754189 -0.37686402 -0.013583268 0.31796828 -0.07702918 -0.06749009 0.3792251 0.12187633
-0.24050434 -0.16611588 0.021465702 0.09280832 -0.12177143 -0.1107834 -0.12831159 1.1300787
0.22255634 -0.12265517 -0.0676636 -0.026836518 0.09483849 -0.72429466 0.30143422 -0.039802566
0.3106441 -0.4416846 -0.49631047 -0.80495214 -0.0031362171 0.06522806 -0.13289072 0.37081096
-0.15987247 0.79311883 0.18829475 0.028773505 0.22310531 0.3610333 -0.09540405 -1.6728666
-0.66229784 0.20975624 0.10015648 -0.05856187 -0.0904635 -1.3038278 -0.6360313 -0.007929719
-0.1521663 0.47165704 0.07432834 0.1280046 -0.4754467 -0.060624212 0.16223434 0.32967314
-0.39973512 -1.3579843 -0.47136524 0.17858402 -0.05940098 0.07784066 0.046770003 0.5178558
-0.30912915 0.0032249368 -0.073724724 0.045921452 -0.043091998 -1.442454 -0.6550703 -0.2379833
0.15260634 1.0807266 0.011195591 -0.3233536 -0.6488359 -0.0550185 0.04177474 0.08286147
-0.039447438 -1.3412768 -0.7894072 -0.13837309 0.05798868 -0.028280657 -0.06571144 0.8998718
0.35887858 -0.004383483 0.26024923 -0.44691524 0.39234647 -0.5394791 0.2978386 0.1742881
0.11328185 0.35601684 -0.11238824 -1.495817 -0.742693 0.2535317 0.057379287 0.36247095
0.061664995 -1.3932091 -0.94993937 0.10302588 0.42355424 0.11606175 -0.17623264 -0.8413012
-0.37244967 0.31895596 0.2100871 0.2979518 -0.1372876 0.34804896 0.44520625 0.25116447
-0.17520615 -0.38114282 -0.08857494 -0.0342757 0.117030516 -0.11009605 -0.10290323 -0.059441116
0.17286286 -0.35549963 -0.22100148 -0.30642188 -0.08553536 0.0690767 -0.04040309 0.035134878

weight_hh f4 [240, 12]
00000000: 14ae 24be bb14 243e 11e7 fabd 5e55 3e3e
00000010: 3553 143e ca4a b33d 5eba cb3e 8fcb 6cbc
00000020: 16cd b2bd 5b4e 943c 61ba 883e 1215 7ebd
00000030: bde5 52be 46f4 553e 502b b2be c0c6 593e
00000040: 6315 033e 2bdd 69be bf16 213e ba1e 5fbc
00000050: f897 83bc f7ce efbd 583a 2e3e 20cf 8cbd
00000060: 27e8 393e 659b 5c3d 85c5 b8be 3b71 6a3d
00000070: fc04 373d e3a4 4ebe da67 fd3d a023 8abd
00000080: 2918 6a3d af3b ee3e 976a 62bc e599 b63e
00000090: 7b20 48be f0b9 0abc b166 b5be 474b f53d
000000a0: 8a01 6c3d 57e5 2c3e 78f0 87bd 5f57 ac3c
000000b0: 0198 4abe d5c5 413d 1526 cabd dd16 a5bc
000000c0: 658d 683d 3b6b 853e 426b 98be 48b5 e13d
000000d0: 66f9 b6be a570 33be b357 9abe 7e71 6abd
000000e0: 6a44 39be b8e0 033e abeb 2cbe 4bc3 ab3d
000000f0: c0e9 52be f4a5 0d3e 84cf 81be d398 923e
00000100: 736b 9ebe 893a 9dba 1cd4 82be b4d2 88be
00000110: 2d2b a3be fc4b 9d3d f9ca 79bd 0cdc c3be
00000120: 8b60 d03d 33a8 51be 29f4 1d3e 96f7 05be
00000130: ca89 ee3d a0d7 1a3e 470c a6bd 84f2 dd3d
00000140: d75f 84bd fac3 983c 2071 073e e311 4abc
00000150: 8736 1ebe 47a2 ae3d 64c9 b5be 4cd6 623e
00000160: 4516 1e3e 6007 02be ec83 273d 656a 3fbd
00000170: 825a 53bc 192b cabd c0a4 e83d 00ce 9f3d
00000180: 7314 743b 91dc 1a3e 9099 e8bd 2dca 5a3e
00000190: ef54 8dbe 67b8 8cbc ffc7 bbbe a299 c33d
000001a0: 0bbd aebe 4462 43bd 6bbb 0fbe b1be d8bd
000001b0: 8950 3d3e fd3b dfbc 1b79 5d3e 4a42 c7bc
000001c0: d5bd 1c3e d68e 583e 68ba e33d 6bfc d73d
000001d0: 6acd ac3d a8b8 313e 198a a63d f3ac 9c3d
000001e0: de2f 16be 90b6 6dbe 3384 7abd a226 7bbb
000001f0: f435 543e d64f 133e 6920 a8bd 2a67 87bd
00000200: 6df7 05bd 631a d9bc cb14 d03d 8a4b 94bb
00000210: 2b1e f8bd 1812 c03d dafe c2bd fa48 ff3d
00000220: 2761 1b3d 54fe 2bbe 2353 f1bd 1fac c3bd
00000230: 2511 dfbd 0b4d b1bd e303 49be ae12 1abe
00000240: daeb 21bd 7907 f33d 4068 95be 5a88 1d3e
00000250: 568d a6bc 7013 4abe 3f75 15be 8d99 21bb
00000260: abb7 38be fcdd af3e e23e 39bd dbd4 2e3e
00000270: 12ed 72bd c3fd 4d3e 5e2e b9bd 592b 443e
00000280: 9101 9d3c e7e7 2cbd 1c30 56bb 0753 7e3d
00000290: f8f3 66bd f96d 6a3e 0223 d23d 07e9 163d
000002a0: 67d4 16be 2a03 613e aa29 39be 2ef5 1d3e
000002b0: acfd a3be e3c0 81be 5f50 27bd 4a7b 993d
000002c0: 2c8d cbbc 339a 993d 309b abbd e16f 87bd
000002d0: 1a2f fc3e f780 383f 5cda e2be cb74 103f
000002e0: 9762 98bf 7122 4abf 4fe5 e6be 5905 c43e
000002f0: d6fc 403f 4cbe 513f 63fa 37be a67c 07bf
00000300: cce7 77bc 20c0 afb8 1523 5ebe da56 9e3d
00000310: b8b7 703c 832c da3d 5c95 bd3d 2f09 153c
00000320: 1396 b4bd fd20 1ebe 70ec b03e 2cd0 ccbd
00000330: 55a5 b4be 5a02 903e 499e b8be 3dde be3e
00000340: 2e3f e8be c56c a7be 502f a8be 201c 18be
00000350: c7cc bdbe d52f 4c3d c39f c9bc 9d8b fbbe
00000360: b075 6abe 076c 313f e890 efbe 8380 b13e
00000370: a192 d0be c12f 02bf 2d2f cf3c 2fc9 4ebe
00000380: e851 88be dbd6 b63e ea9b e03e 70a9 05bf
00000390: 8b42 423e 2baa 89be 67a4 693e 93e3 483d
000003a0: e3e0 13bd fac3 7d3e c222 003e 225c 86bd
000003b0: 89e1 d6bc 3cb6 13be 4fe5 8abe 4da0 203e
000003c0: 490b 1c3e 3f52 0f3e ad3c a8bd 8869 0b3d
000003d0: ea58 633d 0be1 d83c c4cd b2bd 2dbd 983d
000003e0: da71 d73e 3fee 5e3e d470 84bd cd91 183d
000003f0: 9454 00be 77b8 783e eeb4 0fbf 2016 b73e
-0.1608203 0.16023533 -0.12251104 0.18587252 0.14484866 0.08754499 0.39790624 -0.014452829
-0.08730523 0.018103769 0.26704696 -0.062031813 -0.2059545 0.20893964 -0.3479867 0.21267223
0.12801127 -0.22838275 0.15731333 -0.013618166 -0.016063675 -0.11709397 0.17014444 -0.068754435
0.18154965 0.053859133 -0.36088195 0.05723689 0.044682488 -0.20180087 0.12373324 -0.06745076
0.057151947 0.4652991 -0.013819358 0.35664287 -0.1954364 -0.0084671825 -0.3542991 0.11977249
0.057618655 0.16884361 -0.06637663 0.021037756 -0.19784547 0.047307808 -0.09870545 -0.020152504
0.05677547 0.26058373 -0.2976933 0.11020905 -0.3573715 -0.17523439 -0.30145034 -0.05723714
-0.18092504 0.12878692 -0.16886775 0.083868586 -0.20596981 0.13832837 -0.25353634 0.2863222
-0.30941352 -0.0011995594 -0.25552452 -0.26723254 -0.31868878 0.076805085 -0.060984585 -0.3825382
0.10174664 -0.20474319 0.15425171 -0.13082728 0.11647375 0.15121317 -0.081078105 0.10837272
-0.064635925 0.018648136 0.13226748 -0.012333366 -0.15450488 0.08527046 -0.3550521 0.2215206
0.15438183 -0.12698126 0.040897295 -0.046732325 -0.012899997 -0.098715015 0.113595486 0.07802963
0.0037243634 0.15123202 -0.11357415 0.21366186 -0.27603862 -0.017177774 -0.36676022 0.095507875
-0.34128603 -0.047701135 -0.14036338 -0.105832465 0.18487753 -0.027250284 0.2162823 -0.024323601
0.1530679 0.21148238 0.111195385 0.10546192 0.08437617 0.17355597 0.08131809 0.07650175
-0.14666697 -0.23214173 -0.06116123 -0.0038322587 0.20723706 0.14385924 -0.08209307 -0.06611474
-0.032706667 -0.02650184 0.10160216 -0.0045256065 -0.12115129 0.09378451 -0.09521265 0.12465091
0.03793445 -0.16796237 -0.11783435 -0.09554314 -0.10891942 -0.08657273 -0.19630389 -0.15046188
-0.039531566 0.1186666 -0.291811 0.15384045 -0.020331066 -0.19733977 -0.14595507 -0.0024658174
-0.18038814 0.34349048 -0.045225985 0.17073385 -0.05930812 0.20116334 -0.09042047 0.19157161
0.019165786 -0.042213347 -0.0032682484 0.0620909 -0.05638501 0.22893514 0.102605835 0.036843326
-0.14729463 0.21973863 -0.180823 0.1542556 -0.32029474 -0.25342473 -0.040848132 0.07494219
-0.02484759 0.07500114 -0.08379209 -0.06613136 0.49254686 0.72071785 -0.4430722 0.5642821
-1.1905087 -0.78958803 -0.45096824 0.3828533 0.753858 0.81930995 -0.17966609 -0.52924573
-0.015130948 -8.380436e-05 -0.2169307 0.07731409 0.014692239 0.10653021 0.09257004 0.009096428
-0.08817687 -0.15442272 0.34555387 -0.10000643 -0.35282388 0.28126794 -0.36058262 0.3727893
-0.45360702 -0.32700172 -0.32848597 -0.14854479 -0.37070295 0.049850304 -0.024612313 -0.49129954
-0.22896457 0.6930546 -0.46790242 0.3466836 -0.4073687 -0.50854117 0.02529105 -0.20193933
-0.2662499 0.35710797 0.43868953 -0.52211666 0.18970697 -0.2688764 0.22816621 0.049045157
-0.03610314 0.2478179 0.12513259 -0.06560542 -0.02623059 -0.14424986 -0.27128074 0.1568615
0.1523868 0.13996218 -0.08214698 0.03403619 0.055504717 0.026474496 -0.08730653 0.074579574
0.4207905 0.21770571 -0.06466833 0.03724842 -0.12532264 0.24289118 -0.5613545 0.35759068

proj f4 [12, 60]
00000000: 4314 533d 3d8d 3cbc fa8b c33d c9a5 b0bd
00000010: b697 cebd ad25 033b e731 c53d d2db 253e
00000020: 9a5e a1bd 4396 b7bd 63b0 7a3d 8641 e93d
00000030: 835a 88bd 35e6 e43d fc30 063e 703b 92bd
00000040: ff43 b2bd 4467 293e db55 0539 a8dc 28be
00000050: e41b f0bc ef0d 613e b35a 4cbd fe46 b0bd
00000060: fdc4 7a3c 954a 05bd f3a3 d13d cb4a 28be
00000070: e75d 8dbe e9a8 86bc a536 5bbd 3973 773d
00000080: f6d4 923e 2cca 97bd e2a0 063e 0fd9 b9bd
00000090: 8ff8 d93d 4890 a13d 2476 3cbd bf01 3cbc
000000a0: 7117 7c3d 5fd6 e2bd eda7 00be 7185 97bd
000000b0: 71ef 383d 1407 7dbd 0ede c53d f7c0 5dbe
000000c0: 481c 973d 8fbc fabd 2bbf 1a3e 2035 e9bc
000000d0: ae61 67bd c98b 863e 5a1e a23e 3886 c3bd
000000e0: 12b7 383e 76f8 203e fd30 2abe a4e8 83be
000000f0: 6355 3bbd 1834 a1be aff8 3dbe 9739 8bbd
00000100: 8018 cbbe eebb 69be 2ed1 f43d d93b f1bc
00000110: 7f50 d93d c1a0 93bd ad1a 153e d44e debb
00000120: 88c2 14be 5d6d 2cbc 3156 9f3e fd13 debd
00000130: 69eb ba3d d134 23be 49dd 623e 5ef2 6b3d
00000140: f4cd 113d 45bb 673e 476d 103d 8911 a43c
00000150: ff16 c53d 8e0e 3f3c 7fac b63e 3265 bfbd
00000160: ab0d 1fbe a32c 8cbe 1db2 e4bc 1ad6 10bc
00000170: 5585 c03e 8a70 c53d edd1 02bd 2b0c 843e
00000180: 09c3 813e 0625 8fbe 0651 96be 4001 7ebd
00000190: 939d 25be 5b41 873d e6d8 613e 5e5b ad3e
000001a0: 5ad5 e8bb b0ce 5d3e 5e55 f6bd dc14 a13e
000001b0: 7853 08be 17c8 9abc 4074 c6bc a5ed a23d
000001c0: 7e33 533d dfe7 fe3d 446b c23e 8bbe a8bc
000001d0: 0ef2 c63c 29b1 59be 19e0 10be c65e 02be
000001e0: 151d a8be 16b3 a63e 1edd 66be 9cb7 c33d
000001f0: 32ce 1abb c132 023e 07df 55bd 6a88 3ebe
00000200: 80b2 b73d 0908 813c 5c41 86bd 973f 3ebd
00000210: 964c 5d3e 3762 16be 0bbc 36be 3fa8 863e
00000220: 7ea0 84be c287 573e 2619 6ebe ff90 3c3d
00000230: 37cf e0ba 9f32 ef3c eae5 28be c4ae 103d
00000240: cfdd 3d3e 9216 143e f150 b53c 1dbc 4a3e
00000250: 2648 bc3d ba2b 443d 892b 25bd cae0 f43d
00000260: 52d6 f7be da3e b6bd fc16 b9bd 1679 50bd
00000270: 2317 44be 39c0 c03e 04f4 9c3d a525 9cbd
00000280: 7ddc 3a3d 06fe 253d 7cda c2bc 9f7a 29be
00000290: 48d3 ddbd 3115 95bd babe 1abd 11b9 16be
000002a0: ccdd 193e 1ed1 d2bc 4ad4 4abd c5ef a9be
000002b0: 3930 bd3d 147c 99be da69 853d f733 42be
000002c0: e706 8a3e 8481 7e3c d75d 973d 7c2d 973d
000002d0: bfce 21bd 04b1 9b3d aa30 a5bd ef5d c73d
000002e0: f39b b53c 23bb a9bd 75df 6d3c 3ba9 04be
000002f0: fc67 893e a153 7fbc 3cff 133d 4a31 173d
00000300: 78a6 a03d cca4 413d 503c 8c3b bacb 95be
00000310: e79f 273c 28dc 44be 6fda 6e3d 6712 063e
00000320: 292b 17bd 71c6 03be c36e 97bd 3d7d dd3d
00000330: d2e4 cfbc 4d76 133e 5db1 9bbc 9d22 723e
00000340: b0ef 1dbb 3425 27be 5e17 cbbb 9bb6 d8bd
00000350: eeb3 d23d d473 15bd 2914 293e 283a 60bc
00000360: 1c24 ab3c 6630 2a3e 857a 42be c58f 833d
00000370: 4ca5 f03c b328 e03d e81d 0a3d 5b4f 903d
00000380: 1e94 52be 4b6a 83bd b4b0 42be c357 8f3e
00000390: 6385 2abe 50ff bebd 3ced f83d 6207 58bd
000003a0: c7db c33c fae9 c03c 0da5 5e3e 80d1 c43c
000003b0: 939c 353e 4006 1fbe c38f 96bd a4a7 c7bc
000003c0: 812a febd 5ceb 0d3e f915 18be 6626 633e
000003d0: 05fc 5b3e 391d 5d3e 8b7b 7ebe bfe7 eebd
000003e0: 71e2 ed3d 95bc b43d 14b4 12bd e8a1 39bc
000003f0: e964 5f3e 09b0 61bd 6543 e0bb e1ef 563e
0.051532995 -0.011508283 0.09548183 -0.08625371 -0.1008753 0.002001147 0.09628659 0.16197136
-0.07879372 -0.08964207 0.06120337 0.11389451 -0.06657889 0.11176721 0.13104624 -0.07140243
-0.087043755 0.16543299 0.00012715852 -0.16490424 -0.029310174 0.21977971 -0.049891185 -0.08607291
0.015305755 -0.03254183 0.10236349 -0.16434781 -0.27610704 -0.016437965 -0.05351891 0.06041262
0.286781 -0.07411608 0.1314731 -0.09074604 0.10643112 0.078888476 -0.046011105 -0.011475026
0.061545793 -0.11076044 -0.12564059 -0.07398499 0.045150224 -0.06177433 0.09661494 -0.21655641
0.07378441 -0.12242996 0.15111987 -0.028467715 -0.05648964 0.26278523 0.3166378 -0.095470846
0.18038586 0.1571978 -0.1662025 -0.25763428 -0.045735728 -0.31485057 -0.18551897 -0.06798094
-0.3966713 -0.22825596 0.1195396 -0.029447483 0.106110565 -0.07208396 0.14560957 -0.0067842994
-0.14527333 -0.010524121 0.31120446 -0.10843656 0.09126932 -0.15938117 0.22154726 0.057604186
0.035596803 0.22630031 0.035260465 0.020027893 0.09623527 0.011661185 0.3567848 -0.09345473
-0.15532558 -0.27377805 -0.027916962 -0.008840108 0.37601724 0.09640606 -0.031938482 0.25790533
0.25344113 -0.27957934 -0.2935869 -0.06201291 -0.16173391 0.066042624 0.22055396 0.3385877
-0.0071055116 0.21660876 -0.12028001 0.31461227 -0.13313091 -0.018894238 -0.024225354 0.07955483
0.05156278 0.1244657 0.37972462 -0.02059867 0.024285343 -0.21258987 -0.14147986 -0.12731466
-0.32834688 0.32558507 -0.22545287 0.09556505 -0.0023621437 0.12714674 -0.05221465 -0.18606725
0.08969593 0.015750902 -0.06555435 -0.046447363 0.21611246 -0.14685903 -0.1784517 0.26300237
-0.25903696 0.21047881 -0.23251781 0.046036717 -0.0017151599 0.029198943 -0.16493955 0.03532292
0.18541645 0.14461735 0.022133322 0.19798322 0.09193449 0.047893263 -0.04032472 0.119569376
-0.484057 -0.08898707 -0.09037587 -0.050896727 -0.19149451 0.37646654 0.0766373 -0.076243676
0.04562043 0.04052546 -0.023785822 -0.16550682 -0.10831314 -0.072794326 -0.037779547 -0.14719035
0.15026015 -0.02573448 -0.04951886 -0.33190742 0.09237713 -0.29977477 0.0651433 -0.18965136
0.2695839 0.015533809 0.073909454 0.07381722 -0.03950381 0.076021224 -0.080659226 0.09734713
0.022169089 -0.082876466 0.014518608 -0.12955181 0.26837146 -0.0155839035 0.036132082 0.03691224
0.078442514 0.047276303 0.0042796507 -0.29256994 0.010230995 -0.19224608 0.058313783 0.13092957
-0.036906395 -0.12868668 -0.07394173 0.10814903 -0.025377665 0.14400597 -0.019005472 0.23646016
-0.0024099164 -0.16322786 -0.006197854 -0.10581704 0.10288225 -0.036487415 0.16511597 -0.0136857405
0.020891242 0.16620025 -0.1899205 0.06423906 0.029375695 0.10945263 0.033719927 0.07046386
-0.20564315 -0.06416758 -0.1901272 0.27996644 -0.16652445 -0.09326041 0.12154624 -0.052741416
0.023908509 0.023549069 0.2174265 0.024025679 0.1773551 -0.15529728 -0.07351639 -0.02437193
-0.12410451 0.13859314 -0.14852132 0.22182617 0.21482857 0.21593179 -0.24851815 -0.11665296
0.11615456 0.08825032 -0.035816267 -0.011330105 0.21815838 -0.05509952 -0.0068439716 0.20989944

bias_ih f4 [240]
00000000: 9a5c 893c 6501 933e 2742 313d bd04 0abd
00000010: c63b 3bbd b424 8c3d a9a5 ea3d e4d0 f5bc
00000020: 93ec 87bc 12ad 5f3e 1556 943e e101 d7bc
00000030: 7e73 74bd 3658 383e 3fd8 0cbc 2729 d0bc
00000040: 6682 843d ea96 903e 60c7 e53e 4697 843c
00000050: 50fd 94bb ae42 e13d a4b0 083d b770 f73d
00000060: 34bc 533d 92ae f13b 1eff ae3d b0aa a23d
00000070: 5590 12be 9295 713e 8880 12bc 0fa1 8dbd
00000080: cb6a ae3e ae4a e83d f411 8e3d 5f29 613e
00000090: ffdd d23d 4d4f 353e e5b1 c9bc 8632 013d
000000a0: fc66 a8bb dfab 863d f773 d53d dd24 473e
000000b0: b92d 96be 18e9 0f3e a44d 3f3e d3af 7dbd
000000c0: eac5 43bd 0256 f2bc 0948 b4bd 710b 253e
000000d0: 5aaf 73bd 8e48 ea3d 24be bb3e 808e 673e
000000e0: 144f 50bc 6578 923d d2a7 9b3c 08eb a43e
000000f0: b753 a43d f317 683e a75c bebd 3aac 393e
00000100: e58f 8a3d 515f 6a3e 493f 85bd 295a 203d
00000110: dae0 bbbd 8936 983d 5c94 383d 93be 1d3d
00000120: 9ec1 93bd 7d34 a53b 2f92 6d3d 4ff5 df3d
00000130: df9e 5a3e f24d ba3e e84a 2e3e cc5b 783d
00000140: 202d a73d 9044 703e 7856 b3bd bd1f 583e
00000150: 4dd3 3e3e 5add c73d da68 fabc 26c1 1bbe
00000160: 692e 40be cfbf ac3c 7aa3 24bd 6864 c3bb
00000170: faf7 813d d642 39bd af97 573e 0ce9 7c3e
00000180: 9195 803d e520 053e 2d69 01bd b07d a93d
00000190: 2830 68bd 33ab dcbb 4b93 15bd b7f7 693a
000001a0: 0f6d da3d d9c1 22be 9b2d ce3d 066c c53d
000001b0: c42f 0c3e fba6 e43c 5846 f5bd a3cc 403c
000001c0: b4eb 8ebd e650 ab3e 6e3f c93e 30e0 373e
000001d0: 4d85 783e 76ce f13c fd21 1e3f e6b3 773e
000001e0: 8745 a23d 0854 c2bd 5492 7c3d 682a c1bd
000001f0: 5e14 2a3d 8946 4c3d 9147 193e 823d 973d
00000200: 6f70 353d cad2 b23d e424 16be b640 9b3c
00000210: a788 9ebc 2d0c 33be 7476 b7bc fa6c cd3d
00000220: 97f3 1f3e a6a9 ddbd 6526 903d fac9 683d
00000230: 8482 e43d 9c82 3c3c f321 cdbd 70fa ad3b
00000240: 778c c4bd 82bc c3bd 5e54 dd3c 008f a5bd
00000250: 6d04 113c 5bf7 92bc 3d84 743d e562 10be
00000260: 3002 fe3d d2a0 063e f715 813c a29f 073e
00000270: ab58 2f3e f331 f3bd 7e68 923d 57bb e23d
00000280: 639b fdbd fe2e 233e b247 67bc 74ec ba3c
00000290: 8724 8c3d 5cd6 983d c8ad ddbd df8e a13d
000002a0: c5d2 79bc 5768 2ebd 7483 fabd 91db e2bc
000002b0: abcd cc3d b840 dbbb 7f0c 13bd 8867 133e
000002c0: ddc7 ffbc 49b0 b1bd 7540 cf3d 397a 473d
000002d0: e567 8c3d 531e 093e 1ee7 6ebc 08ca 1cbd
000002e0: 86b7 403d fc9a f5bd 31b7 01be ec45 cb3d
000002f0: 88fa 123e b3c0 2e3e 5ccb 843c fcf4 00be
00000300: 5b39 9ebd aa37 043d c280 2c3e f914 babc
00000310: 7dc4 763d 59b8 0f3e 5c3d dc3e 002f 8dbc
00000320: 9151 15be b12f 003e af2f 2bbe 790e 0fbd
00000330: 2e57 333e 40ca b63d 0e51 013e 6e4d 3c3d
00000340: a86a d9bc 0f23 033e c1d8 3bbe 7d29 e2bd
00000350: d66d 9a3e cd56 843d dfd3 8d3d fc72 8c3e
00000360: de57 1c3e e8c4 293e 86b0 443d cf90 b03c
00000370: ac1d 003e 51b5 d93d 2527 27bd 8766 2d3e
00000380: 3d2b 8dbd 5555 bfbd 9ee2 913c a725 d23c
00000390: e1e7 e43d 1e54 cc3d d58c fa3d 756b 4d3e
000003a0: dd87 a43d 66c0 4f3e 9efb c13e 89f8 4a3e
000003b0: 74cc b73d 7ff4 9fbd d278 953e 73db a93e
0.016767789 0.28712 0.04327598 -0.033695925 -0.0457113 0.06842938 0.114573784 -0.030006833
-0.0165923 0.21843365 0.28971925 -0.026246013 -0.059680454 0.180024 -0.008596479 -0.025410248
0.06470184 0.28240138 0.44878674 0.016185414 -0.0045467988 0.10999046 0.033371583 0.120820455
0.051693156 0.0073755467 0.085447535 0.07942712 -0.14312871 0.23592213 -0.008941777 -0.06915485
0.34065852 0.11342369 0.06937018 0.21988438 0.10296249 0.17706032 -0.02462096 0.031542324
-0.00513923 0.065757506 0.10422509 0.19447656 -0.2933176 0.14053762 0.18681961 -0.061935257
-0.047796167 -0.029582027 -0.08802802 0.16117646 -0.0594934 0.1143962 0.36668503 0.22612953
-0.012714166 0.0715187 0.019000921 0.32210565 0.0802378 0.22665386 -0.09295016 0.18132105
0.06765727 0.22887923 -0.06506211 0.039148483 -0.091737464 0.07432277 0.04506336 0.038511824
-0.07214664 0.0050416575 0.05800074 0.10935461 0.21349667 0.36387593 0.17020762 0.06063442
0.08162904 0.23463655 -0.08756727 0.21105857 0.18635292 0.09759016 -0.030567575 -0.15210399
-0.18767704 0.021087555 -0.040194966 -0.005962897 0.06346126 -0.045229755 0.21053956 0.24698275
0.062785275 0.1300083 -0.031594444 0.08275926 -0.05668655 -0.0067342757 -0.036517423 0.0008925157
0.106653325 -0.1589426 0.10067292 0.096397445 0.13690096 0.027911654 -0.11976308 0.011767539
-0.069785506 0.33460158 0.39306206 0.17956614 0.242696 0.029517394 0.6177061 0.2418972
0.079234175 -0.09488684 0.061662987 -0.094319165 0.04152333 0.049871955 0.14968707 0.073847786
0.04429668 0.08731611 -0.1466251 0.018951755 -0.01935227 -0.17485113 -0.02239535 0.10030551
0.15620266 -0.108233735 0.07038573 0.056833245 0.111577064 0.011505749 -0.10016241 0.0053093955
-0.09597104 -0.095574394 0.027017768 -0.08083916 0.008851153 -0.017940214 0.059696425 -0.14100225
0.12402761 0.13147286 0.015757544 0.13244489 0.17123668 -0.118747614 0.071488366 0.110708885
-0.12383153 0.15935895 -0.014116215 0.022817828 0.068429045 0.07462761 -0.10824162 0.078885786
-0.015248005 -0.042579975 -0.12232104 -0.027692588 0.100001656 -0.0066910647 -0.03590059 0.14394963
-0.031223232 -0.08676202 0.10119716 0.048700545 0.06855754 0.13390474 -0.01458147 -0.03827861
0.04705002 -0.119924515 -0.12667538 0.09925446 0.14353383 0.17065696 0.01621025 -0.12593454
-0.077257834 0.032279648 0.16845992 -0.022715079 0.06024598 0.14035167 0.43015563 -0.017234325
-0.14581896 0.12518193 -0.16717409 -0.03492591 0.17513725 0.08925295 0.12628576 0.04597228
-0.026540115 0.12806343 -0.18344404 -0.110430695 0.30161923 0.064618684 0.06925177 0.27431476
0.15267894 0.1657902 0.04801991 0.021553425 0.12511319 0.106302865 -0.040808816 0.16933642
-0.06893013 -0.09342448 0.017808255 0.02565272 0.1117704 0.099769816 0.12233893 0.20060523
0.08033726 0.20288238 0.3788728 0.19821371 0.08974543 -0.07810306 0.2919374 0.3317524

bias_hh f4 [240]
00000000: a80c de3c 50e9 293e f65f 55be b058 9ebd
00000010: 7416 803d d07f 4e3c 4e3f 85bd 442c 0f3e
00000020: 2ae0 253e a238 1abc 77a1 343d 3772 55bd
00000030: c4fc 49ba 570c b53d 2748 083e 115b 19be
00000040: 4455 8c3d 0f99 dd3d 0a00 f43e 8a8f 16be
00000050: 9c56 ab3d 3f31 503e 4fb1 bc3d b59c 1f3c
00000060: ea45 2c3d 1656 06be 687a 303d 5f1a a5bd
00000070: 87cf 60be 2537 883e e103 0a3d a013 cabc
00000080: 21f0 3d3e 0d5f 133e e056 af3d dfdf 6c3e
00000090: a237 253d 6b51 123d 7f8f 773d 9595 e93d
000000a0: fed0 16bd 4c60 adbd 499b 463d 6fea 313e
000000b0: f65b e9bd 0eda b0bd 7339 9f3d 1a24 af3d
000000c0: 7847 943d e8bb 85bd e563 393d ea5e 393e
000000d0: 4b89 42bd 5e3e 8e3d dcda bb3e 57f9 d23d
000000e0: 9c02 c13d 26de 52bb ea90 b33d cb54 683e
000000f0: 83e8 3b39 739b 823d 1ecf 29bd 9c69 8d39
00000100: f6b6 f83d a9c7 183d 15ac 35bc 17a6 73bd
00000110: 2b0e e7bd 1900 9f3b 4a7d 4c3b 8613 bd3d
00000120: b80b fbbc 7c24 583d 05b7 f9bd e68a 2f3e
00000130: b7a6 503e 0ce2 b13e eccd 2a3e 2efc 113c
00000140: e833 473d ff51 b43e e6ed 7d3c c0f0 7f3e
00000150: ec7c 5d3e cfcf 20bd 10ec 063e 0c74 4cbe
00000160: a6b0 62bd 3d5e bd3d 2ab7 123d 5b45 4ebd
00000170: 5449 bc3d faa0 5e3d 2a7a e7bc bdc6 5e3e
00000180: 781e 793d fad1 003d 8deb a63d a19e 2cbd
00000190: d829 67bd 0f69 00bd c758 88bd c4f3 a03d
000001a0: 961d 623e d85c ad3d f5a1 c43d 9632 493d
000001b0: 91e3 1c3e 87fc 98bc f376 303d 31db b23d
000001c0: 2115 383d 91a8 eb3d caa1 973e b634 12bb
000001d0: 9aec 953e 5423 99bd 8a7a 0f3f 9e3a 533e
000001e0: cea9 1e3e 523e cbbd d7ad 0bbd 9c08 9c3c
000001f0: 5df3 22be 5d37 b3bd 89be f33d fefe 1d3a
00000200: 66a5 a43d 324a 173e 650f 2abe 2c7a 993c
00000210: dc79 153d e5ef 87bd cf42 e2bc 80f2 08bd
00000220: 543b 353c 7ff6 8cbd 52e3 55bd 711e ad3d
00000230: 0263 013e 4d48 143d 8710 23bd 0ab8 acbd
00000240: ab86 513d 5e93 be3d c6ec 693d cd43 6cbd
00000250: 429c acbc 8650 98bc ac3b 5ebd a213 1bbe
00000260: 3b4f d03d 7813 313c 3e74 063c 8e24 df3d
00000270: f440 ab3d 337a 33be 0c9b 25bd aa0c 86bd
00000280: 7e87 bcbd 8516 303e b964 583d fb95 4cbd
00000290: c2f1 e4bc d839 813c dada 23bd b11a 703c
000002a0: 161b 9fbc 9e50 b33d c5b5 ebbd 5bb0 083d
000002b0: c3cd 85bd 8c4d 1c3e aad7 d0bd f340 583e
000002c0: 6320 6c3c b36a c7bd 0c1e 3c3d 6baa debd
000002d0: e9aa ce3d 6891 df3d 674a 06ba c40e 063c
000002e0: 71f5 233d cfc5 1ebe 94b1 98bd 46be e13c
000002f0: 00a3 263e d64f fa3d a4c8 013e 4da8 aebd
00000300: d22b 69bd 34e1 793e e2ea a83d 5b11 8a3d
00000310: 72f0 813e c9ae c73d 2be7 cf3e 4c27 15be
00000320: bf7e 1abd 028b 683e 01f5 54be 6b7a 923d
00000330: 7cc1 eb3d bd4d 10be 953e cb3d 991d 80bc
00000340: 66e0 3bbe 3174 313e e818 39be 8018 483c
00000350: 40e9 b23e ba73 493d adcf 3e3d dd1d 703e
00000360: 93cb 6b3d 91a0 593e 6a4c 813c 5f34 793e
00000370: 5ffd c4bd 34b3 b03d 5d9e f43d 0ed6 e53d
00000380: 6c9f 1ebe 28ae f63d 4f6f cc39 4faf 083e
00000390: 7ccd fc3d 569e e13d dceb e9bc c5a4 573e
000003a0: ad85 293d 162b 263e da2d a13e e27f 173e
000003b0: be5f 833c 96b4 16bd ee81 bd3e 6d26 9d3e
0.027105644 0.16592908 -0.20837387 -0.077317595 0.062542826 0.012603715 -0.06506215 0.1398173
0.16198793 -0.009412916 0.044099297 -0.052110877 -0.00077052065 0.08840244 0.13308774 -0.14976145
0.068522006 0.10820209 0.4765628 -0.14703193 0.08366129 0.20331286 0.092135064 0.009741952
0.042058863 -0.13118777 0.043085486 -0.080616705 -0.21954165 0.26604572 0.033695105 -0.024667561
0.18548633 0.14391728 0.08561492 0.23132275 0.04033626 0.035722177 0.060439583 0.11405484
-0.036820404 -0.08465633 0.048487935 0.17374586 -0.11394493 -0.08635341 0.077746294 0.08551808
0.07240194 -0.06529981 0.045261282 0.18102613 -0.047494214 0.06945489 0.36690414 0.10301464
0.09424326 -0.0032175868 0.087678745 0.22688596 0.00017920327 0.06377306 -0.041457288 0.000269723
0.12144272 0.037299786 -0.011088391 -0.059484567 -0.11281999 0.0048523066 0.0031202608 0.092322394
-0.030645236 0.05276917 -0.12193111 0.1714283 0.20376097 0.34742773 0.16680115 0.008910222
0.048633486 0.35218808 0.015498614 0.24994183 0.21629685 -0.03926068 0.13175988 -0.19966143
-0.055344246 0.0924649 0.03581921 -0.05035911 0.09193674 0.054352738 -0.028256495 0.217555
0.060820073 0.03145025 0.081503965 -0.042143468 -0.05643639 -0.03135019 -0.06657558 0.078589946
0.22081599 0.08464974 0.09601203 0.049120508 0.15321185 -0.018675102 0.04308219 0.08733214
0.044942025 0.11506761 0.29615623 -0.002230925 0.29282075 -0.074774414 0.56046355 0.2062783
0.15494463 -0.09923996 -0.034101333 0.019047074 -0.15913148 -0.08750794 0.11901576 0.00060270715
0.0803936 0.14774397 -0.16607435 0.018735014 0.036493167 -0.06637553 -0.027619747 -0.03343439
0.011061508 -0.06882953 -0.052218743 0.08453072 0.12635425 0.036201764 -0.039810684 -0.0843354
0.05115382 0.09305452 0.05711057 -0.057681847 -0.021070603 -0.018593084 -0.054256126 -0.15144208
0.10171362 0.010807864 0.008206425 0.10895644 0.08361998 -0.17527084 -0.040431067 -0.06545384
-0.092055306 0.1719609 0.05283043 -0.04994772 -0.02794731 0.015774652 -0.040003635 0.014654801
-0.019422095 0.08755611 -0.11509279 0.03337131 -0.065333866 0.15263957 -0.10197385 0.21118526
0.0144120185 -0.09737148 0.045927092 -0.108723484 0.10091192 0.10916406 -0.0005122781 0.008182231
0.040028993 -0.15505145 -0.07455745 0.02755655 0.16273117 0.12222259 0.12674195 -0.085281946
-0.056926556 0.24402314 0.08247925 0.067415915 0.25378758 0.097501345 0.40606055 -0.14565772
-0.03771853 0.22709277 -0.20796587 0.071522556 0.115115136 -0.14092155 0.09924046 -0.015639113
-0.1834732 0.1732948 -0.18075907 0.0122128725 0.3494358 0.04918263 0.046584774 0.23448892
0.05756719 0.21252657 0.015783507 0.24336384 -0.09618639 0.0862793 0.11944268 0.11222468
-0.15490502 0.120449364 0.00038992843 0.13348125 0.123438805 0.11016528 -0.02855485 0.21058948
0.04138725 0.16227373 0.31480294 0.14794877 0.016036864 -0.036793314 0.3701319 0.3069338

weight f4 [3, 12]
00000000: ca1e b8be e73b eb3e f1e7 b0be e2be fe3e
00000010: d330 2abe 24a3 aabe 5361 7abd ed8d c3be
00000020: d7d9 b3be 9af7 bd3d 38f7 b93e 6777 f0be
00000030: b17d dabb 8424 d4bb 6c79 25bd 6a2d ecbd
00000040: d561 163c ce7a 1abe 3940 e23d 2065 18bd
00000050: 5f9a 993d e765 57be 69a1 ac3e 7e96 d3be
00000060: fa14 09be f271 3abe fd7b 993e 4206 1e39
00000070: d903 0e3e d7c7 7f3e 5d9a 22bd cc3b afbd
00000080: fc5b ac3d 1126 44bd b479 743e 35e8 8bbe
-0.3596099 0.4594414 -0.34551957 0.49755007 -0.16620187 -0.3332759 -0.06112797 -0.38194218
-0.35127136 0.09275742 0.36321425 -0.46966097 -0.0066678156 -0.0064740796 -0.040399 -0.115320995
0.009178598 -0.15085909 0.11047406 -0.037205815 0.07500147 -0.21034966 0.33716896 -0.41325754
-0.13386908 -0.18207529 0.29977408 0.00015070385 0.13868655 0.24978577 -0.039697994 -0.08556327
0.08415982 -0.047887865 0.23874551 -0.27325597

bias f4 [3]
00000000: e5ca 933e d48a fbbd 1507 143e
0.28865734 -0.12282339 0.14455827
