models/paramsearch_0.0013472061095776305_0.5601568924244449_0.4745331851495575_100.pt (torch, 33148 bytes, 7 tensors)

weight_ih f4 [240, 6]
000000 2c ac 77 bd 15 fe dd be 4d 00 27 3e 59 44 1a bf
       -0.06046693 -0.43357912 0.16308708 -0.6026054
000010 8b cd 2f be 16 87 08 bd 8e 67 ae bd 79 73 1a 3f
       -0.17168252 -0.033331953 -0.08515845 0.6033245
000020 a2 a2 1e 3d 44 c2 88 3e 96 4d b2 bd a9 ee 1e 3d
       0.038729317 0.26710713 -0.087062046 0.038801823
000030 17 67 d0 3c fb 2a e9 be 35 e2 94 bd 10 3a 14 be
       0.025439782 -0.45540604 -0.07269708 -0.14475274
000040 ef 5f 85 bd 3f 9d 3a 3e b3 67 2a 3b 76 4e 46 be
       -0.065124385 0.18224047 0.002600175 -0.19365868
000050 77 96 e8 3e 18 8b 2f bf d6 a2 f5 be 3d 67 9f 3c
       0.45427296 -0.68571615 -0.47975796 0.019458408
000060 e3 c5 b9 bd 24 12 c3 bd 8e 92 e2 3d e0 02 e2 3e
       -0.09070947 -0.095249444 0.11063109 0.44142818
000070 e0 79 18 be 6f e2 69 be 4a 89 05 be e2 5e 5b be
       -0.14890242 -0.22840284 -0.13040653 -0.21422914
000080 20 a1 af bc ca e7 da be b1 52 90 be f9 28 2c be
       -0.021439135 -0.42754966 -0.2818809 -0.16812505
000090 a5 d8 4a 3e d9 93 0f bf c9 d9 8f bd c5 e2 00 bf
       0.19809206 -0.5608497 -0.07023961 -0.5034602
0000a0 e1 78 84 be 79 fb ff 3d 27 66 e3 bc df 7a 80 be
       -0.25873473 0.124991365 -0.027758671 -0.25093743
0000b0 23 d9 ae 3d e5 ff ba be 46 d9 73 bd 81 1a e5 bd
       0.08537509 -0.36523357 -0.05953338 -0.11186696
0000c0 48 ba c7 bc 4b d3 c8 be be dc c6 bd 93 06 1a bf
       -0.024380818 -0.39223704 -0.09710072 -0.6016628
0000d0 44 1d d4 3b bc b3 9b 3d 81 47 d2 3c b1 76 fd be
       0.0064732153 0.07602641 0.025668861 -0.49504617
0000e0 c9 dc 09 3e 34 8d 37 bf 27 f0 2f be a6 a0 ef bd
       0.13463129 -0.71699834 -0.17181455 -0.11700563
0000f0 e2 95 e2 3d bb ae 18 3e cf 29 84 3e 87 97 89 3d
       0.11063744 0.14910404 0.25813147 0.06718355
000100 2c 25 84 3d 3e ac 8d 3d a6 a9 8c 3e 28 51 da be
       0.064524025 0.06917618 0.2747318 -0.42640042
000110 52 e7 9c 3e 5b 9d 9e 3e c4 66 de 3c b2 bc 49 be
       0.30645233 0.30979428 0.027148612 -0.19700888
000120 04 b7 7b 3d 36 ba 3a bf 16 b8 08 3e 84 02 00 bf
       0.061453834 -0.72940385 0.13351473 -0.5000384
000130 e7 75 bd bd 99 2c 86 3b 5f 3d 10 be 3a ac ad be
       -0.09251004 0.004094672 -0.14085911 -0.3392046
000140 c4 8c 75 bc 11 eb 39 3e 05 c0 52 bd f0 aa 86 bc
       -0.014987174 0.18156077 -0.051452655 -0.016438931
000150 ca fe 14 be 7e 42 c0 3e fe 61 aa bd 58 0f 5e 3e
       -0.1455032 0.3755073 -0.08319472 0.2168554
000160 9b 8c be bd 8e 89 0e bd e2 ce ed 3d 74 83 cc be
       -0.09304162 -0.03479915 0.116117254 -0.3994404
000170 67 01 97 3c 73 8e df be 25 9f 0e be a3 c5 33 3d
       0.018433286 -0.43663368 -0.13927896 0.043889653
000180 85 5a f5 bd aa 20 61 be f3 b9 46 3e 9a 26 78 3f
       -0.11980156 -0.21985117 0.19406871 0.969339
000190 6d e6 d5 3e 1f 78 17 3e ed 52 d6 bc 66 65 9f 3e
       0.41777363 0.14791916 -0.026162589 0.31132048
0001a0 c5 13 2d bd db e6 dc 3e 9b e2 12 bd ea 2f 22 3e
       -0.04225518 0.4314488 -0.03586064 0.1583859
0001b0 4d 18 2c 3d 22 54 97 3c d6 46 fc 3d 77 ae 52 3f
       0.042015363 0.018472735 0.123181984 0.8229746
0001c0 f4 7d 8e 3e 63 e5 6e bc be a2 ff bd bf 2b 50 3d
       0.2783047 -0.014581057 -0.124822125 0.05082297
0001d0 fd 16 ae 3d c2 d4 64 3f 73 22 99 3e 6d b2 06 be
       0.085004784 0.8938714 0.29909095 -0.13154002
0001e0 a4 1a 05 bd 41 d2 bf be a5 85 d2 3d 57 78 c6 be
       -0.03249611 -0.37465099 0.10279397 -0.38763687
0001f0 ac e1 39 be 91 04 ee 3d 8e c2 df 3d 3a 8a fe be
       -0.18152493 0.11621965 0.1092578 -0.49714833
000200 15 61 3f 3e 3b 81 81 be 2b 21 cd bd 32 80 c7 3d
       0.18689378 -0.25293908 -0.10016092 0.09741248
000210 42 77 c4 bc f3 6f 3d 3f b6 a2 b4 3e dc 10 bd 3e
       -0.023982648 0.73998946 0.3528039 0.36926925
000220 97 44 90 bd 05 cd 99 3d a2 a9 f5 bc ab 85 bc be
       -0.070443325 0.075098075 -0.029988114 -0.3682073
000230 c5 be 8c bd be 4a 40 be 92 32 60 3d bd b3 bc bd
       -0.06872324 -0.18778512 0.054735728 -0.0921397
000240 ab cc 89 3d 5b 05 80 3d b8 4e a1 3d be a2 6c bf
       0.067284904 0.062510215 0.078763425 -0.92435825
000250 65 80 8e be f0 00 3d 3d 0f 90 00 bd 15 c9 52 be
       -0.27832332 0.046143472 -0.031387385 -0.20584519
000260 cb 77 ea bc 59 b0 fa be 87 a4 74 be a1 01 2f be
       -0.028621575 -0.48962668 -0.23890887 -0.17090465
000270 64 2b 5c 3e 78 6a a0 be 84 9c da bc 64 07 03 bf
       0.21500927 -0.3133123 -0.02668596 -0.5118315
000280 ef 91 be bd 7e 95 c3 bd da f8 ca bd 87 86 1d be
       -0.093051784 -0.09549998 -0.09910746 -0.1538335
000290 0b 5b 83 be a0 77 31 bf cf c4 19 be d2 6c 04 bb
       -0.25655398 -0.6932316 -0.15016483 -0.0020206464
0002a0 a8 da 20 3d a8 d9 d4 3e 9a de ad 3d c8 65 48 3f
       0.039271027 0.4157231 0.084897235 0.78280306
0002b0 f3 47 3e 3e 6f e8 2b bc a5 d6 6c bc 5b f2 0b 3e
       0.18582134 -0.010492428 -0.014455472 0.1366667
0002c0 34 6a 4f 3d da ed a3 be 7b ba b5 bd fb a7 7a 3d
       0.050638393 -0.32017404 -0.08873459 0.061195355
0002d0 91 71 0d 3e 99 90 ce be 59 d7 04 3e 11 ac 7e be
       0.13812853 -0.40344694 0.12972774 -0.24870326
0002e0 2b 64 01 bd 4e f4 9f 3d 2a b2 3b bd e3 69 16 3f
       -0.03158967 0.07810269 -0.045824207 0.5875532
0002f0 ed e6 8e 3c dd 09 0d 3f 5b 19 19 3e 5a a9 48 be
       0.017444098 0.55093175 0.14951079 -0.19595852
000300 e8 e3 29 3e dc 2c 15 bf 67 58 0d 3e dc 1d d6 be
       0.16590846 -0.58271575 0.13803254 -0.41819656
000310 7d 1a 26 be ae d3 5c bd 8c 6f 8d bd 69 1d 0f 3d
       -0.16221042 -0.05391281 -0.069060415 0.034940157
000320 c5 3a 28 3d 69 22 74 3f 51 51 a0 3e d9 74 d2 3b
       0.041071672 0.95365006 0.3131204 0.0064226207
000330 1f fb 0f 3e d4 ab 9b be 60 bf 3b be 94 a4 2f bf
       0.14060639 -0.30404532 -0.18334723 -0.686105
000340 3e 36 41 be e8 86 a7 bd 67 e3 56 3e 6b 6c 77 3e
       -0.18868348 -0.08180028 0.20985185 0.24162452
000350 26 a8 9c 3e cf dc 8b 3f 94 f5 a4 3e d1 bc 18 3d
       0.30597037 1.092676 0.3221861 0.037289444
000360 bc 7c 88 3d f3 74 f1 be a5 5d 11 3c 06 63 e2 be
       0.06664416 -0.47159538 0.008872424 -0.44216174
000370 56 f5 7f bd 47 b5 52 bc 9f 0f 82 3d 99 a6 ef be
       -0.06248983 -0.012860603 0.06350636 -0.4680679
000380 ef 4f 09 be 74 74 f3 be c7 31 0c bd a4 8c 4b bc
       -0.13409398 -0.47549784 -0.03422716 -0.012423668
000390 7b 60 06 3e 7d 21 20 3e d6 25 3d 3e 5a 9d a3 3f
       0.13122742 0.15637775 0.18471465 1.2782395
0003a0 be 54 bf 3e 69 74 ab 3d 24 c4 f5 3c 33 c9 cd be
       0.3736934 0.08371813 0.030000754 -0.40192565
0003b0 5c d1 a3 3d 7a 34 dd be 09 57 d1 bd 62 a4 05 3d
       0.079989165 -0.432041 -0.10221679 0.03262747
0003c0 01 f9 15 3c c0 07 ae 3e f5 08 51 bd 0e af 39 3f
       0.009153605 0.33990288 -0.051033933 0.7253274
0003d0 d1 a4 0a 3e 2a 5e 8b bd 1a 7e fe 3a e9 d6 ae 3d
       0.13539435 -0.0680507 0.0019416243 0.085370846
0003e0 d4 1d 80 3c 71 39 67 3f e5 cf 7e 3e ca 9c c2 3d
       0.015639223 0.90322024 0.24883993 0.095025614
0003f0 4c 62 34 3b 45 1e d2 bd 36 c6 f8 3b d3 40 4e bf
       0.002752441 -0.1025968 0.007591988 -0.80567664

weight_hh f4 [240, 12]
000000 c0 70 0e 3e 39 32 de bd 3c 3a 05 bd 6f 0a 53 bb
       0.13910198 -0.10849423 -0.03252624 -0.0032202264
000010 e3 82 5c 3d ad c8 1e 3d aa 76 0a be dd 53 f0 bd
       0.05383576 0.038765598 -0.13521829 -0.11734746
000020 8d d0 0c 3b 45 49 62 3d 82 a2 68 3b 0c f4 d0 3c
       0.002148661 0.055245657 0.0035497253 0.025506996
000030 fb 5b c2 bd c2 b4 4c 3e 92 da 0b be 1a 32 08 be
       -0.094902 0.19990829 -0.13657597 -0.13300362
000040 de c4 3a 3d bc 06 bf 3d 0f 31 ff 3c de e3 9a 3d
       0.045597903 0.09327456 0.031151323 0.075629935
000050 38 22 09 3e 22 50 5b 3d 91 10 cf bc 5b e1 cf bd
       0.1339196 0.053543217 -0.025276454 -0.10150405
000060 f3 4b 12 bd 53 5d 37 3d f0 f9 1f 3d a8 42 83 3d
       -0.035716962 0.044766735 0.03905672 0.06409198
000070 58 bb 0a bd db fa fb b8 a4 4b 81 bd 63 bf 7b 3d
       -0.03387007 -0.00012015338 -0.063132554 0.061461817
000080 ad ae 0a bd bf b0 5f 3e 7c 34 99 3d 3b d7 e5 3d
       -0.03385799 0.21844767 0.07480714 0.112226926
000090 d5 33 00 be 50 ec 14 3e c2 b1 8d 3d cf 7f d4 bd
       -0.12519772 0.14543271 0.0691867 -0.1037594
0000a0 bb 1f 59 be 2e 7c 7c 3e 13 ac 5b be 6b fb 39 be
       -0.2120351 0.24656746 -0.2145236 -0.18162315
0000b0 dd fc 9e 3e 72 06 0b be d0 b0 58 3d 95 59 eb bd
       0.31052294 -0.13576677 0.052902997 -0.11491696
0000c0 2f 56 44 bd 45 4b fe 3d 12 55 32 be d6 16 93 ba
       -0.047933754 0.124167 -0.17415264 -0.0011222016
0000d0 29 35 9a 3d f2 04 09 be b2 f8 c9 bc 92 39 39 bd
       0.07529671 -0.13380793 -0.02465472 -0.04522092
0000e0 45 61 1f bc fb 77 df 3c a8 5a 0c be 77 db dc 3c
       -0.009727781 0.02727889 -0.13706458 0.026960118
0000f0 0d d6 00 bc 84 11 83 bc af 12 11 bd 61 21 b1 bc
       -0.007863534 -0.015999563 -0.03541821 -0.021622362
000100 fa b4 4f bb ea 50 5d 3d 61 a4 b6 bd 13 14 0c be
       -0.0031693564 0.054032244 -0.089180715 -0.13679533
000110 dd 4c 22 3d 8d 41 bd 3d ce 0f d1 3d 4a 55 c4 3d
       0.039624084 0.092410184 0.10208093 0.0958658
000120 29 24 61 bd 1b b4 89 bd 93 5b ee 3d 46 e5 71 3c
       -0.054966126 -0.067238055 0.1163856 0.014764136
000130 66 93 f8 3d 82 3c e3 ba ea 63 e4 bd e8 e1 dc bd
       0.12137489 -0.0017336758 -0.111518696 -0.10785276
000140 92 23 d1 3d 80 5a fb 3d e6 c1 2e 3d fd a7 89 3d
       0.102118626 0.12273121 0.042665385 0.06721494
000150 a2 d0 88 3c e8 c1 a9 bd da 57 8c 3d 5c 9c e7 3d
       0.016701046 -0.08288938 0.06852694 0.1130912
000160 94 42 ab bc 72 e6 42 3d 8f 88 21 3d b3 bb af bd
       -0.02090577 0.04758305 0.039436873 -0.08580723
000170 3e c2 1f 3e 13 9c 20 3e 38 25 bd 3d 81 7c 1e 3e
       0.15601441 0.15684538 0.092356145 0.15477182
000180 f6 d4 ce 3c 93 25 3e be bc b6 27 3e 0b 3e 85 3d
       0.025248032 -0.18569021 0.16378301 0.065059744
000190 56 d3 d4 bd 0c c1 4b 3d 5e fc a2 3d 0f 23 c9 bd
       -0.10391872 0.04974465 0.079582915 -0.0982114
0001a0 3c 5d 33 3e a1 b5 2c 3e 94 92 c2 3d c5 69 5c 3e
       0.17516035 0.16866161 0.09500614 0.21524723
0001b0 b6 eb 69 bc 7a 84 81 bd 54 46 a1 3d c7 e6 46 bd
       -0.014277389 -0.06324096 0.07874742 -0.04855993
0001c0 d2 38 8f 3d d9 cd b1 3d 3a d9 9a 3c a9 7b 8a bd
       0.069932595 0.086818404 0.01890241 -0.067618676
0001d0 29 b4 ba bd 74 cb fa 3d 5d 5d 4d 3d 5e 11 a9 3d
       -0.09116394 0.12245837 0.050137866 0.08255266
0001e0 b2 c1 09 bd 46 21 80 3e a9 cf 5c 3d ab 94 91 be
       -0.033631988 0.25025386 0.053908978 -0.28433737
0001f0 61 e9 07 3d d6 a1 38 3e 0a 0d 5a 3d 30 71 b9 3d
       0.03318155 0.18030486 0.05323509 0.09054792
000200 0d cb 6a 3e 91 8c b1 bc 66 6a 01 3d 70 df 25 bd
       0.2292902 -0.021673473 0.03159561 -0.04049629
000210 52 30 88 bd 28 7a 18 3e 0a 84 95 3e 47 74 8a bd
       -0.06649841 0.14890349 0.292023 -0.067604594
000220 f7 d7 d8 bd ac f2 43 3e 8b 5e 52 be 78 f5 8b bd
       -0.10588067 0.1913554 -0.20543878 -0.06833929
000230 f1 e0 6d 3e 68 c2 53 3e d5 f1 88 3e 63 e8 17 3d
       0.2323034 0.20679629 0.26747003 0.037086856
000240 c4 56 cd 3d a5 4f 2d bd 0c fa 3d 3d 31 28 47 3d
       0.10026315 -0.042312283 0.04638104 0.048622314
000250 a0 0c 63 bd 51 4d 82 3a 02 a3 91 3d 7f 9d 29 bd
       -0.055431962 0.0009941255 0.071111694 -0.041409966
000260 51 7e 44 3d b4 26 64 bd 95 02 e3 3d 4f a5 20 3e
       0.047972027 -0.055700973 0.11084477 0.1568806
000270 b8 92 0c be 5d db e0 bd 68 13 c8 bd 53 4e 8b 3d
       -0.13727844 -0.1097934 -0.097693264 0.068020485
000280 b4 40 52 3d 3a 17 54 be 6a 7a 9f 3d f6 fb 0f 3e
       0.051331237 -0.20711985 0.077870205 0.14060959
000290 ca 2f 07 3d a6 67 0e bd 31 1d 18 bd 60 a4 79 3e
       0.03300456 -0.034766816 -0.037137214 0.2437911
0002a0 c3 e2 10 bd af ec a0 3d e3 c5 c3 3a 61 35 b6 3d
       -0.035372507 0.07857644 0.0014936294 0.088969
0002b0 62 0b c7 3d fc 6a 98 3d e2 6e 7d 3d 9d 1f 3a bd
       0.09718968 0.07442281 0.061873324 -0.045440305
0002c0 d9 64 38 bd f6 9a a7 3d dd ca fd bd a6 3b ca 3c
       -0.04501805 0.08183853 -0.12392209 0.024686646
0002d0 06 21 a2 3d b9 56 76 3e fe d4 b9 3d d8 b3 36 be
       0.07916455 0.2405652 0.09073828 -0.17842042
0002e0 20 16 40 bd 9d ab 0d 3d 46 e4 5e bc be c2 6f bd
       -0.0468961 0.03458749 -0.013604229 -0.05853533
0002f0 61 13 fb 3c eb 8c 61 3e f1 bc de bc 6d 14 45 3e
       0.030648889 0.22026412 -0.027189704 0.19246073
000300 97 ae 01 be ec 99 1c bd 0e 2d 02 bd 8f cc a9 bd
       -0.12664257 -0.03823273 -0.03178125 -0.082909696
000310 04 cc 7d 3e eb 7f da bc 12 3d b7 3e 24 32 f9 3d
       0.24784857 -0.026672324 0.3578878 0.12167767
000320 b7 d6 8c be 5b 32 95 ba 29 21 8d be 10 e3 64 be
       -0.27507564 -0.0011382805 -0.27564362 -0.22352242
000330 95 18 38 3d f2 a2 03 3e ef 96 a5 3d 03 f5 3f be
       0.04494532 0.12855127 0.08085429 -0.18745808
000340 a3 e0 b6 3d a3 bf 94 3d 65 65 b2 3b f5 a1 b8 bc
       0.08929565 0.07263114 0.005444216 -0.022538165
000350 47 ce 3a 3e 35 16 8b 3d 1e 86 11 3e da 06 47 bc
       0.18242751 0.06791345 0.14211318 -0.01214763
000360 06 e8 c0 3d 74 57 2b 3e 50 ef b9 3c 2d 6b c7 3b
       0.09419255 0.1673258 0.02269712 0.0060857744
000370 d5 b2 4c 3d 50 49 1a 3d 17 33 0e be dd 77 3d bd
       0.049975235 0.037667572 -0.13886677 -0.04625689
000380 65 85 fb bd 5c 7b e5 3d 95 f5 0e 3d ea 07 79 bd
       -0.12281302 0.112051696 0.034902174 -0.060798563
000390 3f 32 8f bd 91 38 84 3e 1a 6f 72 bd ed 99 1e bc
       -0.069920056 0.25824407 -0.059187986 -0.009680253
0003a0 b7 71 aa 3e 62 65 c4 bb 7e ba 4b 3e 66 eb 8a 3e
       0.33289883 -0.005993531 0.1989536 0.2713272
0003b0 6c bc 78 be 33 2d c7 bd 5c e3 34 be 3c 4d 41 bd
       -0.24290627 -0.09725418 -0.17664856 -0.047192797
0003c0 2c 13 7d 3c 86 9f 18 3e dd bc a6 3d 6b 1e 2b 3b
       0.015446465 0.14904603 0.081414916 0.002611066
0003d0 e9 99 5d 3d 2c 83 75 3d 01 f8 00 be 65 70 07 bc
       0.05410186 0.05993955 -0.12594606 -0.008266543
0003e0 84 76 41 3e 8f 12 11 3e a2 07 ca 3d 7c 8d b1 3d
       0.18892866 0.14167236 0.09864737 0.08669564
0003f0 ac 9b 44 3e 30 f2 15 3e 0f c5 b0 bc 89 70 83 3d
       0.19200009 0.14643168 -0.02157834 0.06417949

proj f4 [12, 60]
000000 fa 05 f2 bd 9b 12 80 3d db d9 e5 3d 2a 30 33 be
       -0.11817546 0.06253549 0.11223193 -0.17498842
000010 79 54 e4 3c 92 fe 77 bd 46 d8 07 be 84 d3 2b 3d
       0.027872311 -0.06054551 -0.13266096 0.041949764
000020 d3 3b 47 3b cc eb 32 be 38 60 03 3e 6b 2b 78 be
       0.0030400648 -0.17472762 0.12829673 -0.24235313
000030 3a d2 bb bc 2a ba 52 bd c1 ba 8e 3d 36 6c 41 bc
       -0.022927392 -0.05144707 0.06969214 -0.011805585
000040 79 da 8e bc 02 54 7d 3d ac 4c c0 3d dc 4a 9d 3d
       -0.01743816 0.061847694 0.09389624 0.07680294
000050 0d 47 05 be 44 98 04 3b 5b cd 08 be 19 da 11 3e
       -0.13015385 0.002023236 -0.13359587 0.14243354
000060 bc a1 20 bd b3 f0 75 3d 3a 53 f5 3c 72 c5 40 3e
       -0.039216742 0.060044 0.029946912 0.1882532
000070 b9 fd 5c be ef f0 9f bd 9b 58 11 bd 92 5d d9 3c
       -0.21581163 -0.07809626 -0.03548489 0.026533876
000080 57 f8 cb bd 6a b2 1e bc 09 bc ab bc 46 25 2d be
       -0.099594764 -0.009686092 -0.020963686 -0.1690875
000090 eb 3c ed 3c bf 22 8a 3d 34 b8 c7 bd 72 c1 08 3e
       0.028959712 0.067449085 -0.09751931 0.13355044
0000a0 8c 22 ad 3d e2 8b 78 be 4e 33 09 be 5b 1f af bd
       0.08453855 -0.24272111 -0.13398477 -0.085509025
0000b0 ca d0 b7 bd 9a ef 0a be c2 16 b2 bd af 98 9e be
       -0.0897537 -0.13567963 -0.08695747 -0.30975863
0000c0 91 27 96 3d dc a0 89 bd 23 11 07 ba e9 03 82 3d
       0.073317654 -0.067201346 -0.0005152395 0.06348402
0000d0 c2 91 a8 3c b0 a3 60 be 0f e1 1a be 50 e7 af bd
       0.020577315 -0.21937442 -0.15124916 -0.08589041
0000e0 ba 55 28 3e 5e 1d be 3d 68 d2 43 bd f4 d6 8b bb
       0.16438952 0.09282945 -0.04780808 -0.004267568
0000f0 89 95 2b be 48 11 2e bd d7 14 0d be 5e c2 9c bc
       -0.16756262 -0.04249695 -0.13777481 -0.01913565
000100 6e 18 3d 3e d3 b6 10 3e a8 ee de bc ba 65 a9 bd
       0.1846635 0.14132242 -0.02721341 -0.08271356
000110 e3 8b e2 bd bb 6e 8c 3d 88 7a 2b 3d df e3 a6 bd
       -0.110618375 0.06857058 0.0418649 -0.08148932
000120 65 ba 56 3d 60 a8 ad 3c a3 8b 37 3a 05 b8 99 3c
       0.052423853 0.021198452 0.00070017035 0.018764505
000130 9e 3f 62 3e aa 84 c6 3d 06 e1 59 be c1 ae 1e 3e
       0.2209458 0.096932724 -0.21277246 0.15496351
000140 b6 36 3c bc fb 92 c4 bd c5 19 b5 bc bd ee 82 bd
       -0.0114876535 -0.09598347 -0.022107014 -0.06393192
000150 88 2c 35 3d a0 ec c7 bd 01 87 82 bc 2b 61 9a 3d
       0.04423192 -0.097619295 -0.015933516 0.075380646
000160 e6 fd 12 3e 13 d7 03 3e 2e 1e 11 be 19 0b ee bd
       0.14354667 0.12875013 -0.14171669 -0.116232105
000170 75 b4 8f 3d 2c 32 61 3e 46 4c c0 bb 55 51 6c 3e
       0.07016841 0.21991795 -0.0058684675 0.230779
000180 58 c0 0c be 0c 17 00 be ae 06 1e 3e 4b 4f 87 3d
       -0.13745248 -0.12508792 0.15432236 0.06606921
000190 60 e4 a1 bd a7 93 de 3d 7a c2 29 bd 44 56 20 3e
       -0.07904887 0.10868006 -0.041445233 0.15657908
0001a0 fc 3a 98 3c 98 e4 30 3d 7f 88 51 3e c6 e9 7a bd
       0.018582813 0.043186754 0.20462225 -0.0612581
0001b0 94 38 60 3d be 40 f5 3d b4 7d 0b 3d 33 b8 0b 3d
       0.054741457 0.11975239 0.034055427 0.034111213
0001c0 9e 0d bf 3e e3 a3 f9 3d f7 97 13 3c a4 67 4c 3e
       0.37315077 0.12189462 0.009008399 0.19961411
0001d0 21 e8 74 bd 98 04 40 be 13 0d 49 3c cf 8e 02 be
       -0.059791688 -0.18751752 0.012271184 -0.1274979
0001e0 38 75 35 3e f6 c7 13 3e 55 74 14 3e 3b 70 df bd
       0.17720497 0.14431748 0.14497502 -0.10910078
0001f0 dd cf d1 bc 8e 9e b3 bd af 96 84 bd df 62 24 3d
       -0.025611812 -0.08770476 -0.06474053 0.040133353
000200 e4 e1 2a be 9e c8 fe bd 78 cb d7 3d 9d 60 13 be
       -0.16687733 -0.124406084 0.105368555 -0.14392324
000210 96 9a 58 be d2 52 d0 bd d3 f5 6e 3d f3 78 56 3e
       -0.2115272 -0.10172047 0.058339905 0.20944576
000220 24 46 e4 3d 79 52 eb bd 16 45 16 3d 9d f2 47 3e
       0.11146191 -0.1149034 0.03668698 0.19526143
000230 51 b1 0e be 53 d3 2f be f1 32 b4 bd e3 d7 be bd
       -0.13934828 -0.17170458 -0.08798779 -0.09318521
000240 5d 4e df bd 15 1e 67 bd bf 8c 5c 3e c7 c7 2f 3e
       -0.109036185 -0.056425173 0.21538065 0.17166053
000250 c3 aa 07 be 07 2b 73 bd 87 71 43 3e 41 b4 4c 3e
       -0.13248734 -0.059367206 0.19086276 0.19990636
000260 6e 69 10 bd 6f ed c1 bc 9f ee 06 3d 52 d8 85 be
       -0.035256796 -0.023672787 0.03294241 -0.26141602
000270 57 ce 59 3e 4c 96 25 3e 7b 31 a0 be 99 70 22 3e
       0.21270119 0.16170615 -0.3128775 0.15863265
000280 71 d9 d7 3d ae 5e 70 be 77 5b e1 3c 46 cb 0e be
       0.105395205 -0.23473617 0.027509434 -0.1394473
000290 78 83 50 be d2 0f 41 be ec 3f 98 bc ac 36 d6 bc
       -0.20362651 -0.18853691 -0.018585168 -0.026149116
0002a0 15 d6 89 bc 3d e0 5a be 85 14 6f 3d 52 ae 2d bc
       -0.016825715 -0.21374603 0.05836918 -0.010600643
0002b0 90 11 83 3d 4d f9 5a be 2a 3d 54 3d fb ba d4 be
       0.06399834 -0.21384163 0.051816143 -0.41548905
0002c0 9b 3d 43 3e 9e dc 31 3d 24 b6 05 3b 4a 16 8e bd
       0.1906647 0.043423288 0.0020402754 -0.06937845
0002d0 e9 6b db bd 54 31 d8 3d ab 62 05 3e b6 eb 5f 3d
       -0.107139416 0.105562836 0.1302592 0.05466815
0002e0 18 5a b5 bd c2 3f bb bd 17 35 bd bd ab 0e ba bd
       -0.08855075 -0.0914302 -0.09238642 -0.09084829
0002f0 76 3e d6 3a bb c3 be 3d 55 79 80 bc 24 d1 dc 3d
       0.0016345519 0.093146764 -0.015682856 0.10782078
000300 89 66 8e 3d d5 f3 c6 3d a1 43 00 3e 75 f6 0e ba
       0.06953151 0.09714476 0.12525798 -0.0005453595
000310 45 85 9e bd cb 96 4b 3d b4 eb 3d 3e d1 6a 2e bd
       -0.07740263 0.049704354 0.18546945 -0.042582337
000320 e2 30 c4 bd 29 06 a8 bd 49 b5 81 bd 5c e9 e0 3b
       -0.09579636 -0.082043 -0.063334055 0.006863756
000330 f3 fa 5f bd 2d 14 70 bb 4d ed e8 3d 3c 5d 3d bd
       -0.054682683 -0.003663312 0.113733865 -0.046231493
000340 d0 0c bc bd 82 df 0e 3d 85 84 2b 3d 5c dd 9e bc
       -0.09182131 0.034881122 0.041874427 -0.019392662
000350 5e 1c c8 bd 8f b2 05 be f4 1c e3 bc a8 1f 15 be
       -0.097710356 -0.13056396 -0.027723767 -0.14562857
000360 52 4a ff bd 31 36 ad 3d cb b9 2a be 06 55 dc bd
       -0.12465347 0.08457602 -0.16672437 -0.107584044
000370 cb 86 37 3e 3e 21 fe 3c f8 2c 19 3e ec 50 01 be
       0.17922513 0.03102171 0.1495856 -0.12628525
000380 12 5b 9e bc 81 80 4a bc a3 66 b3 bd 73 d1 ea 3c
       -0.019330535 -0.012359739 -0.08759811 0.028664326
000390 e6 5e 36 3c d8 35 a3 bc 15 ad da 3d 72 b1 b4 bd
       0.011131024 -0.019923136 0.10677544 -0.088229075
0003a0 ed c8 55 be f2 3a 1b be b2 f8 a3 bd ad a4 31 3d
       -0.20877428 -0.15159205 -0.08006419 0.043369938
0003b0 16 e2 33 3e 66 da b5 3d 16 bc b1 bd 9e fd a0 3d
       0.17566714 0.08879547 -0.08678453 0.07860874
0003c0 08 fd 18 3d ae 6e 60 bd cf 02 8a 3d ba d7 0a bd
       0.037350684 -0.054793052 0.06738817 -0.03389714
0003d0 3a 4d 70 bd 7b c5 04 be ad 1a 50 3c a5 10 fe 3d
       -0.0586674 -0.12965958 0.0127016725 0.124055184
0003e0 02 11 2d 3e 3e ab 6d bd 03 f7 ad bc 77 76 19 3e
       0.16901019 -0.058024637 -0.021235948 0.14986597
0003f0 95 bf 8b 3d 12 de 9d bc 07 5a 8d 3c b6 21 10 3d
       0.06823651 -0.01927093 0.017254842 0.0351884

bias_ih f4 [240]
000000 88 9d d4 bd f6 b6 37 3e 29 cb 3b 3e 35 1f 39 3e
       -0.10381609 0.17940888 0.18339218 0.18078311
000010 b2 81 b5 bd ea d4 9c bd 9e 0f 29 bd 75 b8 b2 bd
       -0.08862628 -0.07657798 -0.04127466 -0.08726589
000020 43 6d aa 3c 10 37 b0 3d 9a 0d 35 3e 0e c5 1e 3e
       0.020804053 0.08604252 0.1768097 0.15504858
000030 63 a6 11 3e 64 f8 65 be 77 4c 9a bd 7d 68 fc bc
       0.14223628 -0.22458035 -0.07534116 -0.030811543
000040 61 24 7d bd 71 4a 9a bd c1 51 5d bd 97 cb 43 3d
       -0.06180227 -0.0753373 -0.054033045 0.04780158
000050 a6 14 1e 3e 54 93 0b 3d ee c0 5a 3e 83 26 84 3d
       0.15437564 0.03407605 0.2136266 0.06452658
000060 89 87 8b bd 7e 55 f9 bd 48 16 c2 3c 8d a0 16 bd
       -0.06812961 -0.121745095 0.023692265 -0.036774207
000070 37 94 31 3e 7f 42 50 3e 48 85 17 3e 9d b4 34 bd
       0.17341696 0.20337866 0.14796937 -0.04411756
000080 c3 70 b0 3d d3 77 5c bc 95 a5 80 3d c7 10 dd 3c
       0.086152576 -0.013456303 0.06281582 0.02698554
000090 af 5c 41 bc 85 2f eb 3d c8 9d 2e 3b 12 bb 23 bc
       -0.011801883 0.11483673 0.0026644338 -0.0099933315
0000a0 91 0b 40 bc 28 39 02 bd a9 68 c6 bb 2e 6a d4 bd
       -0.011721508 -0.03179279 -0.006054957 -0.10371815
0000b0 df 9c 6a bd 68 90 d5 bd 51 ef e3 3d 36 88 01 3e
       -0.05727851 -0.10427934 0.1112963 0.12649617
0000c0 f0 f1 98 bd 34 71 c2 3d 7d fa 72 3e 3c 12 f3 bd
       -0.07468021 0.09494248 0.23728366 -0.11868712
0000d0 00 18 6a 3e f4 da 08 3e 8b 61 6b bd 49 ca cf bc
       0.22860718 0.13364774 -0.05746607 -0.025365012
0000e0 ab 33 a7 3d 52 4e 78 3c f8 4d 0b 3d 13 60 b3 3d
       0.08164152 0.015155392 0.034009904 0.08758559
0000f0 5b 9c 00 3e 3a 47 99 3d e0 a4 1e 3e 24 6b 42 3d
       0.12559645 0.074842885 0.15492582 0.04746546
000100 c7 14 37 bd 9b 04 7e 3d 1b 1c eb 3c 94 dc 1c 3d
       -0.04469755 0.06201611 0.028699925 0.038296297
000110 b6 02 2c 3d 88 84 d2 bd c1 2e 1c 3e 29 48 4b bd
       0.041994773 -0.102791846 0.1525221 -0.049629364
000120 7b 79 c9 3d 4c cf 26 be d5 e5 18 3e 4a c5 7f 3d
       0.09837624 -0.16290015 0.14931424 0.06244401
000130 a7 17 49 3d c4 9b 08 bc d7 a6 78 3d f7 e5 66 3e
       0.049094822 -0.008337919 0.060705986 0.22548662
000140 7b 9b df 3d 54 28 52 3e e7 ac 5b 3e d2 83 5a bd
       0.109183274 0.20523196 0.21452676 -0.05334837
000150 0e f9 ce 3c 06 32 1a bd 89 ef 40 3e 99 95 fb bc
       0.025265243 -0.037645362 0.18841375 -0.030710982
000160 e2 c3 3c 3e b4 27 98 3e 38 0e a9 3d bb 9c 45 bb
       0.18434098 0.2971779 0.08254665 -0.0030153233
000170 55 15 4f 3d 65 4c 0a 3e d4 7d 03 bd c3 de 76 3e
       0.050557453 0.13505705 -0.03210242 0.24108414
000180 2a 6e 91 bd 38 5a 54 3c 3e 56 8f 3e 23 8c c5 3c
       -0.0710109 0.012960963 0.27995485 0.024114674
000190 37 ca 9c bd fc ba b4 3d 3f d2 f1 3d c5 ac 26 bd
       -0.07655757 0.08824727 0.118076794 -0.04069211
0001a0 3f d2 24 3e e6 b5 9f 3b 15 1f 0d bc c7 56 a0 3e
       0.16095828 0.004873979 -0.008613368 0.31316206
0001b0 85 60 3e 3d 4e f0 01 3e 64 7d 44 3e 98 43 e9 bd
       0.046478767 0.12689325 0.19188458 -0.113898456
0001c0 82 e0 03 3f 3c a7 47 3d c0 20 d0 bd cd 43 2b 3d
       0.51514447 0.04874347 -0.101624966 0.041812707
0001d0 52 70 bc 3d c8 54 65 3d 6b 09 d9 bc ce b9 4f 3c
       0.09201111 0.055989057 -0.026493749 0.012678577
0001e0 9c a1 0a 3d 7a fe 9a bd 0d df 95 bd df 3f b0 bd
       0.03384553 -0.07568069 -0.07317934 -0.086059324
0001f0 86 29 2f 3d 69 cc a7 3d a5 e0 6b 3d 40 c2 fc bc
       0.04276421 0.08193285 0.057587285 -0.030854344
000200 81 89 04 3c a3 41 19 bb 76 20 28 be 4c aa 86 3d
       0.008089424 -0.002338507 -0.16418633 0.0657545
000210 ea d4 0c be 40 8e 93 3d 3a 35 88 3d 8e ca c7 3d
       -0.13753095 0.072048664 0.06650777 0.09755431
000220 54 14 fc 3d 48 56 5a 3d ba 97 ba bc 76 3d 11 bd
       0.12308565 0.05330494 -0.022777427 -0.035459004
000230 6a ff 08 be 93 3d f2 bd 9e ce 0d 3e 8b f4 27 bd
       -0.13378683 -0.118281506 0.1384835 -0.0410047
000240 45 93 bd bd d3 1f 95 bd 37 07 07 3e 7b 4b b6 3d
       -0.09256605 -0.072814606 0.13186346 0.089011155
000250 f0 6d 8a bd 0a 5d d0 3d df da 9a bd 8b 1f 3d bd
       -0.0675925 0.10173996 -0.075612776 -0.04617266
000260 06 0e 09 be 3c 38 4f 3d d0 60 9b bc 09 4d 58 bc
       -0.13384256 0.05059074 -0.018967062 -0.01320196
000270 b3 c9 ef bc 7c 4c 68 bd a4 37 85 bd 8d 15 13 3e
       -0.029270982 -0.056713566 -0.06504753 0.1436369
000280 3f 6d e5 bd 6d 1a b9 3c 28 38 53 bd 55 d8 0b bd
       -0.11202478 0.022595609 -0.051567227 -0.034141857
000290 e9 4d ea bc 3e c8 e7 bd 22 2c b4 3d d3 c1 b8 3c
       -0.028601604 -0.1131749 0.0879748 0.02255336
0002a0 ad 10 cb 3d 67 d6 ed bd c2 7b af bc 3a 35 53 3d
       0.0991529 -0.116131596 -0.021421317 0.051564433
0002b0 8d d7 de 3c 93 fd 1a bd 2e fe 82 bc 93 b2 e9 bc
       0.027202392 -0.037839483 -0.015990343 -0.028527534
0002c0 e8 9b bc 3c 14 f6 44 bd ce 68 87 3d ba e9 88 bd
       0.02302356 -0.04808624 0.06611787 -0.06685205
0002d0 f4 0e 03 3e d5 86 d7 3d 0a ee db 3d ab 98 b4 bc
       0.12798673 0.10523764 0.10738762 -0.022045454
0002e0 59 a5 06 3c db 15 17 3d 7f 89 76 bd 14 d7 27 bd
       0.008218133 0.036886077 -0.06018972 -0.0409766
0002f0 c3 a3 c2 3d 13 bf 24 3d 92 4a a2 3c 4d 99 8a 3e
       0.09503891 0.040221285 0.019810949 0.27070084
000300 d0 78 81 ba 1e 78 0f be 5a 68 24 3d f7 70 e4 3d
       -0.0009877924 -0.14010665 0.04013858 0.11154359
000310 04 d0 b7 3d d7 bd ba bd a8 ca 2f 3e 61 fd b4 bd
       0.08975223 -0.0911824 0.17167151 -0.08837391
000320 d4 d4 34 3b 92 b8 00 3d 05 66 5c bd 1c 5f 97 3d
       0.0027592676 0.03142602 -0.05380823 0.073911875
000330 7a 94 64 bd 5d 08 d9 bd 10 64 80 3c e3 7b 2f 3d
       -0.05580566 -0.10597298 0.015672714 0.042842757
000340 7c 6a de 3d c5 9b 07 3e 83 ea cd 3d 57 1e 72 3b
       0.10860154 0.13243015 0.10054495 0.0036944353
000350 40 d9 16 3e d1 da c3 3d 3e 03 96 bd ab 35 2d 3c
       0.14731312 0.0956322 -0.07324837 0.0105718775
000360 83 df b2 bd 0d 38 38 3d de f9 06 3e 39 48 a3 3d
       -0.08734038 0.04497533 0.13181254 0.0797276
000370 98 b3 17 3e 42 cb 3e bd d4 ec 13 3e 37 48 86 bd
       0.14814603 -0.04658056 0.14445812 -0.06556743
000380 10 da 89 bd cb e7 6f 3d fd cb 39 3d ac 77 e2 3d
       -0.06731045 0.058570664 0.045360554 0.11057982
000390 c6 33 67 3c 95 47 7f 3d 79 ca f4 3d 6e 37 b1 3d
       0.014111465 0.062324125 0.11952681 0.086531505
0003a0 9f 23 3f 3e 3b 68 05 bd c5 3d 9d bd 1c 30 59 3d
       0.18665932 -0.032570105 -0.07677797 0.053024396
0003b0 64 8e 8d 3b 83 5a 77 bd ed 8a 19 3d ed 00 24 3e
       0.004319953 -0.060389053 0.037486006 0.16015978

bias_hh f4 [240]
000000 16 2f 0a 3e ed 65 2e 3e c6 86 26 3d 71 86 38 3e
       0.13494524 0.17031069 0.040655874 0.18020035
000010 17 63 8b 3b 2a 0b bc 3d 6b eb 7e 3d 0a 5a 9c bd
       0.004253756 0.09181817 0.06223623 -0.07634361
000020 de 9a 0e 3e a9 89 f0 bd f5 25 2f 3e 89 b7 75 3d
       0.13926265 -0.117450066 0.17104323 0.059989486
000030 9a a7 dd 3d 3e d5 06 be f8 d6 c8 3d b5 c2 e3 bc
       0.10822983 -0.13167283 0.09806627 -0.027802804
000040 10 07 e2 bd 62 30 78 3d a3 0e 0e 3e 63 eb bd bd
       -0.11036503 0.060593016 0.13872771 -0.09273412
000050 4b 69 17 3d fd 34 f8 3d 7d f6 04 3e dd 6a 36 3a
       0.03696565 0.12119482 0.12984653 0.0006958673
000060 2f 41 81 3d 30 d0 c5 3d d2 78 33 3d 28 33 7b bc
       0.06311261 0.09658849 0.043816395 -0.015332021
000070 db 78 88 3c 33 97 60 3e d9 c0 c8 3d 40 8d 00 3e
       0.01665919 0.21932678 0.09802408 0.12553883
000080 b9 f4 94 3d c9 ad 29 bd e6 82 50 3d fd b9 94 3d
       0.0727324 -0.0414255 0.050906084 0.07262037
000090 80 a0 5b 3d c9 7e 62 bd 74 35 b9 3b 5b 76 85 3d
       0.05361986 -0.055296693 0.005652124 0.06516715
0000a0 62 54 12 3c 9e d3 87 3c ca 6f 22 3e 09 b6 5e bd
       0.008931251 0.0165804 0.15862957 -0.05437282
0000b0 af 25 a8 bc bf 1d 06 3e 6f 79 c4 3d e3 a2 c3 3d
       -0.020525781 0.13097285 0.09593474 0.095525526
0000c0 f1 84 14 bd fd e9 86 bd e5 1a 7e 3b 23 52 3f bd
       -0.036259595 -0.065875985 0.0038773355 -0.04670919
0000d0 e8 24 6a 3e 93 30 46 3e 3d da 1b 3d 33 59 3e 3e
       0.22865641 0.19354467 0.038049925 0.18588714
0000e0 9d 47 8b bd 9c 16 11 bc c9 78 27 3e 21 88 0d 3e
       -0.068007685 -0.008855488 0.1635467 0.1382146
0000f0 1d bd bf bc c6 08 de 3d e6 d2 b2 3d 72 e0 17 bc
       -0.023405606 0.10841517 0.08731632 -0.0092698205
000100 5b 54 94 bd 22 45 71 3d 9c 99 38 3e 5b f1 b6 bd
       -0.07242652 0.05890382 0.18027347 -0.08932754
000110 e1 e0 c9 3d c8 c8 11 bd bc 93 cb 3d f6 4d a2 3c
       0.09857345 -0.03559187 0.099402875 0.019812565
000120 2e e2 cf 3d a6 93 38 be ee 27 d1 3d 2f 84 1c 3c
       0.10150562 -0.18025073 0.10212694 0.009552999
000130 80 ad 0c bd 5c 4e 14 3d 24 a5 d3 3d 6b bb b6 3d
       -0.03434515 0.03620754 0.103342324 0.08922466
000140 0c 9b 2a 3e 0f 16 53 3e c0 45 60 3e af 20 0d 3e
       0.16660708 0.20613883 0.21901608 0.13781999
000150 c2 a2 57 3b fb db 6a bc 17 a0 c9 bc cf cf 2b be
       0.0032903408 -0.014334674 -0.02461247 -0.16778491
000160 66 74 44 3e ae a9 94 3e 52 07 e6 bc 7c 2f c0 3d
       0.19185027 0.29035705 -0.028079662 0.09384057
000170 84 f9 ac 3d b1 10 e5 3d 7a 4a 98 bd f9 23 0d 3e
       0.08446029 0.11184824 -0.0743608 0.13783254
000180 d9 39 00 bd ef 1a 66 bd 9e 8f 42 3e 79 c1 ec 3d
       -0.031305168 -0.05617803 0.19000098 0.115603395
000190 21 29 be 3c e4 d4 2a bd ed 1b 87 bc 07 ff 21 bd
       0.023212971 -0.041706935 -0.016492808 -0.039549854
0001a0 ae cd 46 3c f3 31 9d 3d a9 84 2d 3e e3 4f c4 3d
       0.012133999 0.07675543 0.16945137 0.0958555
0001b0 bf 99 45 bc e5 f9 2e 3d 35 f1 d8 3d bc f7 9a 3d
       -0.012060582 0.042718787 0.105928816 0.07566783
0001c0 a1 3c 0e 3f c5 6f f5 3d b0 41 3f bc c6 b9 77 3c
       0.5556126 0.11984209 -0.011673376 0.015119975
0001d0 ec 12 da bc 4e a0 e9 3d 61 79 65 3d 4c 23 98 3b
       -0.02662035 0.11407529 0.05602396 0.0046428796
0001e0 44 c7 29 bd a3 d6 52 bd 29 18 a8 3d 30 97 c4 bc
       -0.0414498 -0.051474225 0.08207733 -0.023997873
0001f0 89 fd 02 3e d6 f0 2a 3e 26 15 08 bd b8 17 2a bc
       0.12792028 0.16693434 -0.033223294 -0.010381632
000200 fc 2a 1a be 7c 7f b4 bd b1 da 2d be 1e 6b bf bd
       -0.1505546 -0.08813378 -0.16977955 -0.09346603
000210 58 4e c9 3c 5d 0d e7 3b 45 62 bc bd 1e 1d d4 3d
       0.02457349 0.0070511536 -0.09198431 0.10357116
000220 05 05 aa bc 6d 62 2a 3c bc 40 19 be 04 a9 2b 3b
       -0.020754347 0.010399443 -0.149661 0.002619327
000230 0b 91 fd 3b d2 b5 8d bc e4 9e b7 3d f2 a0 ba 3c
       0.0077382377 -0.017298613 0.08965853 0.022781823
000240 7e 5d 33 3c a1 70 c7 bd 76 a4 a8 bc ab 91 bc bd
       0.010947583 -0.09738279 -0.020586234 -0.092074715
000250 97 75 b6 3d ac 47 ce bc 3d 27 c6 3d fc 58 a9 bd
       0.08909147 -0.02518066 0.09675453 -0.082689255
000260 26 69 be 3d 77 af ff 3d 78 15 d8 3d 71 53 c1 3d
       0.09297399 0.12484639 0.1055097 0.09439743
000270 3c f6 51 3d 33 64 f8 3d 8c 12 a3 3d f6 64 89 bd
       0.051260218 0.121284865 0.07962522 -0.0670871
000280 25 e3 96 bc 50 e0 ba 3d 2d ea 0b be 5a 64 2a 3e
       -0.018418858 0.091248155 -0.1366355 0.16639844
000290 37 11 5f bd 83 e7 b2 bd 31 8d d8 3d 8e 70 b8 bd
       -0.054459777 -0.087355636 0.10573805 -0.09005843
0002a0 f5 ba a8 3d e7 b6 8c bd c6 8e e3 3d 4f c0 c9 3d
       0.08238784 -0.06870823 0.11111216 0.09851133
0002b0 0c 03 2d 3e 6e 26 dd 3c 15 9b b3 bd 30 1a 70 bd
       0.16895694 0.026995864 -0.08769814 -0.058618724
0002c0 dc 06 f2 3a b6 a7 3b be 8a a0 fa 3d 07 3f fc bd
       0.0018465179 -0.18325695 0.12237652 -0.12316709
0002d0 ba a8 08 3e bc 5a 1a 3e 52 86 3f 3d 20 4f 32 3e
       0.13345614 0.15073675 0.046758957 0.17412996
0002e0 79 cc dc 3b 3c a2 ce bd bb 2d f7 3d 40 f6 09 bd
       0.006738242 -0.100895375 0.12069269 -0.033682108
0002f0 41 e7 0d 3e ac 5c c1 3c f9 8f a8 3a 9d 60 27 3e
       0.13857748 0.02360376 0.001286029 0.16345449
000300 e0 8a 86 bd c0 0c 30 be 89 8e fe bb f5 1a 41 3e
       -0.06569457 -0.17192364 -0.0077684564 0.1885794
000310 01 77 25 3d 63 1b 08 3e d0 cc 11 3e d6 d5 b5 3d
       0.040396694 0.13291697 0.14238286 0.088786766
000320 7c dd 12 3e e6 b5 52 3d 20 be 08 3e 3d 19 39 3b
       0.14342302 0.051443003 0.13353777 0.0028243803
000330 bb 87 6c bd f7 68 88 bd 46 01 2c 3e e9 02 a7 3d
       -0.05774663 -0.066606455 0.16797361 0.08154852
000340 21 50 61 3d f8 e8 19 3e f3 0b 09 3e 15 06 8a 3d
       0.055008058 0.15030277 0.13383465 0.06739441
000350 57 cd c8 3d ca 65 6b 3d 1f b3 e0 3d 16 55 ff 3d
       0.098047905 0.05747012 0.10971665 0.12467401
000360 96 22 31 bd 6a a9 f3 3c 8d 93 11 3e 0d 8c fe 3d
       -0.043245874 0.029743869 0.14216442 0.12429056
000370 90 d7 f7 bc 7a fe 5c 3b 8c d7 f1 3d d2 ef 42 bd
       -0.030254155 0.0033721016 0.118086904 -0.04759199
000380 bf 5b 1f bd 29 01 28 bd d9 69 8c 3d d0 ad 88 3e
       -0.038905855 -0.04101673 0.06856126 0.26695108
000390 2e 7c cc 3d 23 2f f6 3d f2 25 22 3e c4 5f 17 be
       0.09984623 0.12020709 0.15834787 -0.14782625
0003a0 3a 4d 83 3e e0 cf 03 3d e4 ae da bd ed 43 99 3c
       0.25644857 0.032180667 -0.10677889 0.018709147
0003b0 01 83 29 bd 33 78 c6 bc 9c b0 84 bd 3c 88 ca 3d
       -0.0413847 -0.024227237 -0.06478998 0.09889266

weight f4 [3, 12]
000000 f9 f7 f7 bd c9 53 96 3e a6 56 3b 3e 69 c9 76 be
       -0.12107844 0.29360798 0.18294773 -0.2410027
000010 3c 2d 05 be 1b aa b1 3e dd 5c 52 be 13 dd 86 be
       -0.13005537 0.34700093 -0.20543237 -0.2634054
000020 86 1e a4 3e f8 58 2d bc b6 23 60 3e db d6 87 bd
       0.32054538 -0.010580294 0.21888623 -0.06632777
000030 0f c1 8a 3e 19 83 79 3d 37 d2 61 3e 82 b7 14 be
       0.27100417 0.06091604 0.22052847 -0.14523128
000040 8c 16 39 3e 43 c6 86 3d 68 b0 71 3d ac 40 1e be
       0.18075007 0.06580784 0.059006125 -0.15454358
000050 ff 32 9a 3e 5e ae 78 3e 39 76 eb bd 8f ad 4c be
       0.30117032 0.24285266 -0.114971586 -0.19988082
000060 20 b6 8d bc cb 1a 72 3e 75 8c 7e 3e 06 0c 1e be
       -0.017298758 0.23643033 0.24858268 -0.15434274
000070 e3 ac 05 be 21 12 83 3d 2c 8f 86 3e d8 f6 77 3d
       -0.13054232 0.06399942 0.26281106 0.060538143
000080 77 2f a5 bd d6 6e 81 3e 4e d2 b5 bd 48 b6 65 be
       -0.08065694 0.25279874 -0.08878003 -0.22432816

bias f4 [3]
000000 af 41 f8 bd 63 ab 29 be dd 69 05 3e
       -0.12121903 -0.16569285 0.13028665
