models/paramsearch_0.001595927839543812_0.5475287299898006_0.2710715336156402_99.pt (torch, 33112 bytes, 7 tensors)

weight_ih f4 [240, 6]
00000000: 91a3 433e 82d5 473d 4e4a 3dbe 371e 43bf
00000010: 9b94 cabe f128 e1bd 008c 5d3e 618b 283d
00000020: d8c1 84be 4eb1 973d 8ee9 6ebd c06c 4bbd
00000030: 13d8 153e e685 3dbe e329 8fbb f88c e8be
00000040: 69c2 30be 1db5 003d 7d86 743e 34f2 1fbe
00000050: ba41 3fbe f680 81bf 9f9c 9a3d 01f9 a53d
00000060: 3b30 913e 1401 f73c bf30 183e fe48 40bf
00000070: e6bf 9fbe ef5e 3a3e cb44 103e b670 293f
00000080: f7cd 9abe 8bf1 14bf 3ca0 7bbf 8515 9cbd
00000090: 4e4e 773d 1548 c3bd f629 5fbd 26d0 b9be
000000a0: 21ef fdbe 51fc 88bd c6d7 efbc 7850 dd3e
000000b0: 23b6 7b3e 7c2f 6f3f f630 f83d 8e70 9bbd
000000c0: d61d a8bc aa68 51be a005 893d 6fd5 2abf
000000d0: 2f26 0cbe bbfe c23c af33 dc3d ee55 5a3e
000000e0: 50e3 1d3a 09d2 67bf 4b9f 8abe 3dd6 1b3e
000000f0: b81d ff3d 2881 893f 3c34 83bd 5864 1bbf
00000100: 46e1 e43e 513f 033e 42c5 d33d 214a ea3e
00000110: 877c 8f3c 8131 51bf 4a67 8abf 49a7 703e
00000120: 4b55 343c 9d62 053f 1da1 3bbe efa6 24bf
00000130: e2f6 56bf ee10 58bd 17b5 b1bc d574 1ebe
00000140: d825 9ebe bb69 debe eafd a5be f072 063e
00000150: bf75 093e d5c6 123f 93a9 bfbd a993 35bf
00000160: f29f 22be 918b ac3d 10f5 5a3e 1a18 013e
00000170: 97e5 8bbd 23b9 1dbf f7f1 cdbd aa08 b4bc
00000180: 73a8 a73d ffdd a3be cc39 c6bc 41f7 2cbf
00000190: 9a5c 3bbd a961 a9bc 6249 6d3d ead5 393d
000001a0: c0fd 823d c17e 32bf 70c5 fdbe 7a35 dfbd
000001b0: efb5 f83d 9e54 053e 9b2c fc3c dba7 ecbe
000001c0: 6966 49bf f1d0 c8bc cfde 2f3e 1652 a53f
000001d0: 9de9 513e fbed f83d a18f d9bd 03d1 903e
000001e0: a147 36bd f9c1 6b3e 794f 203e 3387 0dbf
000001f0: 6fb7 88bf 2c7a 02bd ba2a a2bc 4f99 bdbd
00000200: 80cf e13d 9034 0cbf b4dd 02bf a628 a7bd
00000210: 21ff 933d 6679 75be 0e52 b8bd 0560 2ebf
00000220: 053b b43c 456e 2dbd 9a8b b63e bdab 213f
00000230: 2ae6 09bd 71c9 853e 243c 24bf 19cd 773e
00000240: 3855 d83d b5b5 57be dfa6 0abe eaf1 80bf
00000250: ad7a 8dbe a961 0ebc 9049 ddbd c1b6 253e
00000260: a05c fb3c b9c1 0f3f 8ca1 2dbe 192b bebd
00000270: add8 003e f091 bf3e 9cb5 e43d efe4 3ebe
00000280: 654c f9be faab be3d 8804 863d 0ee6 e9be
00000290: 4c5e 08be ab1a 0fbf 937f 37bd 1de0 edba
000002a0: 5f08 b23c 5cbe 123f 69aa 703e 85c6 433f
000002b0: d62d 2a3e d512 053d 9fd0 df3c 5af1 d5be
000002c0: fa92 b2bd 3a32 1fbf e4bc ae3b 0502 0f3e
000002d0: 69f4 473d 2a36 083f 8802 a7be 0c7b 91be
000002e0: 7980 5fbf 05a3 4ebd 5724 d03d 0614 c9bd
000002f0: 2f21 e03d 2ed1 68bf 9cd7 a9be 4a4b 8f3d
00000300: 469e 1e3e 3268 903e ce8c f0bd 6d52 29bf
00000310: 5c0b 59bf 4496 c43d 5d93 2cbd 68f7 1d3f
00000320: 5845 153f 0d2e 3dbd ee9f 99be a9d7 a93e
00000330: 413b 69bd 6465 0b3f e246 febc 08b3 bbbe
00000340: 2c38 4bbf 786e cfbd e016 9dbd 4214 c93e
00000350: 3a16 ad3e f62e 873f dddf c23e adec d93d
00000360: ef9f fd3d 2875 1ebe 0da3 d33d 21e6 3dbf
00000370: c187 e2be 3d98 233e d561 9fbc e97a 36bd
00000380: ec03 9abd 55be 40bf 9b4f 7fbe 40fc 28be
00000390: e4b1 f03d 96a8 803f 56df 99be 4a80 2dbf
000003a0: 84bd c8be c948 1cbe 4f99 403e 9fa7 5d3f
000003b0: c529 f83d c296 9b3e a259 2f3e d5a0 fb3d
000003c0: 51a9 0f3e a085 8ebe 4055 58be 4c7b 85bf
000003d0: 2fd1 8abd 4576 0dbe 122b 333e 6180 923e
000003e0: 625d e13d 91fa c0be 3f68 71bd b41e 10be
000003f0: d10f 293c 4f27 693f 56bc b33d 89ad 253f
0.19105364 0.0487876 -0.18485376 -0.7621798 -0.39566502 -0.10994137 0.21635437 0.041148547
-0.2592914 0.07406865 -0.058328204 -0.04966426 0.14633207 -0.1850811 -0.004369007 -0.4542005
-0.17261662 0.031422723 0.23879428 -0.15619737 -0.18677416 -1.0117481 0.07549404 0.08104134
0.2835711 0.030151881 0.14862345 -0.7511138 -0.31201094 0.18200277 0.14088742 0.6618761
-0.30235264 -0.58181065 -0.98291373 -0.07621292 0.06037741 -0.09535233 -0.054483376 -0.36291617
-0.49596503 -0.066887505 -0.029277693 0.43225455 0.24581198 0.9343183 0.121187136 -0.075898275
-0.02052204 -0.20450082 0.06690526 -0.66731924 -0.13686441 0.023803106 0.10752045 0.21321842
0.0006022947 -0.90554863 -0.27074656 0.15218444 0.1245684 1.074254 -0.06406447 -0.6069999
0.4470312 0.12817122 0.10340358 0.4575968 0.017515434 -0.8171616 -1.0812771 0.23501314
0.011006664 0.52103597 -0.18323179 -0.6431722 -0.83970463 -0.05275052 -0.021692796 -0.15474255
-0.30888247 -0.4344004 -0.32420284 0.13129783 0.13423823 0.57334644 -0.093585156 -0.70928437
-0.15881327 0.08425058 0.21382546 0.1260685 -0.068309 -0.6161062 -0.10055917 -0.021976788
0.08186426 -0.32005307 -0.024197482 -0.6756478 -0.04574261 -0.02067645 0.05793131 0.04537002
0.06396055 -0.6972466 -0.49564695 -0.10898872 0.12144076 0.1302056 0.030782988 -0.46221814
-0.7867189 -0.024513694 0.17174838 1.2915676 0.20499273 0.12154766 -0.10623098 0.28284463
-0.044501904 0.23023213 0.15655316 -0.5528442 -1.068098 -0.031854793 -0.019795764 -0.09257757
0.110259056 -0.54767704 -0.5111954 -0.0816205 0.07226396 -0.23972091 -0.09000026 -0.68115264
0.022000799 -0.04234149 0.35653383 0.63152677 -0.033666767 0.2613025 -0.6415427 0.24199332
0.10563129 -0.2106541 -0.13540219 -1.0073826 -0.27632657 -0.008690276 -0.108050466 0.16182996
0.030683815 0.5615497 -0.16956156 -0.09285564 0.12582655 0.3741603 0.11167452 -0.18642019
-0.48691097 0.09310146 0.06543833 -0.4568333 -0.13317221 -0.5590007 -0.0447994 -0.0018148456
0.021732507 0.57321715 0.23502506 0.7647479 0.16619048 0.032488663 0.027321158 -0.417857
-0.0871944 -0.62186015 0.005332576 0.13965614 0.048817072 0.5320765 -0.3261912 -0.2841419
-0.8730541 -0.050448436 0.10163181 -0.09818272 0.10943829 -0.9094418 -0.3317231 0.06996782
0.15490064 0.28204495 -0.11745606 -0.66141397 -0.8478296 0.095989734 -0.042132724 0.61705637
0.58308935 -0.046186496 -0.3000483 0.33172348 -0.056941275 0.54451585 -0.031039659 -0.36660028
-0.79382586 -0.10128492 -0.07670379 0.39273268 0.3380602 1.0561206 0.3806142 0.106408454
0.123840205 -0.15474379 0.10333834 -0.74179274 -0.44244197 0.15976043 -0.01945583 -0.04455081
-0.07520279 -0.75290424 -0.24932711 -0.16502476 0.1175268 1.0051448 -0.30053204 -0.6777388
-0.3920709 -0.1526214 0.18808483 0.86583894 0.12117342 0.30388457 0.17124036 0.12286536
0.14029433 -0.27836323 -0.2112627 -1.0428252 -0.0677818 -0.13814647 0.17496899 0.2861357
0.110041395 -0.37691167 -0.058937307 -0.14074212 0.010318712 0.91075605 0.087761566 0.6471792

weight_hh f4 [240, 12]
00000000: 9f39 e8bd d52a 8d3d 0786 b3bd 62fb 5e3c
00000010: 3c84 483e 3112 833e 6f23 13be bcf4 dabd
00000020: afea 9d3e d150 2bbd 4a4f 753e bb64 13be
00000030: f166 153e 1345 09bc da35 73be 750f b13d
00000040: 7ba9 e73e 6fe3 d43e 5dd3 f93d b69f 0ebf
00000050: 2acf 2e3f 05bb ebbd 4fde 153f b7d5 7ebe
00000060: 97d1 0b3d 3958 8e3c d8fd a8bd c4b8 06bd
00000070: 5899 733d 5aea b13d 4012 1abe 17cb ddbd
00000080: 6790 0a3d 09ff d7bd 483f 42bd cf31 053d
00000090: bc02 4b3c c391 3fbd 7933 de3d 85e0 023e
000000a0: e350 ec3a 5a7c e2ba 4bdb 2f3d 12ae 463e
000000b0: 1690 4b3e a5cd a1bd 669b b0bc e048 523e
000000c0: e1ba 483e d350 f9bd b173 943e c82c 77be
000000d0: 0794 883d 1114 1c3c 6828 c33d 9401 d1bc
000000e0: 83c3 563e 06d4 44bd 4840 303e bffa 413e
000000f0: 5667 0c3e b9d6 b33e d02d a93e 30d0 86be
00000100: 1e09 193e 2fa7 23be aec7 afbe dff3 acbe
00000110: be72 26be 4e30 a13e 413c 023e 809b 69be
00000120: 86ea cc3c 9b7a 3c3e 94ff a6bd 7e61 8dbd
00000130: eeb1 2e3d dca3 123d d653 a6be a8e8 0ebe
00000140: f98c 7fbd e250 913e 4794 c2bd 1a3b d1bb
00000150: 4dd0 60bd 6491 93bd fc14 0a3e 7146 6f3e
00000160: a3e8 f83c 6129 533d bd7b 123e 87dc 463d
00000170: 8304 bc3d c861 12be e377 72bd 18ac 5e3e
00000180: c254 77bc 333e 9bbd a878 0ebd 4db2 0a3d
00000190: 7fb9 4b3d 9cc0 a93d 5be8 5c3c ad3f 153e
000001a0: 2aed e83c 23d6 f7bd ec47 6ebd bc9b c23d
000001b0: 6dd6 0e3e 1e7b 023d e55d 2f3b 1def 5dbe
000001c0: 3b74 343d 9fa8 1f3e d886 05bb 7580 e3bc
000001d0: a243 cebd 5982 5e3d 0275 693c 5364 c3bd
000001e0: 9d7b 4e3e 8c00 dc3d 0a10 12be d453 993e
000001f0: 2f5d 2f3e bde8 6c3d 77a1 033c d890 5bbe
00000200: 36eb 8c3e f751 e6bd b693 993e 488f f6be
00000210: 66ce 873e 7340 8f3d f36c 133d 27ff 47be
00000220: 38b6 143d 4553 b6bd 2b19 64be 5044 98bd
00000230: 14a7 67bc be6a c23d b6a0 783d ef2a c9bd
00000240: 0689 1e3e 58a5 943c c9a2 183e 1aff 3bbe
00000250: a874 73bd 2517 9cbc b9ab 70bd 94ef 24be
00000260: d81c e2bc c1d3 983e 558f 9a3d d642 9ebd
00000270: 3154 8fbd 40d2 4fbd e446 3e3e bdd2 5f3e
00000280: f755 1b3e 81af 14bd e8c6 233e cf6c da3c
00000290: 0a75 133e 595a 63be cf61 91bc 9f5d 74bd
000002a0: c76c 573e cc23 a63e c0c9 40be 0bd4 93be
000002b0: d7c7 d23e e809 b73e fde2 e6be 9eaa dfbe
000002c0: cd0b 763d cfaa c13e 1149 c73e b9ba 35be
000002d0: 6fd3 423e d318 093e 1ec6 c33d 1355 aabe
000002e0: 31c2 243e 252f 633d 5fc4 70be 603a a4be
000002f0: 9520 9e3c cb0a eb3d e7b0 9c3e c2b8 b4bd
00000300: 5248 18bc 2348 47be 7e94 c63c eaed a23d
00000310: 61e8 89bd 9847 9d3c 84eb 2abc 4c8d 553d
00000320: 903b 9abd 2f01 8cbe f5ec 82bd 238a 10bd
00000330: 0b7b ccbd b0b8 df3d 8e89 1fbc 0d9c 2a3d
00000340: 0570 2fbe 0cfe 3fbe 536f d23b 1efb abbd
00000350: 4136 ebbd edb1 10bd 27bc d8bc 96f2 a1bd
00000360: 001a 383e 56ff 263e 257b 033e 9bf2 76be
00000370: 82fe c23d b05a 06bd 8f37 89bd c425 58bd
00000380: 36d2 c4bd 7439 513e 2b8a acbd e25c 903d
00000390: a880 cd3e fb70 d0bd 96d9 5d3e c347 9dbb
000003a0: 5afd b23e 803d ca3e 2b33 1f3e 1ae4 eabe
000003b0: 2d8a ba3e 97db 663d 6a65 9e3e 66dc 85bb
000003c0: a2d1 d3bd f701 25bd a21b 89bb 28c0 55be
000003d0: 6d2d 11be a45f 74bd 5b1f 4bbe b277 55bd
000003e0: 40b6 c0bd 72d9 d73c 2173 983b f094 3b3e
000003f0: 0a52 1cbd 6ef4 e83d 92d8 933d 6a5b e5bc
-0.11339115 0.06892935 -0.08765798 0.013609739 0.19581693 0.25599816 -0.14368986 -0.10691211
0.30843112 -0.04182512 0.23956028 -0.14393894 0.1459005 -0.008378285 -0.23751011 0.08645526
0.4524649 0.41579768 0.121985175 -0.5571245 0.6828486 -0.115102805 0.5854234 -0.24886213
0.034135427 0.017376052 -0.08251542 -0.03289105 0.059472412 0.08687277 -0.15046024 -0.10829752
0.03382912 -0.10546691 -0.04742363 0.032518204 0.012390789 -0.04676987 0.108496614 0.1278096
0.0018029477 -0.0017279491 0.042933743 0.1940234 0.19879183 -0.07900552 -0.021558475 0.20535612
0.19602539 -0.12173619 0.28994516 -0.24138176 0.06668859 0.009526269 0.09529191 -0.025513448
0.2097302 -0.048053764 0.17212021 0.18943308 0.13711295 0.35124758 0.33042765 -0.2633071
0.14944884 -0.15981744 -0.3433203 -0.3377981 -0.16254708 0.31482166 0.12718298 -0.22813225
0.025014173 0.18406145 -0.081542164 -0.06903361 0.042650156 0.0358008 -0.32485837 -0.13955939
-0.0623903 0.2838202 -0.09500938 -0.0063852193 -0.05488615 -0.072054654 0.13484567 0.23366715
0.030384367 0.051553134 0.14305015 0.048550155 0.09180548 -0.14295113 -0.059196364 0.21745336
-0.015095891 -0.07580223 -0.034783036 0.033861447 0.04973745 0.082886904 0.013483132 0.14575072
0.028433401 -0.1210139 -0.05817406 0.0950236 0.13948984 0.031855695 0.0026758846 -0.21673246
0.04405616 0.15591668 -0.0020374563 -0.027771214 -0.10071494 0.054323528 0.014249088 -0.0954062
0.20164342 0.10742292 -0.14263931 0.29946768 0.1712539 0.057839144 0.008034102 -0.21441972
0.27523202 -0.11246102 0.29995507 -0.4815619 0.26524657 0.069947146 0.035992574 -0.19530927
0.03630659 -0.08902601 -0.22275226 -0.074349046 -0.014138956 0.09493016 0.06070014 -0.09822642
0.15481958 0.018145248 0.14905848 -0.18359032 -0.059437424 -0.019054005 -0.058757517 -0.16107017
-0.027601644 0.29849055 0.0754687 -0.07727592 -0.0699848 -0.05073762 0.1858173 0.21857734
0.15169512 -0.036300186 0.15993845 0.026663212 0.14400116 -0.22202434 -0.017746834 -0.059659597
0.21037589 0.32449186 -0.18826962 -0.28872713 0.4116809 0.35749745 -0.45095053 -0.43684858
0.060069848 0.3782563 0.38922933 -0.1774701 0.19025968 0.13388376 0.09559272 -0.3326803
0.16089703 0.055464882 -0.2351241 -0.32075787 0.019302646 0.11476668 0.30603716 -0.08824302
-0.009294586 -0.19461112 0.024240728 0.07955535 -0.06733776 0.019199178 -0.010432128 0.052136704
-0.07530892 -0.27344653 -0.06392852 -0.035287987 -0.09984406 0.10923898 -0.009737385 0.041652728
-0.17132576 -0.18749255 0.0064219623 -0.08397506 -0.114849575 -0.035325933 -0.026456906 -0.07907598
0.17978668 0.1630834 0.12839945 -0.24115984 0.095212 -0.03280133 -0.0670005 -0.05277039
-0.09610407 0.20432073 -0.08424791 0.07048966 0.4013722 -0.10177799 0.21665034 -0.0047998144
0.34958917 0.39500046 0.15546863 -0.45877153 0.36433545 0.05636176 0.30936748 -0.0040851114
-0.10342719 -0.040285077 -0.0041842023 -0.20874083 -0.14177485 -0.059661523 -0.1983618 -0.052116103
-0.094097614 0.026348803 0.0046523963 0.18318534 -0.038164176 0.11374746 0.07219042 -0.027997691

proj f4 [12, 60]
00000000: 1eac 40be d922 01bd a35c a3bd 6b16 eabd
00000010: 1369 59be 763d 52be 268b 53bc 680f 4a3c
00000020: d2a9 d5bc 866e 873d f75c c83d cd1d 783e
00000030: cde0 f6bd db59 bf3d b00c 193e 9fef 493e
00000040: e835 a4bd 5a43 ffbd e735 8cbe c9e5 533c
00000050: ebb6 44be d00c 36be 4eff 88bd 925f 403e
00000060: e972 18bd 8ce9 b0bd 7dc8 433d eca9 f6bd
00000070: 2b75 de3c 7251 86bc 261e 493b fe10 04be
00000080: 3435 49be 6902 babd 8631 a8bc 0da1 263e
00000090: 022c 303e 53c7 07bc 8816 5cbd f3f0 ca3d
000000a0: 5db5 1abe 64ba b73c 62c3 01be 4f32 96bd
000000b0: 1565 ea3d fa9f f33d 3435 0fbd c5ea 8dbd
000000c0: 59d5 13bd b948 3f3d b7fd 813c 1b09 1d3e
000000d0: a4e0 573d e84c 103e d88c b4bc 9a1c 3fbe
000000e0: 0cec 2e3e 62c2 a43d 789d bcbc c6cb 4dbd
000000f0: 57c9 2d3e 4895 393e 1c89 babd c9c1 32be
00000100: a5c5 653e 5a19 d2bc cc3a 003e cc9a b4bd
00000110: 79d6 8fbd 3e3e b43c 4ec7 243c 69bc 5fbd
00000120: 5fd8 aebd dd02 c03d bc03 4abe 2d18 2c3c
00000130: 79a1 903d f115 4c3d 1401 883d b9d4 54be
00000140: 8333 ab3b 9f92 d03d 8954 de3d ec9b 013b
00000150: b01d c7bd 79dd a8bd 6640 9cbd 29a2 ed3d
00000160: 577e cebd f6b1 f5bd 0d24 203d 5535 eb3d
00000170: 42a7 f03d e0b8 14bd 2dd1 ea3d 5547 8c3d
00000180: e8c4 033e aec1 98bd 72c9 bbbd 40ff 703d
00000190: 2850 b0bd fdf4 893b b062 c73d 9f2f 013d
000001a0: daf3 543e f6c3 313b 7ee7 8d3d 7605 dabc
000001b0: 33ea 423e 6f48 24be 983a 053e d34b 15bc
000001c0: 5000 383e d583 87bd 292a 583d 2b08 4cbd
000001d0: 8463 783d 1975 f3bd 4336 2a3e d7da e9bc
000001e0: 1f13 19be e19c aebe c712 01be 6835 303e
000001f0: 73d4 90be 414b f7bc bad4 b53d add3 873e
00000200: cb88 19be 4d63 43be 7c06 3abe d0ab 383e
00000210: 3d74 703d 431a b13d f8be 8e3e 02e6 343d
00000220: d088 9cbd 57c5 0ebd 141e afbd 1cd7 2c3e
00000230: 5a0f 86be d36a 85be a0ba e53c aef6 8bbc
00000240: 9756 de3d 3d3d 5dbe 6de9 d03d 1e2f a33d
00000250: d6ad d33d af99 063e 1538 51bd fc64 ddbd
00000260: 155e 7fbe 4a43 50be 62a8 dc3d c44c 17be
00000270: 5412 f8bd 23e4 5a3d a526 383e e48f 5dbe
00000280: fea6 58bd 1536 4dbe 77e3 7fbe f487 8939
00000290: 9cdd 9dbe 7b97 4c3e d30a 89bb 1532 c7bd
000002a0: 24a6 653c 1b7a b5bd 44b5 1ebd b8cb 1e3e
000002b0: 67e5 d2bd 419b 61be ac0a 83bd 7a6c 92bd
000002c0: 8aca cc3d eb67 063d 5501 1d3d dc95 993d
000002d0: 30ee 08bc 297f 03bb 9cb3 8dbd 8b91 22bd
000002e0: f6bc f0bd b3ec 6b3d 7483 4cbd 537c 2abd
000002f0: 866f 56bd 87c1 923d 21f3 3b3d c819 dc3c
00000300: 6641 a2bd 03db 253d f180 b4bd 65be 85be
00000310: 03a9 b7bc 08c7 67bd 0517 1ebd 8c89 733e
00000320: 66f3 e5bc d5a8 13bd ee7a b13c 7db6 c6bd
00000330: 1ac3 afbc dc4b 95bd d7fd d53d cdb5 acbc
00000340: 5bc3 cebd 3f02 893c f756 f6bd 0a8a 8dbd
00000350: 8426 49bd 4f1c e0bd 1a0d 083d 8709 183e
00000360: 5a33 b7bd d997 d4bd 9fc0 743b 55d3 afbd
00000370: d2ed 583d 7ddf 24be 579c 703d 0049 67bd
00000380: 825f cdbd 7b5b cbbc 12c6 87bd 6fa6 103c
00000390: 5f9a ce3d 74f6 7bbd 2187 a83c 0b01 76be
000003a0: 3a6e f3bd 0226 263e 7cb7 42be 90d1 ef3d
000003b0: b077 153e 3398 1c3d e236 5bbc 8e71 843d
000003c0: 801e f53d 29e8 2fbe ad67 733c 0018 cf3d
000003d0: d8b3 383d c28d 0bbd 282d 8b3c ecb3 893d
000003e0: ac34 9bbd 7ceb 29be fb94 143c 65e5 dc3c
000003f0: efd5 cbbd 3e79 65bc a2c5 883e 5ffd 01bd
-0.18815657 -0.031527374 -0.079766534 -0.11430057 -0.21231489 -0.20531258 -0.012911594 0.012332775
-0.026081953 0.066128775 0.09783357 0.24230118 -0.12054596 0.093433104 0.14946246 0.19720314
-0.08018094 -0.12464018 -0.27384874 0.012933203 -0.19210403 -0.17778325 -0.066893205 0.18786457
-0.037218962 -0.086382955 0.047798622 -0.12044129 0.02715548 -0.016396258 0.0030688136 -0.12897107
-0.19649202 -0.09082491 -0.020531427 0.16272373 0.17204288 -0.008287269 -0.053732425 0.09909239
-0.15108247 0.022427745 -0.12672189 -0.07333814 0.11445061 0.118957475 -0.034962848 -0.06929544
-0.036092136 0.046700213 0.015868051 0.15335505 0.05270447 0.14091837 -0.022039816 -0.18663254
0.17082232 0.08044888 -0.023024306 -0.05024316 0.16971336 0.18123353 -0.09108183 -0.17456736
0.22438677 -0.025646854 0.12522429 -0.08818588 -0.07023329 0.022002336 0.010057284 -0.05462304
-0.08537363 0.09375546 -0.19727987 0.010503811 0.070620485 0.049825612 0.06640831 -0.20784272
0.0052246465 0.10184216 0.108559676 0.0019776775 -0.09722459 -0.082453676 -0.076294705 0.11603195
-0.10082691 -0.11996834 0.03909688 0.11484782 0.11750652 -0.036309123 0.11465678 0.06849543
0.12868083 -0.074588165 -0.09169282 0.058837175 -0.086090386 0.004210113 0.0973562 0.031539556
0.20796147 0.0027124858 0.06928919 -0.026613932 0.19034652 -0.16043256 0.13010633 -0.009112316
0.17968869 -0.06616942 0.052774582 -0.049812477 0.06064178 -0.11887569 0.16622262 -0.028546734
-0.149487 -0.34104064 -0.12604819 0.17207873 -0.28287086 -0.030187251 0.08878465 0.26528683
-0.14993589 -0.19080849 -0.18166536 0.18034291 0.058704603 0.08647587 0.27880073 0.044164665
-0.076432824 -0.034856167 -0.08550659 0.16878933 -0.26183587 -0.26058063 0.028043091 -0.0170854
0.108563595 -0.21605392 0.102007724 0.07967971 0.10335891 0.13144563 -0.051078875 -0.10810277
-0.24938233 -0.20338169 0.10774304 -0.14775378 -0.12112871 0.053440224 0.17983492 -0.21636921
-0.05289363 -0.20040162 -0.24989115 0.0002623197 -0.30833137 0.1997966 -0.0041821986 -0.09726349
0.014016662 -0.088611804 -0.038747087 0.155074 -0.10297661 -0.22031881 -0.0639852 -0.071495965
0.09999569 0.032813948 0.03833135 0.074992865 -0.00835757 -0.0020064807 -0.069190234 -0.03968958
-0.117547914 0.05759878 -0.04993005 -0.04162247 -0.05235245 0.07165819 0.045886163 0.026867762
-0.0792263 0.04049207 -0.08813656 -0.26121822 -0.022419458 -0.056586295 -0.038596172 0.23782939
-0.028070163 -0.036049683 0.021665063 -0.097027756 -0.021455336 -0.0728986 0.10448807 -0.021082783
-0.10095855 0.016724704 -0.12028306 -0.069110945 -0.049108997 -0.109428994 0.03321562 0.14847384
-0.089453414 -0.10380525 0.0037346256 -0.0858523 0.052961178 -0.16100879 0.058742847 -0.056466103
-0.10027982 -0.024823895 -0.06629576 0.008828743 0.10088038 -0.061514333 0.020572247 -0.24023835
-0.118862584 0.16225436 -0.19015306 0.11709893 0.14596438 0.038231086 -0.013379784 0.06466971
0.11968708 -0.17178406 0.014856261 0.101119995 0.045093387 -0.034070738 0.016989306 0.067237705
-0.07578406 -0.16593736 0.009068723 0.026964853 -0.09952914 -0.014005957 0.26713282 -0.031735774

bias_ih f4 [240]
00000000: 7aa4 123d d071 343e d213 123e ea08 6d3d
00000010: e605 ba3e 840c 1ebe 413b 38bd 0e5d 9d3d
00000020: 82a1 273e 3514 353e 852b bf3d efba b03e
00000030: babb e83c 4f5c 793d e82b c23c 9318 633d
00000040: e683 d6bd 5a2a 21be 3400 1c3e 343f 263e
00000050: 11f1 efbd 101e e13d a5a0 803d a288 433e
00000060: f7a6 0f3d a925 6cbb 69de 9abc 43aa 86bd
00000070: e823 4d3e c79a 5a3e 22e5 843c da85 453d
00000080: c1c2 3c3e 3e32 623e ce4e 8e3d d8bd 9dbd
00000090: 9805 bb3d 1c11 f33b e1c2 ecbd c5af 2e3e
000000a0: d87b 153d c9f7 063d e522 e23c 31a8 37be
000000b0: 306f 2abd d3cd 21bd 176f 35be b953 28bd
000000c0: 3f05 f73d 0dfc 5a3e 31c5 a5bd 9265 cabc
000000d0: 362b 8f3e a378 513e 2468 ee3d 7000 cd3d
000000e0: 4fb1 023e 9032 e53a 5ba4 81bd 8fa1 ef3d
000000f0: 765f 073d bafb 0a3e 43f4 173d 0492 673d
00000100: 65fa 9c3e ab65 363d c69c 7d3d 6991 413e
00000110: 81ed 543d 868e c33d 0447 523e 816c 4e3e
00000120: 713f 3a3c 1d7e 3c3e 4f23 8d3d cf74 663d
00000130: 4685 063e cf9d ddbd 33f9 23bd 4d14 cd3e
00000140: 9a21 9ebc f1e9 d63d 1016 3abc 5590 1e3e
00000150: 8c37 0bbc 9b42 033d 1263 f0bd 1912 863e
00000160: 47d6 c53c aeab 673e b18b 9ebd e747 023e
00000170: abe1 053d 9b2b bf3d 5117 fe3c 95c1 0c3e
00000180: 5968 5a3e 8363 9cbd 0efb 2fbc deef 493d
00000190: 3ea0 cb3a a68c 93bd bc42 fa3d 87c1 82bd
000001a0: 3d7e 4c3d ec34 31bd 6bec 4ebe 459a c6bc
000001b0: c32f aa3e 06cf 813e b4b7 45bd 8976 c33d
000001c0: 4551 513d 164d 963e 36ff 2abe b413 363d
000001d0: b2c0 5fbc d04c 8cbd 40a8 e43d 0f63 adbd
000001e0: cc46 423d 8935 dabd ebb5 da3c 1d65 533d
000001f0: 391b 02be 3288 f63d 437d da3c 5157 6d3d
00000200: bcda f9bd 0aae 63bd dc5e fdbd 6305 e43c
00000210: a279 edbd afda 4fbd 72c3 953c 2b39 09be
00000220: 3c1a e9bc 32df 89bd 4d8f ddbd 1116 4d3d
00000230: b214 bbbd 52fd b3bd 8c41 97bd 1e8a 1fbe
00000240: 2e32 ef3d 4c05 f7bd aadf 22bd 2f86 97bd
00000250: 3b3a a1bd a9e6 c03d 57fd 633c 30b0 06be
00000260: 181a f2bd 365f 043d 9daa 693d bafc 413d
00000270: 3158 0d3c a294 8a3d 2283 8d3b 9658 c0bd
00000280: b16e f0bd 8c86 093b d96e 55bd f904 d63d
00000290: 3763 a9bd 28b5 d53d 3ac9 b7b9 e14a 97bd
000002a0: 21e6 bdbd de85 3cbd 9e56 51bc 1dcc ec3c
000002b0: 6a01 edbd dd97 fcbd d0a4 e539 57ca bcbd
000002c0: dc95 923d 0b11 28bd bd8e 9cbc d427 5dbd
000002d0: 0335 903c 3a64 013c 6893 c6bd be91 143e
000002e0: b94b 933e 9919 e8bd 879e 6cbd 36c3 193e
000002f0: c29a 963d 489e 893d c792 193e 0e4b bd3d
00000300: 70aa a33d 601f 943c 41af c63c 6501 333e
00000310: 4aab 2cbd 7175 543b 7a49 c63d 9fc6 923e
00000320: c623 eabc feef 71bb 519b 43bd 2308 133e
00000330: aaf7 f1bd bdbe 03bd 010e cd3d 322e c1bb
00000340: 8bde 903d 87d1 143e 9694 d93d a244 03bd
00000350: 5677 ef3c ca4c 203e fa06 743d 2d1f e53b
00000360: 7619 4fbd 1ad1 a03d 7de8 b53c 0bf5 0a3c
00000370: fa13 43bc a7e9 46bc 7fa8 5d3b 4c74 81bc
00000380: 67db 8f3d 6dff 123d 30ef 93bd 694d e9bd
00000390: 63ca 753e 062b 923d 421d fcbd 567e 403d
000003a0: 934e 023e af79 da3e 62ab 8b3d 78b5 023d
000003b0: ccd9 263d 038f d43d 8719 fb3d a5b9 dcbd
0.03580139 0.17621541 0.14265373 0.05786983 0.36332625 -0.15434462 -0.044978384 0.076837644
0.16370204 0.1768349 0.093344726 0.3451762 0.028409828 0.060879048 0.023702577 0.055443358
-0.104743764 -0.15738812 0.15234452 0.16235048 -0.11715902 0.10992062 0.062806405 0.1909509
0.03507134 -0.003603319 -0.018904882 -0.065754436 0.20033228 0.21348105 0.01622254 0.048223354
0.18433668 0.22089478 0.069486246 -0.077022254 0.09131926 0.007417811 -0.11560608 0.17059238
0.03649506 0.03295115 0.02760453 -0.17935254 -0.041609943 -0.03950293 -0.17718159 -0.04109547
0.120615475 0.21385212 -0.08094252 -0.024706636 0.27962655 0.20456176 0.11640957 0.10009849
0.1276295 0.0017486382 -0.063301764 0.11700737 0.033050023 0.13572589 0.03709818 0.056535736
0.30659786 0.044530552 0.06191709 0.18903126 0.051984314 0.095486686 0.20534903 0.20158578
0.011367665 0.18407483 0.068915 0.05626374 0.13136777 -0.10821115 -0.040032577 0.4005455
-0.019303132 0.104938395 -0.011357799 0.15484746 -0.00849713 0.03204594 -0.11737646 0.26185682
0.024150027 0.22624084 -0.07741488 0.12722741 0.032685917 0.09334489 0.031016978 0.1374572
0.21328868 -0.07636168 -0.010741008 0.04930102 0.0015535427 -0.07204561 0.1221976 -0.06384569
0.049925078 -0.04326336 -0.20207374 -0.024243483 0.33239564 0.2535326 -0.048270896 0.09544093
0.051102895 0.29355687 -0.16698918 0.044452384 -0.013656782 -0.06850588 0.11164904 -0.084661596
0.0474308 -0.10654742 0.026698073 0.0516101 -0.12705697 0.12037696 0.026671058 0.0579446
-0.121999234 -0.0555859 -0.123716086 0.0278346 -0.11595465 -0.050745662 0.018281672 -0.13400714
-0.028454892 -0.06732024 -0.10818348 0.050069872 -0.09134807 -0.087885514 -0.07385549 -0.15580031
0.11679493 -0.12061557 -0.039764084 -0.0739864 -0.07872435 0.09418995 0.013915381 -0.13153148
-0.11821383 0.032317363 0.057047475 0.04736016 0.0086269835 0.06766631 0.0043186108 -0.093918964
-0.11739863 0.0020984737 -0.052107666 0.10450167 -0.08270877 0.104349434 -0.00035054405 -0.07387329
-0.09272409 -0.046026103 -0.012776999 0.028905923 -0.11572535 -0.12333653 0.0004380108 -0.09218281
0.0715749 -0.04103188 -0.019111032 -0.05399306 0.017603403 0.007897431 -0.09696084 0.14508721
0.2876871 -0.11333007 -0.05776837 0.15015873 0.073537365 0.06719643 0.14997397 0.09242831
0.07991493 0.018081367 0.02425349 0.17481 -0.04215554 0.0032418633 0.09681983 0.2866716
-0.028581511 -0.0036916728 -0.047755543 0.14358573 -0.11814816 -0.032164324 0.10012437 -0.0058953995
0.07073697 0.14533053 0.10624044 -0.032047875 0.029231708 0.15654293 0.059576966 0.006992242
-0.05056139 0.07852383 0.022205586 0.008481274 -0.011906618 -0.012140668 0.0033822355 -0.015802525
0.070242696 0.035888124 -0.07223356 -0.11391718 0.24002986 0.07137112 -0.12310268 0.046995483
0.12725286 0.42670962 0.06819798 0.031911343 0.04073505 0.1037884 0.12260728 -0.107775964

bias_hh f4 [240]
00000000: 254a d33d 9e71 2f3e 1781 8fbd b35d 5cbd
00000010: de57 8b3e 674a 76bd a180 00be 4ae0 323e
00000020: b6ac d8bc 87f2 4e3e fea2 293e 3d48 703e
00000030: 8e4e dbbd d842 cf3d a573 a9bc 4ed6 b33d
00000040: dde6 e23d 7749 0cbe 6827 3e3e 30ad 703e
00000050: c454 8c3c 6294 803d 1db6 943d d631 053e
00000060: c6d9 b63b ef75 2bbd 0bf4 3ebc 7c07 453d
00000070: 99a8 c5bc 90b6 9a3c 7cdd a7bc ce38 b6bb
00000080: 5ee3 a53c 0494 a73d 33f7 193e fec6 903d
00000090: 0997 033e 7ab6 e7bd 443f febd d60b 853e
000000a0: 5031 383d c364 733c 97e9 3c3e fd3c 02be
000000b0: 981a e73c 3bc2 4c3d 49e8 f1bd 1409 27bd
000000c0: 0b16 543e 071c 733d 6464 78bd 7af6 c4bc
000000d0: c085 713e 3782 df3e 45e4 2bbb 4643 513d
000000e0: 20ab 543e 7611 0c3e 230b 9e3d f518 b5bc
000000f0: 2ea3 283e 0029 8e3d 7a52 0b3e abe7 373e
00000100: d464 803e 446f e6bd 3ef1 a9bb 222f b73d
00000110: 58d5 263e 5bf8 523d ee02 833d db10 e43d
00000120: 1e4f 4fbc 8e96 31bd 89f8 383e 5b7a 8f3d
00000130: 475b 9c3d 2b06 30be 753e 653c e0ae f23e
00000140: 12c8 1d3d 246d 36bd dd24 96bd 5143 ac3d
00000150: d6ca cabd 0d7c c6bc fe92 a13d f9b3 0b3d
00000160: 28cf 7fbd 2963 023e de6b 003e aa08 af3d
00000170: 3bfc b63d 4e9f 773e c3ec d0bd 9fb2 b53d
00000180: 1eea 303e 1cb7 77bd 4f54 cbbd c508 643d
00000190: 826c 08be d6e8 6ebb be6b 32bd 060d 0cbe
000001a0: c407 263e 8f7c 9abd 7b08 53bd f0b5 e2bc
000001b0: 7c3c 593e 995f b23e 62f1 07be fdff dc3d
000001c0: bda4 3d3e 444f a43e 5051 1cbd 8a8b dcbc
000001d0: a9e1 1ebd 14fb f73d 4e71 93bc 8fd9 48bd
000001e0: 77f0 4dbd 429f 24be 0dfc b23d e25b 87bc
000001f0: 1a2f d1bc e9fb 47bc 4206 da3d eebd 043e
00000200: 73bc e0bd 2ed9 1cbe 109b b1bd 35f3 d93d
00000210: 173f 7d3d 320a ab3d 1ca7 453d ac43 9ebd
00000220: 8c53 ff3c 3e23 26bd 8bd1 0ebe aa14 963d
00000230: 38a3 87bd c64f cdbd 2763 a33b 188e b83c
00000240: 86f9 603d 1481 cfbd eb80 5c3d c913 8fbc
00000250: ac35 11be 47ad 7abd 330a 5abd 057b fbbc
00000260: 2d22 fabc 34c2 a5bd 28d4 213e 1c15 003e
00000270: 32cd 18be 65ee 47bd a6c6 f4bc 83d0 8dbd
00000280: 97e4 ab3d 4005 d6bd 7180 24bd c7e0 90bd
00000290: 7237 1dbd fe31 193e 36b8 80bd 524e 893d
000002a0: 75e4 b33d 0ed4 a13d 7e72 e3bb d113 16bd
000002b0: 3259 723b 29df 313d a5e7 1c3d 73e4 89bd
000002c0: 6894 103e d277 a23d 49a2 babd 156e b13d
000002d0: e3d1 143e 5ba6 143d 3955 753d 404a e63d
000002e0: 4ab9 b23e 9e1b 13be 4f9a 63bd 11fc 193c
000002f0: 6bdb 903d 6976 dbbc 0bb0 b53b c73d 913e
00000300: 3cbd 09be e5b6 ed3d 0bcd bcbc 6c07 d53d
00000310: 6229 74bd f5f5 0fbe c535 9e3d 55f5 a83e
00000320: f7f9 06be 0bf2 ebbc 06ca acbd b254 c7bd
00000330: 1054 b83b 183c df3c 1f11 ab3d 1056 bd3d
00000340: ddc0 953d e450 bc3d 7ccb c73d 9833 77bc
00000350: ae19 0a3d ce48 b93c ea53 113e 77b5 9bbc
00000360: 1f99 1b3d 1c4b d9bd d347 4abd 6472 1f3e
00000370: aadf 8f3c fb8a a63d 880d c0bb 6054 99bd
00000380: 68f8 7b3d e207 773b 6b70 83bd eac4 4a3d
00000390: b4a1 253e 280d 873d 500e 0dbe f704 0f3d
000003a0: 16fd f63d a5a5 943e be39 5f3d 631d 1c3e
000003b0: fc0a ffbc 1ef4 e13d ed18 b9bc 0b1a 023e
0.10316876 0.17133185 -0.07007044 -0.053800296 0.27215475 -0.06012955 -0.12549068 0.17468372
-0.026449542 0.20209704 0.16566083 0.23465057 -0.107083425 0.10120171 -0.020685026 0.0878111
0.1107919 -0.136999 0.1856972 0.23503566 0.017130263 0.06278302 0.07261298 0.13007292
0.00558016 -0.041860517 -0.011654864 0.04810284 -0.024128245 0.01888588 -0.020491354 -0.005560971
0.020250019 0.081825286 0.15035705 0.07069205 0.12850584 -0.113141015 -0.12414411 0.25985593
0.044968903 0.014855566 0.18448482 -0.12718578 0.028210923 0.04998992 -0.11811883 -0.040780142
0.20711534 0.0593529 -0.060642615 -0.02404331 0.23586178 0.43654034 -0.0026228589 0.051089548
0.20768404 0.13678536 0.07716968 -0.022106627 0.16468498 0.06941414 0.13605681 0.17959468
0.25076926 -0.11251691 -0.005186229 0.08944537 0.16292322 0.05150638 0.06397043 0.111360274
-0.01265314 -0.04335647 0.18063559 0.07005759 0.07634597 -0.17189853 0.013991942 0.47399044
0.03852088 -0.04453768 -0.0733125 0.08411277 -0.09901969 -0.024229074 0.07889365 0.034107182
-0.06245342 0.12733139 0.12541148 0.085465744 0.08934828 0.24181864 -0.10201409 0.0887196
0.17276809 -0.06047736 -0.0992819 0.055672426 -0.13322642 -0.00364547 -0.043559782 -0.13676843
0.162139 -0.07543289 -0.05152176 -0.027674645 0.21214479 0.3483856 -0.13275674 0.107910134
0.18519874 0.32091725 -0.038163483 -0.026922006 -0.038789425 0.12108436 -0.017998364 -0.049035605
-0.050278153 -0.16076377 0.08739481 -0.016523305 -0.025535155 -0.012206056 0.10645725 0.12963077
-0.10973444 -0.15317222 -0.08672154 0.10642091 0.061827745 0.08351554 0.04825507 -0.07727751
0.031167768 -0.040560953 -0.13947122 0.0732816 -0.066229284 -0.10024981 0.004986185 0.022528693
0.054925464 -0.101320416 0.053833883 -0.017465489 -0.1418063 -0.061200406 -0.053232383 -0.030698309
-0.030533874 -0.08093682 0.15803587 0.12508053 -0.14922026 -0.048811335 -0.02987988 -0.06924536
0.083932094 -0.1045022 -0.040161554 -0.07074123 -0.038382955 0.14960477 -0.062851354 0.067043915
0.08783809 0.07901774 -0.0069411388 -0.036639992 0.0036979434 0.043425713 0.03830685 -0.06733026
0.14119112 0.0793301 -0.09112985 0.086635746 0.1453319 0.03629146 0.059895728 0.11244631
0.3490699 -0.14366004 -0.055567082 0.009398476 0.07073101 -0.02678986 0.0055446676 0.28367445
-0.13451093 0.1160715 -0.02304699 0.10401806 -0.05960978 -0.14058669 0.077250995 0.32999673
-0.13181292 -0.028801939 -0.084369704 -0.09732951 0.0056252554 0.027250335 0.08352875 0.09244931
0.073121764 0.09195116 0.097556084 -0.0150879845 0.033715896 0.022617724 0.14192167 -0.019007428
0.037987825 -0.10610029 -0.049384903 0.1557098 0.017562706 0.08131977 -0.005860988 -0.074867964
0.061516196 0.0037693908 -0.064179264 0.049504198 0.16174966 0.06594306 -0.13774991 0.034916844
0.12059991 0.29032627 0.054498427 0.15245585 -0.031133167 0.1103289 -0.022594893 0.12705247

weight f4 [3, 12]
00000000: 0b68 e33d aab4 f9bd d427 b73e a6a7 b23d
00000010: e06d d43e b7d7 893e 47c8 0e3e 1dea 97be
00000020: 44a6 8b3d 0ed1 12be 7122 ce3e 7d94 773d
00000030: 8c8b 98bc a955 7f3d 4895 9c3e 0c17 0f3e
00000040: 5637 aebd 3e6f 44bd 88d8 06be 68d6 38be
00000050: 3943 9cbe 8e23 8dbe c755 d23d 8d64 10be
00000060: 4b11 d9bd 6de5 9cbd 3118 853e ed76 043e
00000070: 6f57 93be 1728 0abe cc85 83bb 65e3 c5bd
00000080: 2cea afbe 7ca7 7ebd ede8 9ebe bbc9 823e
0.11103829 -0.12192662 0.35772574 0.08723383 0.41490078 0.2692239 0.13943587 -0.29670802
0.06818822 -0.1433756 0.40260652 0.060444344 -0.018621229 0.06233755 0.30582643 0.13973635
-0.08506648 -0.04795765 -0.13168538 -0.1805054 -0.30520037 -0.2756619 0.10270267 -0.14100857
-0.105990015 -0.07660947 0.2599502 0.12935992 -0.28777644 -0.13491856 -0.0040137526 -0.09662513
-0.34358346 -0.062171444 -0.31037083 0.25544533

bias f4 [3]
00000000: ef90 8b3e 3efa 1e3d 50d9 b03e
0.27259013 0.03881287 0.34540796
