models/paramsearch_1.1415334445232166e-05_9.733395059920255e-18_0.99999_10.pt (torch, 32684 bytes, 7 tensors)

weight_ih f4 [240, 6]
000000 16 c3 60 bd e4 e5 ef 3d e0 57 2b bd d0 ca 5c 3d
       -0.05487355 0.1171377 -0.04183185 0.053904355
000010 f3 83 b2 3d 96 55 29 bd 15 33 10 3d b1 7e e5 3d
       0.087165736 -0.041341387 0.035204966 0.11205805
000020 bb fb de 3d 75 7d ae 3d a7 85 d7 3d 23 54 b8 3d
       0.108878575 0.08520023 0.10523539 0.09000423
000030 44 ce cb bc 3d 5f 97 bd 86 c7 22 3d 61 64 88 3d
       -0.024878629 -0.07391212 0.03974106 0.06659771
000040 9b 7b b7 3d 5e 16 5d bc cb bb ea b9 6c f9 95 bc
       0.08959123 -0.013494102 -0.00044771875 -0.01830741
000050 59 06 71 bd 99 7f a2 bd 51 ce 4e be 28 71 9e 3d
       -0.058843944 -0.079344936 -0.20195891 0.077364266
000060 d5 21 7e 3d f3 4f d3 3d fd 56 3f 3d 91 f5 cb 3d
       0.062043983 0.103179835 0.046713818 0.099589474
000070 28 26 15 3d a5 eb cd 3d d1 78 18 bd 4c 8e f5 bc
       0.03641334 0.10054711 -0.037224595 -0.029975079
000080 77 0e b1 3d ae bb 14 3c 35 a0 09 3d ea 68 00 be
       0.08645337 0.009077949 0.03360005 -0.12540022
000090 31 0f 92 bd e2 39 25 bb 6b 02 64 3e cc 0f 42 bd
       -0.07131804 -0.0025211503 0.22266547 -0.047378346
0000a0 2d 95 2b 3e cd 3f af 3d 6d b7 07 bd 51 3e b0 bd
       0.16756125 0.08557091 -0.033133913 -0.08605636
0000b0 23 21 41 3d d1 09 d8 bd 47 6f 5e bc 74 14 08 be
       0.047150742 -0.10548747 -0.013576335 -0.13289052
0000c0 73 8c 53 3d 53 f7 60 3d 09 cf a3 3c 11 21 2c bc
       0.051647615 0.054923367 0.019996183 -0.0105059305
0000d0 79 89 99 bc 99 5e 0d bb 50 e4 0b 3e 3e f7 6b bd
       -0.01874231 -0.0021571277 0.13661313 -0.057608835
0000e0 3f 0f e7 bd 4e d7 c4 3d 62 0f 16 3d 7a 23 5a 3d
       -0.11282205 0.096113786 0.036635764 0.05325649
0000f0 de 7b 44 bd ee 65 73 bd 76 f0 0a bc 25 4c 3d bd
       -0.04796969 -0.05942338 -0.008480182 -0.046215195
000100 18 43 1b 3d 9d 49 1b ba 1d 79 08 be a7 89 00 be
       0.037905782 -0.000592375 -0.13327451 -0.1255251
000110 dd 7a ff bd 69 64 0c 3d e4 2b 24 bd 5b e6 00 be
       -0.12474606 0.034275446 -0.04008092 -0.12587874
000120 bd 12 55 3c 3a 90 91 3a aa 63 97 3d 47 1c e8 3b
       0.013004956 0.0011105605 0.07392056 0.007083449
000130 73 5e 00 be ee 8a 45 3c 69 9f b4 3d 86 5a a2 bd
       -0.1253603 0.012057049 0.088194676 -0.07927422
000140 f5 af 44 bd 9c 72 ea 3d 0d 50 38 3d 01 1c e5 bd
       -0.04801937 0.11447641 0.044998217 -0.11186982
000150 3e ed da 3d 6c ed bb 3d 09 9a 7d bd f8 e6 28 be
       0.106897816 0.09176144 -0.061914477 -0.16494358
000160 02 80 d8 bd 3f bb 99 3d e7 98 a2 bc 0a c4 d0 bd
       -0.105712906 0.075064175 -0.0198483 -0.101936415
000170 4a 9b 51 3d 20 d2 42 bd d8 ad 44 bd c7 d4 46 3d
       0.051173486 -0.047563672 -0.048017353 0.048542764
000180 44 93 1c 3d 11 78 12 be df 07 a7 bd 17 e7 c5 bd
       0.03822638 -0.14303614 -0.08155798 -0.096632175
000190 31 fa 17 be 5a 34 9a bd e7 e8 10 bd 12 74 d4 bc
       -0.14841534 -0.075295165 -0.035378363 -0.025934253
0001a0 8c c1 41 3d 90 98 cd 3d 47 c1 c2 3d 6b 91 b4 bd
       0.04730372 0.100388646 0.09509521 -0.08816799
0001b0 50 48 a7 3d b3 64 e7 3d bc 13 06 3e d9 42 61 bc
       0.081680894 0.11298504 0.13093466 -0.013748848
0001c0 8e ab 32 be ad 20 81 3c 62 11 83 bd c2 78 00 bd
       -0.17448255 0.015762651 -0.063998 -0.031365164
0001d0 30 13 cc 3d 3b 2b 8a 3d e5 30 46 bd b0 01 dc 3c
       0.09964597 0.06746527 -0.048386473 0.026856273
0001e0 12 5b de bd 84 c0 7e bd 1e 47 d5 3d a5 26 66 bd
       -0.10857214 -0.062195316 0.10413955 -0.056189198
0001f0 c4 74 e8 3d 12 3c 0e bc 2b 2b bc 3c 06 e5 89 3d
       0.11350396 -0.008681314 0.022969803 0.06733136
000200 ab 98 b3 3d 04 f6 26 be 42 37 dc bd 9a 44 44 3d
       0.087693535 -0.16304785 -0.10752727 0.047916986
000210 27 66 2f bd d0 8a e2 bd a3 e3 16 3e 70 d6 76 3d
       -0.04282203 -0.11061633 0.14735274 0.060263097
000220 e7 45 de bd aa a7 12 be 79 cf 40 3d 11 ad c5 bd
       -0.108531766 -0.14321771 0.04707286 -0.096521504
000230 f0 b0 be 3d 10 0b 28 be 8a f0 8f 3c ea 5e cf 3d
       0.09311092 -0.1641047 0.017570753 0.10125525
000240 3d 66 07 3d 86 e9 04 3e 11 43 da 3c 7f b6 da 3d
       0.033056486 0.12979707 0.026643308 0.106793396
000250 7a e0 13 be dd 1d 80 3d 34 92 30 bd ba 61 af bc
       -0.144411 0.06255696 -0.04310818 -0.021408904
000260 64 67 00 bd 23 1f 8f bd 71 a1 1d be 3b 71 b3 3d
       -0.0313486 -0.06988361 -0.15393616 0.087618314
000270 33 2f 97 3d 69 3c 1e 3c d0 4d ab 3c 57 fb d0 3d
       0.073820494 0.009657958 0.020911127 0.10204189
000280 a5 1e c5 3b 5c 48 99 3b ef 19 14 3e 25 fb d7 bc
       0.006015616 0.0046778154 0.14463018 -0.026364872
000290 13 11 c6 3d 78 f1 f1 3d 01 c0 b9 3d e8 a6 bb 3d
       0.096712254 0.11813635 0.09069825 0.09162694
0002a0 fa b9 1b 3e 26 59 87 3d 19 74 84 bd 33 35 18 be
       0.15207663 0.066088006 -0.06467456 -0.14864044
0002b0 9f 9f 0d 3c 1c 08 eb bd 6c ed 09 3c a1 74 eb 3d
       0.008644014 -0.11476156 0.008418422 0.114968546
0002c0 14 4d e3 3d b0 ca 13 3e 96 2a 44 3e c5 00 d7 bd
       0.11098686 0.14432788 0.1915687 -0.10498194
0002d0 ef 4d 81 bc 0f 2f 2f 3d a6 61 c1 bd 32 14 be 3c
       -0.015784232 0.042769488 -0.09442453 0.02320299
0002e0 a7 fc bc 3d 9a e9 ea 3d 5c 49 26 bd 7f 8a b2 bd
       0.09227877 0.11470337 -0.040597305 -0.08717822
0002f0 b6 20 28 3e 39 2d 82 bd 27 ef 96 3d b0 ac f0 3d
       0.16418728 -0.06356282 0.073698334 0.117516875
000300 d7 70 13 be 1f e6 e3 3d 9e d0 01 be 05 82 bf 3c
       -0.14398514 0.111278765 -0.12677237 0.023377428
000310 71 f8 6f 3d 09 91 28 3d 26 1f e0 3c 2a 45 d7 bd
       0.05858654 0.04115394 0.027358603 -0.10511239
000320 a4 19 f8 3c 19 09 d3 bd 22 b7 7e 3d fa 84 c4 bd
       0.030285664 -0.103044696 0.062186368 -0.09595676
000330 62 13 12 3e ae 82 a6 3d a0 6b c9 3c b3 67 39 be
       0.14265206 0.08130394 0.024587452 -0.18105964
000340 f1 27 4a be f8 61 fb bd 26 b2 80 bd 81 ef cb 3d
       -0.19741799 -0.122745454 -0.06283979 0.09957791
000350 8b f4 67 3d fe 5f 99 bc 1a 94 53 bd 56 79 32 3d
       0.0566297 -0.01872253 -0.051654913 0.043572746
000360 01 3f da 3d eb e0 4f 3d 6b e4 cb 3d d0 a3 ba bd
       0.10656548 0.050751608 0.09955677 -0.09113276
000370 dd 2b 8b 3d 11 99 ea bd 1f c9 3a bd 70 46 c4 3d
       0.06795476 -0.11454976 -0.04560196 0.095837474
000380 62 2d c1 bd 3f 0c e4 3c d9 2a a0 ba 5e 99 33 3d
       -0.09432484 0.02783787 -0.0012219801 0.043847434
000390 9c 97 7f 3d 91 b8 fc 3d 71 53 1d 3d 0f d2 fc 3d
       0.062400445 0.12339891 0.038409654 0.12344753
0003a0 a5 9c c0 3d 1f b9 c1 bc 3b 84 96 b9 5b 70 06 3d
       0.094048776 -0.023647843 -0.0002870875 0.032821994
0003b0 c6 d5 02 3e c8 61 72 3d c7 77 0c be 1a 6a d7 bd
       0.1277686 0.059175283 -0.13717566 -0.10518284
0003c0 66 84 bc 3d 6d 26 af 3d 8d b5 c0 3d b5 cc 0b be
       0.092049405 0.08552251 0.09409628 -0.13652308
0003d0 09 f9 6e bd 45 dd e0 bd ea 1c a4 bc 2e 8b 13 bd
       -0.058342967 -0.10979704 -0.020033319 -0.036021404
0003e0 f6 26 62 bd 85 f3 d8 bd c3 0e 91 bd 96 a1 c0 bd
       -0.055212937 -0.10593323 -0.07082894 -0.0940582
0003f0 40 c3 15 bd c7 17 f8 bd d2 cf 89 bd c8 2b 04 be
       -0.036563158 -0.1211391 -0.06729092 -0.12907326

weight_hh f4 [240, 12]
000000 6f a4 30 3e c3 cf 76 3d 05 78 ef 3c 99 b5 ab bd
       0.17250226 0.06025673 0.029232034 -0.083842464
000010 c0 13 a1 bd 83 a8 e4 3c 3a 4f 6a bc a2 99 0f 3d
       -0.07865095 0.027912384 -0.014301116 0.035058625
000020 3e a7 64 bd 5d f4 3f bd c7 c9 ab bb 06 5e 7f 3d
       -0.055823557 -0.046863902 -0.0052425596 0.062345527
000030 8e 8c 11 3e 54 61 23 3b 57 4c ea bb e1 5f ed 3c
       0.14213774 0.0024929838 -0.0071502137 0.028976383
000040 ca 14 24 bd bf 08 31 3d 74 11 d3 bd 55 dc cc 3b
       -0.04005889 0.04322123 -0.10306063 0.0062518516
000050 9d cc 02 be 99 10 b3 3d 7c 7b c4 3d 22 10 e9 3d
       -0.12773366 0.087434 0.09593865 0.1138003
000060 95 01 72 bd 95 b0 0a be 72 a4 e1 bd 16 15 aa 3d
       -0.05908354 -0.13543923 -0.110176936 0.08304803
000070 8b 98 97 bb 02 e2 cf bb 62 49 29 bd 90 3f 65 3d
       -0.004626339 -0.006344081 -0.04132975 0.05596882
000080 f3 f1 7b bd 90 92 d1 3c 91 e6 ee 3d 18 88 b0 3c
       -0.061510038 0.025582582 0.11665071 0.02154927
000090 df 66 91 bd 02 0a e9 bb e9 b9 d4 bc 37 f0 70 3b
       -0.07099699 -0.0071117887 -0.025967555 0.0036764273
0000a0 0d d6 e4 3c f3 9b 1e bd 5d 71 8d bd 51 32 59 3b
       0.027934099 -0.038722944 -0.06906388 0.0033141563
0000b0 c6 d6 0c be 30 2a ac bd 3e 29 57 3d 9b 21 17 3e
       -0.13753805 -0.08406484 0.052529566 0.14758913
0000c0 97 f6 2e 3e 2e 11 11 3c 24 4f 0c bd bf 2e ba bd
       0.17086254 0.008854194 -0.034255162 -0.09090947
0000d0 2b 7b b8 bd e5 9e 59 3d 53 90 89 bd 94 8c 75 bd
       -0.090078674 0.05313005 -0.06716981 -0.05994852
0000e0 0f 2c 54 39 02 f9 95 3c 4b fb 04 3c 75 73 40 3d
       0.00020234309 0.018307213 0.008116554 0.04698511
0000f0 fe f7 4e 3d 73 09 a0 bd b4 74 2f bd f5 46 fc bd
       0.050529473 -0.07814302 -0.042835906 -0.123182215
000100 90 4c ce bb e2 71 a4 3c a8 ed 02 be 58 d9 82 bd
       -0.006295748 0.020073835 -0.12785971 -0.06389111
000110 10 f3 70 3c cf e0 50 3d d4 b9 95 3c ce 41 27 3e
       0.014706388 0.050995644 0.018277086 0.16333696
000120 71 f1 d3 3d a1 d3 8e bd 83 9b 51 3d 01 78 fc bd
       0.10348786 -0.06973959 0.0511737 -0.123275764
000130 35 b5 11 bd b1 bb 5e bd e0 07 96 bd da a5 ad bd
       -0.035573203 -0.054378215 -0.07325721 -0.08478899
000140 05 9a b8 bd 9e 13 94 bc 9d 13 45 3e 12 7f c2 bc
       -0.09013752 -0.01807576 0.19245763 -0.023742232
000150 58 ed d7 3d 74 2c c7 3c bf 15 99 3d 88 46 f0 3d
       0.105433166 0.02431319 0.07474851 0.11732203
000160 8b 44 c4 bb 24 3d 9e 3b 9c d0 2a 3c 19 82 65 bd
       -0.0059896163 0.004829066 0.010425713 -0.056032274
000170 9d 09 89 bd b3 af b8 bd 4d ac a7 3d 39 76 ce 3d
       -0.06691287 -0.09017887 0.08187161 0.10081143
000180 0d 21 06 3e c9 96 fe bd 62 63 e0 bd 32 88 14 bd
       0.13098545 -0.12431104 -0.10956456 -0.0362627
000190 41 1a 46 bc 5e e2 b9 3a 43 97 d4 bd 2e bf e7 3d
       -0.01209122 0.0014181843 -0.103804134 0.113157615
0001a0 e4 e4 dd bb 30 3d ac bd 25 ba c6 bd d4 33 8b bd
       -0.0067716707 -0.08410108 -0.09703473 -0.06796995
0001b0 06 91 8b bd 43 25 93 3d a7 5e 97 3d d0 29 86 bc
       -0.068147704 0.071848415 0.073911004 -0.01637736
0001c0 c9 ef df bc dc 8d aa bd 90 19 30 bd 50 58 ad 3d
       -0.027336018 -0.08327839 -0.04299313 0.0846411
0001d0 c8 8a 04 bd 81 c9 0e 3e 6d e2 08 3e b9 96 21 3c
       -0.032358915 0.13944055 0.13367625 0.009862595
0001e0 bf 0a b1 3d cc 93 91 3d ff 22 b7 3d 89 d9 ed 3d
       0.08644628 0.07108268 0.08942222 0.11613757
0001f0 a7 e6 30 be 53 47 d3 bd 74 e2 10 be 80 04 6c bd
       -0.17275487 -0.103163384 -0.14148885 -0.05762148
000200 2d 11 4a bd 49 27 6c 3d 95 b0 fe 3c 6e d5 00 3e
       -0.049332786 0.057654653 0.03109006 0.12581417
000210 7b bd e1 bd d2 46 27 3b 88 be 45 bd ef 88 c8 3b
       -0.11022469 0.002552439 -0.048277408 0.0061198394
000220 09 f7 2d bd c9 03 89 bc b5 e3 e8 3d ff b7 c3 bd
       -0.04247192 -0.016725438 0.11371557 -0.09556579
000230 e8 81 cc bc b0 cc b5 3c 9f 8a a8 bc 9e 08 2d bd
       -0.024964288 0.02219233 -0.020573912 -0.042244546
000240 a6 0e 07 bd 85 6b 30 be 24 36 48 bc 5b 90 4d 3c
       -0.032972954 -0.17228515 -0.012219939 0.012546624
000250 dc f3 1a be ee 34 09 3d 30 83 04 be 00 de 3d 3d
       -0.15132087 0.033497743 -0.12940669 0.046354294
000260 da e6 a1 bd 3d 67 05 3d f5 e5 2e bc c6 6f 1f bc
       -0.079053596 0.03256916 -0.010674943 -0.009731239
000270 ca 4a 9b bd c5 fc f8 bd 42 02 8d bd fc 95 f3 bd
       -0.07582624 -0.12157587 -0.06885196 -0.118938416
000280 58 db a7 bd 5c dc 5d 3d 33 c6 0b be 20 0e a9 3c
       -0.081961334 0.05416523 -0.13649826 0.020636618
000290 74 28 aa bd ed 76 28 3d 30 48 4e bd 91 e4 b0 3c
       -0.08308497 0.04112904 -0.050361812 0.021593364
0002a0 a5 5e b1 bc 33 68 9f bc 97 b3 67 bc 48 4b 65 3d
       -0.021651575 -0.019458866 -0.014141939 0.055979997
0002b0 d6 09 e4 bd 02 84 71 bd b9 5f 75 bd b2 56 95 3d
       -0.111346886 -0.058963783 -0.05990574 0.072919264
0002c0 ce 4f 8f 3d e4 7b 5e 3d cf 21 97 3d 06 08 d7 3d
       0.069976434 0.05431737 0.07379495 0.10499577
0002d0 47 9b 4b 3d b5 f4 2b 3d b3 9e 4e 3d 7e c6 95 3d
       0.04970863 0.041981418 0.050444316 0.0731325
0002e0 5e 91 2f be ba ab f5 bc 52 f0 23 be 91 88 80 3d
       -0.17145297 -0.029989112 -0.16009644 0.06276048
0002f0 b5 0e 81 3d 70 31 f8 bc 6e 2c c7 3d 27 6c 55 bd
       0.06301633 -0.030297011 0.09725271 -0.052105095
000300 cb 4e c3 bd 24 20 ba bd 89 2c f6 3d cb de ba 3c
       -0.09536513 -0.090881616 0.12020213 0.022811314
000310 1f be 23 3e f8 c9 07 3e 26 8a cf 3d 83 ae 95 3d
       0.15990494 0.13260639 0.101337716 0.07308676
000320 22 8b b1 3d 53 c2 8c bd cb 7a 09 be ec 6e 1d be
       0.086691156 -0.06873002 -0.13425748 -0.15374345
000330 95 24 a6 3d bd cf 21 be 8c 64 b7 3c 10 bc 56 3d
       0.08112446 -0.15801902 0.022386812 0.052425444
000340 15 6d 17 be 5c 85 5a 3d ed 34 11 bd 8f c3 91 3d
       -0.14787705 0.053349838 -0.035450865 0.07117378
000350 b0 f5 38 bd 15 0c 26 3d 8c a5 24 3d a1 8b 40 bd
       -0.04515618 0.040538866 0.04019694 -0.04700816
000360 d2 5a 38 3d df cf 74 bd 85 36 0d be 18 dd 82 3d
       0.045008488 -0.059768554 -0.13790329 0.063898265
000370 df 42 88 3c 30 99 ed bd 56 05 ba 3d c2 b4 d4 bd
       0.01663345 -0.11601484 0.09083049 -0.10386039
000380 db 1e a0 3d 67 b0 b8 3c c1 57 1a 3e 96 79 ac 3d
       0.07818385 0.022545053 0.15072538 0.08421628
000390 00 4f b4 3c 26 40 d9 bc c2 d1 ef 3a 13 0f c1 bd
       0.022010326 -0.026519846 0.0018296766 -0.09426703
0003a0 e3 48 dd 3d 08 8d 64 bd bb d7 ea bd a7 94 ca ba
       0.10804918 -0.05579856 -0.114669286 -0.0015455679
0003b0 cd 76 8f 3d 3e 45 6d 3d c9 11 89 bd 7b f2 8b 3d
       0.07005081 0.057927363 -0.066928454 0.06833359
0003c0 91 06 ca bd 81 4c 89 3d 0b ce 63 3c aa 72 f6 bd
       -0.09864534 0.06704045 0.013904105 -0.12033589
0003d0 3d c6 74 bd 66 04 f4 bd 38 10 a5 3d f0 54 54 3d
       -0.059759367 -0.119149014 0.08059734 0.051838815
0003e0 e1 b6 90 bd 93 96 cb bc 8d 95 82 3d 99 bd 08 be
       -0.070661314 -0.024852073 0.06376181 -0.13353576
0003f0 2e 5e fb 3d b8 b9 12 be b1 07 94 bd 64 d9 d3 3d
       0.12273823 -0.14328659 -0.072280295 0.10344198

proj f4 [12, 60]
000000 f5 02 1d be 27 f4 97 bb 3e e4 90 bd 33 0c d6 bd
       -0.1533316 -0.0046372595 -0.07074784 -0.104515456
000010 01 a5 b8 3d 3a a9 a3 3d 49 0b d1 3d 47 11 a0 3c
       0.09015847 0.07991262 0.102072306 0.019539488
000020 c4 3c d2 ba e6 f5 04 3e 98 79 9d 3c f6 12 57 bd
       -0.0016039838 0.12984428 0.01922302 -0.052508317
000030 29 79 1c 3d 6b ad 6f 3d f1 05 e4 3c b9 27 18 3e
       0.038201485 0.058514994 0.027834864 0.14858903
000040 ff 0d 16 3e 11 04 9a bd 33 81 be 3b b2 6e d1 bd
       0.14653777 -0.07520307 0.0058137416 -0.102261916
000050 09 71 8e bd 4a eb 99 3d d3 c5 95 3d 14 e7 01 3d
       -0.069551535 0.07515581 0.073131226 0.031714514
000060 2b 97 e2 3d 7a a8 dd 3d 9c 20 54 bd 40 9a 67 3d
       0.11063989 0.1082315 -0.05178891 0.05654359
000070 b9 79 6e bd 08 db 10 3e 6d 39 7d 3d e4 46 ca bd
       -0.058221553 0.14146054 0.061822344 -0.098768026
000080 91 20 9c bd fa 5b 88 3d 0f db 9c bd 8c 88 52 3d
       -0.07623399 0.06658168 -0.076589696 0.051399752
000090 8a 21 d3 bd 30 12 d5 bc 1b c8 a8 bd 56 da 95 bd
       -0.103091314 -0.026009649 -0.08241292 -0.07317035
0000a0 00 69 cb 3d 68 ce a4 bd f5 2f 24 3e 14 d6 a7 3b
       0.099321365 -0.08047181 0.16033919 0.0051219556
0000b0 29 b8 fa 3d 41 6c 1e bd ab c3 de 3d 2f d4 43 bd
       0.12242157 -0.038677458 0.108771645 -0.047809776
0000c0 91 0a 62 bd 14 6d 33 be 77 ee 0a 3e 88 df 2a 3e
       -0.05518586 -0.17522079 0.1356753 0.16686833
0000d0 7f f6 e8 3d 29 0b b5 3c ec 49 fd 3c 1d 93 a0 3d
       0.113751404 0.022100048 0.030919038 0.0784056
0000e0 65 e6 c8 3c 15 4a f3 bd 15 b4 a3 3d 6e 13 3e 3c
       0.024523923 -0.118793644 0.07993332 0.011601312
0000f0 b8 a6 1a 3e 26 95 8b 3d 23 b2 4d 3c 8d b3 04 3e
       0.1510266 0.06815557 0.012554678 0.12959118
000100 0b 2e 1d be 72 b0 b4 bd 07 f9 28 be e7 c0 70 3d
       -0.15349595 -0.08822717 -0.16501246 0.058777716
000110 c0 53 a2 3d 8e 13 47 3b 29 07 16 be cb bc b2 3d
       0.0792613 0.0030376646 -0.14651169 0.08727416
000120 6c 07 0e 3c 7d e1 16 3d e3 d4 89 bd bf 12 6c bc
       0.008668762 0.036836136 -0.06730058 -0.014408766
000130 78 31 61 3d 73 7f a4 bd 4e 7e 77 bb a3 d7 73 bd
       0.054978818 -0.080321215 -0.0037764492 -0.05953182
000140 6c 7e 5f 3d c1 70 b3 bd 2c 42 f4 bc 67 05 08 bd
       0.054563925 -0.087617405 -0.02981671 -0.033208277
000150 32 a7 8f bd cc c6 ca bd 18 1b d4 bb 41 de 27 bd
       -0.07014312 -0.09901199 -0.0064729564 -0.040983442
000160 cf 2e 20 3d 7b 26 ee 3b 31 b3 a2 3d 32 1e 10 3e
       0.03910714 0.007267771 0.07944334 0.14074019
000170 b5 dd 3a bd db 74 11 3d fc d9 12 be a8 c4 7e bd
       -0.045621593 0.035511833 -0.14340967 -0.062199265
000180 b5 55 0f 3e 26 72 08 3e a1 7f 5f 3d 46 ba c9 3d
       0.13997538 0.13324794 0.054565076 0.09849982
000190 ff f7 c7 bd ea 88 a2 3d 83 a3 be 3c 01 0e de bd
       -0.097640984 0.079362705 0.023271328 -0.10842515
0001a0 4f 3d 83 bd 17 5b 01 bc 2d 41 fb bc 0b 88 8a bd
       -0.06408178 -0.007895253 -0.030670727 -0.067642294
0001b0 b6 06 43 3d 96 eb b4 3d 1e 67 0b be f7 4a 03 3c
       0.047613822 0.08833997 -0.13613555 0.0080134785
0001c0 59 c9 2a 3d c9 49 9e bd d4 c5 8c 3d b2 27 dd bb
       0.041695926 -0.07728917 0.0687367 -0.006749117
0001d0 0d 5a 01 be 38 58 fc 3d f1 be 9c bd fb 35 99 bd
       -0.12632008 0.12321514 -0.07653607 -0.07480999
0001e0 32 35 67 3b 8a 88 26 3d 79 da e5 3c 0b 7a cd 3d
       0.003527951 0.040657558 0.028058277 0.100330435
0001f0 4b 7e b9 3d 7d 21 81 3d c9 4d dd 3d 52 16 b3 3d
       0.090572916 0.063052155 0.10805852 0.08744492
000200 dc 10 b6 bd 00 af d9 bd 99 20 23 3d 8d 88 8b bd
       -0.088899344 -0.10629082 0.03982601 -0.06813154
000210 f9 d9 e7 3d e2 ee 11 3d 33 4c 58 bd e8 15 ca bc
       0.11320872 0.035628207 -0.052807044 -0.024668649
000220 f4 07 21 3c 25 25 07 bd 8e 02 8d 3d 6b 6c 5b 3d
       0.009828556 -0.03299441 0.06885253 0.053570192
000230 9e 3c d5 bd 78 ff 0a 3c 5f fc 86 bd 29 87 7e bd
       -0.104119524 0.00848376 -0.06591105 -0.062140618
000240 cb 0c 16 3d ac 4a 1e bd fa d1 6d bc 52 8f 90 3d
       0.036633294 -0.03864543 -0.014515394 0.07058586
000250 cb f4 b3 3d 20 77 59 bd 95 ee d2 3c aa 6c 6d bd
       0.08786925 -0.053092122 0.02574853 -0.05796496
000260 ce eb 08 be 80 0d 2e bd 2b fa e1 bd b5 13 97 3c
       -0.13371202 -0.042493343 -0.11034044 0.018442014
000270 f5 eb 8b bd 90 aa ab 3d 78 ee f5 3d d9 86 a3 bd
       -0.068321146 0.083821416 0.12008375 -0.079847045
000280 fd 34 e4 bd 84 47 0c 3d 74 f0 a9 3a d4 a3 56 3c
       -0.11142919 0.03424789 0.0012965337 0.013100583
000290 1e 7f c0 bd a1 7c b3 3d 81 29 2a bd f9 54 1b bc
       -0.09399246 0.087640055 -0.041543487 -0.009480708
0002a0 2c 44 34 bc 8e 2b b6 3d 21 f1 b6 3d 70 b5 ec 3c
       -0.011002582 0.08895026 0.089327104 0.02889511
0002b0 86 ab c3 bc 63 dc 10 be 44 f8 bc 3d d3 5f 93 bd
       -0.0238855 -0.14146571 0.092270404 -0.071960114
0002c0 0f 7e 8d 3d 43 ae d1 bd 22 b1 b4 3d 15 3d bf bc
       0.069088094 -0.10238316 0.08822848 -0.023344556
0002d0 7b 1c c9 3a d0 b5 c5 3c ac 3c 1b 3c 8c 39 96 bd
       0.0015343571 0.024134547 0.0094749145 -0.07335195
0002e0 ae 03 86 bc d5 7f f4 3d 3f 34 b2 3d 28 d6 a4 3d
       -0.016359176 0.119384445 0.087013714 0.080486596
0002f0 48 ed f9 3d 7a 60 8a 3d 63 d8 92 3d 58 fc d2 3d
       0.12203461 0.06756683 0.07170179 0.10302037
000300 af 8d 7c 3d 3d df be 3b 60 54 f3 bd 1a 1d df bd
       0.061658558 0.005824952 -0.11881328 -0.108942226
000310 96 06 5f bd cd f1 b3 3d 70 d8 67 bd 7e 46 95 bd
       -0.05444964 0.08786354 -0.056602895 -0.07288836
000320 3d 1f d6 3d a3 f8 d7 3c 4f b2 91 3d 00 1e e3 bd
       0.10455177 0.026363676 0.07114088 -0.110897064
000330 57 f4 0b be cf b8 77 3d 98 8c 96 3d 09 ac 08 be
       -0.13667427 0.06047898 0.07351035 -0.13346876
000340 8b 3a 92 3d 8d 33 28 3d 14 53 d7 bd 6c 25 ae bd
       0.071400724 0.041064788 -0.10513893 -0.085032314
000350 2c 5d a2 3d 00 45 ce 3d 23 ec 64 bd 61 7b e3 bd
       0.079279274 0.100717545 -0.05588926 -0.11107517
000360 4c f2 ef bc ac ce ff bc 41 6a 23 be 61 e1 0c 3e
       -0.02929034 -0.031226479 -0.15958501 0.1375785
000370 d9 98 dd bd 2f 6e 6b bd a6 5a 9a 3d 95 7d c7 3d
       -0.10820169 -0.057478126 0.07536821 0.0974075
000380 a6 e6 d0 3d d6 e6 6c 3d 85 61 d2 bd 1d 9f 4e 3d
       0.10200243 0.05783733 -0.102725066 0.05044471
000390 dd ee c7 bb 5f 93 cf 3c 6a be f1 bd 9d 87 be 3b
       -0.006101473 0.025338827 -0.11803897 0.005814506
0003a0 68 70 c3 bd 9b 4a 0f 3e 97 c4 6d bd 5b ee 11 3d
       -0.09542924 0.13993303 -0.05804881 0.035627704
0003b0 b8 ea 54 bd 37 60 2d bd c8 46 1c 3d d1 24 40 3d
       -0.051981658 -0.042328086 0.03815344 0.04691011
0003c0 66 58 86 3d 7c 0c 85 bd c1 ed 13 bd 35 69 14 3e
       0.065598294 -0.06496522 -0.03611541 0.14493258
0003d0 ec ab 2f be 9f 79 67 3c a6 bf 35 be 01 02 7e 3d
       -0.17155427 0.014128118 -0.1774889 0.06201363
0003e0 22 0f d6 3c e0 10 cf 3d 1f 0d b0 bc 00 03 c6 3d
       0.026130263 0.101106405 -0.021490632 0.09668541
0003f0 9b ff 36 bd 2e cd 16 3e 86 ee 16 bb f6 7a 15 3c
       -0.044677358 0.14726707 -0.0023030355 0.009123554

bias_ih f4 [240]
000000 53 71 e9 3d 8c 6b 7b bc a6 16 3a 3d 60 d1 0d 3e
       0.11398568 -0.015345465 0.045431755 0.13849401
000010 c7 aa 14 3d e5 fd c5 bd d9 48 ab 3d 3f 42 2e 3d
       0.03629568 -0.09667567 0.08363504 0.042543646
000020 d4 5e 20 bd 7e 1a 1c bd 0e 26 13 3e eb 10 70 3d
       -0.039152935 -0.038111202 0.14369985 0.058609884
000030 d5 9c 19 3d d0 3b 98 bd b2 0c e9 3d 20 72 1b bc
       0.037503082 -0.07433283 0.113793746 -0.009487659
000040 a5 b9 a4 bd ce 03 64 bc 9f 53 3b 3c 5f ad e6 bd
       -0.080432214 -0.013916923 0.011433511 -0.11263537
000050 98 21 a6 3c 6a 61 8d bd 21 ed f9 3d dd f5 46 3d
       0.02027969 -0.06903346 0.12203432 0.048574317
000060 91 3d 87 3d cb 0f 02 bd a1 47 cd 3d 2c 54 a6 3d
       0.0660354 -0.031753343 0.10023428 0.08121523
000070 62 ce 8e bd f0 a8 d4 3d bf 2c 09 3d cd ec 28 3e
       -0.06972958 0.10383785 0.03348994 0.16496582
000080 1b 59 b9 3d 14 9d ae 3c 6b a6 a0 bd 71 81 e8 bd
       0.09050199 0.021315135 -0.07844242 -0.11352814
000090 0f 0e 23 bd 7d 8d 2a bd b3 65 6d 3b 95 f4 15 3e
       -0.03980833 -0.04163884 0.0036223948 0.14644082
0000a0 dc af a4 3d 6b 9d 03 be 95 37 13 3e 75 ca b5 bd
       0.08041355 -0.12853019 0.14376672 -0.08876506
0000b0 6c 03 f4 3d 09 fd fa 3d ff 4a 10 3e 91 3c 02 3e
       0.11914715 0.12255294 0.14091109 0.12718417
0000c0 1a 15 d8 bd ba d3 78 3c f4 24 a9 bc fa 4c 08 be
       -0.105509 0.015187198 -0.020647503 -0.13310614
0000d0 79 78 f2 bd ff 3e dd bc 3c 69 94 3d bc be d7 bc
       -0.118393846 -0.027007578 0.07246634 -0.026336066
0000e0 2f 63 b5 3d 72 e4 0e 3d e7 95 2e 3d 3c 31 74 3c
       0.088568084 0.03488583 0.042623427 0.0149043165
0000f0 74 ff 13 bd 13 9c ab bd b7 ef f2 3c 6f 03 3c bd
       -0.03613229 -0.08379378 0.02965532 -0.045901712
000100 85 e8 00 bd 46 c4 01 3e 17 cc 29 3e 6f 01 bc 3c
       -0.031471748 0.12672529 0.1658176 0.022949902
000110 68 f6 8d 3d da 37 b6 bc 73 b7 a2 bd 92 aa c5 3d
       0.06931764 -0.022243429 -0.079451464 0.09651674
000120 95 8c d4 3a 07 b4 7f 3b 43 38 a8 bd 9d ab b0 bd
       0.0016216213 0.0039017217 -0.08213856 -0.08626483
000130 c0 25 99 3d 22 72 2c bc 1e 10 40 3d a0 04 c5 bd
       0.07477903 -0.010525258 0.04689037 -0.09620023
000140 d5 31 4f 3d b2 6e 55 bd 7e 16 26 3d 65 c6 bb 3d
       0.050584633 -0.05210752 0.040548794 0.091687
000150 7c bb 03 3e dc 99 cc bb 12 99 37 bd a3 fb 79 bc
       0.12864488 -0.0062439274 -0.044823714 -0.015257749
000160 65 b0 da bd e0 e0 d3 bd 12 e1 b9 bd a3 ab c2 3d
       -0.10678176 -0.10345626 -0.09076132 0.09505393
000170 cf a6 34 3c 00 65 04 3e 54 fb 26 bd 17 d9 b8 bd
       0.011026098 0.12929153 -0.04076703 -0.090257816
000180 8a 33 2a bd c0 78 10 3e c4 69 0f 3e d7 71 18 3e
       -0.041553058 0.14108562 0.1400519 0.14887176
000190 5d cd 89 bc 62 9d 1a 3c ed 2e a8 3d 67 7a a2 3c
       -0.016821558 0.009436937 0.082120754 0.019833757
0001a0 0c 19 bc 3d d7 3b 06 3c 01 bf f7 3d b8 af 27 3e
       0.09184465 0.008192978 0.12096978 0.16375625
0001b0 b4 bc 12 3d 1c 1d 8e bc 88 af 47 3d 94 8d 06 be
       0.035824493 -0.017347865 0.048751384 -0.13139945
0001c0 e8 f6 74 3d 1f ba d9 bd 70 11 76 3d ed 55 7a 3d
       0.05980578 -0.10631203 0.060075223 0.0611171
0001d0 11 59 4e bb 9b ef 60 3d 11 7a 8e 3d 6f 21 af bd
       -0.0031486193 0.054916006 0.06956876 -0.08551299
0001e0 62 2c 48 bc 8a a8 bf 3d c1 96 9d 3d 22 db d6 bd
       -0.012217613 0.09358318 0.0769477 -0.10491015
0001f0 52 d7 d7 3d b1 0d fa bc 16 7f 72 bc 2f 06 92 3d
       0.10539116 -0.030524107 -0.014800807 0.07130086
000200 cb 39 c0 bd 07 8e 0c 3e 33 58 21 3e 37 90 55 bd
       -0.09386023 0.13726054 0.15756302 -0.052139487
000210 06 4e 07 be 91 d7 de bd e0 1b d4 3d a3 1b 15 3e
       -0.13213357 -0.1088096 0.10356879 0.14561324
000220 20 90 cd 3d 00 b3 92 bc 88 c7 b1 3c 5d 0a 4d bd
       0.10037255 -0.01790762 0.02170159 -0.05005871
000230 01 1f a6 bd 01 e5 b8 bd 40 fc b0 bd bd dd 6a bd
       -0.08111382 -0.09028054 -0.08641863 -0.057340372
000240 26 61 78 3c 63 d7 15 3e d7 42 1d bc ab 13 dc 3d
       0.015159881 0.14632945 -0.009598455 0.10745939
000250 3f 33 5e bd 05 d3 0c 3d 8c bd 06 be ac 92 8c bd
       -0.05424809 0.03438093 -0.13158244 -0.06863913
000260 ec 7b 5c bd f2 17 e3 bd ed 15 6e 3d 80 2e 02 3d
       -0.05382912 -0.110885516 0.05812638 0.031782627
000270 b3 09 1b be c3 a5 22 bc 4c 1a 84 3d ff d3 12 3d
       -0.15140419 -0.009927216 0.06450328 0.035846706
000280 80 d1 33 3d 5a 6e 53 3c 2c c5 8e bd 91 f5 cd 3d
       0.043900967 0.012904728 -0.06971201 0.10056604
000290 54 96 e1 3d bf 8d 69 3c 0c 64 a7 3d 10 5d f7 3b
       0.11015001 0.014254986 0.08173379 0.0075489357
0002a0 93 f5 04 be 86 50 0a bc e3 ce a8 3d 58 10 e1 bd
       -0.12984304 -0.00844205 0.082425855 -0.109894454
0002b0 49 d1 a2 3d 07 9c 8f bc 44 bd ba bd b0 3b bd 3c
       0.07950074 -0.017530454 -0.09118131 0.02309975
0002c0 da ca c3 3d e7 25 0d be f8 09 2b 3c 75 54 8b 3c
       0.09560175 -0.1378399 0.010439388 0.017008046
0002d0 82 2b b5 ba 37 1a b1 3d 58 1a dd bd 3b 36 b9 bd
       -0.001382217 0.08647578 -0.1079604 -0.09043547
0002e0 11 ec 2e 3e c1 48 f0 bd 40 77 e5 bb 3a c3 79 3d
       0.1708224 -0.11732627 -0.007002741 0.0609772
0002f0 86 57 db 3d c5 10 e0 3c 41 d8 2f bd 41 5d d6 bd
       0.10710053 0.027351746 -0.042930845 -0.104670055
000300 0b d4 10 bc 24 cb 4e bd 0a 93 96 3c e3 ab fe 3d
       -0.0088396175 -0.0504867 0.01838066 0.124351285
000310 b4 55 c9 bd f7 3a ee bb 92 8c 91 bd a4 bc f7 3d
       -0.098308 -0.0072702128 -0.0710689 0.12096527
000320 49 77 9c 3d 01 dc 74 3c 3a 83 bc 3d 58 ed b3 bd
       0.07639939 0.014945031 0.09204717 -0.08785504
000330 a2 ee 48 bd eb 3a 5f 3d 27 c7 01 3e 44 5d 6c bc
       -0.049055703 0.054499548 0.12673627 -0.014426533
000340 29 3e 76 3d 42 d4 4f bb 30 bf 5b bd c4 27 b5 bb
       0.060117874 -0.003171221 -0.053649127 -0.005528422
000350 4d 21 28 3c 73 9a 66 3d 66 ad 4c bd 49 9d 04 3d
       0.010261846 0.056299638 -0.049970053 0.03237656
000360 24 ac a8 3c 72 ea 19 bd e9 b1 ff 3d 64 02 e7 bc
       0.020589896 -0.0375771 0.124851055 -0.028199382
000370 16 a9 ec bd 56 81 07 be f5 45 13 3e df c7 30 bc
       -0.11555688 -0.13232931 0.14382155 -0.0107898405
000380 18 b4 3b bc 0f 05 ea bb de ad 88 bc 1c bf 25 3d
       -0.011456512 -0.0071417163 -0.016684469 0.04046546
000390 b6 ab 01 3d bb 86 89 3d f5 cc 22 3e 64 b2 96 bd
       0.031657897 0.06715151 0.15898497 -0.07358244
0003a0 88 88 67 bc 36 78 95 bc 76 f7 38 ba d5 ad 9a bc
       -0.014131673 -0.018245798 -0.00070559175 -0.018881718
0003b0 63 b4 09 3e bb d4 a1 bc 21 c8 30 b9 e6 d2 94 bc
       0.13447718 -0.019754758 -0.00016859222 -0.01816697

bias_hh f4 [240]
000000 a9 ce 0c 3e dc 8d 5f bd 74 0e df 3c 5c e1 e6 3d
       0.1375071 -0.054578647 0.027228571 0.11273453
000010 49 ec 07 bb b6 2e 1e bd 34 7c ac bc 52 88 9f 3d
       -0.0020740202 -0.038618766 -0.021055318 0.07789673
000020 cb 2b 96 3d d7 16 0f 3e 61 c0 f0 bc 18 47 fe bb
       0.073325716 0.13973556 -0.029388608 -0.00775994
000030 b9 5d 81 3c 40 d1 7b bb 1e 52 a4 3c 20 f4 5f bb
       0.01579176 -0.0038424283 0.020058688 -0.003417261
000040 fa 15 1c 3d 63 ba b4 bd c9 52 8a 3d 13 ab e5 3c
       0.038106896 -0.08824613 0.06754071 0.028035676
000050 1f 5c 4c 3b a6 53 a7 bd 10 19 78 3d 26 aa b2 3d
       0.0031182838 -0.081702515 0.060570776 0.087238595
000060 c0 3e f9 3d 40 4e 5b bc be 41 ee 3d d1 4a 4d bd
       0.12170172 -0.0133853555 0.11633633 -0.05012018
000070 a6 2a 53 3c 9e 6b 92 bd 3f ff cb 3c 17 b5 2b 3e
       0.012888586 -0.071494326 0.024901984 0.16768299
000080 03 ff 98 bd 35 8e ba 3a da f3 12 3e f5 7d 1b bc
       -0.074705146 0.0014233055 0.14350834 -0.00949048
000090 c4 b2 38 bd 1a f1 f5 3d 8c b8 64 bd f9 cb 82 bd
       -0.04509236 0.12008877 -0.05584006 -0.06386561
0000a0 c0 9e d8 bc 20 27 19 3d b3 1e b1 3d 9a dc 1d bd
       -0.026442885 0.037390828 0.086484335 -0.03854046
0000b0 f7 b1 29 3d 38 ca 01 3e 7a 88 f2 3d b0 82 30 bd
       0.041429486 0.12674797 0.11842437 -0.043093383
0000c0 b3 8f 91 3c 50 29 a4 bd 6e 5f 4a bd cf 21 30 3d
       0.017768716 -0.08015692 -0.049407415 0.043000992
0000d0 bb e0 e3 3d 8b bf d2 3c e8 a6 f4 3d 34 51 e0 bd
       0.11126848 0.0257261 0.11945897 -0.10952988
0000e0 80 df 6b 3c 46 b4 30 3d d8 22 87 3d 5b 11 89 3b
       0.014396548 0.043140672 0.06598443 0.004182977
0000f0 67 5c 06 3e 05 8a 03 3e 93 4f a1 bd f9 8b 06 3e
       0.13121186 0.12845619 -0.07876506 0.13139333
000100 92 ac 96 bd 9d 7a 12 3d 04 ac f5 3d 31 8d 0a 3e
       -0.07357134 0.035761464 0.119957 0.13530423
000110 e2 23 71 3d 36 3d 08 bd 59 ef 68 bc e8 1b 70 bd
       0.05887211 -0.0332615 -0.014217221 -0.058620363
000120 21 3b 1a 3d af 22 11 3e 46 68 0b 3d 4d 5d 16 3d
       0.037654046 0.14173387 0.03403499 0.036710072
000130 44 ff 88 3d c4 18 b5 3d 4f dc 45 bd bf 87 ad bd
       0.06689313 0.08842614 -0.048305806 -0.08473157
000140 bf 5c ab bc 0c 2a 02 3c 30 81 34 3d af 02 da bc
       -0.020918248 0.007944595 0.044068515 -0.026612608
000150 b1 5b 7f bd be 94 b9 bc fa f3 ba 3d db 34 be 3d
       -0.062343303 -0.022653934 0.09128566 0.09287425
000160 e8 ab f0 3c ad e4 27 bd f3 1b 15 3d 22 8a 82 bd
       0.029378846 -0.040989567 0.036403608 -0.06374003
000170 e0 be a1 3d 02 c5 11 3e c8 d5 b0 3d 2e cc df bd
       0.07897735 0.14235309 0.086345255 -0.10927616
000180 51 e1 13 3e 3d 36 bc 3d ee b5 48 3b e9 e1 91 bd
       0.1444142 0.09190033 0.0030626017 -0.07123167
000190 5d dd e4 3d 66 09 b7 bd db 00 fc 3d 40 a2 0d 3e
       0.11175034 -0.089373395 0.12304851 0.13831425
0001a0 69 ee d8 3d 2a 21 c6 bd 5f 5e 02 3e 82 55 f0 3d
       0.10592348 -0.09674294 0.12731312 0.11735059
0001b0 2c d9 d9 3d 70 b7 52 3d 12 21 cc 3d d4 82 41 bd
       0.106371254 0.05144447 0.09967245 -0.047243908
0001c0 a6 f3 7c bd 98 59 9a 3c bc c7 92 3c d9 14 3e 3d
       -0.0617558 0.01884155 0.017917506 0.0464066
0001d0 97 bd 2b 3c e5 df d8 3d 53 1b 9f 3d 28 f9 d9 bd
       0.010482213 0.105895795 0.077688836 -0.10643226
0001e0 49 ac 21 be 8f b1 1a 3d 15 2d 69 bd 29 7a 83 3d
       -0.15788378 0.03776699 -0.05692776 0.064197846
0001f0 fe 96 a3 bd d8 5d 9e bc 88 21 61 3d bd 2c 0f be
       -0.07987784 -0.019331858 0.05496362 -0.1398191
000200 b9 01 b3 3d a6 45 04 3e 9a de e5 bc 5e c3 92 3d
       0.08740563 0.12917194 -0.028060246 0.071661696
000210 dc 74 d1 bd e9 69 15 bd 46 ce c8 3d e2 39 0d 3e
       -0.10227367 -0.036477957 0.098049685 0.13791612
000220 a3 e7 01 3c 67 47 09 be 2f e9 14 3e a7 af 5b bd
       0.007928762 -0.13406144 0.14542077 -0.053634312
000230 93 da a1 3d b3 29 9d 3d 8e b5 b1 3d c9 32 98 3d
       0.07903018 0.07673969 0.08677207 0.074315615
000240 85 d9 ce 3d ba 10 3a 3d ff 42 80 3d 06 05 4a 3d
       0.10100082 0.045426108 0.062627785 0.049321197
000250 10 3e 9d bd 3a 50 b5 3d 90 c9 cc bd 27 eb 44 bd
       -0.07677853 0.088531926 -0.099993825 -0.04807582
000260 06 ac 38 3c fc 3a 07 bd 55 cf bf 3d 7b 69 56 bd
       0.011271482 -0.033015236 0.09365717 -0.052346688
000270 66 ec 0d bc 38 39 2e be 13 01 9c bd c1 f9 ce bd
       -0.008662319 -0.17014015 -0.076173924 -0.101062305
000280 c5 73 c3 bd e6 8f 4d 3c 37 39 54 3d 19 16 07 3e
       -0.09543566 0.012546515 0.051812377 0.13192023
000290 2a 37 f0 3c 70 07 15 bd 74 b4 5c bc e9 f0 ea bd
       0.02932318 -0.036384046 -0.013470758 -0.11471731
0002a0 e7 51 40 bd 0d 8a 49 bd 4e 97 31 3c bd 3f a2 3d
       -0.04695311 -0.04920392 0.0108392965 0.07922313
0002b0 1a 05 9d bc eb 41 fa bd b3 5e b0 bd 33 9e b9 3d
       -0.019167472 -0.12219604 -0.086118124 0.09063377
0002c0 6f 28 ae 3d 02 42 68 bd 5c bd 69 3d f9 f3 a9 3c
       0.08503806 -0.056703575 0.057065353 0.020746218
0002d0 df 91 5f bd b8 f7 14 3d 6b 76 05 be 88 6a f4 3c
       -0.054582473 0.036369056 -0.13033454 0.029835954
0002e0 e1 ce a2 3c 23 3a 45 ba 50 8a fb 3c b7 c8 aa bd
       0.019874038 -0.00075236167 0.030705601 -0.083390646
0002f0 2c a1 bb 3d f3 69 c6 bc bb 01 b4 bd 68 82 0a bd
       0.091616005 -0.024220442 -0.087893926 -0.03381577
000300 64 0c 04 3e 14 54 15 bd 0a b4 09 3e e1 95 d9 3d
       0.12895352 -0.036457136 0.13447586 0.1062429
000310 ad 07 60 3d 2a 3d e9 3c dc c5 a3 bd 4e c4 8c bd
       0.05469482 0.028471548 -0.07996723 -0.0687338
000320 cb ee ba bd 61 bb 94 bd a9 2a 2c bd b8 84 b0 bd
       -0.091275774 -0.07262302 -0.04203287 -0.08619064
000330 87 97 d6 bd 2a b5 14 3e 82 c7 04 3e d8 46 cc bd
       -0.1047812 0.14522234 0.12966731 -0.0997445
000340 51 44 8d bd 87 8d 9c 3c bb 80 35 bd 6d cb dd 3d
       -0.06897796 0.019110454 -0.04431222 0.10829816
000350 6a 3d 90 3d b9 32 a8 bd f3 f6 71 bd 27 69 7d 3d
       0.07042964 -0.082127996 -0.0590734 0.06186786
000360 af 1a 4f 3b b7 8e 25 3d 2d 3a c0 3d 5b 04 10 3e
       0.0031601598 0.040419307 0.09386096 0.14064161
000370 db af bb bc 20 aa 93 3d e3 cc dc 3d 35 93 02 bd
       -0.022911003 0.07210183 0.107812665 -0.03187867
000380 a6 30 b4 3d dc 4f 1a 3d ff 90 ee 3a 54 b4 89 3d
       0.087983415 0.037673816 0.0018201171 0.06723848
000390 fc 00 a6 bd 86 ed 8f 3c 68 d7 f6 3d 77 e5 84 3b
       -0.081056565 0.017569315 0.12052804 0.0040556747
0003a0 c7 a0 c7 bd 1c a5 d4 3d 83 88 bb 3d de fa f6 bd
       -0.09747463 0.103830546 0.09156897 -0.12059568
0003b0 59 ee 07 3e 6c 98 5e bd d1 ec d4 bc 5a 23 0c bd
       0.13274516 -0.05434458 -0.02599183 -0.0342134

weight f4 [3, 12]
000000 af 9a 88 3c 4f 7f 7b be f2 54 b0 3d ad 9c 73 be
       0.016675321 -0.24560283 0.08609952 -0.23790236
000010 1b 06 30 be 3f 16 90 bd 3a dd 5b be f6 cc fe 3d
       -0.17189829 -0.07035493 -0.2147111 0.12441437
000020 6a cf 84 be 82 fd 8c 3e c2 d9 a6 3c c2 5b df bc
       -0.25939494 0.2753716 0.020367507 -0.027265433
000030 8f 23 b0 bd c1 33 0f be f7 b4 04 3e 69 de 15 be
       -0.08600532 -0.13984586 0.12959658 -0.14635624
000040 ac 58 31 bd cf c4 48 3e eb 30 f7 bd c6 81 a5 3e
       -0.043297455 0.19606327 -0.12069877 0.32325572
000050 27 93 96 ba 0d 86 87 3d 56 f0 5d be a1 f1 f3 3d
       -0.0011487947 0.06617365 -0.21673712 0.119113214
000060 d7 4f 80 3c b7 10 43 3d 9e 36 39 3e fa 6c 9a 3d
       0.01566307 0.047623362 0.18087241 0.07540317
000070 ad 4e 1f 3d 00 21 8d be 6a 9c 8d 3d 68 54 e5 bd
       0.03889339 -0.2756424 0.06914599 -0.1119774
000080 73 b0 92 be 79 ff f1 3d 5b 93 68 3e c9 74 45 3e
       -0.28650245 0.11816306 0.22712462 0.19282831

bias f4 [3]
000000 e0 30 44 3e a9 a5 9c 3d d3 f1 2a bb
       0.1915927 0.07648785 -0.002608408
